src/main/python/saved_models/java_1_37_RNNClassifier1_128embs_109id_32hd_1hl_Truebid_2.pt (torch, 101407 bytes, 11 tensors)

word_embeddings.weight f4 [109, 128]
0	0x3d8eac9d	0.06966517
1	0x3fe058b3	1.7527069
2	0xc03036b8	-2.7533398
3	0x3f193cd0	0.5985842
4	0x3f98ba8e	1.1931932
5	0xbf8d9103	-1.1059879
6	0xc00686f6	-2.1019874
7	0xbf118589	-0.56844383
8	0xc0509e5f	-3.2596662
9	0xbdceac89	-0.10091502
10	0xbdb2ab05	-0.08724026
11	0xbeecfd42	-0.4628697
12	0xbffe2232	-1.9854186
13	0x3f65d28a	0.8977438
14	0x3fb0087a	1.3752587
15	0x3ea8fbe6	0.33004683
16	0xbdba2217	-0.09088533
17	0xbf882cf9	-1.0638725
18	0xbe6396bf	-0.22225474
19	0xbe0623cc	-0.13099593
20	0x3f88fb52	1.0701697
21	0x3f81ca8c	1.0139937
22	0xbedccb40	-0.43123817
23	0x3f25cee9	0.64768845
24	0x4001cbaa	2.0280557
25	0x3e5ebd38	0.21751869
26	0xbdad12fd	-0.08450887
27	0x3f0b5694	0.5442898
28	0x3f27a097	0.65479416
29	0xbfc190ea	-1.5122349
30	0x3f420012	0.7578136
31	0x3ead4a38	0.33845687
32	0xbf5ea90f	-0.8697671
33	0x3f4cd947	0.8001904
34	0x3f17635a	0.59135973
35	0x3f828229	1.0195972
36	0xbfb2b35e	-1.3960989
37	0xbf560e8f	-0.83615965
38	0xbf558e58	-0.83420324
39	0xbed64cf6	-0.41855592
40	0xbfee7058	-1.8628035
41	0xbe02a267	-0.12757264
42	0x3fb0a007	1.3798836
43	0xbf567d50	-0.8378496
44	0x3f8466b3	1.0343841
45	0xc0187edb	-2.3827426
46	0x3fb2483b	1.3928293
47	0x3f7f7222	0.9978353
48	0xc02ecd5b	-2.731284
49	0xbf2a6876	-0.66565645
50	0xbedb8e43	-0.42881975
51	0x3ee70cd0	0.45126963
52	0x40101892	2.2514997
53	0x3f3b86fd	0.7325285
54	0xbf0928be	-0.5357779
55	0x3f34207b	0.7036206
56	0x3d9bfebe	0.076169476
57	0x3f44f619	0.76938015
58	0xbf987719	-1.1911346
59	0x3e9cbb5c	0.30611694
60	0xbe8a07a2	-0.26958948
61	0x3f06c2d4	0.52641034
62	0xbf06e9d6	-0.52700555
63	0xbf4afa2d	-0.7928799
64	0xbf51894b	-0.8185012
65	0x3eaaf4c0	0.33389854
66	0xbf7f8351	-0.9980975
67	0xbd75f588	-0.06004861
68	0x3fc75edc	1.5575824
69	0xbf0c41d5	-0.5478795
70	0x3e4e20f8	0.20129764
71	0x3f6da4d0	0.9282961
72	0x3dceb9cd	0.100940324
73	0xbffde379	-1.9835044
74	0x3df07924	0.11741856
75	0xbe4566b1	-0.19277455
76	0xbf67a11c	-0.9048021
77	0x3f8cfb4d	1.1014191
78	0xbfba6b7b	-1.456405
79	0x3d4129fe	0.047159187
80	0x3f721526	0.9456352
81	0xbc5bff2d	-0.013427538
82	0xbb9dd86c	-0.0048170593
83	0xbf71ea30	-0.94497967
84	0xbf838430	-1.0274715
85	0xbea980d4	-0.331061
86	0x3e91a00e	0.28442425
87	0xbf1dee8a	-0.61692107
88	0x3f4abe41	0.79196554
89	0x3f1f107d	0.62134534
90	0x3fa7b744	1.3102803
91	0xbf4470d4	-0.7673466
92	0x3e9432be	0.28944963
93	0xbf5a63de	-0.85308635
94	0x3e93ca9f	0.28865525
95	0x3f92719c	1.1440921
96	0xbfa7398c	-1.3064437
97	0x3ede6fa7	0.4344456
98	0xbdcef411	-0.10105146
99	0xbfcc4b31	-1.5960447
100	0xbf6405b8	-0.89071226
101	0x3f87229c	1.0557437
102	0x3fbd41a0	1.4785652
103	0x400bed5d	2.1863625
104	0x3e96c77d	0.29449072
105	0xbf8bd4e1	-1.092434
106	0x3f8e9d0e	1.1141679
107	0xbebd6fef	-0.3699946
108	0xbfb1bd9c	-1.3885989
109	0xc01a9a48	-2.4156666
110	0x3e85c740	0.26128578
111	0xbf6d16a9	-0.926127
112	0xbe261687	-0.16219531
113	0x3ea6335b	0.32461056
114	0xbed0f6c7	-0.40813276
115	0xbf81f234	-1.015204
116	0xbf7698b5	-0.9632676
117	0x3f92724f	1.1441134
118	0x3f4b708f	0.79468626
119	0xbfe0ec1d	-1.7572056
120	0xbf763746	-0.9617809
121	0xbfa1b6de	-1.2633932
122	0x3ee3593d	0.4440402
123	0x3df09d70	0.11748779
124	0x3f341862	0.70349705
125	0xbf71e579	-0.9449077
126	0xbfafe27c	-1.3740993
127	0xbe2c545f	-0.1682906
128	0x3ce07c9c	0.027403168
129	0xbfd157bd	-1.6354901
130	0xbf3ae421	-0.7300435
131	0xbfe8bdc9	-1.8182918
132	0x3e1062be	0.14100167
133	0xbf82c516	-1.0216396
134	0xbfb507a4	-1.4142957
135	0x3f047ea4	0.5175574
136	0xbf71baec	-0.94425845
137	0xbe93f701	-0.28899387
138	0x3bde4bfd	0.006783961
139	0x3fe27c4e	1.7694185
140	0xbf4913ca	-0.7854582
141	0x3ed43c60	0.41452312
142	0xbf85efa7	-1.0463761
143	0xc028ecb6	-2.6394477
144	0x3e80f8bc	0.2518977
145	0x3e298f8b	0.16558664
146	0x4015e06b	2.3418224
147	0x3f3c5447	0.735661
148	0xbf66c39d	-0.9014223
149	0xbf2b2a67	-0.66861576
150	0xbf1c75db	-0.61117333
151	0x3e4d7729	0.20064987
152	0xbed9e529	-0.42557648
153	0xbedce2fa	-0.4314192
154	0x3e1eae3e	0.15496156
155	0x3ed7e302	0.4216538
156	0x3f2875c2	0.65804684
157	0xbe0818f7	-0.13290773
158	0xbfff473d	-1.9943615
159	0x400bf1c4	2.1866312
160	0xbd22ab7f	-0.039714333
161	0x3ecdd7f4	0.40203822
162	0x3e055aa4	0.13022858
163	0x3fa3c73b	1.2795175
164	0xbef040fe	-0.46924585
165	0x3f89d96e	1.0769479
166	0xbf14ef7e	-0.58177936
167	0x3e659473	0.2241991
168	0xbf57c7c4	-0.84289193
169	0x3d34e68d	0.044165183
170	0xbee23916	-0.44184178
171	0xbfa5e624	-1.2960858
172	0x3fb3915e	1.4028738
173	0x3fcd7495	1.6051203
174	0x3dffec87	0.12496286
175	0xbe8e89d3	-0.27839527
176	0xbe3fd0d3	-0.18732004
177	0x3fa1a754	1.262919
178	0x3fbf14af	1.4928187
179	0xbec108e4	-0.37702096
180	0x3f6a70fb	0.91578645
181	0x3eacff02	0.33788306
182	0x3f32d1b9	0.6985126
183	0xbfefe8b5	-1.8742892
184	0x3f2dbef0	0.6786947
185	0x3d82c169	0.06384546
186	0x3e6f0f0d	0.23345585
187	0x3fe1c875	1.76393
188	0x3fea35f9	1.8297721
189	0xbfa717f1	-1.3054181
190	0x3fe16243	1.7608112
191	0x3e0c1bc7	0.13682471
192	0x3f36070f	0.7110452
193	0xbf65f204	-0.8982241
194	0xbe173673	-0.14766864
195	0x3c960e89	0.018317478
196	0x3f8edebc	1.1161723
197	0xbfa560d0	-1.292017
198	0xbf2a565e	-0.66538036
199	0xbea5f6ce	-0.3241486
200	0x3f2df3a5	0.679499
201	0xbf7428ae	-0.9537457
202	0x3fb50e9a	1.4145081
203	0xbe3933b1	-0.18086125
204	0x3fe00c28	1.750371
205	0xbd6eeb10	-0.05832964
206	0xbe40b0fb	-0.18817513
207	0xbf911061	-1.1333123
208	0xbfb246af	-1.3927821
209	0xbcc6e2ea	-0.024278123
210	0x3f3713dc	0.7151468
211	0xbe334a60	-0.1750884
212	0xbe63e09c	-0.2225365
213	0x3f871b1f	1.0555152
214	0xbfb7b4da	-1.4352067
215	0xbf07aa00	-0.52993774
216	0x40084c57	2.1296594
217	0x3fbd0786	1.4767921
218	0xc00a20a0	-2.1582413
219	0x3e4accdc	0.1980471
220	0xbef70707	-0.4824755
221	0xbf4c7e72	-0.7988044
222	0xbf7db0f1	-0.99098116
223	0x3fcbecb7	1.5931615
224	0x3f4cdf5a	0.8002831
225	0x3f679a9f	0.9047031
226	0x3f92c06a	1.146497
227	0x3e0c16cb	0.1368057
228	0xbf523f2d	-0.8212765
229	0xbf87830b	-1.0586866
230	0x3e836fd7	0.25671265
231	0xbee2d942	-0.4430638
232	0x3f65d680	0.89780426
233	0xc009545e	-2.1457744
234	0x3f704183	0.9384996
235	0x3fa3dbcb	1.280145
236	0xbfd61924	-1.6726422
237	0xbed11746	-0.4083807
238	0x3f9ad780	1.2097015
239	0xbff351f7	-1.9009389
240	0xbfcf9a9d	-1.6219059
241	0xbf58dde7	-0.84713596
242	0xbeda4387	-0.42629644
243	0xbf15df42	-0.5854379
244	0xbee83f69	-0.45360878
245	0x3d2d3451	0.04228622
246	0x3f3a5e9a	0.728006
247	0x3ed7d7c1	0.42156795
248	0x3fa1bc65	1.2635618
249	0x3f5a9675	0.8538583
250	0x401c105e	2.438499
251	0x3f32455b	0.6963708
252	0xbf041fab	-0.5161082
253	0x3e5f00e1	0.21777679
254	0x400129b1	2.0181696
255	0x3fbcce15	1.4750391

rnn.weight_ih_l0 f4 [32, 128]
0	0x3e0a0a3c	0.13480467
1	0x3e51c4cd	0.2048523
2	0x3eaac4a5	0.33353153
3	0xbe30d12e	-0.17267296
4	0x3d0a7b4f	0.033809002
5	0x3db333af	0.08750092
6	0xbe25c772	-0.16189364
7	0xbce17974	-0.027523734
8	0x3e0d0c3a	0.13774195
9	0x3e68ff69	0.22753681
10	0xbe8791f7	-0.2647855
11	0x3dc3137c	0.09525201
12	0xbd7e65dc	-0.06210886
13	0x3e38db80	0.18052483
14	0xbe431f05	-0.19054802
15	0xbe026a1d	-0.12735792
16	0xbd99326d	-0.07480321
17	0xbd885ba2	-0.066581026
18	0xbd92c9dd	-0.071674086
19	0x3e732e80	0.23748207
20	0xbea332be	-0.3187465
21	0x3ccf6692	0.025317464
22	0x3d2e2faa	0.042525925
23	0xbdb122a1	-0.08649183
24	0xbda04acd	-0.07826767
25	0xbd87885c	-0.06617805
26	0xbe1a78a0	-0.15085077
27	0xbe295ed4	-0.1654008
28	0xbe07ea97	-0.13273083
29	0x3d27735f	0.04088151
30	0x3d96a773	0.07356157
31	0xbe024c1f	-0.1272435
32	0x3df88752	0.12135185
33	0xbe3ccb8a	-0.18437019
34	0xbe17abaf	-0.14811586
35	0x3d3d1dcb	0.04617099
36	0xbd199d62	-0.037503608
37	0x3d888168	0.06665307
38	0xbdeb4b0f	-0.11488926
39	0x3e207ac9	0.15671839
40	0xbd83a5ac	-0.06428084
41	0xbc905ec1	-0.017623307
42	0x3bbbbf67	0.005729604
43	0xbdddba23	-0.108265184
44	0xbdb43249	-0.08798654
45	0x3dac0b9a	0.0840065
46	0x3e372d28	0.1788832
47	0xbd950ab7	-0.07277434
48	0x3e2e9110	0.17047524
49	0xbec0182d	-0.37518445
50	0xbcc489e2	-0.023991529
51	0xbe3edb92	-0.18638447
52	0xbe1108de	-0.14163539
53	0x3e1be46f	0.15223859
54	0x3d280f1d	0.04103004
55	0x3d307f29	0.04309002
56	0xbe80cd19	-0.25156477
57	0x3e282e5c	0.16423935
58	0x3e4514f3	0.19246273
59	0xbebcac68	-0.36850286
60	0x3e7b21f1	0.24524666
61	0xbe15c364	-0.14625317
62	0x3dfc12e7	0.12308293
63	0x3df26eda	0.118375495
64	0x3d36eff3	0.044662427
65	0xbe1be76b	-0.15224998
66	0xbd8759f6	-0.066089556
67	0xbddecd9f	-0.10879063
68	0xbe17ca33	-0.14823227
69	0x3e64592d	0.22299643
70	0xbe08a07e	-0.13342473
71	0x3da20c43	0.07912495
72	0xbd78751e	-0.060658567
73	0xbeadd6fd	-0.33953086
74	0xbc81843e	-0.015810128
75	0xbd4b9238	-0.049699992
76	0xbe48b6cd	-0.19600983
77	0x3e3dfa35	0.18552478
78	0x3e303390	0.1720717
79	0xbe7e5a66	-0.24839172
80	0xbe56f63c	-0.20992368
81	0x3c86d79e	0.016460236
82	0xbe05967a	-0.13045684
83	0x3dfe9e2c	0.12432513
84	0x3e1b16e5	0.15145452
85	0xbc2038b3	-0.009779143
86	0xba7dd7e6	-0.00096833555
87	0x3bee5717	0.0072735655
88	0x3e2d09d3	0.16898279
89	0x3e844f48	0.25841737
90	0x3e2612e1	0.16218139
91	0xbcc98bab	-0.024602732
92	0xbe026e09	-0.12737288
93	0x3dfb854b	0.12281283
94	0x3ce55a62	0.0279972
95	0xbc8a09ad	-0.016850317
96	0xbe2abd76	-0.16673836
97	0x3cad1e58	0.021132633
98	0x3d09f9ec	0.03368561
99	0xbb01ee7b	-0.0019825983
100	0x3e2e0faf	0.1699817
101	0x3b640328	0.003479192
102	0x3cd9f727	0.02660711
103	0xbe08499c	-0.1330933
104	0x3ce8aeb0	0.02840361
105	0xbd9bd6a5	-0.076092996
106	0x3eb47413	0.35244808
107	0xbe34deea	-0.1766316
108	0xbde73753	-0.11289849
109	0x3c23d693	0.009999889
110	0xbe07e774	-0.13271886
111	0xbda3864b	-0.07984599
112	0xbd33797f	-0.04381704
113	0x3e22900b	0.1587526
114	0xbd3065db	-0.043065887
115	0x3db6268f	0.08894073
116	0x3db53141	0.08847285
117	0xbdb08fad	-0.08621154
118	0x3ef6ed00	0.48227692
119	0xbc9560a5	-0.01823456
120	0x3d6b806a	0.057495512
121	0xbc9415cc	-0.0180768
122	0xbd9625a4	-0.07331398
123	0xbd835181	-0.0641203
124	0xbd07c9ca	-0.033151425
125	0x3e87abcb	0.26498255
126	0x3e7f187a	0.24911681
127	0xbe642c83	-0.22282605
128	0x3d78e93e	0.060769312
129	0x3db593c0	0.08866072
130	0xbe942d64	-0.2894088
131	0x3eeb6424	0.4597484
132	0x3e1a2bfe	0.15055844
133	0x3e0881e0	0.13330793
134	0x3e78c67b	0.24294464
135	0x3eb252b1	0.34828714
136	0xbd75e10a	-0.060029067
137	0xbd07a41c	-0.03311549
138	0xbd5f8bde	-0.054576747
139	0x3e3713ff	0.17878722
140	0xbe79161d	-0.24324842
141	0xbd9115f0	-0.07084262
142	0xbe046ea9	-0.12932838
143	0x3e1a0cc2	0.15043929
144	0x3d871889	0.065964766
145	0xbd899eee	-0.067197666
146	0x3d911066	0.07083206
147	0xbece5ccb	-0.4030517
148	0xbd6ff685	-0.05858471
149	0x3e0649e2	0.13114122
150	0xbda9b470	-0.08286369
151	0xbebd060a	-0.3691867
152	0x3d55c484	0.052189365
153	0x3de7c3c7	0.113166384
154	0x3e422908	0.18960965
155	0x3d36aa4b	0.044595998
156	0x3b30527c	0.0026904633
157	0x3d5f8f54	0.054580048
158	0xbd4ee3d9	-0.05051026
159	0xbdef4bf3	-0.11684408
160	0x3e21884b	0.15774648
161	0x3ee10ce5	0.4395515
162	0x3e4bc883	0.19900708
163	0x3d95a167	0.07306176
164	0x3f1849f3	0.5948784
165	0xbdf2816f	-0.11841094
166	0x3c82806b	0.015930375
167	0xbe2d3050	-0.16912961
168	0x3d1ebbff	0.038753506
169	0xbe06fd07	-0.1318246
170	0x3e04e1d8	0.12976778
171	0x3d77c4ea	0.060490526
172	0xbded1cc6	-0.11577754
173	0x3b223deb	0.0024756144
174	0x3dd46866	0.10371475
175	0x3da863ae	0.082221374
176	0xbe2a42e7	-0.16627084
177	0x3dcfdb6b	0.101492725
178	0x3e50815d	0.20361848
179	0x3e80913e	0.2511081
180	0xbddc766e	-0.10764776
181	0x3d9ef1a7	0.07760935
182	0xbe64de5d	-0.2235045
183	0xbc449cc1	-0.012000264
184	0x3d6e22a0	0.05813849
185	0x3ca10471	0.019655438
186	0xbde0299d	-0.10945437
187	0x3c4febec	0.0126905255
188	0xbd9faa03	-0.07796099
189	0xbe374435	-0.17897113
190	0x3e743029	0.23846497
191	0xbe6960c2	-0.22790816
192	0x3dcc40a8	0.0997327
193	0xbdb60a7d	-0.08888719
194	0xbe60c83d	-0.21951385
195	0xbe8dd8dd	-0.27704516
196	0x3e449dec	0.19200867
197	0xbe94cd0b	-0.29062685
198	0x3c9eab01	0.01936865
199	0xbe1e4415	-0.15455659
200	0xbd7f64f8	-0.06235215
201	0x3e2158a9	0.15756477
202	0x3b434d9c	0.0029800897
203	0xbdb3a076	-0.0877084
204	0xbe30d94f	-0.17270397
205	0x3e029253	0.12751131
206	0xbe186007	-0.14880382
207	0x3dc7b3ad	0.09751067
208	0x3cff6d1e	0.03117996
209	0x3d1fd067	0.039017107
210	0x3e0080f2	0.12549189
211	0x3daf52e5	0.08560733
212	0x3da5ee66	0.081021115
213	0xbde54091	-0.11193956
214	0x3e9e2122	0.30884653
215	0xbcb72846	-0.022358071
216	0xbcbbf37b	-0.022943249
217	0xbde5f7e3	-0.11228921
218	0xbcaa8134	-0.020813562
219	0xbc44280d	-0.0119724395
220	0x3e4b1e9f	0.198359
221	0x3cbde726	0.02318151
222	0x3dd75e7c	0.10516068
223	0xbd56bc4e	-0.052425675
224	0xbe017661	-0.12642814
225	0xbed09c43	-0.40744218
226	0xbcea4b05	-0.028600225
227	0xbde4ab14	-0.11165443
228	0xbdf4fe5e	-0.11962579
229	0x39fa49b9	0.00047738643
230	0xbca60fec	-0.020271264
231	0x3e814960	0.25251293
232	0xbe83ae3e	-0.25718874
233	0x3e6666a3	0.2250009
234	0xbe847ea5	-0.25877872
235	0x3e0b0af2	0.13578394
236	0x3e2b84f2	0.16749933
237	0x3d84d869	0.064865895
238	0x3e262792	0.16226032
239	0x3de9ac94	0.1140987
240	0xbc8af337	-0.016961677
241	0xbcc59da8	-0.024123028
242	0x3d4353d2	0.04768736
243	0x3db90ad5	0.09035269
244	0x3dcaf227	0.09909468
245	0xbeb2fba7	-0.3495762
246	0x3ec6e297	0.3884475
247	0x3dc952a0	0.098302126
248	0x3eac0edb	0.33605084
249	0xbd91376b	-0.07090648
250	0x3de3faed	0.11131845
251	0xbe1123fe	-0.14173886
252	0x3e371b4b	0.17881505
253	0xbd505c60	-0.050869346
254	0x3cb87110	0.02251485
255	0x3de39bad	0.11113677

rnn.weight_hh_l0 f4 [32, 32]
0	0x3e47a0ea	0.19494978
1	0xbe9126a6	-0.283498
2	0x3e57d59b	0.21077578
3	0xbd919268	-0.07108003
4	0x3eb7364e	0.3578362
5	0xbe58751d	-0.21138425
6	0x3f009839	0.50232273
7	0xbe1f4101	-0.15552141
8	0xbf0c55e5	-0.54818565
9	0xbe6dc5d5	-0.23219998
10	0x3eceb5b2	0.40372998
11	0xbf520b16	-0.82048166
12	0x3e07b81c	0.13253826
13	0x3f29cd07	0.6632847
14	0xbddcb245	-0.1077619
15	0xbcb444d4	-0.022005476
16	0xbe55b484	-0.20869642
17	0x3f08aed5	0.5339177
18	0x3edefd3a	0.43552572
19	0x3e885468	0.26626897
20	0x3f18b361	0.5964871
21	0xbd5c2dea	-0.053754725
22	0xbe592927	-0.21207105
23	0xb9e52b4c	-0.00043710542
24	0xbeb3aa48	-0.35090852
25	0xbc474580	-0.012162566
26	0x3e75bc97	0.23997723
27	0x3ea193a6	0.3155796
28	0x3f3920af	0.72315496
29	0xbdfd694e	-0.12373601
30	0xbcfd3dc1	-0.030913236
31	0xbe062ade	-0.1310229
32	0xbcafe3e9	-0.02147098
33	0x3caa6f85	0.02080513
34	0xbe7e1489	-0.24812521
35	0x3df49c5e	0.11943887
36	0xbf1eaec8	-0.61985445
37	0xbe1e36b2	-0.15450552
38	0x3e0b0c83	0.13578992
39	0x3e0c5589	0.13704504
40	0x3eae63e1	0.34060577
41	0xbd83f5b6	-0.0644335
42	0xbeca9385	-0.39565673
43	0x3e94ae75	0.2903935
44	0x3db90d49	0.09035737
45	0xbde32b70	-0.110922694
46	0xbe4a3872	-0.19748095
47	0x3f1a12ba	0.60184824
48	0x3ec0947c	0.37613285
49	0xbda36b30	-0.07979429
50	0xbddc28a0	-0.10749936
51	0xbf09901d	-0.53735524
52	0xbdf16985	-0.117877044
53	0xbd62e72b	-0.05539624
54	0x3ea8b2cf	0.3294892
55	0xbdd0a4d8	-0.101876915
56	0x3f0d6368	0.55229807
57	0xbe8dcab5	-0.27693716
58	0x3e371023	0.1787725
59	0xbed9ff95	-0.42577806
60	0xbe915b2b	-0.28389868
61	0xbdab6610	-0.08369076
62	0xbb4dd0df	-0.0031405014
63	0xbf263af5	-0.6493371
64	0xbeeb1764	-0.45916283
65	0xbea57260	-0.32313824
66	0xbf582168	-0.84425974
67	0x3e2650db	0.16241781
68	0xbe5c0986	-0.21488008
69	0x3cf70a82	0.030156378
70	0xbf68f1c4	-0.90993905
71	0xbe3daa76	-0.18522057
72	0xbdd8597a	-0.10563941
73	0xbf199f94	-0.6000912
74	0xbe638f6b	-0.22222678
75	0x3e54374c	0.20724219
76	0xbe61285b	-0.2198805
77	0xbb9d2aaf	-0.004796348
78	0xbeb5d3ad	-0.35513058
79	0x3be6163f	0.007021695
80	0xbd6f1205	-0.058366794
81	0xbe97a0d8	-0.29614902
82	0xbcaccd73	-0.02109406
83	0x3f1bbb13	0.6083233
84	0xbd32ba1f	-0.04363453
85	0xbe8a91ff	-0.2706451
86	0xbe26e2d6	-0.16297469
87	0xbdb20f0d	-0.08694277
88	0x3ec76d84	0.3895074
89	0xbe3a3882	-0.18185619
90	0xbe848d1c	-0.25888908
91	0x3da3763c	0.07981536
92	0xbdcaa902	-0.09895517
93	0x3f1c7079	0.6110912
94	0x3ed33a51	0.4125543
95	0xbb4584c4	-0.003013895
96	0x3ef4e30c	0.47829473
97	0xbe6350f6	-0.22198853
98	0xbde5f8d6	-0.11229102
99	0xbe04ce06	-0.12969217
100	0xbeb4df01	-0.35326388
101	0xbec6c404	-0.38821423
102	0xbea8c630	-0.32963705
103	0x3e093446	0.13398847
104	0xbeb638a3	-0.35590085
105	0xbd6d71b3	-0.05796976
106	0xbe829b00	-0.2550888
107	0xbe0b3e0d	-0.13597889
108	0x3e01eb00	0.12687302
109	0x3e9d0d73	0.30674323
110	0xbf11b9ac	-0.5692394
111	0x3e6d7c95	0.23192056
112	0xbe6636b1	-0.224818
113	0x3f1c7b69	0.6112581
114	0x3e7b4c8c	0.24540919
115	0xbe521e6a	-0.20519415
116	0x3dbbf776	0.09178059
117	0x3dd7e955	0.105425514
118	0xbcf747f5	-0.030185679
119	0xbd16efb7	-0.036849704
120	0xbc263edf	-0.010146826
121	0x3dcdf586	0.100565955
122	0x3ec65480	0.38736343
123	0x3e57c254	0.21070224
124	0x3de77462	0.11301495
125	0x3dc5310b	0.09628495
126	0xbd1bbb71	-0.038020555
127	0x3dab8f98	0.08376998
128	0x3e3834ae	0.17988846
129	0x3cbdc34c	0.023164414
130	0xbb6c02ca	-0.0036012405
131	0x3e126b16	0.14298663
132	0x3e68eac9	0.22745813
133	0x3e8bd96f	0.27314326
134	0x3ea45c92	0.32101876
135	0x3da6e4b2	0.08149089
136	0x3dfeb5d1	0.124370225
137	0x3e5b6fb0	0.21429324
138	0x3c0966d9	0.008386337
139	0x3dda109a	0.10647698
140	0x3e943c04	0.28952038
141	0x3d1a1ec8	0.03762701
142	0x3e7e93f0	0.24861121
143	0xbd639bae	-0.05556839
144	0x3e20c60c	0.15700549
145	0x3e491c10	0.19639611
146	0xbe828d56	-0.25498456
147	0xbe2be56c	-0.16786736
148	0x3d15f472	0.036610074
149	0xbd79dd5a	-0.061002113
150	0xbe3a18c7	-0.18173514
151	0x3d2a7f95	0.041625578
152	0xbd13bd2e	-0.036069088
153	0x3cd9bfe2	0.026580755
154	0x3d6884f6	0.056767426
155	0xbe11d29b	-0.14240496
156	0xbe257ec8	-0.16161644
157	0xbe41eed6	-0.18938765
158	0xbdefa693	-0.117016934
159	0xbe6c73a1	-0.23090984
160	0xbeaad7ea	-0.33367854
161	0x3efe73cb	0.49697718
162	0x3e37851b	0.1792187
163	0x3cd9dd2c	0.02659472
164	0x3e6d1094	0.23150855
165	0x3f0d3410	0.55157566
166	0x3e81f0a2	0.253789
167	0x3e12b353	0.1432622
168	0xbdd2f04c	-0.10299739
169	0x3e89fd14	0.26950896
170	0x3e776081	0.24157907
171	0x3dcad8b8	0.09904617
172	0x3ee473c5	0.44619575
173	0xbea8bb39	-0.3295534
174	0x3e886b90	0.26644564
175	0xbebc770c	-0.36809576
176	0x3ea0b314	0.31386626
177	0xbef3c6f5	-0.4761273
178	0xbe60de69	-0.21959843
179	0xbd99c3df	-0.075080626
180	0xbe3e92ae	-0.18610641
181	0xbf0288d4	-0.50990033
182	0xbe935d4b	-0.28782114
183	0xbe24444b	-0.16041677
184	0x3f0e92d7	0.5569281
185	0x3f0f9be8	0.5609727
186	0x39af07c9	0.00033384401
187	0xbe83117f	-0.25599286
188	0xbd8dfc44	-0.069328815
189	0xbe57b48c	-0.21064967
190	0xbe9ecac8	-0.31014085
191	0xbe8c60c5	-0.2741758
192	0xbe8819ab	-0.26582083
193	0xbe0d2c00	-0.13786316
194	0xbf40c5da	-0.753019
195	0xbe1d06bc	-0.153346
196	0xbc03a728	-0.008035459
197	0x3e7b2685	0.24526413
198	0xbf1dcdb5	-0.6164201
199	0xbeea474a	-0.45757514
200	0x3e96911d	0.29407588
201	0xbf145bf2	-0.579528
202	0xbf253568	-0.64534616
203	0x3e5e850b	0.2173044
204	0xbda0127c	-0.078160256
205	0xbdd3191f	-0.10307526
206	0xbef4309d	-0.4769334
207	0x3d81d856	0.06340091
208	0xbf1760b4	-0.5913193
209	0xbeeb755f	-0.45987985
210	0xbea24853	-0.31695804
211	0x3ea40c01	0.32040408
212	0xbd0973d9	-0.033557747
213	0xbeef60cd	-0.4675354
214	0x3d59e9bd	0.053201426
215	0x3e0b39d3	0.13596277
216	0xbe903114	-0.28162444
217	0xbdede29d	-0.11615489
218	0xbea0dfac	-0.31420648
219	0xbdb7a60d	-0.089672185
220	0xbedda442	-0.4328938
221	0x3e04c30f	0.12965034
222	0x3eb66094	0.35620558
223	0xbe9e039b	-0.30862126
224	0x3c2d37d8	0.010572396
225	0xbd88df57	-0.06683224
226	0xbe28be86	-0.16478929
227	0xbda4df2a	-0.08050378
228	0xbea34427	-0.31887934
229	0x3ea9a7b4	0.3313576
230	0xbf209efc	-0.6274259
231	0x3e9ed4c0	0.3102169
232	0xbf0526d8	-0.52012396
233	0xbdb29e29	-0.08721573
234	0xbcc3d9ed	-0.023907626
235	0xbe54956b	-0.20760123
236	0x3eba508c	0.36389577
237	0xbd2cc6ab	-0.042181652
238	0x3b1eadcc	0.0024212478
239	0xbe392946	-0.18082151
240	0x3de5fece	0.11230241
241	0xbdfad16d	-0.12246976
242	0x3d21ae91	0.03947312
243	0xbe62b0a7	-0.221377
244	0x3e3c0c69	0.18364109
245	0xbe8c705d	-0.27429476
246	0xbed71fb6	-0.4201638
247	0x3d82195c	0.06352493
248	0x3effdfe8	0.49975514
249	0x3e8104d1	0.25198987
250	0xbe750f54	-0.23931628
251	0x3e9bc0cd	0.30420533
252	0xbe4857df	-0.1956477
253	0x3df882d7	0.12134331
254	0xbe2b1b53	-0.16709642
255	0x3e9ee548	0.31034303

rnn.bias_ih_l0 f4 [32]
0	0xbdb344ee	-0.08753382
1	0x3cbde8ad	0.023182238
2	0x3db86a3f	0.0900464
3	0x3d9a9081	0.07547093
4	0x3e1704e3	0.14747958
5	0x3e08aaa2	0.13346341
6	0x3e10ea1c	0.14151806
7	0x3e2e162f	0.1700065
8	0xbe7fa614	-0.24965698
9	0x3cf52638	0.02992545
10	0x3e43dcbb	0.1912717
11	0xbe2b01c0	-0.16699886
12	0x3e0daebb	0.13836186
13	0x3e28bc02	0.1647797
14	0x3e572482	0.2101002
15	0xbe119423	-0.14216666
16	0x3e7a45f4	0.24440747
17	0xbe9e525d	-0.30922213
18	0xbcf31a1f	-0.029675541
19	0x3e7b2be7	0.24528466
20	0x3e387a47	0.18015395
21	0xbe4a3262	-0.19745782
22	0xbe73cfe4	-0.23809773
23	0x3c7b67bb	0.0153445555
24	0x3e057993	0.13034658
25	0x3e0f5993	0.13999014
26	0xbe109fb7	-0.14123426
27	0x3dc5d5c9	0.09659917
28	0xbdb53837	-0.08848613
29	0x3d86ca4f	0.06581556
30	0xbe87d9ac	-0.26533258
31	0x3c99a2eb	0.018754443

rnn.bias_hh_l0 f4 [32]
0	0xbe122fce	-0.14276049
1	0x3de7d084	0.11319068
2	0xbe04d8f1	-0.12973382
3	0x3e33339b	0.17500155
4	0x3eb84264	0.35988152
5	0x3e6a2b5c	0.22868103
6	0x3dfc3df0	0.12316501
7	0x3ea0f1d2	0.31434494
8	0xbe2e412f	-0.17017053
9	0xbe51d8b8	-0.20492828
10	0x3d900b27	0.07033377
11	0xbe90b841	-0.28265575
12	0x3e8b5aed	0.27217808
13	0xbb81fc15	-0.003966818
14	0x3e1735cb	0.14766614
15	0x3e041510	0.1289866
16	0x3d668d51	0.056287114
17	0xbd426a7a	-0.047464825
18	0xbd9a32b0	-0.07529199
19	0x3c7b2ad6	0.015330037
20	0x3e21b351	0.1579106
21	0xbe526e07	-0.20549785
22	0xbe63ce9a	-0.22246781
23	0xbe6ac1b3	-0.22925453
24	0x3d13f657	0.0361236
25	0x3e42b80f	0.19015525
26	0xbe3abb01	-0.18235399
27	0x3cf3d027	0.02976234
28	0x3c6e5c46	0.014548367
29	0xbe32cadd	-0.17460199
30	0x3d18cc97	0.037304487
31	0xbb9ebe63	-0.004844473

rnn.weight_ih_l0_reverse f4 [32, 128]
0	0xbdc153f0	-0.09439838
1	0xbd1803c6	-0.037112974
2	0xbd35c6b8	-0.044378966
3	0xbb56b058	-0.0032758918
4	0xbdc93ecb	-0.0982643
5	0x3dcfd417	0.10147875
6	0x3df80254	0.12109819
7	0x3dd3b0ee	0.10336481
8	0x3d22018a	0.03955225
9	0xbe6e5a23	-0.23276572
10	0xbe0ef490	-0.1396048
11	0x3b09c423	0.0021021448
12	0x3e18b837	0.14914022
13	0xbe1406c8	-0.14455712
14	0xbe68732b	-0.22700183
15	0x3dd012d3	0.101598404
16	0x3d220f57	0.03956541
17	0x3df30c08	0.11867529
18	0x3df5bfdf	0.11999487
19	0x3da8baac	0.0823873
20	0x3d2e4bef	0.042552885
21	0xbdb2218b	-0.08697804
22	0x3d95a16c	0.073061794
23	0x3da1fce7	0.079095654
24	0xbe038891	-0.12845065
25	0x3e3020ed	0.1720006
26	0xbe904726	-0.28179282
27	0xbcecde4c	-0.028914593
28	0xbd97fa98	-0.07420844
29	0xbda666f5	-0.08125106
30	0xbe6a5894	-0.22885352
31	0x3ecd5e88	0.40111184
32	0x3d6dc110	0.058045447
33	0xbe988f24	-0.29796708
34	0x3e1e9030	0.1548469
35	0xbe0a7321	-0.1352048
36	0x3c2094ac	0.009801071
37	0x3ea13682	0.314869
38	0x3d30502c	0.043045208
39	0x3d8ac9fa	0.06776805
40	0xbe62bd61	-0.22142555
41	0xbe3af27d	-0.18256564
42	0xbe2ea3df	-0.170547
43	0x3e1676c5	0.14693744
44	0xbdbea101	-0.09308053
45	0xbcff9c14	-0.031202354
46	0xbd8e27cc	-0.069411844
47	0x3e6fc438	0.23414695
48	0xbc96f54d	-0.018427515
49	0x3d96c932	0.07362594
50	0x3d8535b3	0.06504383
51	0xbdcc4d72	-0.09975709
52	0x3dfda884	0.123856574
53	0x3df617e2	0.12016274
54	0xbdcb9d84	-0.09942153
55	0xbd804004	-0.0626221
56	0xbe2fdbfb	-0.1717376
57	0x3d481c31	0.04885501
58	0x3cc1a34a	0.023637433
59	0x3dcd7450	0.100319505
60	0x3e670e6b	0.22564094
61	0x3e779ea9	0.24181618
62	0xbdde88d2	-0.1086594
63	0x3c99b3f1	0.01876256
64	0xbe693d2d	-0.22777243
65	0x3c2c2e10	0.010509029
66	0x3d0bd35e	0.034137122
67	0x3d14aefc	0.03629969
68	0x3e39e28d	0.18152829
69	0x3e3de94f	0.18546031
70	0xbe52efd2	-0.20599297
71	0x3c25bf3d	0.010116396
72	0x3d846b66	0.06465797
73	0x3e1af023	0.15130667
74	0x3bea6e0a	0.007154231
75	0xbe07c3d5	-0.13258298
76	0xbe969bff	-0.2941589
77	0x3e044cf8	0.12919986
78	0x3e882d08	0.26596856
79	0x3df3fb79	0.11913199
80	0xbda64a76	-0.08119671
81	0x3d339033	0.04383869
82	0x3e1c8bf8	0.15287769
83	0xbe0505ac	-0.12990445
84	0x3d3c8b3a	0.046031214
85	0xbcbe73bf	-0.023248551
86	0xbe7f63fe	-0.24940488
87	0x3db61929	0.08891518
88	0x3e06a291	0.13147952
89	0xbb7c2ef2	-0.003848013
90	0xbe5122b9	-0.20423402
91	0x3df69d5e	0.12041734
92	0x3e61512b	0.2200362
93	0xbd15132d	-0.03639524
94	0xbebc27c2	-0.36749083
95	0xbeb65efd	-0.35619345
96	0x3da61374	0.08109179
97	0xbd22597b	-0.039636116
98	0x3d876f45	0.0661302
99	0x3e05428f	0.13013671
100	0xbdccfc8c	-0.10009107
101	0xbdb3fa6f	-0.08788001
102	0xbe4a4057	-0.19751106
103	0xbe36e4dd	-0.17860742
104	0x3e180925	0.14847238
105	0x3dcebc1e	0.10094474
106	0x3d2afb84	0.04174377
107	0xbe81cfc0	-0.25353813
108	0xbe164e3e	-0.14678285
109	0x3deb69d7	0.11494797
110	0x3cbf7d4a	0.023375172
111	0x3c6325b9	0.013863974
112	0x3d150c2b	0.036388557
113	0xbd71d949	-0.05904511
114	0xbe4e1a03	-0.2012711
115	0xbbbed5ea	-0.0058238404
116	0xbe1198cc	-0.14218444
117	0x3d8444e6	0.06458454
118	0x3e0164d7	0.12636124
119	0xbd84b477	-0.064797334
120	0x3b11dace	0.0022255662
121	0x3caebc95	0.021330157
122	0x3ed2350d	0.410561
123	0x3d951ee8	0.072812855
124	0xbe84d368	-0.2594254
125	0x3eb860f3	0.36011466
126	0x3a2ea490	0.0006662095
127	0x3dc96d5f	0.09835314
128	0x3d7c9ba8	0.061671883
129	0x3d113163	0.03544749
130	0xbdfe2b02	-0.12410547
131	0x3e81a24f	0.25319144
132	0x3d5e9c8a	0.054348506
133	0x3e614eb1	0.22002675
134	0xbb22afd1	-0.0024824033
135	0x3c943d85	0.018095741
136	0x3e6867c3	0.22695832
137	0x3d1000e2	0.035157092
138	0x3e907ea6	0.28221625
139	0xbc864590	-0.016390592
140	0x3e0b8e7c	0.13628572
141	0xbc3a71be	-0.011379657
142	0x3e01df80	0.12682915
143	0x3d8f9626	0.070110604
144	0xbd247180	-0.040147305
145	0x3cf646da	0.030063082
146	0xbd87ef53	-0.06637444
147	0xbde6bb41	-0.112661846
148	0x3ead0347	0.33791563
149	0x3e8584a9	0.26077774
150	0x3ddda1b6	0.108218595
151	0xbd2ff6a5	-0.042959828
152	0x3dc218b2	0.094773665
153	0x3e65b73a	0.22433177
154	0x3de1e305	0.11029629
155	0xbe510748	-0.20412934
156	0x3e6f033c	0.23341078
157	0x3d9ca6d5	0.07649008
158	0xbd5b8f8e	-0.0536037
159	0x3c3ebace	0.011641217
160	0x3c78d44a	0.015187332
161	0xbd909325	-0.070593156
162	0xbd7bafa9	-0.06144682
163	0xbe4ecd71	-0.20195557
164	0xbce72643	-0.028216487
165	0xbe84d6b2	-0.2594505
166	0xbe2622b6	-0.16224179
167	0xbe582474	-0.21107656
168	0xbe6620d9	-0.22473468
169	0x3e810431	0.2519851
170	0xbd9d9f71	-0.07696427
171	0x3df66492	0.12030901
172	0xbd08df29	-0.033415947
173	0xbe68b558	-0.22725427
174	0x3d6a746d	0.05723994
175	0x3e889eb2	0.26683575
176	0xbd79e08d	-0.061005164
177	0xbd9f5abd	-0.07780979
178	0xbb6c47d1	-0.0036053548
179	0x3dc8781e	0.097885355
180	0x3d066f15	0.03282078
181	0xbb674b12	-0.0035292548
182	0x3d78ebc8	0.060771734
183	0xbc573871	-0.013136015
184	0x3dd5f745	0.104475535
185	0x3e0e902d	0.13922186
186	0x3dee840f	0.11646282
187	0x3e4cc781	0.1999798
188	0x3e577763	0.21041636
189	0xbcce029c	-0.025147729
190	0xbe58284d	-0.21109124
191	0xbe66728a	-0.2250463
192	0x3e1ddb9e	0.15415809
193	0x3dcf3d22	0.10119082
194	0xbe0d9360	-0.1382575
195	0x3db63fd0	0.0889889
196	0xbd6ee5bd	-0.058324564
197	0xbe1452fb	-0.1448478
198	0x3d3519c7	0.044214036
199	0xbd835c20	-0.06414056
200	0x3e2a0d77	0.16606699
201	0x3d5d1592	0.05397565
202	0x3e442774	0.19155675
203	0xbbe4fb46	-0.006987962
204	0x3a4ca2ac	0.00078062224
205	0x3dadbacd	0.08482895
206	0x3d55ee47	0.052229192
207	0xbdbf3f3d	-0.093382336
208	0xbdbecf6e	-0.09316908
209	0xbd29e74a	-0.04148034
210	0xbd037731	-0.03209609
211	0x3c8b8653	0.017031824
212	0xbe7c12fa	-0.24616614
213	0x3dbefb0c	0.09325227
214	0xbd404130	-0.046937168
215	0xbd38a02c	-0.045074627
216	0xbdc838e8	-0.09776479
217	0xbcb0308c	-0.021507524
218	0x3e8d9114	0.27649748
219	0x3e67efa7	0.22650014
220	0xbe957c66	-0.2919647
221	0xbe1c1dc2	-0.15245727
222	0xbeb8c6c1	-0.36089137
223	0xbe921a38	-0.28535628
224	0xbd622ed5	-0.055220444
225	0xbe755f6a	-0.23962179
226	0xbde06c35	-0.10958139
227	0xbdd5fe29	-0.10448868
228	0x3c387c1d	0.01126006
229	0x3e3b35ab	0.18282191
230	0xbe15a280	-0.1461277
231	0xbd04c86a	-0.032417692
232	0x3e0b3343	0.13593774
233	0x3db0c803	0.08631899
234	0x3dba9098	0.0910961
235	0x3d5e091e	0.054207914
236	0xbdf7380b	-0.12071236
237	0x3c645c86	0.013938075
238	0x3ca1aa00	0.019734383
239	0xbc90d5e7	-0.017680122
240	0xbe782c19	-0.24235572
241	0xbe03b0ef	-0.12860464
242	0x3d84ab40	0.06477976
243	0xbe59e1ab	-0.21277492
244	0xbc3d3828	-0.011549033
245	0xbe1097b9	-0.14120378
246	0xbda2cb4b	-0.07948931
247	0xbd6035fe	-0.05473899
248	0x3e07bff6	0.13256821
249	0x3d209f85	0.03921463
250	0xbe87bdb0	-0.26511908
251	0x3e130cb9	0.14360322
252	0xbe20f824	-0.15719658
253	0xbe6f26b3	-0.23354606
254	0x3e46f037	0.19427572
255	0x3dbf810a	0.09350784

rnn.weight_hh_l0_reverse f4 [32, 32]
0	0x3ebbc06f	0.36670253
1	0x3f124634	0.5713837
2	0xbc49bb3d	-0.0123127075
3	0xbe9c3e7c	-0.30516422
4	0xbd8d094f	-0.06886541
5	0x3e4b28b6	0.19839749
6	0xbe6ea6c1	-0.23305799
7	0xbe31bb64	-0.1735664
8	0xbee3fb58	-0.44527698
9	0xbe82bb32	-0.25533444
10	0x3eafbccc	0.34323728
11	0xbeb8a793	-0.3606535
12	0x3e2c5e97	0.16832958
13	0xbeaaed7c	-0.3338431
14	0x3f1531bb	0.5827901
15	0xbdceed6c	-0.101038784
16	0xbdf71860	-0.12065196
17	0xbe1be10e	-0.1522257
18	0xbee47e6c	-0.44627702
19	0x3dff64dc	0.12470409
20	0x3da198a8	0.07890445
21	0x3eb38df1	0.3506923
22	0x3bcf6941	0.006329686
23	0x3e51e055	0.20495732
24	0xbe11954e	-0.14217111
25	0xbd974665	-0.073864736
26	0xbe6d8626	-0.23195705
27	0xbe353b07	-0.17698298
28	0xbe9d96da	-0.30779153
29	0xbe2d9956	-0.16953024
30	0x3e3b751a	0.1830639
31	0x3e99ca55	0.3003718
32	0x3e8e4292	0.27785164
33	0x3e748a50	0.23880887
34	0x3de8bfe7	0.113647275
35	0xbe0a138f	-0.13484024
36	0x3df71541	0.12064601
37	0xbe14d9d6	-0.14536223
38	0x3e85027e	0.25978464
39	0xbe8543cd	-0.2602829
40	0xbdefcdf2	-0.11709203
41	0xbdfc741b	-0.12326833
42	0x3ecaa480	0.3957863
43	0xbd5190f7	-0.05116364
44	0x3e4c8300	0.19971848
45	0xbee822b3	-0.45338973
46	0x3efa1f68	0.48852086
47	0x3ecb519d	0.39710703
48	0x3efe983f	0.4972553
49	0x3ac00ee5	0.0014652876
50	0x3c90711a	0.017632056
51	0xbecf6d0b	-0.4051288
52	0xbe68b150	-0.2272389
53	0x3e3e6305	0.1859246
54	0xbd86b78c	-0.065779775
55	0xbd4ef68d	-0.050528098
56	0xb92894af	-0.00016077117
57	0xbd82aa74	-0.063801676
58	0xbd3c4ef7	-0.045973744
59	0xbe894f09	-0.26818112
60	0x3e23d971	0.16000916
61	0x3e0c87a4	0.13723618
62	0x3ead9932	0.3390594
63	0xbf30e458	-0.69098425
64	0xbe6e0ae2	-0.23246339
65	0x3e610598	0.2197479
66	0xbe627eb9	-0.22118653
67	0x3e7c1540	0.24617481
68	0x3e49cc65	0.19706877
69	0xbd141dce	-0.036161236
70	0x3da803d8	0.08203858
71	0xbe1c0eed	-0.15240069
72	0xbd4f51cc	-0.050615117
73	0xbe226d8c	-0.15862101
74	0xbc75d3ba	-0.015004093
75	0x3d06cee4	0.03291215
76	0xbe1c5895	-0.15268166
77	0x3d36659a	0.04453049
78	0x3e2f225e	0.17102954
79	0xbddd15fd	-0.107952096
80	0xbe2610ed	-0.16217394
81	0x3e137462	0.14399865
82	0x3e1a50e7	0.15069924
83	0x3d9fc174	0.0780057
84	0xbe3cb384	-0.18427855
85	0x3ea7e0df	0.3278875
86	0xbe483350	-0.19550824
87	0x3edb8ec1	0.4288235
88	0xbeb1f9af	-0.34760806
89	0xbd90a1bc	-0.070620984
90	0x3dd22f5b	0.102629386
91	0xbe0c020c	-0.13672656
92	0xbe085d3e	-0.13316819
93	0x3d6d8fcc	0.057998464
94	0x3ebdb89c	0.37054908
95	0xbc7901ee	-0.015198214
96	0xbe3da4df	-0.18519925
97	0xbf066880	-0.52503204
98	0xbe9ef81e	-0.31048673
99	0xbf6dc0cd	-0.92872316
100	0x3e22f183	0.15912442
101	0x3dcc9d25	0.099909104
102	0x3eb54e13	0.35411128
103	0x3e170f66	0.14751968
104	0x3efcc332	0.49367672
105	0x3f08c5e4	0.5342696
106	0xbd856c64	-0.065148145
107	0x3ea156ae	0.31511444
108	0xbeb8fe7c	-0.36131656
109	0x3eac0071	0.33594087
110	0x3df20e6b	0.11819156
111	0x3ee6a695	0.45048967
112	0x3ec0948f	0.3761334
113	0xbcb1423c	-0.021638028
114	0x3e444179	0.19165601
115	0x3c7a4459	0.015275084
116	0xbe032327	-0.12806378
117	0xbc0b114d	-0.008488012
118	0x3e673410	0.22578454
119	0x3e46b595	0.19405206
120	0xbddaa689	-0.10676295
121	0xbe8ae54a	-0.2712806
122	0x3f1c7b28	0.6112542
123	0xbefb7191	-0.49110082
124	0xbeeb3c35	-0.45944372
125	0x3dc4356e	0.095805034
126	0xbefb2d1e	-0.4905786
127	0xbdaaf191	-0.083468564
128	0x3e07031b	0.13184778
129	0xbd8a3e61	-0.06750179
130	0x3c94059a	0.018069077
131	0x3ec31eb5	0.38109365
132	0xbe7ba840	-0.24575901
133	0x3eef458f	0.46732756
134	0xbf1b6499	-0.60700375
135	0xbdfa0077	-0.1220712
136	0xbed7321c	-0.42030418
137	0xbd356bb8	-0.04429218
138	0xbd214781	-0.039374832
139	0xbd0b24e9	-0.033970747
140	0xbd6572d9	-0.05601773
141	0x3e70d882	0.23520091
142	0x3debb164	0.11508444
143	0xbe4af5f0	-0.1982038
144	0xbdb23b1d	-0.08702681
145	0x3e12132f	0.1426513
146	0xbf17dab1	-0.5931807
147	0x3ed90da0	0.42393208
148	0x3f103e92	0.56345475
149	0xbebb81b3	-0.3662239
150	0x3f0e27fb	0.55529755
151	0x3eca879c	0.39556587
152	0xbe1f2f44	-0.15545374
153	0xbccfb797	-0.025356097
154	0x3de41ad7	0.11137932
155	0x3df62f26	0.120207116
156	0xbf42b8bf	-0.7606315
157	0xbe9c4351	-0.30520108
158	0xbd497b8a	-0.04919008
159	0x3ed37f13	0.41307887
160	0xbee49507	-0.4464495
161	0xbf00d061	-0.5031796
162	0xbe374ea9	-0.179011
163	0x3d6d8cef	0.057995733
164	0x3d2a0d7a	0.04151676
165	0xbea5cac4	-0.3238126
166	0x3e929b9b	0.28634343
167	0x3e6fd1a0	0.2341981
168	0x3c8e5ec6	0.017379176
169	0xbd17338c	-0.036914393
170	0xbf36c888	-0.71399736
171	0x3efa3581	0.48868945
172	0xbe23f811	-0.16012599
173	0x3e91627a	0.28395444
174	0xbf0fc49f	-0.56159395
175	0x3d929210	0.071567655
176	0xbde0c5b1	-0.10975207
177	0xbe7b0abd	-0.24515815
178	0x3e96207b	0.29321656
179	0x3d8d8493	0.06910052
180	0x3e25f007	0.16204844
181	0xbe854468	-0.26028752
182	0x3cd879db	0.026425293
183	0xbd997968	-0.074938595
184	0x3dcadfd4	0.09905973
185	0x3e0859dc	0.13315529
186	0xbd4fdd3c	-0.050748095
187	0x3e2fd25a	0.17170087
188	0x3dc2e238	0.09515804
189	0x3e2b3ed9	0.16723193
190	0xbd92b2d6	-0.071630165
191	0xbd5e272a	-0.05423657
192	0xbd8130f1	-0.06308163
193	0x3df8484a	0.12123163
194	0xbe2937f5	-0.16525252
195	0x3ef92e76	0.4866826
196	0x3d951f32	0.07281341
197	0x3b06afb8	0.0020551514
198	0xbe0a3ffa	-0.13500968
199	0x3dac8f5f	0.08425783
200	0xbddaf221	-0.10690714
201	0xbdbf4b13	-0.09340491
202	0xbda1851c	-0.07886717
203	0xbe1f7d27	-0.15575086
204	0x3e3548ce	0.17703554
205	0x3e2ecc67	0.17070161
206	0xbda757ff	-0.08171081
207	0xbdd6becd	-0.10485611
208	0xbed99523	-0.42496595
209	0xbe6187a9	-0.22024406
210	0xbe73009b	-0.237307
211	0x3d9a06db	0.07520839
212	0x3e234f1e	0.1594815
213	0xbed4445c	-0.41458404
214	0xbdd8d291	-0.10587037
215	0x3eb8792a	0.3602994
216	0x3df6227d	0.12018297
217	0xbd02c904	-0.031929985
218	0xbe24a296	-0.16077647
219	0xbcbd883a	-0.023136247
220	0xbca07cb5	-0.019590715
221	0xbd523514	-0.05132015
222	0x3eda459c	0.42631233
223	0x3e25f75e	0.16207644
224	0x3db99af2	0.090627566
225	0xbf18102c	-0.59399676
226	0x3e5b1881	0.21396066
227	0xbe051a6b	-0.12998359
228	0x3e48bd48	0.19603455
229	0xbdca939e	-0.09891437
230	0x3e56cf22	0.20977452
231	0xbd468cb1	-0.048474018
232	0x3e6ea5ed	0.23305483
233	0x3db38fcf	0.08767664
234	0xbe5d01df	-0.21582745
235	0x3ebc3b14	0.36763823
236	0xbed66c86	-0.41879672
237	0x3dd329fe	0.10310744
238	0xbf3f01e8	-0.74612284
239	0xbd5cb952	-0.053887673
240	0xbd86743f	-0.06565141
241	0xbd7e8168	-0.06213513
242	0x3f063770	0.5242834
243	0xbd7a7ac6	-0.061152242
244	0xbe2b45cc	-0.16725844
245	0xbe066c66	-0.13127288
246	0x3cda7c26	0.026670527
247	0x3d552f23	0.052046906
248	0x3e8112bf	0.25209615
249	0xbe69cbf2	-0.22831705
250	0xbc83e1f2	-0.01609895
251	0x3ecba171	0.39771608
252	0xb813624e	-3.5139085e-05
253	0x3e1fb5f2	0.1559675
254	0xbe1912f7	-0.14948641
255	0x3e04da7e	0.12973973

rnn.bias_ih_l0_reverse f4 [32]
0	0xbcd8aad9	-0.026448654
1	0x3e665130	0.22491908
2	0xbe5691f7	-0.20954119
3	0xbdde0b21	-0.108419664
4	0xbe11d44f	-0.14241146
5	0xbd6568dd	-0.05600821
6	0x3e65c35e	0.22437808
7	0xbd992a2c	-0.07478747
8	0xbbb51dc4	-0.00552723
9	0x3e529be3	0.20567279
10	0x3e20f29d	0.1571755
11	0xbd7c2395	-0.06155737
12	0xbdffb97c	-0.1248655
13	0xbda71f15	-0.08160225
14	0x3cad5002	0.021156315
15	0xbd9948ee	-0.07484613
16	0x3e682ee8	0.22674143
17	0x3d648f54	0.05580075
18	0xbcab2661	-0.020892324
19	0xbccfb2a5	-0.025353739
20	0xbe3a5b66	-0.18198928
21	0xbd92b927	-0.07164221
22	0xbe9cffd3	-0.30663928
23	0xbd7f6112	-0.062348433
24	0x3e7e2232	0.24817732
25	0xbdf5bb8c	-0.11998662
26	0xbd89fe38	-0.067379415
27	0x3c896b3f	0.016774772
28	0xbdfdd881	-0.123948105
29	0x3e793796	0.2433761
30	0xbdc8485a	-0.09779425
31	0x3d3178f5	0.043328244

rnn.bias_hh_l0_reverse f4 [32]
0	0x3da6f699	0.081525035
1	0xbbe4a856	-0.006978075
2	0x3dbdc04d	0.09265194
3	0xbea5dbe0	-0.32394314
4	0xbe447eea	-0.19189039
5	0xbd13b6af	-0.036062893
6	0x3c7da53b	0.015481289
7	0x3e1389ba	0.14408007
8	0x3e4b88b0	0.19876361
9	0x3e798309	0.24366392
10	0x3e25ee32	0.16204146
11	0xbe64f75b	-0.22359984
12	0xbd9d1ffc	-0.07672116
13	0xbe09149a	-0.13386765
14	0x3da76c26	0.081749246
15	0xbd07df0d	-0.033171702
16	0x3dedd913	0.11613669
17	0xbe55c046	-0.20874128
18	0x3c00d463	0.007863137
19	0xbe396ea6	-0.18108615
20	0xbe90e013	-0.28295955
21	0x3e04cf84	0.12969786
22	0xbdb72975	-0.08943454
23	0xbd64c7b6	-0.05585452
24	0x3e2d2781	0.16909601
25	0xbe0e0c44	-0.13871866
26	0xbe1b51bd	-0.151679
27	0x3d50ee9f	0.051008817
28	0x3dbe0818	0.092788875
29	0x3c3fc3d0	0.0117044
30	0x3e5d21da	0.21594945
31	0xbe846c7f	-0.25864026

fc1.weight f4 [8, 64]
0	0xbf2a1c9a	-0.6644989
1	0x3efc546d	0.49283162
2	0x3e8ce15d	0.2751569
3	0xbec2af41	-0.38024333
4	0x3da1876e	0.07887159
5	0x3eb4c024	0.35302842
6	0x3ea6b190	0.32557344
7	0x3e3f809e	0.18701407
8	0xbe8f7b0b	-0.28023562
9	0x3eaf7f2b	0.3427671
10	0x3ec94d6a	0.39316875
11	0xbf19f88e	-0.6014489
12	0x3eebc5e4	0.46049416
13	0x3f240fc4	0.64086556
14	0x3eb39556	0.35074872
15	0xbea3ffde	-0.3203115
16	0x3e260200	0.162117
17	0xbec4d15f	-0.38440987
18	0x3eed50d0	0.46350718
19	0x3f154718	0.58311605
20	0x3f2b31f1	0.6687308
21	0xbef56488	-0.47928262
22	0xbf04c8a9	-0.51868683
23	0xbea531b5	-0.32264486
24	0x3e9e2d60	0.30893993
25	0x3ea2b44d	0.31778184
26	0xbe5d636f	-0.21619962
27	0x3ef279ec	0.47358644
28	0x3f1f60d6	0.62257135
29	0xbebd20d3	-0.36939105
30	0xbefe1e88	-0.49632668
31	0xbe83c795	-0.25738207
32	0x3ccfa567	0.025347425
33	0x3eb17c1b	0.34664997
34	0x3eb93c5c	0.36178863
35	0xbea9109e	-0.3302049
36	0xbf03c33a	-0.5146977
37	0xbdc6e4c1	-0.097116
38	0x3c9e7257	0.01934163
39	0xbe804e5b	-0.2505978
40	0x3ebd9d31	0.3703399
41	0x3ebc944a	0.36831886
42	0x3eaba0b4	0.33521044
43	0xbeb5b3b5	-0.35488668
44	0x3ebb2427	0.3655102
45	0xbe94af45	-0.2903997
46	0x3e276ce6	0.16350135
47	0x3e97af72	0.29626042
48	0x3d8f2c97	0.06990927
49	0xbf0f0c8d	-0.55878526
50	0xbe49f7e8	-0.19723475
51	0xbd36cc6b	-0.044628542
52	0xbf102bd8	-0.563169
53	0x3ef65dc6	0.48118418
54	0xbef39f2a	-0.4758237
55	0xbeb9482a	-0.3618787
56	0x3ecbee85	0.39830413
57	0xbe44e1b4	-0.19226724
58	0x3e09b66f	0.13448499
59	0xbe92e00f	-0.28686568
60	0xbe3244b4	-0.1740902
61	0x3dfe6932	0.12422408
62	0x3edda671	0.43291047
63	0x3e2e5cf1	0.17027642
64	0x3f873c5e	1.0565298
65	0xbfafaca7	-1.3724564
66	0x3d13a141	0.036042456
67	0x3fb5f6f3	1.4215988
68	0x3f8baa93	1.091143
69	0xbf1c28c7	-0.6099972
70	0xbda113fb	-0.07865139
71	0x3e437a6e	0.19089672
72	0xbef40c30	-0.47665548
73	0xbfabd511	-1.3424398
74	0x3f640930	0.8907652
75	0x3f2b3fc0	0.6689415
76	0x3e9fd424	0.31216538
77	0xbfa3b910	-1.2790852
78	0xbf8750dd	-1.0571553
79	0x3fc2d812	1.522219
80	0xbf635c08	-0.88812304
81	0xbccc7d53	-0.024962103
82	0xbf33d2fd	-0.7024382
83	0xbf62e9de	-0.88638103
84	0xbbcf6a42	-0.0063298056
85	0xbf245856	-0.6419729
86	0x3e041e96	0.12902293
87	0x3f51eb3b	0.8199956
88	0x3ce4aacc	0.027913474
89	0x3e3c2364	0.18372875
90	0x3e232b07	0.15934382
91	0x3e83c43a	0.25735646
92	0xbe8ed0d5	-0.278937
93	0x3d1bdd25	0.038052697
94	0x3fa07c8a	1.2538006
95	0x3dac95e6	0.08427028
96	0x3ee31c90	0.4435773
97	0x3eb9677e	0.3621177
98	0xc04be4d2	-3.185841
99	0xbe769b67	-0.24082719
100	0x3e89a4b5	0.26883474
101	0xbf4b5410	-0.79425144
102	0x3fa6521b	1.2993807
103	0x3fc755a8	1.5573015
104	0x3f464438	0.77447844
105	0x3dd1afdb	0.1023862
106	0xbf898e02	-1.0746462
107	0xbfa2d627	-1.2721604
108	0xbf9d7dc3	-1.2304004
109	0x3f8e5754	1.11204
110	0x3f2e4b47	0.68083614
111	0xc0118bbf	-2.2741544
112	0x3f03296f	0.512351
113	0x3f662876	0.8990549
114	0x3d8f1f5a	0.06988402
115	0xbf992173	-1.1963333
116	0x3f25fabb	0.6483571
117	0x3f312528	0.6919732
118	0xbd3d28a3	-0.046181332
119	0x3f7ba77f	0.98302454
120	0x3f011ed7	0.5043768
121	0x3c94729a	0.018121053
122	0xbfaa8662	-1.332226
123	0x3f71dddf	0.94479173
124	0xbe9068e7	-0.28205034
125	0xbe891826	-0.26776236
126	0xbea6538d	-0.3248562
127	0xbf7290b9	-0.9475208
128	0xbe76bbd4	-0.24095088
129	0xbf67b83d	-0.905155
130	0xbe81d992	-0.25361305
131	0x3eb37327	0.35048792
132	0xbfbcba87	-1.4744424
133	0x3e8b7417	0.27237007
134	0x3dfaea1b	0.12251683
135	0xbf37651d	-0.7163866
136	0x3f2c253f	0.67244333
137	0xbf024d9e	-0.50899684
138	0xbf1d122a	-0.6135584
139	0x3f76c70d	0.9639748
140	0x3ebde840	0.37091255
141	0xbdb2472f	-0.087049834
142	0xbf3cda80	-0.73770905
143	0x3f085642	0.5325662
144	0x3edc7aa6	0.43062323
145	0x3d70155d	0.058614124
146	0x3f31d41f	0.69464296
147	0xbf526862	-0.82190526
148	0x3eb04d45	0.34433952
149	0x3cbac766	0.022800159
150	0x3fed7828	1.8552294
151	0x3faf86a2	1.3712962
152	0x3f8fd9f0	1.1238384
153	0xbf867698	-1.0504942
154	0x3f6354b6	0.88801134
155	0xbf80f072	-1.0073378
156	0x3ca2e4f2	0.01988456
157	0x3f9d42ed	1.2286049
158	0x3e808585	0.25101867
159	0x3ef9fc06	0.4882509
160	0xbfa04cca	-1.2523434
161	0x3f0536be	0.52036655
162	0xbf059efd	-0.5219572
163	0x3fa15d4f	1.26066
164	0xbd3793cf	-0.044818696
165	0xbe9d0c22	-0.3067332
166	0xbd553f60	-0.052062392
167	0x3e6dd1e9	0.23224606
168	0xbf34c0d1	-0.70606714
169	0x3e58a9bb	0.21158497
170	0xbe1e2b45	-0.15446194
171	0x3b67535c	0.0035297489
172	0xbe02d83b	-0.12777798
173	0xbe652e67	-0.22380982
174	0x3f1662ae	0.58744323
175	0x3e4d1297	0.20026623
176	0xbf1fcdc0	-0.62423325
177	0x3f806c40	1.0033035
178	0xbf93c70a	-1.1545117
179	0x3f2e42a9	0.68070465
180	0xbd749e1a	-0.05972109
181	0xbf8f53c5	-1.119744
182	0xbcd6a9ad	-0.026203955
183	0xbec37051	-0.38171628
184	0xbf9d4090	-1.2285328
185	0x40180ee1	2.3759081
186	0x3e0e03d3	0.13868646
187	0x3f9adc09	1.2098399
188	0x3eefd0fe	0.46839136
189	0xbeb44a85	-0.35213104
190	0xbdd02dfe	-0.10165022
191	0xbf690670	-0.9102545
192	0xbe045b48	-0.12925446
193	0xbe5a1149	-0.21295656
194	0xbceeea19	-0.02916436
195	0x3ecd581a	0.4010628
196	0xbf917135	-1.1362673
197	0xbf28ac8d	-0.6588829
198	0xbbe92d26	-0.007115978
199	0xbf39cafb	-0.7257535
200	0xbe6bd598	-0.23030698
201	0xbeaa24e0	-0.33231258
202	0xbee76e71	-0.45201448
203	0xbe434ad4	-0.19071513
204	0xbf1c2e21	-0.6100789
205	0xbe519f6e	-0.20470974
206	0xbeca13cc	-0.3946823
207	0x3db618a8	0.088914216
208	0xbe9e52f2	-0.30922657
209	0xbbda4609	-0.006661181
210	0x3f1ef1be	0.6208762
211	0x3cbe0782	0.02319694
212	0xbfb9ac39	-1.4505683
213	0x3df92d9f	0.12166905
214	0x3e2d7438	0.16938865
215	0x3cf7bfe3	0.030242866
216	0x3e9b181b	0.3029183
217	0xbedc547e	-0.43033212
218	0x3f4bf793	0.79674643
219	0xbf52bc46	-0.8231853
220	0xbdf59078	-0.11990446
221	0x3fc711ed	1.5552346
222	0x3f7d2759	0.98888165
223	0x3e196d66	0.14983138
224	0xbc1d8757	-0.009614787
225	0x3e36fec4	0.17870623
226	0xbfc234d8	-1.5172377
227	0xbf0f9bff	-0.56097406
228	0x3d4c2c3c	0.049846873
229	0x3e9f014f	0.31055686
230	0x3d202f2d	0.03910749
231	0x3f97c447	1.1856774
232	0xbf47f7c5	-0.7811244
233	0xbf32cab0	-0.69840527
234	0xbfe16646	-1.7609336
235	0x3f087b2b	0.5331294
236	0xbd33059c	-0.04370652
237	0x3f9dff05	1.2343451
238	0x3f12c59b	0.5733277
239	0xbecf6487	-0.40506384
240	0xbf8c63dc	-1.0967975
241	0xbf01be3e	-0.5068091
242	0x3f286719	0.65782315
243	0x3e2165e4	0.15761524
244	0x3eeba910	0.46027422
245	0x3c49f9b5	0.012327601
246	0xbddb4fa4	-0.107085496
247	0x3f47cb78	0.78044844
248	0xc001b413	-2.0266159
249	0x3fc7187e	1.555435
250	0x3e29db18	0.16587484
251	0xbc05f26e	-0.0081754755
252	0x3ed247de	0.41070455
253	0xbd8dcda1	-0.06923986
254	0x3e93e5db	0.28886303
255	0xbf7f50f4	-0.997329

fc1.bias f4 [8]
0	0x3df05726	0.11735372
1	0x3ea8ce9c	0.3297013
2	0xbf30d615	-0.69076663
3	0xbf4cd22f	-0.80008215
4	0xbf36b5b2	-0.71370995
5	0x3c4e9f74	0.012611259
6	0xbe1a1ff5	-0.15051253
7	0xbe468cb2	-0.19389609
