src/main/python/saved_models/java_1_37_RNNClassifier1_128embs_109id_32hd_1hl_Falsebid_0.pt (torch, 79327 bytes, 7 tensors)

word_embeddings.weight f4 [109, 128]
00000000: 61f1 89bf 7da5 87be 58f8 2dbf 246a 7ebf
00000010: e2ce b2bf ab26 f0be d7fd a7be e20e 92bf
00000020: d042 9bbf 16d2 123f 9e1a 82bf 9272 17bf
00000030: 23d3 aabf f3a0 1940 e454 4f3f 94df 193f
00000040: f0f6 99be 0c05 abbf 5ced 3c3d a3dc 493f
00000050: 5703 c73f 41e8 533e e48e efbe 253d 833f
00000060: f4cf d43f 36c0 ecbe 994c 2cc0 7b46 16c0
00000070: b2db f7be 5ae9 93bc c0d3 c7bf bcff 44bf
00000080: 0af0 a73f 8457 90be d360 e53e 1edc c4bf
00000090: 79fd 40bd 4745 08be b1bd 573f 32c5 62bf
000000a0: 7c4c c73e a2f8 a3be 9359 bdbe 3778 033f
000000b0: e606 3c40 d49e 3bbf c840 0e40 b997 8dbf
000000c0: bd10 d6be c0ba 0e3f 701f 14be 80d5 85bf
000000d0: 61d3 d03f 2b6c a03f 46d1 de3f 941f b73f
000000e0: a410 a9be 083c d83f 7dbb ecbe 6758 b5be
000000f0: c237 0e40 d189 74be d9b3 6cc0 7aef a6bf
00000100: 7124 e3bd bdaf a9bf da97 b5bf c612 c8bf
00000110: c84e b33e dfea 553f 8098 0640 9f6e 313e
00000120: e6db 33bf 1b83 8ebd 1339 dfbf 09cc 26bf
00000130: a07e 4b3f 5ffc 54bf 4f90 5a3f e70f 65bf
00000140: 303d 68be db97 153f f7b2 51bf 7caa b73f
00000150: f0d2 f3bf 4a08 9fbe 1f5b 263f 5f67 8cbe
00000160: 1cd9 4d3f d539 683e af02 babe da8d cbbc
00000170: fb55 a8bf 3b21 e3be 0fda 613f 6fdb ce3f
00000180: 8309 143f 3932 ad3f 23bb bc3d 284f 49bf
00000190: 0d87 aa3f f27b 68bf 671f 16bf e2a9 c83f
000001a0: 1786 b93f e727 dfbe 79f4 10bf 5ae0 c93d
000001b0: b9a9 a3bf e587 d0bd b145 d9bf affe 05c0
000001c0: 4011 833f 350c 5cbf 4f69 5e3f 9fa8 883d
000001d0: a650 4c3f 8cb7 8c3f bb73 463e ec9b fdbe
000001e0: c6e8 d63f dff8 6dbe c680 0fbe d1a6 bf3f
000001f0: 2570 28c0 b781 8d3f 30c3 04bf 86ef c7bc
00000200: 865d 363f 9764 e3bf bd2d b53e ed8c 993f
00000210: 7a22 9bbe 0784 e1bf 2d85 223f 7aea 4dbf
00000220: e938 cebf 0391 efbf 8707 0b3f 3c22 293f
00000230: bfe4 1240 a3c6 2c3f 1f4e db3f c0aa e5bf
00000240: 8a7f aebf 48b4 7bbf 3071 c13f a451 243f
00000250: 5028 f23e 2970 dbbe a226 0d3f 4010 c6bf
00000260: ffa2 043f 352f da3d edd9 893e ff91 a93f
00000270: 8e7d df3f a06f ed3f 9bd4 34bf 4da7 2340
00000280: 0ec7 d53e e8d2 59be 7d07 57bf 950c d7be
00000290: d8c0 1fbf 1430 7abf b3f5 5f3f 79be 7c3f
000002a0: ca80 9e3e f8a5 c23f 1b45 9a3f 4965 e8bf
000002b0: 8392 cebe 8a8a 75bf 63a5 aabb ff82 a1bd
000002c0: baf9 573f b335 953f 07e5 063f b143 cf3f
000002d0: 26c7 76bf b8ea 103e bd96 27be f368 b7be
000002e0: a673 dc3f 436e 9bbe 709b 743e 3b08 ac3f
000002f0: fe67 d33d 68d8 8c3f b5f0 aebe cd84 723f
00000300: 438a 11bf b46c 563f fe4e e43f 671d 48be
00000310: 8bd1 033f 257a ecbf e9ab 3ac0 883c 11bf
00000320: 5791 0abf 202a 653f fbeb 61bf c824 083f
00000330: 07dc c5bf 8275 31be 5a6e 3a3f d1b8 693d
00000340: facf 673f fdec 853f d845 05bf 8e69 ad3f
00000350: 78d6 703e ed05 f53f 850f eb3f 478a a93f
00000360: fc10 78bf 9f35 a03f e7eb 9a3f ce25 07bf
00000370: cecf 5f3e cd05 13bf 1383 ba3f adae e23f
00000380: 6030 d33f b42f ddbe 0ac4 8abe 7b36 b8bf
00000390: 059f 9f3f 8e0d a33f 802a c83e 7440 c63e
000003a0: 3d7d a3bd 7df6 ae3e 59e6 723f d024 b1bf
000003b0: dcae dc3f 5058 17c0 1ef3 6dbf 0e56 963e
000003c0: 924b 5c3e 283f 703f 4f9c bb3f 1b75 0ebf
000003d0: e3ad 3ebf 4d02 4fbe 102e 6bbe 3e80 ae3a
000003e0: 2a24 c03e dec0 14bf d582 12bf 6c3e 813f
000003f0: b55e d8bd 4700 97bf a7ea b9bd 4328 103f
-1.0776788 -0.26493445 -0.6795707 -0.9938071 -1.3969386 -0.469045 -0.32810852 -1.1410792
-1.2129765 0.57351816 -1.0164373 -0.59159195 -1.3345684 2.4004486 0.8098891 0.6010678
-0.3007121 -1.3360915 0.0461248 0.7885229 1.5547894 0.20694067 -0.46788704 1.0253035
1.6625962 -0.46240395 -2.6921751 -2.3480518 -0.48409802 -0.018055607 -1.5611496 -0.7695272
1.3120129 -0.2819177 0.44800434 -1.5379674 -0.04711673 -0.13307677 0.8427382 -0.88582146
0.3892554 -0.3202563 -0.36982402 0.5135531 2.937921 -0.7328923 2.222704 -1.1061927
-0.41809645 0.5575371 -0.14465117 -1.045578 1.6314508 1.253301 1.7407615 1.4306512
-0.33020508 1.689332 -0.46236792 -0.35419008 2.2221532 -0.23880698 -3.698477 -1.3041832
-0.11090935 -1.3256756 -1.4186966 -1.5630729 0.35021043 0.8356151 2.1030579 0.17327355
-0.70257413 -0.069586 -1.7439293 -0.6515508 0.7949009 -0.8319759 0.8537645 -0.8947739
-0.22679591 0.5843484 -0.81913704 1.4348903 -1.9048748 -0.31061012 0.6498279 -0.27422616
0.8040941 0.22678311 -0.36330172 -0.024847914 -1.3151239 -0.4436129 0.88223356 1.6160716
0.57827014 1.3530952 0.09215381 -0.7863641 1.3322464 -0.90814126 -0.58641666 1.5676844
1.4494046 -0.4358513 -0.56623036 0.09857245 -1.278617 -0.1018217 -1.6974393 -2.0936697
1.0239639 -0.85956126 0.8687944 0.06672787 0.7981056 1.0993514 0.19380085 -0.4953302
1.6789787 -0.23239468 -0.14013967 1.4972783 -2.6318448 1.1055211 -0.5186033 -0.024406206
0.71236455 -1.7765073 0.35386458 1.1996132 -0.3029974 -1.7618417 0.6348446 -0.8043591
-1.6111118 -1.8716129 0.5430836 0.6606786 2.2952116 0.67490596 1.7133216 -1.7942734
-1.3632672 -0.9832196 1.5112667 0.64187074 0.4729638 -0.4285901 0.55137074 -1.5473709
0.5181121 0.10653535 0.26924077 1.324768 1.7460191 1.854969 -0.7063691 2.5570862
0.4175343 -0.2127186 -0.839958 -0.42001787 -0.6240363 -0.9772961 0.8748428 0.9872814
0.30957633 1.52069 1.2052339 -1.815591 -0.40346155 -0.9591452 -0.005207704 -0.07886314
0.8436543 1.1657013 0.5269322 1.6192533 -0.96397626 0.14152038 -0.16366096 -0.35822257
1.7222793 -0.3035756 0.2388742 1.3440012 0.10322569 1.1003542 -0.3416802 0.9473389
-0.56851596 0.8375962 1.7836607 -0.19542466 0.5149161 -1.8474776 -2.9167426 -0.5673299
-0.5412802 0.895174 -0.882507 0.53181124 -1.5457772 -0.17329982 0.72824633 0.05706102
0.9055172 1.0462948 -0.520597 1.3547838 0.23519313 1.9142433 1.8364111 1.3245324
-0.96900916 1.2516364 1.2103242 -0.5279206 0.21856615 -0.57430726 1.4571251 1.7709557
1.6499138 -0.43200457 -0.2710269 -1.4391626 1.2470404 1.2738512 0.39094925 0.3872105
-0.07982872 0.3417243 0.9488273 -1.3839359 1.7240863 -2.3647652 -0.9294909 0.2936253
0.21513203 0.9384637 1.4657077 -0.5564744 -0.7448408 -0.20215721 -0.2296679 0.0013313366
0.3752759 -0.5810679 -0.57230884 1.0097175 -0.10564939 -1.179696 -0.090779595 0.56311435

rnn.weight_ih_l0 f4 [32, 128]
00000000: acd8 973d d934 14be c5d3 31be d697 393d
00000010: 5ef5 a0bc 9ede dbbd 936c d9bd 28e0 0a3f
00000020: a68b 9c3e e4ad b63e e0e8 5f3e 48fc 16be
00000030: 236b ddbe 9771 473e fd05 a9bc 9ace adbd
00000040: d00a bebd 7a04 c7bd f7a5 3a3e 611d 553d
00000050: fe93 59bc bf2c 543e be4e 05be 7bef f13c
00000060: d1ba 923c 8c3a fbbd 7492 123e 998f e3be
00000070: 2dea b93d 29db 663e bfc6 b5be cc20 28bf
00000080: 3868 1ebe bb35 323d efd2 2f3a 9fa3 dabe
00000090: 207a 3a3e 4e14 963e 2ec5 3b3d 8576 febd
000000a0: 3a24 3ebe f171 28be 90e6 8cbe 3d5f 3bbd
000000b0: 00bc 803d 47a0 90bd b683 1bbe 8aab d3bd
000000c0: a928 6bbd ddcc acbd 3aac 9a3d 4410 073e
000000d0: d4e5 053e aedb f53c adda a63d 9604 2c3c
000000e0: 81bd d63d f23f 3fbe bed8 2bbe ec2d 3d3d
000000f0: e7cd fc3e 41b7 0bbd 0332 e53d dc66 79be
00000100: 614b f1bd 0bb0 49be 02de e83d 9857 19bc
00000110: 87fa 9f3e a0f5 bd3d 81b0 efbc e085 2f3e
00000120: cb5a 64be a76d 68be 4578 29be 2ca1 223c
00000130: 1ff2 4a3e 7ea2 05be b834 9d3d f2a7 c4bd
00000140: ffe6 ae3e d501 68bd e380 1c3d 9a54 f13d
00000150: f611 24be 5f62 263e 5e0b 733d c363 acbd
00000160: 4a89 813e 1a2b 3fbc 4620 963e 136d 5a3e
00000170: 32c2 cc3c 470d 60bc 99c6 06bc 531f aa3c
00000180: 37bd fabd 6307 933d 1dd9 23be c98f 133e
00000190: a928 bc3d 0dc3 aebe 7eff b2bd db82 b13d
000001a0: 396a 0c3e a410 0b3d a98e 33be 8e75 0e3e
000001b0: bccd 88bd 3ee9 8e3c 9877 3ebe 728a 883c
000001c0: 1aa7 cfbe 5b04 413e c226 0bbe 3a96 85be
000001d0: eba1 2dbe 5006 a63e c3ba 51be 7cc3 96be
000001e0: f7a5 653d 408a 223e 469c a8bb 88cd 843e
000001f0: 63a4 94be b672 633c ee4f 2abe e6b2 b7bd
00000200: 2493 873c 252e 64be 7f3d 0f3d db3e 4bbe
00000210: 73ea a83d 1938 663d bb06 5dbe cb72 333d
00000220: 3617 993d 8524 a0be 2de4 f93d c351 843d
00000230: 33f6 863e 6fbc 5a3e 7efc cbbe 4d02 00bd
00000240: 9a66 9d3e d68c adbd dbd2 173e 455e 9d3d
00000250: 6fe2 cebc 983b dbbd a6dd 483e 97f3 93bd
00000260: 9621 a6be 78d5 8bbe 7887 bd3e 8fb0 5d3e
00000270: 6ae3 45bd 3891 ff3d 920a da3b 2439 3a3d
00000280: 1d7d 9bbc 2f8a 9a3e 46d3 76be f9de 543e
00000290: 3b46 6b3d 7b13 ffbd a0cb 83bd 6fc4 d6bd
000002a0: 5bf8 11be f287 993c 5b8a a9bd c385 193e
000002b0: 9afb e83d 7160 403e 382a 5abd 85e1 45bd
000002c0: d812 a4bc 4462 c33e 160e 62be 0851 d8bd
000002d0: 5415 18bd d8aa 983d 6123 b1bd 8efe 49be
000002e0: c32f 8d3d ed4c 26bc e10b 5a3e ed4b 4a3e
000002f0: ad79 0a3d 7e8d a6be bd22 91bd 5086 51be
00000300: a2af d73d 992d 083e 9fe1 09be de13 9a3e
00000310: 7884 16bd 8f90 2bbe 1985 08be 58d8 983b
00000320: b152 bc3c 486f 9b3d 4935 233e 8f1b fb3d
00000330: 1d8c f3bc b63a 8dbe d36c 30be c1d2 333e
00000340: f5d8 023e 6822 1dbe 95f8 f63d c563 debe
00000350: 15de ddbd 698d 25be 60e4 c3bc 363a 3b3e
00000360: 2b86 8cbd 5524 91be 6788 e3bc 01e0 6f3e
00000370: 47c5 ec3d e188 b0bc 83b9 cdbd 113c 9e3a
00000380: ea23 0f3d d501 c53d d85a 943e be87 cfbd
00000390: 0e15 953d dbe8 fbbc 1ee6 87bd 1481 9dbd
000003a0: 9339 90be 19a6 813e 293b 8a3e fc42 70be
000003b0: 8ae4 7cb9 de17 b03d 8b20 6d3d 9ffd 9b3e
000003c0: 2440 9cbd ffc8 2ebe 2787 febd 27df 3f3e
000003d0: fd80 16bf 60f9 cb3d b356 983d aef6 92be
000003e0: 7ecb a33d c132 86be 84c6 693e dee9 923d
000003f0: 6055 c13d 034a 963e 1002 473d c79b 833e
0.07414374 -0.14473285 -0.1736594 0.045310818 -0.01964825 -0.1073582 -0.10616412 0.54248285
0.30575293 0.35679543 0.21866179 -0.14744675 -0.432458 0.19476925 -0.020632738 -0.08486672
-0.09279406 -0.09717651 0.18227373 0.05202997 -0.013279913 0.20720194 -0.13018319 0.029533138
0.017911347 -0.12267026 0.1431368 -0.44445494 0.090778686 0.2254454 -0.35503194 -0.65675044
-0.15469444 0.043508273 0.0006707152 -0.42702958 0.1821065 0.29312366 0.045842342 -0.124249496
-0.18568507 -0.16449715 -0.27519655 -0.045745123 0.06285858 -0.070618205 -0.15186962 -0.10335453
-0.057411823 -0.08437512 0.07552381 0.13189799 0.13075954 0.030011978 0.08147178 0.01049914
0.10485364 -0.18676737 -0.167819 0.046186373 0.4937584 -0.03411031 0.111911796 -0.24355644
-0.117819555 -0.19696061 0.1137047 -0.009359263 0.31245825 0.09275365 -0.029258968 0.17140913
-0.2230026 -0.22698079 -0.16549785 0.009926122 0.19818924 -0.13050267 0.07676071 -0.096023455
0.3416061 -0.056642372 0.038208853 0.117837146 -0.16022477 0.16248463 0.059337012 -0.084174655
0.25300056 -0.011667991 0.29321498 0.21330671 0.024994943 -0.013675041 -0.00822606 0.02076689
-0.12243121 0.07179143 -0.16000791 0.14410318 0.09187443 -0.34133187 -0.087401375 0.08667537
0.13712396 0.033951417 -0.1753489 0.13912031 -0.06679866 0.017445203 -0.18600309 0.016667578
-0.40557176 0.18849318 -0.13589004 -0.26091176 -0.16956298 0.3242669 -0.204814 -0.29446018
0.05606648 0.1587305 -0.0051455824 0.25938058 -0.29031667 0.01388233 -0.16632053 -0.08969669
0.016549654 -0.22283228 0.034970757 -0.19848196 0.08247843 0.056205843 -0.21584599 0.043810647
0.0747513 -0.31277862 0.12201724 0.06460907 0.2635971 0.21360944 -0.39841074 -0.031252194
0.3074234 -0.08474128 0.14826529 0.07683996 -0.025254456 -0.10704726 0.19615802 -0.072241955
-0.324475 -0.273113 0.37017417 0.21649383 -0.048312582 0.1247887 0.006654092 0.04546465
-0.018980557 0.3018355 -0.24104032 0.20788182 0.057440024 -0.124548875 -0.06435323 -0.104866855
-0.14254896 0.018741582 -0.08278342 0.14992432 0.11376114 0.1878679 -0.05326292 -0.048310775
-0.020028517 0.38160908 -0.22075686 -0.105623305 -0.037129715 0.07454461 -0.08649326 -0.19726011
0.068938754 -0.0101501765 0.21293594 0.19755526 0.033807445 -0.32529825 -0.07086704 -0.20461392
0.10531546 0.13298644 -0.13464974 0.30093282 -0.036747426 -0.16754363 -0.13332023 0.004664462
0.02298865 0.075895846 0.15938295 0.12261116 -0.029729897 -0.27583855 -0.17229013 0.17560865
0.12778075 -0.15345156 0.12059132 -0.43435493 -0.108333744 -0.16167225 -0.023912609 0.18283924
-0.06861528 -0.28348032 -0.027775003 0.23425294 0.11561065 -0.021549644 -0.10045149 0.0012072345
0.03494636 0.0961949 0.28975558 -0.10133313 0.072794065 -0.030750683 -0.06635688 -0.07690635
-0.28168926 0.25322035 0.2699826 -0.23463053 -0.0002411773 0.08598302 0.057892364 0.30466935
-0.07629421 -0.17068861 -0.12428122 0.1873747 -0.5879057 0.09959674 0.074384116 -0.28703827
0.079977974 -0.26210597 0.22829634 0.07173513 0.09440112 0.2935334 0.04858595 0.25704786

rnn.weight_hh_l0 f4 [32, 32]
00000000: 86fb ae3e bb0d b1bd 41ce e93d 5954 b9bc
00000010: 4131 1e3f ad37 143e f399 d33c 78f5 89bf
00000020: e27f bc3c b47a bebe a31e 2dbe e280 ad3d
00000030: cafb bb3e 0af9 fbbd f32c 003f 788e 47bc
00000040: 2a05 d4be 2411 4d3e f59b 263e 5372 fd3e
00000050: 0b63 bcbe 94cc 2f3e f8ac 12bf 09ce 9f3e
00000060: 3513 24bf d05e c5bd 06e7 113e 78ae ee3d
00000070: 2913 74bb fdb1 073e 9453 f93e 452d 54be
00000080: 7ebd 223e 3e80 083e 0770 033e 4063 8abf
00000090: 6e11 25be 5e68 22be b413 37bd d7cd 9d3e
000000a0: f268 47bf ceaf db3e 1c53 e8bc 0f2c d4be
000000b0: 2acc d5be 2bcd c6bb dfd0 64bf dfbb e73e
000000c0: 9730 963b 1033 a2bd 6db9 26be 2af6 a63c
000000d0: 17a1 bc3e 1a5c ff3d a80c c73b 975e 24be
000000e0: d83a 443e 3580 a93e bb73 edbe 2863 25be
000000f0: 36c7 9b3d 1d9d 023f 1929 21bf 4e95 77be
00000100: 7127 08be 61e0 08bd ec39 a63d ee98 933d
00000110: c0ae 383e 31e7 a13b 256b 463e 05d3 49be
00000120: bb0c 193f 8567 4c3e d6ca 5fbe e950 8cbd
00000130: 3c0e 593e 0ed2 e5bd 02f1 f13d 5fa8 97bd
00000140: 754e 72be 80d4 a33a 4065 c2bd acb1 8cbb
00000150: 6879 043f fccb 783e 4e51 6cbe a2a5 8fbd
00000160: 3cd8 0dbf 3fae 323e 4556 343c 7b13 f03c
00000170: de4e 06be f71c 7dbb 5fae e6bc 5499 f93c
00000180: fcd2 b6be c4eb 6cbe 108c 3ebe 6e47 80bd
00000190: f506 55be 079b 153e 6b5e 38be e585 363f
000001a0: da2c 2bbe b8a8 813e 4d6e a4be 4984 213f
000001b0: d3b8 6d3e a081 0e3e cefd 123e 91c5 213f
000001c0: 51b7 193f 0b38 0ebf 34bf b8be cb0d dbbe
000001d0: 81a3 993e 4ab9 9f3e ddb7 403f c07a f7bd
000001e0: fd47 b13e 2346 143f 4311 103f e382 0bbc
000001f0: a7fe d1bc 201d fe3c c7e3 5cbe d08f 393f
00000200: ed21 cc3e d9ec 88be 60f3 b63e 5261 8b3e
00000210: 8a81 efbc 1de4 173d 975a 2ebb 92fa 6fbf
00000220: 75eb d5bd ae51 1b3d 5a89 12bf 3392 913e
00000230: f5f1 8abe 1788 fcbe 0144 0fbe 4262 3d3e
00000240: 8280 42bf c4a7 733c cf7d 52bd f6be c5be
00000250: 1da6 dbbe de5a d13e f302 c5bd 9500 c03e
00000260: 4f52 3bbe 25e6 023f b9ec 733e e71d 8abe
00000270: d661 343c d946 32be d3a6 06bf b9dd 3c3e
00000280: 2c76 c7bd 16ea da3c 2380 db3d 4947 d73e
00000290: 68cb 11bf c9a3 a03e 4473 c0be c38f 693d
000002a0: f517 e7be 4428 d6be 8f70 8fbd 6ec0 623d
000002b0: 6040 4a3f adf4 b4be 9614 b53e 7431 c5bd
000002c0: c4aa 473d 7fde 71be c1c6 41be 08a5 b53b
000002d0: 3c8c 50bf e779 1bbe c3ec 103e 7055 82bf
000002e0: 0009 4fbe 8519 07bf a0d0 d93d fef0 643e
000002f0: b895 e3bd 55e9 58be 1ef9 db3d 12b4 92be
00000300: cf87 7abe e07a 8e3d c2e1 01bd af7d c2bd
00000310: 43ca 003e 577a 2bbe 5c93 1c3e 6ebf 383e
00000320: 9943 06bf 921e 3b3f eca8 7d3e ad50 f6bc
00000330: 982f 6abd 34b0 8e3e 97ef 9e3d e171 98be
00000340: 7d11 6dbe acb3 0cbd fcfd 433d 16f5 26be
00000350: b20a f6be b8ff 823d f4d4 963e b926 3e3f
00000360: c052 9e3e 36e2 6b3f ae8d ec3e d1cf 47bf
00000370: 49bf 643e fe7d d93e 7a6a de3c 706b 9b3d
00000380: 33db 8bbe c0ad 4f3e 6d4c 0a3d db09 843f
00000390: b054 9bbf 33c8 943d aa38 68be a4e5 d03e
000003a0: 49ea 07bf b8d9 953d 0bde 77ba 812c 853e
000003b0: 609f 1d3d 6ece a1be f583 113f 3338 88be
000003c0: b9b7 363f e4d3 3b3f c2c5 64bc 99bc 11bf
000003d0: 4573 75bd 689d 373d 276b ac3d 6262 9bbe
000003e0: a90f b23e 1486 bc3e a76c 37be 2483 493e
000003f0: 524b 9a3d 75e6 14be cd61 a53e 9b1c d5bd
0.34176272 -0.08645197 0.11416293 -0.022623228 0.61793905 0.14474364 0.025830245 -1.0778036
0.023010198 -0.3720299 -0.16906218 0.08471848 0.36715537 -0.1230336 0.5006859 -0.012179963
-0.4141019 0.2002607 0.1627043 0.49501285 -0.36794314 0.17167884 -0.5729518 0.3121188
-0.6409181 -0.09637225 0.14248285 0.11654371 -0.0037242866 0.13251491 0.48696578 -0.20720394
0.15892598 0.1333017 0.12835704 -1.0811539 -0.1611993 -0.15860125 -0.044696525 0.30821106
-0.7789451 0.42907566 -0.028359942 -0.41439864 -0.41757327 -0.0060669384 -0.8938121 0.45260522
0.004583429 -0.07919896 -0.16281672 0.020381052 0.36841652 0.12468739 0.006074507 -0.16051708
0.19163072 0.33105627 -0.46377358 -0.16151106 0.07606356 0.51020986 -0.62953335 -0.24178049
-0.13296296 -0.03341711 0.081165165 0.072069034 0.18035412 0.0049408902 0.1937681 -0.19709404
0.5978505 0.19961365 -0.2185472 -0.0685137 0.21196836 -0.112217054 0.11813547 -0.07405161
-0.23662741 0.0012499243 -0.09491968 -0.004293641 0.5174775 0.24296564 -0.2307789 -0.07014014
-0.5540807 0.17449282 0.011006896 0.029306164 -0.13116023 -0.0038622 -0.028159318 0.03046862
-0.35707843 -0.23136812 -0.18608117 -0.06263624 -0.20803435 0.1460992 -0.18004768 0.71298057
-0.16716328 0.25324035 -0.32115403 0.63092476 0.23215036 0.13916636 0.14354631 0.6319209
0.60045344 -0.55554265 -0.36083376 -0.4278396 0.30007556 0.31196052 0.75280553 -0.120839596
0.34625235 0.5791952 0.5627634 -0.008515093 -0.025634123 0.031019747 -0.21571265 0.72485065
0.39869633 -0.267432 0.35732555 0.27222687 -0.029236574 0.03708278 -0.0026604289 -0.93741715
-0.104453005 0.037919693 -0.5724083 0.28431854 -0.27137724 -0.49322578 -0.13990785 0.18494514
-0.7597734 0.014871541 -0.05138951 -0.38622254 -0.42900172 0.4088964 -0.09619703 0.37500444
-0.18293117 0.5113242 0.23820771 -0.2697594 0.011009654 -0.17409839 -0.52598304 0.18443955
-0.09739336 0.026722949 0.107177995 0.42046574 -0.56951 0.31374958 -0.3758794 0.057021867
-0.45135465 -0.41827595 -0.07003891 0.055359297 0.7900448 -0.35342923 0.35367268 -0.09628573
0.04874684 -0.23620032 -0.18923475 0.005543355 -0.8146398 -0.15183221 0.14152817 -1.0182323
-0.20218277 -0.52773315 0.10635495 0.22357556 -0.11112541 -0.21182759 0.10740875 -0.28653008
-0.2446587 0.0695703 -0.03170944 -0.094966285 0.12577157 -0.16745888 0.15290588 0.18041775
-0.52446896 0.7309352 0.2477147 -0.030067766 -0.057174295 0.27868807 0.07760542 -0.29774383
-0.23151202 -0.034351036 0.04784964 -0.1630443 -0.48055035 0.06396431 0.29459345 0.74277836
0.30922508 0.92142045 0.46201843 -0.7805148 0.22338594 0.42478937 0.027150381 0.075888515
-0.27315673 0.20281124 0.03376429 1.0315508 -1.213522 0.072647475 -0.22677866 0.40800202
-0.53091866 0.07316917 -0.0009455389 0.26010516 0.03848207 -0.31602806 0.56841975 -0.26605377
0.7137409 0.73370194 -0.013963165 -0.569284 -0.059924383 0.04482785 0.08418875 -0.30348498
0.34777573 0.36821043 -0.17912541 0.19678932 0.075338975 -0.14541037 0.3230118 -0.10405847

rnn.bias_ih_l0 f4 [32]
00000000: 49a7 e63d f43e 2dbe 36df 10be be45 cf3d
00000010: bd18 5d3d 01d8 c03e 2f3b 83be b10e 05be
00000020: 736c 563d 528f 22be 7607 243e ff42 ca3c
00000030: 66b8 d33d e761 343e d8db 833e 7308 523e
00000040: ba44 c33d d33a 89bd 52d0 273e dc38 80be
00000050: 469b 913e 6614 b33d 2bda 6dbe 3ab6 04bc
00000060: 38f3 95be 6a39 08be 2100 eabd 8528 0b3e
00000070: 8c3c 4abe e4e1 e8bd 66a3 c0bd 6dc2 8ebe
0.11262376 -0.16918546 -0.14147648 0.10120724 0.05397867 0.37664798 -0.2563109 -0.12993886
0.05234952 -0.15874985 0.16018471 0.02469015 0.103379056 0.17615472 0.25753665 0.20511036
0.09534593 -0.06700673 0.16388062 -0.2504338 0.28438777 0.08744125 -0.23227756 -0.008100087
-0.29287124 -0.13303152 -0.11425806 0.13589676 -0.1974966 -0.1137121 -0.09406166 -0.2788271

rnn.bias_hh_l0 f4 [32]
00000000: 55a2 8a3e 90c0 26be f7b1 30be 514b 41bc
00000010: 51d3 80be 6bbe 443e 9231 7cbe d97f 62be
00000020: 7486 a93d c648 58be 7022 2d3e 9ef5 e63c
00000030: 41ab b73d 45fa 6e3e c6b0 813e e7f4 423e
00000040: d75c 4b3d 1559 6fbe a54a 983d 2b3b c8be
00000050: 96c2 9f3e 8048 63bd d0ac b7be 2d21 ecbd
00000060: d869 8abe d7fd d0bd 4b0f c4be 1f4d a43c
00000070: b837 833b 5519 f23a 8922 d8bd 4ba1 8fbe
0.27076975 -0.16284394 -0.17255388 -0.011797742 -0.25161222 0.19213264 -0.24628285 -0.22119083
0.08277598 -0.21121511 0.16907668 0.028193291 0.08968211 0.23337658 0.2533018 0.19038735
0.049649086 -0.23373826 0.07436112 -0.39107642 0.31203145 -0.055489063 -0.35874033 -0.11529765
-0.27033877 -0.10204666 -0.38292918 0.020056305 0.004004445 0.0018470684 -0.10553462 -0.28052744

fc1.weight f4 [8, 32]
00000000: 903a d33e 135e a1be d5fd a43e ce42 343f
00000010: 4e76 5fbe 94bc 083e c6f4 8fbe 3e84 9fbe
00000020: c1df 0d3f f222 4dbf 2501 9d3e f1cb 48bc
00000030: e51c 243e 9016 e1be 9cc2 1d3f d58d b33e
00000040: 3fba cabd e2f9 b5be 45a7 633e bc89 9fbe
00000050: c40c c73e 5c97 953e 45ae 66bf 0eaf e1be
00000060: c8be d0be 6b13 d5be 8805 d4be 783f f63e
00000070: b4dd db3e b34c 38bf b238 b93e a6fa bfbe
00000080: f409 efbe 5d5f 0a40 ed3d 1bc0 5e17 31bf
00000090: 1d81 30ba 2b55 ca3e 9a62 0fbf ce8f 6ebf
000000a0: fb84 cdbf d6af b73f 7731 933f 2d8e c53d
000000b0: 3f11 c43e 8513 c83f a293 adbe 4756 12c0
000000c0: 9b2d 70bf f336 dcbe 2f9c 693e cd32 c83e
000000d0: 3458 7f3f 12be 13c0 7958 82bd a909 fcbe
000000e0: 280e a0bf 7a7d 94be c79c fabd 95d1 883e
000000f0: 178d 16c0 9885 c73f e29e afbf cad8 db3f
00000100: 7ec3 9dbf 1c2e f6be fe0a c2bf 23a7 8c3f
00000110: 4ec9 5d3f 0762 a5bf aa32 113f dde9 7e3f
00000120: c47d 7abe cf8e 9e3e 5924 25be 8312 febc
00000130: 0daf 35bf f06b 6e3f e6f6 2c3f 7b4c 91bf
00000140: 3c71 ea3d 129f 0440 c8fc a4bf 9f61 28bf
00000150: a844 153f fe0f 1cbf 02aa f53e 626c 843f
00000160: 5650 363f d025 dfbe 6dd7 f73f b69e 30c0
00000170: ae57 243f aa8b 6e3f f316 bbbf a34e 1140
00000180: 2bcf 12c0 595f a1be 9f17 8d3f dccb 963f
00000190: ad2c c9be 7566 07bf c08f c63f 0f22 023f
000001a0: 9b15 953e b35f dc3f 41d9 a43f 086d 70be
000001b0: 0404 71bf c9bb 1940 ddf1 b2bf 6c30 a6bf
000001c0: 7a62 08be fd24 00bf 23f5 f93e ea7c 2a40
000001d0: 1896 d0be 8a3d a43f 7499 a23f dda0 443f
000001e0: b22f f7bd 9046 bc3f cad6 3bbe 24b7 f43d
000001f0: d3fe b2be 9418 4b3f 6218 73bf 7433 e83f
00000200: a322 23bd b776 cb3e c924 babf a8d0 703e
00000210: c777 7f3f 9d4e 0abf 721e 98be 9a08 8fbe
00000220: 157a 793e 1a90 fcbe 3179 18c0 d843 2fbe
00000230: 8dd7 fb3d 6ea4 943f ec73 a5be 6afc 23bf
00000240: 767e 723e b610 2a40 96c1 9abf c007 0740
00000250: 73a2 d3bf 1d10 0ebf e169 d1be 0c01 bd3e
00000260: a69a da3f e4f3 80be 519b 1fbf 3e0e b6bf
00000270: 28ed 20c0 a793 0140 ac71 ae3e 2352 123f
00000280: 1132 39bc 8921 66bd 1063 653d d406 46be
00000290: 7e21 06bd 2097 e6bc 432e ef3c 9727 51bf
000002a0: 4dae 56bf 284c d9be d6b5 abbe 63db 4f3d
000002b0: b82d 12bf d5e7 55bd 9fcb 0dbf 2017 dd3c
000002c0: 5c24 ccbe 0320 a9bd 1695 203d 6f27 4dbe
000002d0: e36c b3be f1ca 1bbd b898 da3e 1c40 243f
000002e0: d5f5 b13f 5039 3e3e 9866 e03e ada1 f0be
000002f0: 982e fb3c 5520 88be 9810 12bf 7fd6 66bd
00000300: c206 633d 65e3 da3d f02c 743e 7afe aebe
00000310: 9f7f 7abe dda3 e33d 4a7f 85bd 48f7 633f
00000320: 935f 35be 87f9 383f f48d babe d21b 2bbd
00000330: f05f 8f3e 1e0b 88be 931e bebd 82e4 4e3e
00000340: 1dbc 04bc 58ee dfbd 4175 75bd 7771 7ebe
00000350: ef73 82be 447a bfbd 9283 3e3f 2a0e e9be
00000360: 37b9 0abf 2bc5 8c3d 6922 f63d 2fd1 eabd
00000370: c101 efbd 571b f03e a50d 81be 013e 2abe
00000380: 7b38 583d 8c01 e1bd e911 ecbd 7c76 aabe
00000390: dd35 303e 9d00 b6bd d0e9 483e 1bec eb3e
000003a0: c022 633e b7b2 8c3f ddaa 7cbe cd51 97bc
000003b0: 1c57 533e ad50 5abe 068a 0f3f db62 023e
000003c0: 16c3 b03d 9fe0 e83d e836 fe3d 9a40 c63e
000003d0: 4215 94be c928 903b 04cf 293f 30de 1f3f
000003e0: 0982 70be c5da c93e 3b5c 453f 3eec 11bf
000003f0: 1245 923c 03a7 2f3f 893f 843f 3166 80bd
0.41255617 -0.31517085 0.32224908 0.70414436 -0.21822473 0.13353187 -0.28116435 -0.3115558
0.55419546 -0.8013145 0.30664936 -0.012255655 0.16026647 -0.43962526 0.61625075 0.35069147
-0.09898805 -0.35542208 0.22231777 -0.3115977 0.38876927 0.2921704 -0.90109664 -0.4407887
-0.40770555 -0.41616377 -0.4141047 0.48095298 0.42942584 -0.71992034 0.36176068 -0.37495917
-0.4668728 2.1620705 -2.4256546 -0.6917628 -0.00067331066 0.39518103 -0.5600983 -0.9318818
-1.6056207 1.4350536 1.149947 0.096462585 0.38294408 1.5630957 -0.33901697 -2.286516
-0.9381959 -0.43010673 0.22813486 0.39101258 0.9974396 -2.308476 -0.06364531 -0.4922612
-1.250432 -0.2900198 -0.12236934 0.26722398 -2.3523614 1.5587645 -1.3720362 1.7175534
-1.2325284 -0.48082054 -1.5159605 1.0988506 0.8663529 -1.292054 0.5671793 0.995756
-0.24462038 0.3096833 -0.16127147 -0.031014686 -0.7097023 0.9313345 0.6756424 -1.1351465
0.11447379 2.072209 -1.2889643 -0.6577396 0.58307886 -0.609619 0.47981268 1.0345576
0.7121633 -0.43583536 1.9362618 -2.759687 0.6419629 0.9318186 -1.4616379 2.2704246
-2.2938945 -0.31518057 1.1022834 1.1780963 -0.39291897 -0.5289071 1.5512619 0.5083322
0.29118046 1.7216705 1.2878801 -0.23479092 -0.9414675 2.4020865 -1.3980061 -1.2983527
-0.13318816 -0.5005644 0.48819837 2.6638741 -0.40739512 1.283128 1.270308 0.7680796
-0.12069644 1.4709034 -0.18343654 0.11948994 -0.3496004 0.7933438 -0.9495908 1.8140702
-0.039827954 0.3973901 -1.4542476 0.23517096 0.9979214 -0.54026204 -0.29710728 -0.2793625
0.24362977 -0.4932869 -2.382397 -0.17115724 0.122969724 1.161268 -0.32315004 -0.6405703
0.23681054 2.65727 -1.2090328 2.109848 -1.653395 -0.55493337 -0.40901092 0.3691486
1.7078445 -0.25186074 -0.6234637 -1.4223096 -2.5144749 2.024637 0.340711 0.5715658
-0.011303441 -0.056184325 0.056002676 -0.19338542 -0.032746784 -0.028148234 0.029196864 -0.81701034
-0.8385971 -0.42440915 -0.33537167 0.050746333 -0.5710101 -0.052223045 -0.55388826 0.026988566
-0.3987149 -0.08258059 0.03920468 -0.20034574 -0.3504401 -0.038035337 0.4269464 0.64160323
1.3903147 0.1857655 0.43828273 -0.4699835 0.030661866 -0.26587167 -0.5705657 -0.056356903
0.055426367 0.10687903 0.23845267 -0.34178525 -0.24462746 0.11115239 -0.06518419 0.89049196
-0.1771224 0.7225575 -0.36436427 -0.04177458 0.28002882 -0.26570982 -0.09283175 0.20204356
-0.00810149 -0.10934132 -0.059926275 -0.24847971 -0.25479075 -0.09349492 0.7441951 -0.4551862
-0.54188865 0.06873544 0.12018282 -0.1146568 -0.116702564 0.4689586 -0.25205722 -0.16625215
0.05278824 -0.10986623 -0.115268536 -0.3329352 0.17208047 -0.08886836 0.19620442 0.46078572
0.22181225 1.099204 -0.24674554 -0.018471623 0.20638698 -0.21319838 0.5606998 0.12733023
0.0863096 0.11370968 0.12412816 0.38721162 -0.28922468 0.004399393 0.66331506 0.62448406
-0.23487104 0.3942472 0.7709386 -0.570011 0.0178552 0.68614215 1.0331889 -0.062694915

fc1.bias f4 [8]
00000000: b523 a93e c7fd 273f 5a9e 89bf 0dfe cfbf
00000010: bdb2 c9bf e5d7 49be 1813 98be c023 92be
0.33035055 0.6562161 -1.075145 -1.6249405 -1.5757672 -0.19711263 -0.29702067 -0.285429
