src/main/python/saved_models/java_1_28_RNNClassifier1_128embs_109id_16hd_1hl_Truebid_1.pt (torch, 77599 bytes, 11 tensors)

word_embeddings.weight f4 [109, 128]
-1.6693251 -2.7591195 0.87386084 -0.4692561 0.0943116 0.65050054 -0.6043157 -1.7442206
-0.12874399 0.6439712 1.6317106 0.12145715 0.6840318 1.3079543 -0.9338228 0.5422721
-0.5711092 1.325159 -0.31000155 0.19789489 -1.6576626 -0.803228 -1.4574734 -0.25091642
-1.0189263 2.1300616 0.33034128 -1.8364024 0.97462183 0.33978784 1.3475211 -0.92655796
-0.38580224 0.06895424 -1.0511249 0.20968059 -1.332873 0.7365409 -0.28547087 1.4828597
-0.15294097 1.3698761 -0.57128155 -0.6983539 -0.5588817 -0.344671 -0.7616846 0.61313224
-0.41210207 1.2815328 0.19686851 -0.88672435 -0.36861575 0.71043104 0.45477632 0.04704879
0.1967851 0.19686152 -0.6415606 0.59680426 0.1418437 -0.88592726 -0.7256922 0.28749278
-0.30333608 1.4378704 0.7151299 -0.4208439 -0.54246706 -0.10077502 2.3776836 1.0103832
-0.45380086 0.44153544 0.6939197 0.84324586 -1.2046595 -0.30824402 -0.48287123 0.13250758
-0.117748566 1.5836616 -0.95777225 -0.5755525 -0.56509405 -1.5740122 0.627088 -0.76203823
-1.8204347 -0.17392254 1.2159817 -1.0787706 0.0662654 1.0169544 0.19266763 0.25884566
0.97853327 1.2670639 0.94913626 -0.07300861 -0.5266016 1.6139513 1.3395734 0.5492647
0.6984312 0.81947315 0.2516391 -1.1449863 0.15065476 1.6482292 1.2797154 0.50481576
0.7896734 0.72265774 -1.6307919 0.1779772 0.7023146 -0.5729681 -0.3738714 0.2814329
0.31100747 -0.10406011 -0.6622322 0.38281873 0.24507353 1.2555473 2.0873926 -0.12963359
-0.47309753 0.6699144 -0.056429945 0.7427817 1.5770493 -0.2694373 0.9324849 -0.7482445
1.4194268 0.33970302 0.8309691 -0.70228016 0.10520023 -0.39011595 2.5053573 0.033136398
0.5340372 -1.541067 -0.040159956 -0.61423814 0.35685423 -0.014166441 0.75661474 1.4657098
0.073422484 1.9446082 -1.3062202 0.20456561 -0.14921449 -0.101341024 0.8357029 1.5677075
0.21652925 1.6232997 -1.8340638 -1.0264101 1.305766 -0.815204 -2.9015472 -0.9036097
1.7877883 -0.38380638 0.6485843 -0.69162554 0.8856347 -0.72852325 -1.0148892 0.75509125
-0.7400143 0.6284325 -1.1251926 -0.3840394 0.9039067 2.0859945 0.8823199 -0.33025932
-0.16250233 0.6378533 2.117317 -0.13972044 -0.38304123 -0.40923843 1.2633446 1.0441239
0.3512667 -0.48969203 1.0484829 -0.41156715 -0.3806375 -1.513268 -1.7209394 0.92949593
1.1887279 -0.96075255 -0.39229628 0.2606632 -0.62202877 0.6011737 -1.2821605 -1.8983009
0.5636108 1.1264361 0.11274092 0.100268796 0.16365056 -0.9603281 0.27077556 0.13542473
-0.06505678 1.4357407 1.7635331 1.1295642 0.0793662 0.3302362 0.58816713 0.035366483
1.2431587 0.24015953 -0.4289372 0.5081449 -0.038076613 2.0757782 0.07611633 -1.937815
0.63362265 0.79647285 -1.0796453 0.039491337 -0.65707177 0.47147998 2.0912929 -0.23577464
-0.087674126 0.05582306 -0.24774466 -0.5594833 -1.0402774 -1.5209019 -0.5830604 -0.09950535
-0.6854309 2.1381338 -0.005522867 -0.06408137 0.82658136 0.5509684 -0.028640706 2.4593011e-05
00000000: 72ac d5bf 6a95 30c0 58b5 5f3f 5642 f0be
00000010: 7126 c13d 3487 263f 6fb4 1abf 9f42 dfbf
00000020: 77d5 03be 4cdb 243f e5db d03f 87be f83d
00000030: b51c 2f3f 0c6b a73f 030f 6fbf 58d2 0a3f
00000040: 3634 12bf cf9e a93f 86b8 9ebe f5a4 4a3e
00000050: 4a2e d4bf 5aa0 4dbf 7d8e babf 1e78 80be
00000060: 2d6c 82bf ee52 0840 7e22 a93e 3c0f ebbf
00000070: d180 793f acf8 ad3e 927b ac3f e732 6dbf
00000080: df87 c5be e137 8d3d 438b 86bf 82b6 563e
00000090: 959b aabf f28d 3c3f 3d29 92be 59ce bd3f
000000a0: 8f9c 1cbe 1a58 af3f 823f 12bf 52c7 32bf
000000b0: df12 0fbf b878 b0be c3fd 42bf 3cf6 1c3f
000000c0: 0bff d2be 4409 a43f e697 493e 5e00 63bf
000000d0: 34bb bcbe cfde 353f 71d8 e83e 3bb6 403d
000000e0: 0982 493e 1196 493e 513d 24bf 2ac8 183f
000000f0: 7a3f 113e 21cc 62bf f7c6 39bf 4132 933e
00000100: de4e 9bbe 230c b83f c112 373f da78 d7be
00000110: 1fdf 0abf 2263 cebd f82b 1840 3d54 813f
00000120: 9658 e8be ef10 e23e b9a4 313f f6de 573f
00000130: 4832 9abf 29d2 9dbe e63a f7be 11b0 073e
00000140: 2926 f1bd 6cb5 ca3f 9030 75bf 6957 13bf
00000150: 01aa 10bf 3b79 c9bf d788 203f f014 43bf
00000160: 0104 e9bf c018 32be 4aa5 9b3f 2815 8abf
00000170: 27b6 873d 902b 823f aa4a 453e 6b87 843e
00000180: 2881 7a3f 262f a23f 98fa 723f 8a85 95bd
00000190: 5dcf 06bf f595 ce3f 2477 ab3f 9d9c 0c3f
000001a0: 63cc 323f fec8 513f d7d6 803e e98e 92bf
000001b0: 3e45 1a3e 2df9 d23f b7cd a33f 9b3b 013f
000001c0: 0928 4a3f 1900 393f cabd d0bf a83f 363e
000001d0: e4ca 333f 0aae 12bf 126c bfbe f917 903e
000001e0: 5f3c 9f3e 781d d5bd 0d88 29bf d100 c43e
000001f0: 8ef4 7a3e c6b5 a03f d797 0540 abbe 04be
00000200: d739 f2be 837f 2b3f 1623 67bd f126 3e3f
00000210: c0dc c93f b0f3 89be 55b7 6e3f f48c 3fbf
00000220: c7af b53f 8eed ad3e 64ba 543f a2c8 33bf
00000230: 3873 d73d 47bd c7be c657 2040 08ba 073d
00000240: a9b6 083f af41 c5bf c47e 24bd b63e 1dbf
00000250: 99b5 b63e 5c1a 68bc 81b1 413f 619c bb3f
00000260: 875e 963d ece8 f83f 3932 a7bf a679 513e
00000270: afcb 18be e28b cfbd a0f0 553f a4aa c83f
00000280: d8b9 5d3e 49c8 cf3f 9ac2 eabf 6861 83bf
00000290: 5723 a73f 36b1 50bf f3b2 39c0 f752 67bf
000002a0: 3fd6 e43f 4582 c4be 9f09 263f 5f0e 31bf
000002b0: f5b8 623f 8080 3abf e4e7 81bf a94d 413f
000002c0: 9471 3dbf f4e0 203f 5006 90bf d0a0 c4be
000002d0: 6e66 673f ef80 0540 b8df 613f c017 a9be
000002e0: 0367 26be 5b4a 233f 1f82 0740 e012 0fbe
000002f0: fb1d c4be b387 d1be 47b5 a13f daa5 853f
00000300: 3bd9 b33e eab8 fabe b034 863f eeb8 d2be
00000310: ebe2 c2be c4b2 c1bf be47 dcbf 72f3 6d3f
00000320: 3c28 983f e1f3 75bf 0fdb c8be a675 853e
00000330: 473d 1fbf 85e6 193f d61d a4bf 86fb f2bf
00000340: cc48 103f 0f2f 903f b6e4 e63d ba59 cd3d
00000350: 0394 273e 10d8 75bf 18a3 8a3e c8ac 0a3e
00000360: 7d3c 85bd 5ac6 b73f 74bb e13f 8f95 903f
00000370: bf8a a23d b814 a93e 1f92 163f 72dc 103d
00000380: d31f 9f3f 61ec 753e a89d dbbe c915 023f
00000390: 39f6 1bbd 8dd9 0440 e1e2 9b3d 520a f8bf
000003a0: 1835 223f a5e5 4b3f d131 8abf abc1 213d
000003b0: db35 28bf d365 f13e bed7 0540 e86e 71be
000003c0: 7e8e b3bd b9a6 643d c7b0 7dbe 4c3a 0fbf
000003d0: cf27 85bf eaac c2bf 7243 15bf 76c9 cbbd
000003e0: 6678 2fbf 2fd7 0840 2bf9 b4bb 183d 83bd
000003f0: d69a 533f 440c 0d3f ea9f eabc 174d ce37

rnn.weight_ih_l0 f4 [16, 128]
-0.09473797 0.047738846 -0.15397991 0.12130217 -0.054213665 -0.24452232 -0.2625033 -0.14623281
0.07564709 -0.14758751 -0.19392549 0.13982336 0.07659907 0.10297122 -0.12769307 -0.16613774
0.13270716 0.103047565 -0.22344355 0.19751894 0.25740752 -0.08160021 -0.141398 0.106801085
0.0011267712 -0.3056479 0.17684573 -0.13440096 0.14128582 0.14439759 0.25289807 0.03442381
0.18093808 0.06138815 -0.21074897 0.07338435 0.0074369153 -0.110386975 -0.11441834 -0.0797605
-0.26808175 0.17772834 -0.323621 0.10018946 0.34546837 0.036698055 0.18189499 -0.0034329807
0.10720877 -0.18416347 0.040643573 -0.07220777 -0.05705218 0.1697475 0.13749601 0.15796506
-0.16212003 -0.23067321 0.14571702 0.18996608 -0.20009129 -0.30963257 -0.1738211 0.39146835
0.16859654 0.46756276 0.14341766 0.26563397 0.21884936 -0.004473553 0.28439173 0.0037804174
0.16968645 -0.11924399 -0.2337672 -0.102783106 0.14038499 -0.06832816 0.06360738 0.120703444
0.2259765 -0.030071173 -0.24046582 -0.424856 0.22313944 0.25774068 -0.19239183 0.111362934
-0.090757556 -0.14658076 0.031966317 0.033708975 -0.106267475 -0.14027771 0.11441362 -0.21845052
-0.19697483 0.1312118 -0.077860564 -0.07066184 0.05863097 -0.05946015 0.37486666 -0.0033277245
0.083592206 0.057846278 -0.0705891 -0.064358346 -0.020893777 -0.21410897 0.14378397 -0.169965
-0.012785186 0.039278485 -0.036481213 0.13057029 -0.06295466 -0.15652297 0.048390754 0.19413273
-0.17172155 -0.012126712 0.020915397 0.051479183 0.2763045 0.1368077 -0.093519896 0.22190434
-0.093446344 0.050510403 -0.18930617 -0.10073411 -0.2687625 0.29247087 0.2312757 -0.13750978
-0.036765665 -0.17099577 0.108738266 0.18165979 0.19449131 -0.08345676 -0.14318766 0.28793597
-0.22425987 0.05739914 0.11222661 -0.10045273 -0.10640861 0.02019908 -0.39477795 0.032181524
0.3020417 -0.07516229 0.30864793 -0.1552676 0.16509219 0.12692572 0.19835454 0.07172634
-0.16691805 0.0111559145 0.17222655 0.28579247 -0.13041762 -0.20111917 -0.27275923 0.24658045
-0.2810769 0.10220907 0.0032810222 -0.22496873 -0.1293525 0.26252985 0.3366628 -0.09979019
0.41903663 -0.058612533 -0.11705385 0.05297569 0.114174396 -0.100777686 0.05309372 -0.19740288
0.20399721 -0.03607405 0.22051115 0.010736443 0.0729428 -0.33848056 0.11995336 -0.15943846
0.17680672 0.26075882 -0.0649046 0.31714848 -0.123086065 -0.06056322 -0.23121357 0.32003346
-0.094146274 0.20474665 -0.16899714 -0.17726642 -0.24759263 -0.09208611 -0.048164446 0.0407458
-0.020798923 0.07699434 -0.37018865 -0.12852602 0.3267957 0.16047166 -0.32195064 -0.22574714
0.14183418 -0.058110017 0.16556464 0.25226963 0.26319984 0.20974645 -0.3823978 0.044261664
0.070783615 -0.32722968 0.04511875 -0.028205292 -0.27898112 0.2783409 -0.07478472 0.15875289
-0.065015785 -0.018134922 0.061036386 0.2844462 -0.03439336 0.20236503 0.11796837 -0.12875241
0.14724545 0.094593786 0.05269938 0.028917475 -0.006969763 0.12919806 0.23117979 0.2608733
0.059135582 0.163704 0.0029975697 -0.24096373 0.15859652 -0.053526625 -0.16273314 -0.044544242
00000000: fb05 c2bd cf89 433d e9ac 1dbe 466d f83d
00000010: 260f 5ebd 0f64 7abe d566 86be 0ebe 15be
00000020: ddec 9a3d 2e21 17be 6794 46be db2d 0f3e
00000030: f9df 9c3d 93e2 d23d f9c1 02be 0320 2abe
00000040: 63e4 073e 9a0a d33d 63ce 64be 6842 4a3e
00000050: ebca 833e 031e a7bd a3ca 10be 87ba da3d
00000060: 2bb0 933a e27d 9cbe 0c17 353e 68a0 09be
00000070: 3bad 103e f6dc 133e db7b 813e fbff 0c3d
00000080: d547 393e 2472 7b3d 94ce 57be 894a 963d
00000090: 5eb1 f33b 9112 e2bd 2a54 eabd 7959 a3bd
000000a0: 0342 89be 6bfe 353e a7b1 a5be 2230 cd3d
000000b0: 3be1 b03e b350 163d ae42 3a3e dcfb 60bb
000000c0: 4690 db3d 5995 3cbe e079 263d abe1 93bd
000000d0: 8caf 69bd 4ad2 2d3e c1cb 0c3e 98c1 213e
000000e0: cb02 26be 9935 6cbe d836 153e 7886 423e
000000f0: bbe4 4cbe 2988 9ebe 29fe 31be 8a6e c83e
00000100: 92a4 2c3e 6364 ef3e 14dc 123e 2d01 883e
00000110: 0c1a 603e e296 92bb cb9b 913e e1c0 773b
00000120: 49c2 2d3e 3136 f4bd ab60 6fbe f37f d2bd
00000130: 15c1 0f3e a2ef 8bbd 9644 823d 5e33 f73d
00000140: 6266 673e d257 f6bc ac3c 76be ba86 d9be
00000150: aa7e 643e 96f6 833e 5d02 45be 4012 e43d
00000160: 19df b9bd 4419 16be 1def 023d 6c12 0a3d
00000170: c3a2 d9bd f6a4 0fbe b051 ea3d 7eb1 5fbe
00000180: c5b3 49be 635c 063e 5c75 9fbd 28b7 90bd
00000190: 0727 703d 7c8c 73bd 86ee bf3e f415 5abb
000001a0: 6432 ab3d 38f0 6c3d 0591 90bd 4fce 83bd
000001b0: 6d29 abbc 623f 5bbe 1b3c 133e 4e0b 2ebe
000001c0: f578 51bc 7ae2 203d 536d 15bd 38b4 053e
000001d0: 5fee 80bd 8f47 20be 6235 463d bbca 463e
000001e0: c6d7 2fbe 1eaf 46bc c456 ab3c d6db 523d
000001f0: c977 8d3e 5117 0c3e 5c87 bfbd e43a 633e
00000200: cc60 bfbd ffe3 4e3d 7ad9 41be af4d cebd
00000210: 3d9b 89be bebe 953e 89d3 6c3e 5dcf 0cbe
00000220: 9897 16bd 8419 2fbe 2bb2 de3d 0605 3a3e
00000230: bb28 473e 61eb aabd c99f 12be 586c 933e
00000240: 61a4 65be 5c1b 6b3d 11d7 e53d 29ba cdbd
00000250: c2ec d9bd 8b78 a53c 5620 cabe c6d0 033d
00000260: 36a5 9a3e b0ee 99bd 1a07 9e3e 78fe 1ebe
00000270: ed0d 293e d1f8 013e 741d 4b3e 42e5 923d
00000280: 91ec 2abe 4cc7 363c 285c 303e 6453 923e
00000290: 328c 05be 2ff2 4dbe 19a7 8bbe 967f 7c3e
000002a0: 50e9 8fbe fd52 d13d 6b06 573b 345e 66be
000002b0: fb74 04be 506a 863e 115f ac3e cd5e ccbd
000002c0: f88b d63e b213 70bd eeb9 efbd 0afd 583d
000002d0: 44d4 e93d 8864 cebd cd78 593d fb23 4abe
000002e0: a5e4 503e 62c2 13bd adcd 613e e8e7 2f3c
000002f0: 0963 953d 534d adbe 1baa f53d d643 23be
00000300: d20c 353e 2e82 853e b4ec 84bd 4961 a23e
00000310: 8c14 fcbd 2411 78bd 40c3 6cbe 6ddb a33e
00000320: c3cf c0bd 1ba9 513e 960d 2dbe 5485 35be
00000330: ec88 7dbe a497 bcbd 1548 45bd 11e5 263d
00000340: 8162 aabc 35af 9d3d 5e89 bdbe 539c 03be
00000350: c451 a73e af52 243e b7d6 a4be 422a 67be
00000360: fb3c 113e c504 6ebd c789 293e 7c29 813e
00000370: 21c2 863e c6c7 563e a5c9 c3be b84b 353d
00000380: 00f7 903d a68a a7be 70ce 383d c90e e7bc
00000390: 9dd6 8ebe b382 8e3e bb28 99bd 1e90 223e
000003a0: ff26 85bd b08f 94bc 4a01 7a3d efa2 913e
000003b0: 0de0 0cbd c738 4f3e 6799 f13d acd7 03be
000003c0: 83c7 163e 63ba c13d 4edb 573d 57e4 ec3c
000003d0: 9c62 e4bb 7f4c 043e 65ba 6c3e 2f91 853e
000003e0: 2738 723d 05a2 273e e072 443b 32bf 76be
000003f0: 2067 223e bc3e 5bbd 84a3 26be 0674 36bd

rnn.weight_hh_l0 f4 [16, 16]
0.9979093 0.27444735 -0.5206464 -0.31758007 0.3714325 0.11408936 -0.103019744 -0.32254708
0.63333964 0.70171314 0.4386023 0.0911317 -0.6012129 0.83173656 -0.028102063 -0.7318144
0.7736828 -0.41029593 0.37590104 -0.060760293 0.6609671 0.45353448 -0.6443188 0.030693881
0.2069361 0.6496541 0.46678448 0.12866947 -0.65801907 0.45525604 0.06430099 -0.548753
-0.7973674 -0.35944122 0.24682927 0.03967765 -0.5544414 0.0164851 0.48320982 0.038528144
-0.15047784 -0.45040348 0.20777726 -0.19637145 0.1492522 -0.75364995 -0.30981508 1.3539451
0.4372178 0.35173714 -0.3307787 0.57220924 0.21313357 0.2674818 0.17939319 0.101196766
-0.48498198 -0.118752725 -0.05205305 -0.11228746 -0.43302745 0.41961336 0.20664705 -0.011592926
0.5943043 0.47480807 -0.30655918 0.14798659 0.65186584 0.0608705 0.20864458 -0.38576826
0.18104388 0.027551142 0.33465004 -0.14192292 -0.6513884 0.39309964 0.5787679 -0.58581096
0.118606895 -0.237883 0.23128484 0.403919 0.15291236 -0.07821048 -0.19870476 -0.23440035
-0.33199373 -0.15180878 0.041090008 -0.0013544947 0.11450974 0.11488617 0.18047434 0.20268676
0.28105733 0.4890229 0.18460071 0.888654 -0.25281605 -0.28398344 0.08546038 0.016407736
-0.47189826 -0.78860384 -0.46327478 0.7004719 0.48887515 -0.28385615 0.5444324 0.7946177
0.21392734 -0.5819627 0.27156848 -0.20676748 -0.20804806 -0.066040255 -0.07173552 0.1921408
-0.20223962 0.23518737 -0.38464376 0.18569688 0.31462774 0.07111766 -0.15135743 -0.38176912
0.105755225 -0.27925467 -0.8166453 -0.34651053 -0.63185036 -0.43378356 0.8223825 0.07803209
-0.02531177 0.2651778 0.18595771 0.31305906 0.28052613 -0.482345 -0.5811111 0.0791272
0.43807912 0.1443962 -0.42534158 -0.47369212 0.2483968 -0.09934957 0.023544308 -0.6254113
0.62315303 0.47738245 0.4110477 -0.4789294 -0.53179634 0.15832354 -0.33753216 -1.0850474
-0.31106648 0.031373646 -0.68891984 -0.68569237 -0.42210922 -0.4680574 0.41061223 -0.39295682
-0.23033148 -0.52763855 -0.19925182 -0.5059931 0.500712 -0.26391175 -0.34469584 0.8187888
-0.60259134 -0.26009464 -0.3777407 -0.31663817 -0.41025507 -0.42720538 0.40360782 0.14501058
-0.751619 -0.5216322 -0.2010075 0.16025844 0.35148966 -0.30885303 -0.15434727 0.82889426
-0.15859282 -0.4511672 0.73501366 -0.07535703 0.24587621 0.45751363 -0.7366794 0.1966672
0.19182329 0.28841427 -0.28496236 -0.046371512 -0.7989219 0.7174191 0.13863753 -0.6501307
0.4562201 0.98586273 -0.11608048 0.90860254 -0.15321982 0.19300728 0.119875826 0.18095124
-0.16075945 -0.36455166 0.2151081 0.48019835 -0.42099145 0.3255941 0.31238052 0.20856644
0.80294913 0.8491778 0.15582891 0.8845906 0.27931026 -0.28189427 -0.12876433 -0.15573646
0.017066257 -0.37894914 -0.3002063 0.14887787 0.25089848 0.63059574 0.57284474 0.17397028
-0.88804436 0.0004915004 1.3625252 -0.14973678 -0.3483111 0.11793217 0.38704222 -0.17892642
-0.07623847 -0.7474106 0.42267573 0.13484763 0.08791367 0.11876755 0.10782336 -0.11928386
00000000: fc76 7f3f 5d84 8c3e 1549 05bf db99 a2be
00000010: 672c be3e afa7 e93d 04fc d2bd e424 a5be
00000020: 8c22 223f 79a3 333f 7b90 e03e 42a3 ba3d
00000030: 17e9 19bf b0ec 543f 4c36 e6bc 3058 3bbf
00000040: 1310 463f 4f12 d2be 1a76 c03e c9df 78bd
00000050: 2435 293f ac35 e83e 14f2 24bf bc71 fb3c
00000060: 0fe7 533e bb4f 263f 60fe ee3e eec1 033e
00000070: f073 28bf 5217 e93e 3db0 833d 147b 0cbf
00000080: 4520 4cbf ae08 b8be d0c0 7c3e 0885 223d
00000090: dfef 0dbf c30b 873c 4767 f73e b0cf 1d3d
000000a0: dd16 1abe 499b e6be 90c3 543e 9915 49be
000000b0: 92d5 183e 34ef 40bf 15a0 9ebe 134e ad3f
000000c0: 03db df3e e416 b43e d35b a9be 4e7c 123f
000000d0: b03f 5a3e 60f3 883e d9b2 373e 4040 cf3d
000000e0: 8f4f f8be a134 f3bd 9435 55bd f8f6 e5bd
000000f0: c6b5 ddbe 90d7 d63e 499b 533e 42f0 3dbc
00000100: 5424 183f 0b1a f33e 53f5 9cbe cc89 173e
00000110: aee0 263f 5853 793d eda6 553e 6b83 c5be
00000120: 9163 393e efb2 e13c 4057 ab3e 3e54 11be
00000130: 64c1 26bf 5b44 c93e 222a 143f b5f7 15bf
00000140: 2ce8 f23d 9a97 73be efd5 6c3e 79ce ce3e
00000150: 0f95 1c3e d12c a0bd 4379 4bbe a506 70be
00000160: 15fb a9be c373 1bbe ff4d 283d 4d89 b1ba
00000170: 1584 ea3d 7149 eb3d 44ce 383e 1e8d 4f3e
00000180: bfe6 8f3e 3661 fa3e f807 3d3e d47e 633f
00000190: 1b71 81be 4766 91be da05 af3d 8469 863c
000001a0: a69c f1be f1e1 49bf 5a32 edbe 2052 333f
000001b0: d84d fa3e 9855 91be ec5f 0b3f 116c 4b3f
000001c0: c50f 5b3e 82fb 14bf 060b 8b3e dbba 53be
000001d0: 8d0a 55be 1d40 87bd 13ea 92bd 8fc0 443e
000001e0: e717 4fbe f5d4 703e 07f0 c4be 5327 3e3e
000001f0: e316 a13e 23a6 913d 71fd 1abe 3e77 c3be
00000200: 3296 d83d 78fa 8ebe ab0f 51bf d469 b1be
00000210: f2c0 21bf e118 debe a987 523f 4acf 9f3d
00000220: a15a cfbc 62c5 873e b36b 3e3e 4749 a03e
00000230: 1fa1 8f3e edf5 f6be b2c3 14bf 710d a23d
00000240: e84b e03e 99dc 133e 5fc6 d9be c687 f2be
00000250: bb5b 7e3e ca77 cbbd fedf c03c f41a 20bf
00000260: f586 1f3f 796b f43e d874 d23e 3c36 f5be
00000270: ce23 08bf 911f 223e 04d1 acbe d5e2 8abf
00000280: 1b44 9fbe a781 003d 0d5d 30bf 8989 2fbf
00000290: b31e d8be 38a5 efbe c43b d23e a331 c9be
000002a0: 04dc 6bbe 5213 07bf ab08 4cbe c488 01bf
000002b0: a92e 003f 711f 87be f97b b0be 259c 513f
000002c0: 6d43 1abf 202b 85be 3b67 c1be 661e a2be
000002d0: f40c d2be aaba dabe afa5 ce3e a77d 143e
000002e0: 1a6a 40bf b089 05bf e9d4 4dbe ca1a 243e
000002f0: 74f6 b33e fc21 9ebe 360d 1ebe 6a32 543f
00000300: 2866 22be 63ff e6be db29 3c3f c954 9abd
00000310: f9c6 7b3e 3a3f ea3e 0597 3cbf 2063 493e
00000320: 536d 443e 09ab 933e 96e6 91be 0ef0 3dbd
00000330: 2586 4cbf c7a8 373f fff6 0d3e f76e 26bf
00000340: ae95 e93e 8061 7c3f 9abb edbd 2d9a 683f
00000350: a8e5 1cbe b3a3 453e 7581 f53d 484b 393e
00000360: 209e 24be 84a6 babe 4c45 5c3e 8fdc f53e
00000370: 318c d7be 45b4 a63e 57f0 9f3e 7192 553e
00000380: 138e 4d3f b763 593f 9d91 1f3e 8874 623f
00000390: c101 8f3e 7254 90be ccda 03be 6179 1fbe
000003a0: 89ce 8b3c 9f05 c2be a4b4 99be 7173 183e
000003b0: c475 803e b96e 213f f4a5 123f 4425 323e
000003c0: e056 63bf 09d8 003a 3a67 ae3f 9954 19be
000003d0: d555 b2be 6c86 f13d 662a c63e 7d38 37be
000003e0: ea22 9cbd 4d56 3fbf f468 d83e 7f15 0a3e
000003f0: 150c b43d 673c f33d 7ed2 dc3d 194b f4bd

rnn.bias_ih_l0 f4 [16]
-0.026384095 0.10943424 0.2070789 0.24152797 -0.002803104 -0.01703778 -0.06893764 0.1000658
0.09430394 0.31502032 -0.32732418 0.24172531 0.044676423 0.25719434 -0.15803033 -0.4429624
00000000: 7523 d8bc 0f1f e03d 7e0c 543e 1c53 773e
00000010: 48b4 37bb d092 8bbc 2d2f 8dbd 4cef cc3d
00000020: 6d22 c13d 584a a13e 0997 a7be d786 773e
00000030: a0fe 363d faae 833e b4d2 21be f8cb e2be

rnn.bias_hh_l0 f4 [16]
0.20485057 0.06416046 -0.010366662 0.34345615 0.03635215 0.09504211 -0.26286623 -0.089644186
0.31583443 0.25611475 0.10783157 0.20344804 0.10842413 -0.13678943 0.26467732 -0.045124553
00000000: 59c4 513e 8f66 833d efd8 29bc 7cd9 af3e
00000010: fee5 143d 70a5 c23d 6796 86be 5f97 b7bd
00000020: 0db5 a13e 7921 833e ccd6 dc3d af54 503e
00000030: 780d de3d 8712 0cbe c983 873e 86d4 38bd

rnn.weight_ih_l0_reverse f4 [16, 128]
0.11304176 0.035818115 -0.056405798 0.12659812 -0.260555 0.11995921 -0.089859955 -0.050476458
0.08594143 0.11081287 0.18066795 0.33102256 0.3298128 0.37751555 0.046262722 -0.11377636
0.20971024 -0.18365173 -0.12530258 -0.08294724 0.18433446 0.27235258 -0.2329913 -0.19811195
-0.09635232 -0.15772854 0.127805 -0.30095676 -0.13685785 -0.063009575 0.26010758 0.17525873
-0.19735593 -0.17604236 -0.029399322 0.003353469 -0.11617014 0.30683246 0.06965828 0.14509149
-0.049011152 0.038210284 -0.13709031 0.08243531 0.21599615 -0.08373248 0.25278646 0.29671592
0.20610459 -0.21786234 0.085480236 -0.111466125 0.13916068 0.08066137 0.23012725 -0.12800692
0.08600305 0.017338267 -0.0072124847 -0.0023062911 0.07031709 0.26134685 0.22656189 -0.00020250418
-0.15586106 -0.22412932 0.2537165 0.009504027 0.1255 0.0070556216 -0.09103607 0.112130165
-0.05144102 0.09712212 0.059453733 0.15398617 0.009289594 0.10152959 -0.09050182 -0.063939966
0.23270422 0.121179156 0.08024566 0.35465348 -0.017889265 -0.14767615 0.018055411 -0.024665426
-0.19256695 0.0340537 -0.21737179 0.060285438 0.07024464 -0.0057576825 0.25286955 0.077585995
-0.5992256 0.054889187 0.16054963 -0.12725277 0.18017451 0.22564681 -0.065717325 0.094281115
0.20050184 -0.2577897 -0.123020716 -0.015391006 0.119377635 0.39236477 -0.07948579 0.13105096
0.027119165 0.15495212 -0.09274272 -0.056907378 -0.19150071 -0.24852212 0.06977835 -0.3250907
-0.01027869 0.03805344 0.0067283185 0.13573503 -0.10410487 0.23600881 0.12264391 0.12308194
0.20233473 0.30116042 0.32556963 0.08195271 0.22354157 -0.32360995 -0.55793905 0.22786413
-0.1893297 -0.21561415 0.19425188 0.037377216 0.17810984 0.17303468 -0.19610806 -0.1493908
-0.1095633 -0.13700621 0.29832545 -0.11928649 -0.23004532 0.114377014 -0.39046252 -0.012959558
-0.09989515 0.21982643 -0.17539756 -0.017997371 0.14312302 -0.022199325 -0.009485874 0.13225137
0.09840469 0.10451615 0.05443309 0.23489988 0.16218813 0.3828117 0.30426595 -0.017099489
-0.42060122 0.46020073 -0.29920617 -0.27604616 0.17005125 -0.30406925 0.13543521 -0.16241528
-0.112325646 -0.060191445 0.060095254 0.053359326 0.14681709 -0.34185797 -0.17181858 0.026688173
0.042673066 -0.058538854 -0.09297447 0.67426515 0.129019 -0.18617679 0.04704852 0.344238
0.27588016 -0.07242727 0.17417055 0.1269668 0.3550877 -0.015303893 0.26902118 -0.34527057
0.025478862 -0.101076484 0.07904065 -0.37463993 0.07359673 0.06815213 -0.17923522 0.005060439
-0.057761457 -0.106495574 -0.12977387 0.018524937 -0.069686964 0.081546456 -0.14251573 0.27417028
0.21328185 -0.26195616 -0.08974481 -0.14604172 0.109030016 0.092613846 -0.36128938 -0.15672031
-0.16962026 0.1509503 0.097100265 0.05638392 -0.09876017 0.18055333 -0.09654788 -0.18081956
-0.09860226 -0.050341483 0.14517264 -0.018972846 0.035829123 0.25402933 0.05348761 -0.008506194
0.099828035 -0.12793033 0.24784392 0.04180771 -0.01855598 -0.28845254 -0.0795708 -0.11538633
0.07715657 -0.19234401 -0.3200803 -0.13472237 0.26629907 0.02162871 0.021119187 -0.026115542
00000000: 7082 e73d 04b6 123d c409 67bd f0a2 013e
00000010: 7767 85be 2dad f53d 7f08 b8bd 67c0 4ebd
00000020: 0f02 b03d dcf1 e23d 0501 393e ca7b a93e
00000030: 39dd a83e b849 c13e fb7d 3d3d 9503 e9bd
00000040: 48be 563e 330f 3cbe 524f 00be 3ee0 a9bd
00000050: 2cc2 3c3e cc71 8b3e 4595 6ebe dcdd 4abe
00000060: 5d54 c5bd 9783 21be 50df 023e 0117 9abe
00000070: 7724 0cbe 2a0b 81bd d22c 853e 0677 333e
00000080: ac17 4abe 7344 34be d9d6 f0bc e0c5 5b3b
00000090: 9cea edbd 2519 9d3e 00a9 8e3d dd92 143e
000000a0: ebbf 48bd 6382 1c3d 6761 0cbe d8d3 a83d
000000b0: 182e 5d3e ef7b abbd 3a6d 813e 26eb 973e
000000c0: 150d 533e 4e17 5fbe 4310 af3d 5a48 e4bd
000000d0: 2380 0e3e ca31 a53d 7aa6 6b3e 3f14 03be
000000e0: 5e22 b03d fb08 8e3c b556 ecbb 2525 17bb
000000f0: 6802 903d 41cf 853e d7ff 673e 4d57 54b9
00000100: 0b9a 1fbe 2882 65be 21e7 813e c7b6 1b3c
00000110: 1283 003e d832 e73b 1e71 babd 80a4 e53d
00000120: d2b3 52bd f6e7 c63d c285 733d 8dae 1d3e
00000130: 6233 183c bfee cf3d 0559 b9bd f5f2 82bd
00000140: 044a 6e3e c72c f83d d657 a43d 2495 b53e
00000150: 828c 92bc 6b38 17be f1e8 933c 260f cabc
00000160: 4530 45be e47b 0b3d b696 5ebe dded 763d
00000170: 6cdc 8f3d f1aa bcbb 1e78 813e 68e5 9e3d
00000180: d966 19bf 7cd3 603d 1f67 243e 8d4e 02be
00000190: ab7f 383e f50f 673e ce96 86bd 7516 c13d
000001a0: 5b50 4d3e 03fd 83be 49f2 fbbd 8f2a 7cbc
000001b0: 437c f43d 09e4 c83e 72c9 a2bd 3932 063e
000001c0: 0329 de3c c5ab 1e3e e5ef bdbd b617 69bd
000001d0: c318 44be 957c 7ebe f4e7 8e3d 4a72 a6be
000001e0: f367 28bc eddd 1b3d 3a79 dc3b 20fe 0a3e
000001f0: ef34 d5bd 4bac 713e bb2c fb3d 6212 fc3d
00000200: d630 4f3e b331 9a3e 10b1 a63e d3d6 a73d
00000210: 15e8 643e 34b0 a5be 18d5 0ebf 3755 693e
00000220: a5df 41be f5c9 5cbe f7e9 463e da18 193d
00000230: 6d62 363e 0130 313e 8dd0 48be e7f9 18be
00000240: b962 e0bd 5b4b 0cbe 1dbe 983e 7a4c f4bd
00000250: 0091 6bbe 7f3e ea3d b4ea c7be 5354 54bc
00000260: d495 ccbd 2e1a 613e 6b9b 33be 396f 93bc
00000270: d78e 123e 5cdb b5bc a46a 1bbc e76c 073e
00000280: 6688 c93d 900c d63d 3bf5 5e3d 9889 703e
00000290: a514 263e e5ff c33e bfc8 9b3e 3a14 8cbc
000002a0: 0b59 d7be 6e9f eb3e 8d31 99be ec55 8dbe
000002b0: ea21 2e3e f7ae 9bbe 87af 0a3e 3150 26be
000002c0: fd0a e6bd 4e8b 76bd 7126 763d 4f8f 5a3d
000002d0: 3857 163e 0208 afbe 36f1 2fbe 28a1 da3c
000002e0: f4c9 2e3d 70c6 6fbd 6669 bebd a49c 2c3f
000002f0: 8f1d 043e 21a5 3ebe f3b5 403d f73f b03e
00000300: 2a40 8d3e c054 94bd c459 323e 9603 023e
00000310: 0ece b53e 2ebd 7abc 25bd 893e 4ec7 b0be
00000320: 0cb9 d03c 3001 cfbd 10e0 a13d ced0 bfbe
00000330: e2b9 963d 5893 8b3d 7089 37be 0ad2 a53b
00000340: 4797 6cbd 5a1a dabd 71e3 04be 9cc1 973c
00000350: 0ab8 8ebd d401 a73d a5ef 11be 0c60 8c3e
00000360: 8f66 5a3e 1e1f 86be 20cc b7bd f68b 15be
00000370: 214b df3d 54ac bd3d ecfa b8be 4a7b 20be
00000380: efb0 2dbe b792 1a3e 81dc c63d d3f2 663d
00000390: c642 cabd f9e2 383e e5ba c5bd c328 39be
000003a0: fbef c9bd df32 4ebd 23a8 143e f16c 9bbc
000003b0: 8fc1 123d 2210 823e d315 5b3d 905d 0bbc
000003c0: a472 cc3d 2b00 03be ccca 7d3e 903e 2b3d
000003d0: b602 98bc 0db0 93be 04f6 a2bd ab4f ecbd
000003e0: 4404 9e3d d4f5 44be 91e1 a3be a9f4 09be
000003f0: 5a58 883e b12e b13c 2502 ad3c 43f0 d5bc

rnn.weight_hh_l0_reverse f4 [16, 16]
0.0004712453 -0.6066193 0.21905123 0.054742463 -0.79062134 -0.444247 -0.610124 -0.07334301
0.6716655 -0.37654987 -0.48306382 0.25345224 0.21557035 -0.443231 1.2699417 -0.70659137
0.16406862 0.08390252 0.21843114 -0.111116275 -0.12483038 0.047861572 0.08918612 -0.12431745
0.17128548 0.096404694 -0.061596654 0.07369789 -0.25393072 -0.07534014 0.1487105 -0.18086584
-0.0062638805 0.22899137 0.045367647 -0.13458143 0.012217129 0.15250324 0.2542705 -0.060117234
-0.1351663 -0.13353004 0.28867677 0.14456464 0.02592394 -0.07237962 -0.23596722 0.03964419
-0.17986125 0.6309692 -0.32560977 -0.026179414 0.62900954 -0.24241696 0.5549069 0.76033765
0.19155976 0.0057260464 0.5454059 -0.27099752 0.44888586 0.110250175 -0.3542696 -0.36985868
-0.17862254 0.1304666 0.04113309 0.028042778 0.3565878 -0.21957408 -0.4841599 0.7029471
0.23924105 -0.5086075 -0.23922116 -0.45411697 0.42208108 0.081867084 0.16934213 -0.6540888
0.1831359 -0.09372975 0.4485044 0.25961584 -0.23790123 -0.4980672 -0.6593172 0.43103027
0.36042804 -0.6308801 -0.2980242 -0.3660793 0.06798375 -0.13901237 1.2410984 -0.7101912
-0.14166197 -0.8496732 0.37816536 0.08043349 -0.8775556 -0.36550266 -1.0761049 -0.6195183
0.23571339 0.075823165 -0.6651602 0.4712702 -0.12962513 -0.29423836 0.9822384 -0.45604485
-0.38832003 0.16837452 0.29716563 0.35023004 0.66471964 -0.14277148 -0.20166248 0.6902775
-0.36068058 0.24639985 -0.06336498 -0.46546474 0.33533007 -0.14619419 0.018942062 -0.38224223
-0.2679538 -1.0205847 -0.28617793 -0.20060112 -0.7825594 -0.07681283 0.33260405 -0.3067362
-0.42859167 -0.0012936362 -0.37906078 -0.11107592 0.0053786524 -0.4546875 0.49381697 0.6078257
0.2348731 0.21074444 0.20097092 -0.59070957 0.3279497 0.10701543 0.11473814 0.055712696
0.17119163 -0.31313038 0.065126985 0.39769045 0.2524094 0.53746665 -0.10136535 -0.05025171
-0.30757862 -0.41782445 -0.9223755 -0.03228951 0.10760817 -0.70662236 1.0041802 0.77261794
-0.26263544 -0.13898823 -0.30578586 -0.28995794 0.067165725 -0.17898534 -0.188548 0.68828887
-0.22610182 -0.4197273 -0.7514942 -0.33227584 -0.5606585 0.08471937 0.5265232 -0.6728658
-0.49689758 0.37556422 -0.2838224 0.23343576 -0.3564888 -0.25452873 0.17346981 0.5475384
0.22546491 0.22300576 -0.08313267 0.02080749 0.09600046 0.084672615 -0.01557982 0.09898742
-0.27136573 -0.12215985 0.16309541 -0.048564676 0.07038179 -0.06312 -0.08513474 0.17429768
-0.20260523 -0.8080381 -0.7613364 0.13106748 -0.7932151 0.06407542 0.51929516 -0.39023167
-0.37234604 0.24626929 -0.3400998 0.29798594 -0.41696495 -0.25170287 0.61557597 0.5252324
-0.05924327 -0.31615037 0.1237181 -0.1835579 0.20049854 -0.15695098 0.18198885 -0.33873603
-0.030330533 0.15705703 -0.23475455 0.115994476 -0.16937469 -0.030482452 0.119493224 0.19881304
-0.5443176 -0.53902453 -1.0080146 0.02123262 0.09920166 -0.43189126 0.88709694 0.5246151
-0.41904718 -0.119847015 0.098628156 -0.465385 0.051512513 -0.18604134 -0.29136324 0.50015706
00000000: 7911 f739 674b 1bbf f74e 603e a239 603d
00000010: 2966 4abf 5874 e3be 1631 1cbf dc34 96bd
00000020: 45f2 2b3f 25cb c0be 2454 f7be 7ec4 813e
00000030: 79be 5c3e 2cef e2be 738d a23f 2ce3 34bf
00000040: 9b01 283e 16d5 ab3d 6aac 5f3e ee90 e3bd
00000050: 12a7 ffbd 7f0a 443d 36a7 b63d 269a febd
00000060: 7665 2f3e d36f c53d c64c 7cbd ebee 963d
00000070: 3503 82be ee4b 9abd 9147 183e e534 39be
00000080: 3d41 cdbb b77c 6a3e 6dd3 393d b7cf 09be
00000090: 5a2a 483c cf29 1c3e be2f 823e 7d3d 76bd
000000a0: 0969 0abe 19bc 08be 71cd 933e c108 143e
000000b0: 715e d43c c43b 94bd 64a1 71be f261 223d
000000c0: 8c2d 38be 3387 213f 53b6 a6be 3676 d6bc
000000d0: c506 213f 273c 78be 610e 0e3f 7da5 423f
000000e0: 3e28 443e 8fa1 bb3b b99f 0b3f 30c0 8abe
000000f0: 5ed4 e53e d8ca e13d d362 b5be 1e5e bdbe
00000100: d4e8 36be 0999 053e 2c7b 283d f8b9 e53c
00000110: ad92 b63e 07d8 60be cee3 f7be 57f4 333f
00000120: 9bfb 743e 1a34 02bf 64f6 74be 0582 e8be
00000130: 031b d83e eea9 a73d 0668 2d3e 5d72 27bf
00000140: fa87 3b3e 62f5 bfbd 5ea2 e53e 5eec 843e
00000150: 619c 73be aa02 ffbe 03c9 28bf 00b0 dc3e
00000160: 068a b83e 5c81 21bf a196 98be bf6e bbbe
00000170: 103b 8b3d 4259 0ebe 50dc 9e3f 17cf 35bf
00000180: d60f 11be 2f84 59bf e49e c13e 50ba a43d
00000190: 7ca7 60bf 2a23 bbbe cebd 89bf c098 1ebf
000001a0: da5e 713e 2d49 9b3d f047 2abf 544a f13e
000001b0: 73bc 04be 69a6 96be fa73 7b3f b67e e9be
000001c0: e2d1 c6be 5f6a 2c3e 1826 983e 5a51 b33e
000001d0: 112b 2a3f b032 12be 9c80 4ebe 07b6 303f
000001e0: 20ab b8be 3e50 7c3e 80c5 81bd 6551 eebe
000001f0: 62b0 ab3e eeb3 15be 622c 9b3c 41b5 c3be
00000200: 3e31 89be 85a2 82bf ea85 92be 616a 4dbe
00000210: d055 48bf 0c50 9dbd 144b aa3e 870c 9dbe
00000220: 5e70 dbbe 3a8f a9ba 4114 c2be c67b e3bd
00000230: 683f b03b cdcc e8be 94d5 fc3e 779a 1b3f
00000240: 9382 703e 64cd 573e 52cb 4d3e be38 17bf
00000250: 06e9 a73e e82a db3d d4fb ea3d ff32 643d
00000260: dc4c 2f3e a052 a0be 4c61 853d 159e cb3e
00000270: ce3b 813e 6a97 093f a398 cfbd bdd4 4dbd
00000280: f27a 9dbe 16ed d5be cd20 6cbf 0142 04bd
00000290: ac61 dc3d 34e5 34bf fa88 803f 4aca 453f
000002a0: 2778 86be ee52 0ebe f78f 9cbe 5e75 94be
000002b0: 2f8e 893d ef47 37be ba12 41be b333 303f
000002c0: 3c87 67be 7fe6 d6be ed61 40bf 0f20 aabe
000002d0: 5187 0fbf 5981 ad3d 39ca 063f ef40 2cbf
000002e0: 5c69 febe f449 c03e 2b51 91be c909 6f3e
000002f0: b385 b6be 9751 82be 12a2 313e 7a2b 0c3f
00000300: 46e0 663e 9f5b 643e 7641 aabd 7874 aa3c
00000310: e49b c43d d668 ad3d 8042 7fbc ebb9 ca3d
00000320: 73f0 8abe f22e fabd 7c02 273e c1eb 46bd
00000330: 5424 903d 0f45 81bd 1f5b aebd 177b 323e
00000340: bf77 4fbe 96db 4ebf f1e6 42bf 8e36 063e
00000350: 2510 4bbf f939 833d 87f0 043f 72cc c7be
00000360: 24a4 bebe 042e 7c3e 9021 aebe 9d91 983e
00000370: 6e7c d5be 33df 80be 6396 1d3f a175 063f
00000380: 12a9 72bd 76de a1be ea5f fd3d 9af6 3bbe
00000390: 7d4f 4d3e c2b7 20be 495b 3a3e cf6e adbe
000003a0: bd77 f8bc 8fd3 203e 7f63 70be 838e ed3d
000003b0: 8f70 2dbe 56b6 f9bc ddb8 f43d a595 4b3e
000003c0: 6658 0bbf 83fd 09bf 9f06 81bf 08f0 ad3c
000003d0: 3d2a cb3d da20 ddbe c918 633f 2d4d 063f
000003e0: 5a8d d6be 5a72 f5bd 8ffd c93d f146 eebe
000003f0: c9fe 523d 9f81 3ebe 902d 95be 4b0a 003f

rnn.bias_ih_l0_reverse f4 [16]
-0.110644154 -0.03132375 -0.14554475 0.1557189 -0.24961762 -0.13015227 0.2930148 0.1146525
0.15177757 0.16803928 0.2812661 0.1517668 -0.28223598 0.40073714 0.07935787 0.21673119
00000000: 6799 e2bd 554d 00bd af09 15be c674 1f3e
00000010: c39b 7fbe a346 05be 0906 963e eece ea3d
00000020: 946b 1b3e 7d12 2c3e 1c02 903e c268 1b3e
00000030: 3c81 90be 6b2d cd3e 6186 a23d c8ee 5d3e

rnn.bias_hh_l0_reverse f4 [16]
0.16371226 -0.07031788 -0.37070802 0.10792411 -0.277345 -0.13084923 0.1899222 -0.12983082
0.067302644 -0.082448654 0.1116317 0.28487387 -0.056729697 0.5255783 0.04339959 -0.18933702
00000000: 30a4 273e d202 90bd 71cd bdbe 5107 dd3d
00000010: 2a00 8ebe 57fd 05be f77a 423e 5ff2 04be
00000020: f8d5 893d d7da a8bd 299f e43d fdda 913e
00000030: 665d 68bd 4d8c 063f c5c3 313d 90e1 41be

fc1.weight f4 [8, 32]
0.52865165 0.7355142 -0.8645288 0.25440896 0.59858906 -0.2870638 -0.48499808 -0.4267536
-0.67970234 0.6958333 -0.62320244 -0.59265715 0.4040024 0.56249464 0.6668889 0.23833124
0.6594537 0.24978304 -0.23250699 -0.40956125 -0.33017918 0.85924894 0.50578433 -0.22247447
0.6393441 0.43287137 0.7891288 0.33353013 -0.44698805 0.4365561 0.264521 0.81663287
-0.13328712 0.71528727 0.27249068 0.80090934 -1.270789 1.305907 2.564053 1.6995575
2.0415132 0.13411373 -1.2728894 0.9905962 1.8417543 -1.024486 -0.18200147 -0.8752448
-1.6798698 2.5676258 -0.36892554 1.7927157 -0.96783197 -1.6699655 1.1330067 -0.23443876
1.0142956 -2.4203672 -1.8792922 0.84864306 1.1295494 0.5850759 -2.4437394 -1.6708628
0.609235 0.78692967 0.63473964 -2.3247168 -0.7499415 0.31096542 -0.32133642 1.9063404
-0.49764943 -1.1285534 -0.36872274 -1.1518493 -1.0545872 -1.1025172 -0.38002837 -1.4585272
-1.8599645 -1.0770384 0.7396718 1.615953 0.24968302 0.5102917 -1.2982985 1.326083
-0.73776716 -2.2572658 -1.8528744 -0.47780976 1.0157362 0.4374945 -0.50219023 0.453179
0.36623192 1.0970286 -0.34197778 -1.73944 0.8494474 -0.36259654 1.4922493 1.4879646
-0.35648903 -0.6106988 1.299518 0.5699258 0.6214481 -0.4621911 -1.7521225 0.8898745
-0.514294 2.0712323 1.3552206 -0.013393298 1.9913392 -1.0701723 -1.3978566 0.42175886
1.1625459 0.17180713 -1.509182 -1.1704872 1.3974936 -0.8051229 -1.2927407 -1.2010092
-0.17448188 -1.4744482 -0.39743987 -1.0332186 0.023626057 1.410911 0.12419687 2.112031
0.36140093 -0.19467103 1.8728867 0.6846288 -0.15550351 -0.8851649 -1.0318675 -0.9538094
-1.75622 -0.44024724 1.842653 0.98382896 1.3316303 -1.1652511 1.0061598 1.4346226
-1.3901823 0.112426534 0.4885252 1.0936874 1.8374403 -1.6110123 0.62378633 -1.3457453
-0.6167205 -0.1301641 0.6988627 0.14608146 -0.6178115 -0.11940434 -0.9605835 -0.19722156
0.42717582 0.33201927 0.6533748 0.23015034 -0.042675342 -0.928995 -0.79161125 0.41118297
-0.17519844 -0.3588459 0.14499038 0.45431414 -0.18738514 0.3516153 -0.7230537 -0.16617338
-0.60318893 0.109194756 0.12198063 -0.30007184 -0.061877765 -0.70579034 -0.018403508 0.18893553
-0.8350545 -0.3401468 0.65854955 0.112306364 -0.53459674 0.14790304 0.8597671 0.0030729498
-0.07280938 -1.0367198 -0.01693973 0.14584924 -0.17363302 0.118627645 -0.036558688 0.2817667
0.59328276 -0.14801075 0.33435774 -0.51818657 0.1205371 0.79621065 1.1077324 0.22882669
-0.9341359 -0.21043852 -1.691917 -0.7023476 0.19791885 -0.62739354 -0.14709668 -1.4223193
-0.19007644 -1.0380936 0.37639675 -0.08359129 0.085171424 0.22170907 1.8893261 0.2844411
0.120992444 -0.80697936 1.3904876 0.6516765 -1.3755146 0.59628755 0.4276441 0.026339827
-1.424032 0.06524383 0.5649041 0.35632434 0.23749442 -1.6575398 -1.167955 0.42039642
-0.09651669 -0.1579375 0.5311507 0.5408664 0.24789368 -0.20512189 -0.14564838 0.68109256
00000000: b755 073f a94a 3c3f c251 5dbf e441 823e
00000010: 223d 193f 07fa 92be ab51 f8be 737f dabe
00000020: f900 2ebf 2222 323f 328a 1fbf 61b8 17bf
00000030: 67d9 ce3e a6ff 0f3f 3bb9 2a3f 1b0d 743e
00000040: f5d1 283f 20c7 7f3e 5016 6ebe 03b2 d1be
00000050: 3f0d a9be bdf7 5b3f 157b 013f 59d0 63be
00000060: 0eac 233f 51a1 dd3e 5804 4a3f 76c4 aa3e
00000070: 9edb e4be 4884 df3e 4c6f 873e da0e 513f
00000080: 6b7c 08be 111d 373f e683 8b3e 6508 4d3f
00000090: 37a9 a2bf f627 a73f 7219 2440 1a8b d93f
000000a0: 27a8 0240 1c55 093e 0aee a2bf b697 7d3f
000000b0: 9bbe eb3f 5b22 83bf 985e 3abe 0b10 60bf
000000c0: f905 d7bf fb53 2440 cfe3 bcbe b577 e53f
000000d0: d6c3 77bf 6ec1 d5bf 5d06 913f b710 70be
000000e0: 70d4 813f 4ce7 1ac0 a68c f0bf ac40 593f
000000f0: 1395 903f 89c7 153f 3a66 1cc0 d5de d5bf
00000100: d3f6 1b3f 3974 493f 4c7e 223f 29c8 14c0
00000110: 2bfc 3fbf dc36 9f3e 3586 a4be f602 f43f
00000120: e8cb febe 7074 90bf 3ac9 bcbe cc6f 93bf
00000130: b7fc 86bf 491f 8dbf 1493 c2be 05b1 babf
00000140: 5113 eebf 65dc 89bf 225b 3d3f 8cd7 ce3f
00000150: e8ac 7f3e 7aa2 023f a52e a6bf 16bd a93f
00000160: 4fde 3cbf 0b77 10c0 fd2a edbf 7ba3 f4be
00000170: a503 823f 47ff df3e 8a8f 00bf 1407 e83e
00000180: c082 bb3e 6f6b 8c3f b617 afbe f8a5 debf
00000190: 6375 593f 41a6 b9be 0602 bf3f a075 be3f
000001a0: bb85 b6be c256 1cbf 9b56 a63f a8e6 113f
000001b0: 3917 1f3f 50a4 ecbe 8d45 e0bf d1ce 633f
000001c0: c6a8 03bf 128f 0440 de77 ad3f 906f 5bbc
000001d0: 34e4 fe3f 68fb 88bf f7ec b2bf c7f0 d73e
000001e0: 4ece 943f 35ee 2f3e e02c c1bf 86d2 95bf
000001f0: 12e1 b23f 891c 4ebf 8778 a5bf abba 99bf
00000200: 61ab 32be b8ba bcbf 3d7d cbbe 8240 84bf
00000210: 6f8b c13c bb98 b43f ee5a fe3d 842b 0740
00000220: 8b09 b93e d857 47be c0ba ef3f d543 2f3f
00000230: 503c 1fbe 2b9a 62bf 3c14 84bf da2c 74bf
00000240: d1cb e0bf 1668 e1be 0edc eb3f 37dc 7b3f
00000250: dd72 aa3f f326 95bf d8c9 803f b7a1 b73f
00000260: 7ef1 b1bf e23f e63d fa1f fa3e f3fd 8b3f
00000270: 3e31 eb3f a735 cebf 76b0 1f3f 6241 acbf
00000280: 65e1 1dbf bd49 05be aae8 323f 6196 153e
00000290: e528 1ebf 438a f4bd cde8 75bf 73f4 49be
000002a0: cab6 da3e 6efe a93e 9243 273f 88ac 6b3e
000002b0: 57cc 2ebd 9ed2 6dbf 09a7 4abf 9386 d23e
000002c0: 3867 33be a6ba b7be 5c78 143e dd9b e83e
000002d0: e4e1 3fbe ec06 b43e 0c1a 39bf 5b29 2abe
000002e0: 976a 1abf 80a1 df3d fbd0 f93d 04a3 99be
000002f0: 8a73 7dbd adae 34bf f4c2 96bc 5178 413e
00000300: 22c6 55bf b927 aebe b496 283f e100 e63d
00000310: 55db 08bf e573 173e b219 5c3f 8b63 493b
00000320: 161d 95bd 3cb3 84bf 30c5 8abc 8159 153e
00000330: dbcc 31be 0df3 f23d 90be 15bd ba43 903e
00000340: 61e1 173f 2190 17be f030 ab3e e0a7 04bf
00000350: 28dc f63d 76d4 4b3f 2dca 8d3f 8b51 6a3e
00000360: 8823 6fbf 327d 57be bc90 d8bf 0dcd 33bf
00000370: 3dab 4a3e dd9c 20bf 83a0 16be 8f0e b6bf
00000380: 66a3 42be 40e0 84bf 13b7 c03e e931 abbd
00000390: 5b6e ae3d b407 633e 70d5 f13f 44a2 913e
000003a0: e3ca f73d 3396 4ebf 7ffb b13f 45d4 263f
000003b0: dd10 b0bf 4da6 183f 2bf4 da3e 9fc6 d73c
000003c0: ae46 b6bf 8f9e 853d 8e9d 103f 2570 b63e
000003d0: bd31 733e 442a d4bf 8d7f 95bf 333e d73e
000003e0: 8baa c5bd 5eba 21be 7ef9 073f 3876 0a3f
000003f0: d7d7 7d3e 790b 52be d924 15be 155c 2e3f

fc1.bias f4 [8]
0.16067632 0.19961554 -0.7768183 -0.946765 -1.0237646 -0.14560954 -0.0443118 -0.3410055
00000000: 5588 243e 0468 4c3e 90dd 46bf 315f 72bf
00000010: b80a 83bf ab1a 15be 4a80 35bd 4698 aebe
