src/main/python/saved_models/java_1_66_RNNClassifier1_128embs_109id_16hd_1hl_Truebid_0.pt (torch, 78111 bytes, 11 tensors)

word_embeddings.weight f4 [109, 128]
-1.1949528 -0.64725393 -0.49071777 -1.3551255 -0.27536833 -0.6399525 -0.6626251 -1.4915576
-0.74539727 0.37737674 -0.73022926 -0.5477889 -0.5710103 1.9425505 0.32811627 0.39314792
-0.6089107 -0.9580805 1.0619954 0.039707966 0.7634881 0.4718715 -0.62573916 1.0530127
1.1002003 -0.102370284 -2.5871918 -1.4578557 0.19570836 -0.444086 -0.9845388 0.2521458
1.6906042 0.1384484 -0.04759683 -1.0544314 -0.002968273 0.38638657 0.18693426 -0.7009652
0.056472693 0.1744319 -0.33034822 0.12089416 2.4685087 -0.63782704 1.7097334 -0.4978122
-1.15156 0.49451262 -0.25928968 -0.6594698 0.8219988 0.4167041 1.4157163 1.9122405
-0.040480413 0.8684776 -0.38635066 -0.7239895 1.5597718 -0.7816867 -3.3457804 -0.6346805
-0.024484409 -0.82498837 -0.73998445 -1.2162379 -0.07006218 -0.28602055 1.6817471 0.1608758
-0.9371652 0.0620908 -1.1650355 -0.67903876 -0.42229313 -0.3194372 0.31590557 -0.99279267
-0.38775697 0.097130746 -0.10524983 0.7915885 -1.4211032 -0.36845088 0.34620267 -0.21948923
0.13343905 -0.4889505 -0.95184064 0.63794136 -1.1348109 -0.7701395 0.14613637 1.8172435
0.5779527 1.2658985 0.86119944 -1.075495 1.2852387 -0.56236553 -1.11139 1.3757281
1.3946369 0.4543633 -0.34925616 -0.012473886 -1.9565725 -0.5279728 -1.6009074 -1.2600875
0.8101819 -0.72760874 1.4514439 0.63667417 0.4328231 0.46668652 0.42258346 -0.28823563
2.908001 -0.1942727 -0.1861728 1.790798 -1.8939211 1.7814282 0.064546876 -0.024507083
0.71236455 -1.7765073 0.35386458 1.1996132 -0.3029974 -1.7618417 0.6348446 -0.8043591
-1.6111118 -1.8716129 0.5430836 0.6606786 2.2952116 0.67490596 1.7133216 -1.7942734
-1.3632672 -0.9832196 1.5112667 0.64187074 0.4729638 -0.4285901 0.55137074 -1.5473709
0.5181121 0.10653535 0.26924077 1.324768 1.7460191 1.854969 -0.7063691 2.5570862
0.4175343 -0.2127186 -0.839958 -0.42001787 -0.6240363 -0.9772961 0.8748428 0.9872814
0.30957633 1.52069 1.2052339 -1.815591 -0.40346155 -0.9591452 -0.005207704 -0.07886314
0.8436543 1.1657013 0.5269322 1.6192533 -0.96397626 0.14152038 -0.16366096 -0.35822257
1.7222793 -0.3035756 0.2388742 1.3440012 0.10322569 1.1003542 -0.3416802 0.9473389
-0.56851596 0.8375962 1.7836607 -0.19542466 0.5149161 -1.8474776 -2.9167426 -0.5673299
-0.5412802 0.895174 -0.882507 0.53181124 -1.5457772 -0.17329982 0.72824633 0.05706102
0.9055172 1.0462948 -0.520597 1.3547838 0.23519313 1.9142433 1.8364111 1.3245324
-0.96900916 1.2516364 1.2103242 -0.5279206 0.21856615 -0.57430726 1.4571251 1.7709557
1.6499138 -0.43200457 -0.2710269 -1.4391626 1.2470404 1.2738512 0.39094925 0.3872105
-0.07982872 0.3417243 0.9488273 -1.3839359 1.7240863 -2.3647652 -0.9294909 0.2936253
0.21513203 0.9384637 1.4657077 -0.5564744 -0.7448408 -0.20215721 -0.2296679 0.0013313366
0.3752759 -0.5810679 -0.57230884 1.0097175 -0.10564939 -1.179696 -0.090779595 0.56311435
00000000: 37f4 98bf 6fb2 25bf 5c3f fbbe c174 adbf
00000010: 14fd 8cbe edd3 23bf cca1 29bf 5ceb bebf
00000020: 5bd2 3ebf 8637 c13e 4ef0 3abf e53b 0cbf
00000030: bb2d 12bf 7fa5 f83f dbfe a73e af4a c93e
00000040: 92e1 1bbf c344 75bf 77ef 873f d2a4 223d
00000050: f573 433f 2499 f13e 7130 20bf 1fc9 863f
00000060: 5dd3 8c3f 83a7 d1bd 8d94 25c0 049b babf
00000070: c667 483e 3d5f e3be bc0a 7cbf 4119 813e
00000080: b865 d83f 6bc5 0d3e e5f4 42bd 9cf7 86bf
00000090: 5b87 42bb 76d4 c53e b26b 3f3e 7572 33bf
000000a0: e94f 673d 479e 323e 6723 a9be 5b97 f73d
000000b0: 0cfc 1d40 a248 23bf 8bd8 da3f 3ee1 febe
000000c0: 5166 93bf c230 fd3e 9ec1 84be 03d3 28bf
000000d0: 836e 523f 3d5a d53e 3136 b53f 4cc4 f43f
000000e0: cace 25bd 8c54 5e3f c1cf c5be 6057 39bf
000000f0: 9aa6 c73f 9f1c 48bf 4421 56c0 6c7a 22bf
00000100: 8793 c8bc 7032 53bf 9f6f 3dbf afad 9bbf
00000110: c37c 8fbd 4971 92be 7d43 d73f a0bc 243e
00000120: 0fea 6fbf ec52 7e3d e21f 95bf 7cd5 2dbf
00000130: ce36 d8be 468d a3be 60be a13e a927 7ebf
00000140: 1588 c6be 7cec c63d 398d d7bd 8ba5 4a3f
00000150: b6e6 b5bf 98a5 bcbe 7a41 b13e c9c1 60be
00000160: 3fa4 083e b857 fabe d4ab 73bf 2050 233f
00000170: 7c41 91bf dd27 45bf c6a4 153e 6f9b e83f
00000180: b5f4 133f f608 a23f 9177 5c3f d2a9 89bf
00000190: b482 a43f 30f7 0fbf 0742 8ebf dc17 b03f
000001a0: 7683 b23f 4ea2 e83e b4d1 b2be 455f 4cbc
000001b0: f870 fabf 3a29 07bf 89ea ccbf 8c4a a1bf
000001c0: 1568 4f3f 9144 3abf eac8 b93f 14fd 223f
000001d0: fd9a dd3e 89f1 ee3e dc5c d83e 9f93 93be
000001e0: b01c 3a40 6cef 46be 15a4 3ebe de38 e53f
000001f0: 026c f2bf d705 e43f 2731 843d 14c3 c8bc
00000200: 865d 363f 9764 e3bf bd2d b53e ed8c 993f
00000210: 7a22 9bbe 0784 e1bf 2d85 223f 7aea 4dbf
00000220: e938 cebf 0391 efbf 8707 0b3f 3c22 293f
00000230: bfe4 1240 a3c6 2c3f 1f4e db3f c0aa e5bf
00000240: 8a7f aebf 48b4 7bbf 3071 c13f a451 243f
00000250: 5028 f23e 2970 dbbe a226 0d3f 4010 c6bf
00000260: ffa2 043f 352f da3d edd9 893e ff91 a93f
00000270: 8e7d df3f a06f ed3f 9bd4 34bf 4da7 2340
00000280: 0ec7 d53e e8d2 59be 7d07 57bf 950c d7be
00000290: d8c0 1fbf 1430 7abf b3f5 5f3f 79be 7c3f
000002a0: ca80 9e3e f8a5 c23f 1b45 9a3f 4965 e8bf
000002b0: 8392 cebe 8a8a 75bf 63a5 aabb ff82 a1bd
000002c0: baf9 573f b335 953f 07e5 063f b143 cf3f
000002d0: 26c7 76bf b8ea 103e bd96 27be f368 b7be
000002e0: a673 dc3f 436e 9bbe 709b 743e 3b08 ac3f
000002f0: fe67 d33d 68d8 8c3f b5f0 aebe cd84 723f
00000300: 438a 11bf b46c 563f fe4e e43f 671d 48be
00000310: 8bd1 033f 257a ecbf e9ab 3ac0 883c 11bf
00000320: 5791 0abf 202a 653f fbeb 61bf c824 083f
00000330: 07dc c5bf 8275 31be 5a6e 3a3f d1b8 693d
00000340: facf 673f fdec 853f d845 05bf 8e69 ad3f
00000350: 78d6 703e ed05 f53f 850f eb3f 478a a93f
00000360: fc10 78bf 9f35 a03f e7eb 9a3f ce25 07bf
00000370: cecf 5f3e cd05 13bf 1383 ba3f adae e23f
00000380: 6030 d33f b42f ddbe 0ac4 8abe 7b36 b8bf
00000390: 059f 9f3f 8e0d a33f 802a c83e 7440 c63e
000003a0: 3d7d a3bd 7df6 ae3e 59e6 723f d024 b1bf
000003b0: dcae dc3f 5058 17c0 1ef3 6dbf 0e56 963e
000003c0: 924b 5c3e 283f 703f 4f9c bb3f 1b75 0ebf
000003d0: e3ad 3ebf 4d02 4fbe 102e 6bbe 3e80 ae3a
000003e0: 2a24 c03e dec0 14bf d582 12bf 6c3e 813f
000003f0: b55e d8bd 4700 97bf a7ea b9bd 4328 103f

rnn.weight_ih_l0 f4 [16, 128]
-0.097035825 -0.30935425 -0.122089356 0.5086333 -0.28476593 -0.09712518 0.21252097 0.21304812
0.11387514 0.43481007 0.113953374 -0.020286119 -0.3556759 0.24072693 0.19907263 0.1605326
0.3043868 0.26417392 0.074551694 0.24483347 0.24068181 0.07625569 0.0016743636 0.17485161
0.05754138 0.13143763 -0.10904308 -0.08585869 0.035076197 0.47877994 -0.1276299 -0.07063419
-0.021916905 0.024511658 0.19994503 -0.36663184 -0.084442556 0.116941005 0.29892868 -0.015230678
0.07592325 0.2609485 -0.058273796 -0.13709888 -0.33679968 -0.018770847 -0.22707641 -0.22725202
-0.2190114 -0.36804625 0.4182629 0.10483658 0.314687 -0.1847567 -0.03448465 0.007087248
-0.0029532113 0.20828518 -0.013131213 -0.12953022 -0.087801866 0.26778668 0.14090183 0.018063439
-0.2051312 -0.08535791 0.05175988 -0.21636206 0.22002614 0.25658822 0.11845745 0.13967486
0.022364868 -0.06912356 -0.3362074 0.16577822 -0.11696117 -0.26519486 0.10746334 -0.056079052
0.01154196 0.31546712 0.14686106 0.037091047 0.059924148 0.1991303 -0.29974732 0.12130477
0.047720715 -0.0809793 0.018892642 -0.013542351 0.05268917 -0.7246578 0.12285634 -0.01936511
-0.2513271 0.0046728393 -0.2420944 0.2570095 0.3965355 -0.46955276 -0.058327727 0.02276346
-0.12504719 0.029455679 -0.1425344 0.13731362 0.21141954 0.13455963 -0.21211387 -0.27654183
-0.38029978 0.026332945 0.11623385 -0.008700473 0.24367818 0.4407308 -0.31476864 -0.052502416
0.108044334 0.037021354 -0.23381482 -0.2694833 -0.3284341 0.0825397 -0.015510438 -0.002166584
-0.0343194 -0.16133513 -0.0125820385 -0.046650067 0.16846043 0.14089265 0.1287904 -0.07641227
0.013193984 -0.11008488 -0.109210774 0.2401229 0.11815601 0.11542178 0.02982429 0.1998403
-0.006700326 -0.14168543 0.20345367 0.11392822 0.20326251 -0.076841496 0.33452997 0.348023
0.15235132 -0.06722751 0.19270554 0.2068295 -0.080981225 0.28656822 0.26791736 -0.12112507
-0.15908611 0.0030689032 0.13811967 0.13985491 0.15882039 -0.35721865 0.14746664 -0.1046714
-0.1713998 0.2153774 0.19570097 0.030431658 0.09870067 -0.11756045 0.108004235 -0.30009755
0.42397374 0.039537463 -0.053204753 0.011036457 -0.20176834 -0.23962072 -0.08874217 -0.19081797
-0.08688038 -0.081813075 0.21673882 0.13878903 0.21570297 -0.32372192 -0.00026370055 0.09820941
0.33794007 -0.110236436 -0.20383927 0.27203333 0.033881888 -0.027261943 -0.11419307 0.09669109
0.29737377 0.15021859 0.03606205 0.20939676 -0.0046266187 -0.20723648 -0.05371629 0.12269097
0.17388186 -0.19904335 0.023169413 -0.45365164 -0.20899072 -0.021323046 -0.105707884 0.4539389
0.2651685 -0.12935518 -0.12173613 0.18383524 -0.014812984 -0.088715695 -0.15500462 -0.24773231
0.07972282 0.0016218313 0.18267713 0.38193074 0.16936503 0.046616483 -0.06578575 -0.032803003
-0.08094292 0.101318374 -0.07426745 -0.25584146 0.077924594 -0.11927513 0.093892135 -0.26424202
0.118281424 -0.23109028 0.030732468 0.094211265 -0.04931371 -0.041597847 0.15959725 -0.17564836
-0.18131286 0.0026164984 0.06381826 0.0030623563 0.050024092 0.1586693 0.13784216 0.2851172
00000000: b8ba c6bd ae63 9ebe fc09 fabd cb35 023f
00000010: d7cc 91be 91e9 c6bd 199f 593e 4929 5a3e
00000020: 5f37 e93d 6d9f de3e 6360 e93d 132f a6bc
00000030: 271b b6be 1f81 763e b2d9 4b3e a862 243e
00000040: 96d8 9b3e ce41 873e 8fae 983d a0b5 7a3e
00000050: 4b75 763e f12b 9c3d 5276 db3a 4d0c 333e
00000060: 83b0 6b3d 9697 063e fa51 dfbd aed6 afbd
00000070: 0fac 0f3d a522 f53e 6ab1 02be a9a8 90bd
00000080: 158b b3bc accc c83c 64be 4c3e 2bb7 bbbe
00000090: 38f0 acbd c47e ef3d 2e0d 993e 188a 79bc
000000a0: a67d 9b3d 0b9b 853e 81b0 6ebd a663 0cbe
000000b0: 0271 acbe 52c5 99bc b886 68be c1b4 68be
000000c0: 8644 60be 8f70 bcbe 8e26 d63e 90b4 d63d
000000d0: a81e a13e dc30 3dbe c73f 0dbd 253c e83b
000000e0: aa8a 41bb b648 553e 4d24 57bc 92a3 04be
000000f0: 77d1 b3bd 561b 893e 9248 103e c7f9 933c
00000100: ea0d 52be 21d0 aebd 2b02 543d 048e 5dbe
00000110: 884e 613e 885f 833e d299 f23d ed06 0f3e
00000120: 8736 b73c a790 8dbd 6023 acbe c4c1 293e
00000130: 5789 efbd 9fc7 87be bd15 dc3d 26b3 65bd
00000140: 7d1a 3d3c e884 a13e bf62 163e c8ec 173d
00000150: 0673 753d d0e8 4b3e 7b78 99be a36e f83d
00000160: cc76 433d 7ad8 a5bd bec4 9a3c bde0 5dbc
00000170: 99d0 573d 2c83 39bf 1b9c fb3d 94a3 9ebc
00000180: f2ad 80be 9e1e 993b 98e7 77be c096 833e
00000190: b306 cb3e 3869 f0be 0ee9 6ebd 707a ba3c
000001a0: 5f0c 00be 094d f13c 8af4 11be f19b 0c3e
000001b0: 5d7e 583e 00ca 093e 6134 59be e496 8dbe
000001c0: a7b6 c2be 30b8 d73c 030c ee3d 6e8c 0ebc
000001d0: c686 793e 78a7 e13e 5b29 a1be c60c 57bd
000001e0: 5946 dd3d b4a3 173d 276d 6fbe b7f9 89be
000001f0: 8428 a8be 930a a93d 7e1f 7ebc 3ffd 0dbb
00000200: 8092 0cbd 0935 25be e524 4ebc 2414 3fbd
00000210: e480 2c3e 2a46 103e a1e1 033e 097e 9cbd
00000220: 942b 583c 2e74 e1bd e6a9 dfbd c7e2 753e
00000230: c7fb f13d 4162 ec3d 1252 f43c f0a2 4c3e
00000240: 698e dbbb fc15 11be 2956 503e 3353 e93d
00000250: 0c24 503e 135f 9dbd 8347 ab3e 1230 b23e
00000260: fc01 1c3e 94ae 89bd 9a54 453e 1dcb 533e
00000270: 7cd9 a5bd 12b9 923e 772c 893e 6c10 f8bd
00000280: 78e7 22be a71f 493b 3e6f 0d3e 2036 0f3e
00000290: d0a1 223e 5de5 b6be 7f01 173e f55d d6bd
000002a0: 6e83 2fbe e58b 5c3e d665 483e d04b f93c
000002b0: 9423 ca3d 89c3 f0bd 5331 dd3d 63a6 99be
000002c0: 1613 d93e 09f2 213d 3aed 59bd 41d2 343c
000002d0: 5c9c 4ebe 225f 75be 74be b5bd c965 43be
000002e0: 57ee b1bd 9d8d a7bd c8f0 5d3e b61e 0e3e
000002f0: 3de1 5c3e e1be a5be 4a41 8ab9 0422 c93d
00000300: 7b06 ad3e a4c3 e1bd 3ebb 50be f447 8b3e
00000310: bcc7 0a3d 7054 dfbc 0ede e9bd fa05 c63d
00000320: 6041 983e e7d2 193e cdb5 133d 1b6c 563e
00000330: e49a 97bb cd35 54be 9d05 5cbd 6745 fb3d
00000340: 160e 323e 05d2 4bbe c8cd bd3c 0745 e8be
00000350: aa01 56be abad aebc 607d d8bd ae6a e83e
00000360: 2ac4 873e af75 04be cb50 f9bd 4e3f 3c3e
00000370: 28b2 72bc 93b0 b5bd 88b9 1ebe 8aad 7dbe
00000380: b845 a33d a193 d43a b70f 3b3e 6d8c c33e
00000390: 076e 2d3e edf0 3e3d aeba 86bd 715c 06bd
000003a0: 67c5 a5bd 0280 cf3d 8819 98bd a7fd 82be
000003b0: ee96 9f3d 8546 f4bd 854a c03d bb4a 87be
000003c0: 883d f23d eea2 6cbe a8c2 fb3c d6f1 c03d
000003d0: 2cfd 49bd 8162 2abd 766d 233e 2add 33be
000003e0: 14aa 39be 8f79 2b3b 26b3 823d d0b1 483b
000003f0: 10e6 4c3d 347a 223e 7f26 0d3e e2fa 913e

rnn.weight_hh_l0 f4 [16, 16]
-0.15853804 0.24794327 -0.041356444 -0.291697 0.1544223 -0.2278196 -0.09869052 -0.022404293
0.11370757 -0.3669797 0.34988514 -0.7038741 -0.1562688 0.29882136 0.08052878 0.23032312
0.40553752 0.6270298 -0.40200356 0.1353907 0.40414694 0.27522287 0.51173186 -0.036413435
-0.9386559 0.80660164 -0.46977556 -0.7417793 -0.5592286 0.56926197 -0.514186 0.08228838
-0.29152036 0.5652312 -0.26889455 -0.31601542 0.25416642 -0.06105223 -0.3427101 -0.4818756
-0.563913 0.69607383 0.20191494 0.43434516 0.97283494 -0.05951443 -0.395983 -0.80599385
0.59266526 0.18872231 -0.06800655 -0.5221795 -1.1096354 -1.373835 -0.7119875 -0.3586691
-0.23715621 1.19172 0.84093016 0.54440725 0.3048528 0.13369882 -0.43187767 0.007722145
0.12145358 -0.17502673 0.21704882 -0.3153738 0.22854312 0.044094615 -0.28461063 0.025259756
0.11068146 0.16928434 0.42204845 0.13350718 0.19500738 -0.050721165 0.047833186 -0.07192815
-0.14847586 -0.18498272 0.43909717 -0.012938527 0.3585785 0.29623693 -0.12353675 0.1104624
0.07626333 -0.16425705 0.05176 0.38821384 0.73707485 -0.45220196 -0.2230529 -0.9424315
0.25511578 0.67795396 -0.8990654 -0.27080548 0.35872722 -0.27107966 0.41200185 0.21290956
-0.046768736 0.19337599 0.23556143 0.641618 -0.733839 0.041846495 0.69511807 0.1974125
0.5950144 -0.7522841 -0.19874164 -0.0688569 0.33727595 -0.72278804 -1.0925782 0.47253868
0.99210846 0.6049588 0.83925277 0.90021306 0.3920476 -0.36053076 0.14651488 -0.057152767
-0.015263369 -0.2864086 0.13306457 0.29462892 0.2543732 -0.32757866 -0.107843 0.2766219
0.14385535 0.33847398 -0.20739883 -0.13189189 0.26191625 0.16093862 0.07149403 0.028397996
-0.049421657 -0.004273387 0.1296495 -0.5578222 0.19298427 0.5314253 -0.084746085 -0.16607247
0.11749135 -0.41777512 -0.07865596 0.04953337 -0.15528983 0.14204745 0.23699048 0.04886225
-0.093364045 -0.68955773 0.23854847 0.76389533 0.7909643 0.8401239 -0.33311442 0.5176371
-0.03780208 0.4495453 -0.40594268 -0.12226931 0.2850177 -0.34181657 -1.3585448 -0.7905216
-0.023352263 -0.8390385 0.84159577 -0.24562614 -0.48570418 0.1605786 -0.043060254 0.49081504
-0.10320181 -1.094781 0.21494931 0.44797912 0.8059523 -0.6423711 -0.13896991 -0.23664631
0.015729751 -0.20954919 0.48555568 -0.7422518 -0.26247054 0.4094658 -0.22224064 0.2642785
0.6697359 -1.5534053 0.25568214 1.2847241 1.0457649 -0.18405215 0.38084126 0.023045912
0.27487636 0.7612881 -0.7866148 -0.07545272 0.591165 -0.17385288 -0.4075737 -0.5675944
-0.5654117 1.0434937 0.11289854 -0.16058293 -0.05089035 1.0544103 0.2379715 -0.2064851
0.037647072 0.28082183 0.5449811 -1.5189403 -0.11685615 0.888552 0.25323564 0.7042397
-0.17993306 -0.2624385 -0.011499067 -0.006158468 0.08918161 0.12037745 -0.028724696 0.43411314
0.0337278 0.06509656 0.4526473 -1.5559062 0.02235033 0.93741286 -0.26347485 0.40465114
0.09615278 -0.6848244 -0.03158851 -0.36952293 -0.09821046 0.277848 0.19826718 -0.12839533
00000000: cc57 22be d7e4 7d3e 6065 29bd 4f59 95be
00000010: e120 1e3e 8b49 69be 411e cabd 3589 b7bc
00000020: 84df e83d c3e4 bbbe 2524 b33e 1831 34bf
00000030: ee04 20be 1dff 983e 46ec a43d d3d9 6b3e
00000040: 9da2 cf3e 0685 203f 69d3 cdbe dca3 0a3e
00000050: 59ec ce3e 03ea 8c3e dc00 033f 4126 15bd
00000060: c14b 70bf 727d 4e3f 6c86 f0be 40e5 3dbf
00000070: 9b29 0fbf 27bb 113f b2a1 03bf cf86 a83d
00000080: 2842 95be feb2 103f 8cac 89be c6cc a1be
00000090: 1a22 823e e711 7abd b377 afbe 66b8 f6be
000000a0: 9a5c 10bf e531 323f cac2 4e3e 7d62 de3e
000000b0: b60b 793f 67c5 73bd 49be cabe 9d55 4ebf
000000c0: e9b8 173f 6c40 413e 0547 8bbd 8ead 05bf
000000d0: 8808 8ebf d3d9 afbf d044 36bf 7aa3 b7be
000000e0: 14d9 72be 488a 983f 3347 573f 465e 0b3f
000000f0: ab15 9c3e 58e8 083e 121f ddbe 0c0a fd3b
00000100: a8bc f83d 353a 33be 0c42 5e3e ad78 a1be
00000110: 3507 6a3e 8e9c 343d 7cb8 91be 8ced ce3c
00000120: f6ac e23d e058 2d3e bc16 d83e 1bb6 083e
00000130: 04b0 473e ffc0 4fbd bbec 433d 114f 93bd
00000140: 0e0a 18be 1c6c 3dbe 58d1 e03e 1efc 53bc
00000150: 9a97 b73e 5eac 973e d600 fdbd 1c3a e23d
00000160: f32f 9c3d 0033 28be 4b02 543d f7c3 c63e
00000170: f0b0 3c3f 0487 e7be fb67 64be 3143 71bf
00000180: 899e 823e 648e 2d3f 2629 66bf 04a7 8abe
00000190: 18ab b73e f4ca 8abe e8f1 d23e f704 5a3e
000001a0: 9390 3fbd 5b04 463e 0437 713e 1441 243f
000001b0: dfdc 3bbf 3b67 2b3d 42f3 313f 8126 4a3e
000001c0: dd52 183f b195 40bf ee82 4bbe d904 8dbd
000001d0: 6faf ac3e a308 39bf 9ad9 8bbf 97f0 f13e
000001e0: d2fa 7d3f 94de 1a3f 45d9 563f 5d74 663f
000001f0: 77ba c83e 7d97 b8be ff07 163e 0519 6abd
00000200: 3613 7abc 26a4 92be 1442 083e 9ad9 963e
00000210: 343d 823e 64b8 a7be cadc dcbd 63a1 8d3e
00000220: d14e 133e 764c ad3e 5c60 54be ab0e 07be
00000230: e319 863e 18cd 243e 766b 923d eaa2 e83c
00000240: 5d6e 4abd c507 8cbb d7c2 043e 70cd 0ebf
00000250: ab9d 453e 7d0b 083f 5b8f adbd e70e 2abe
00000260: 4e9f f03d 9fe6 d5be 6016 a1bd 81e3 4a3d
00000270: 4c04 1fbe e374 113e a2ad 723e c823 483d
00000280: a635 bfbd db86 30bf 0d46 743e a58e 433f
00000290: a37c 4a3f 5c12 573f f98d aabe dd83 043f
000002a0: 5bd6 1abd cd2a e63e b8d7 cfbe 5568 fabd
000002b0: d7ed 913e 9502 afbe cce4 adbf a05f 4abf
000002c0: 3f4d bfbc 3acb 56bf d272 573f 6b85 7bbe
000002d0: 38ae f8be b76e 243e f35f 30bd 1c4c fb3e
000002e0: 785b d3bd c921 8cbf ac1b 5c3e 855d e53e
000002f0: e452 4e3f 6f72 24bf 214e 0ebe 6953 72be
00000300: aedb 803c 1094 56be c19a f83e 3704 3ebf
00000310: 8a62 86be 80a5 d13e 0d93 63be 834f 873e
00000320: d073 2b3f fcd5 c6bf c5e8 823e d771 a43f
00000330: a0db 853f 2b78 3cbe a0fd c23e c8ca bc3c
00000340: 98bc 8c3e c7e3 423f 965f 49bf f586 9abd
00000350: 9756 173f 7d06 32be 80ad d0be de4d 11bf
00000360: d2be 10bf 3491 853f 5a37 e73d da6f 24be
00000370: 6672 50bd ebf6 863f cdae 733e d470 53be
00000380: d133 1a3d e1c7 8f3e e283 0b3f a36c c2bf
00000390: 4752 efbd 2578 633f 1aa8 813e 0e49 343f
000003a0: 5f40 38be 575e 86be 9566 3cbc f9cc c9bb
000003b0: d9a4 b63d 7488 f63d 0e50 ebbc 1444 de3e
000003c0: 2926 0a3d 5851 853d 63c1 e73e ef27 c7bf
000003d0: 0a18 b73c 4afa 6f3f 2de6 86be 6f2e cf3e
000003e0: c0eb c43d a750 2fbf f462 01bd 1c32 bdbe
000003f0: 9122 c9bd 1842 8e3e 8d06 4b3e 117a 03be

rnn.bias_ih_l0 f4 [16]
-0.16239437 -0.20594667 0.16083273 -0.3882789 0.037901394 0.031093685 0.12811375 0.0770666
-0.07653327 -0.19934271 -0.047157317 -0.11686546 -0.12917624 -0.2775414 -0.1762835 -0.010403226
00000000: b64a 26be afe3 52be 56b1 243e 7ecc c6be
00000010: 7e3e 1b3d 2fb8 fe3c 4030 033e 18d5 9d3d
00000020: 7abd 9cbd 7f20 4cbe 0828 41bd 2957 efbd
00000030: c746 04be e819 8ebe a983 34be 4b72 2abc

rnn.bias_hh_l0 f4 [16]
-0.19161807 -0.10859998 -0.03579401 -0.18153068 0.11099644 0.20583846 -0.066682935 0.162104
0.28583446 -0.0183294 0.284583 -0.2543877 0.085613765 -0.18237191 -0.101001814 -0.10016159
00000000: 8737 44be ab69 debd bd9c 12bd 2ee3 39be
00000010: 1a52 e33d 51c7 523e 1091 88bd 97fe 253e
00000020: e558 923e 8a27 96bc ddb4 913e 1b3f 82be
00000030: 4556 af3d b4bf 3abe 0ada cebd 8521 cdbd

rnn.weight_ih_l0_reverse f4 [16, 128]
-0.349221 0.39391103 0.1201833 0.13109237 0.12931779 -0.20173933 0.29384744 0.13499813
0.0646702 0.2596666 -0.0783246 0.02794935 -0.24727458 0.3021892 0.005706885 0.00029693285
-0.0022315166 0.14344376 0.10516225 0.25377873 0.34603122 -0.120204456 -0.1940247 0.15768762
0.36771876 -0.046313554 -0.105400786 -0.009414281 0.18370026 0.58680326 -0.17406039 0.06721701
-0.06339121 0.34209687 0.034056593 -0.2816604 -0.23861867 0.09721054 0.10389941 -0.18762656
0.032580942 -0.2942608 -0.24094489 0.0013440379 0.13200401 0.044340547 0.15601224 -0.3509273
0.035113476 -0.13466439 -0.18002966 -0.28713182 -0.030924736 -0.17067775 0.3718815 0.082357734
-0.008726683 0.0004143722 -0.14451696 -0.1333745 0.021196406 0.4049308 0.246643 -0.0013289169
-0.15906025 -0.1922858 -0.37987265 -0.2607554 0.3169259 -0.060781647 0.018494524 0.34053397
-0.18162821 0.054108456 -0.2200335 -0.05396743 0.17249417 -0.30930912 0.39903897 -0.1859153
0.11013368 -0.18442187 0.029091306 -0.24478976 -0.21415095 0.0245291 0.082248464 0.21650411
-0.17182028 0.012985828 -0.063651234 -0.086979076 -0.033353634 -0.29388013 -0.18163939 -0.3411076
-0.13934612 -0.028002197 -0.061408136 0.20165478 -0.038406707 -0.2249842 0.115053065 0.011460162
0.18660536 -0.38116553 -0.05274508 0.022517322 0.23558027 0.06561207 -0.22199677 -0.06612808
-0.18182531 -0.1735905 0.20995949 -0.05609691 0.25393718 0.10317111 -0.15737611 -0.12078304
0.25627914 -0.22453617 -0.024472266 0.20355265 -0.010053533 0.05129035 0.3105112 -0.14350355
-0.058849953 0.09244079 -0.08140089 0.018942516 -0.14443238 -0.3437197 0.07144111 -0.035546232
-0.14884385 0.13826506 -0.3050708 0.12602726 0.18385537 0.22392303 0.1973732 -0.28445637
0.035494175 -0.025168976 -0.13189614 0.018569099 -0.053577434 -0.091971755 -0.2602803 -0.10764028
0.08657257 -0.10962672 -0.17335686 -0.16067147 0.27801028 0.30706316 0.13085599 -0.013966883
0.09763672 0.6235082 -0.24081463 -0.5211023 0.17262977 -0.12116035 0.24291182 -0.268221
-0.10193973 -0.05789228 -0.26345164 0.21443693 0.14709975 0.12859552 -0.07846199 -0.03774201
-0.31101266 -0.10901168 0.0973481 -0.02573759 0.27311283 0.074226305 0.29970253 -0.5478724
0.117694825 0.20529559 -0.24219543 -0.41167253 -0.058668643 -0.015471258 -0.21930529 0.064254634
-0.23628792 -0.05136034 0.041969977 0.0083902925 0.37986997 -0.109461926 0.24302356 -0.16966157
-0.008414474 0.14057879 0.15713654 0.16048019 -0.21091624 0.06001957 0.033385944 0.04136804
0.036149215 -0.3146059 0.12283749 -0.059538845 -0.30628517 -0.03943315 0.1871795 -0.085269675
0.14415021 0.13509549 0.06146388 0.099860795 0.2257649 0.20313738 0.15634076 -0.04665241
0.062423363 0.15922467 0.018554961 -0.0026206856 -0.24252985 -0.038098548 -0.05283545 0.26605523
-0.116611175 0.0766585 0.28352904 -0.09427598 0.010345043 0.07141953 0.06633464 0.6516462
-0.058199815 -0.018093646 -0.12373363 -0.027627619 -0.028334368 0.088238746 -0.10489004 -0.108869486
0.29408774 -0.07930017 0.023030909 0.007219054 -0.2213105 -0.22142844 -0.3434491 -0.094375744
00000000: 18cd b2be b5ae c93e a922 f63d 143d 063e
00000010: e26b 043e c194 4ebe 2c73 963e f33c 0a3e
00000020: cf71 843d 05f3 843e a668 a0bd 09f6 e43c
00000030: 8c35 7dbe 8bb8 9a3e d200 bb3b a7ad 9b39
00000040: a33e 12bb ece2 123e 4e5f d73d 49ef 813e
00000050: 012b b13e c12d f6bd 69ae 46be dd78 213e
00000060: a245 bc3e 48b3 3dbd 5edc d7bd 5b3e 1abc
00000070: ec1b 3c3e bd38 163f e33c 32be 12a9 893d
00000080: 40d3 81bd 5227 af3e ed7e 0b3d cb35 90be
00000090: 7458 74be 5216 c73d 37c9 d43d 2d21 40be
000000a0: 9873 053d 5aa9 96be 42ba 76be 6e2a b03a
000000b0: 0f2c 073e 6f9e 353d acc1 1f3e beac b3be
000000c0: 26d3 0f3d 76e5 09be b259 38be f102 93be
000000d0: df55 fdbc 26c6 2ebe 4167 be3e 2cab a83d
000000e0: 5dfa 0ebc 1840 d939 41fc 13be 5393 08be
000000f0: 16a4 ad3c 1753 cf3e fc8f 7c3e 0d2f aeba
00000100: b1e0 22be 92e6 44be ab7e c2be bb81 85be
00000110: 1d44 a23e 2df6 78bd d481 973c 785a ae3e
00000120: bffc 39be d4a0 5d3d 7650 61be f40c 5dbd
00000130: 50a2 303e c45d 9ebe d64e cc3e 9560 3ebe
00000140: c48d e13d 16d9 3cbe e450 ee3c 2baa 7abe
00000150: 634a 5bbe 40f1 c83c e271 a83d 41b3 5d3e
00000160: a8f1 2fbe 83c2 543c 945b 82bd 1622 b2bd
00000170: d29d 08bd 7577 96be adff 39be a8a5 aebe
00000180: c0b0 0ebe dd64 e5bc 1987 7bbd 977e 4e3e
00000190: 5a50 1dbd 4262 66be f1a0 eb3d 67c3 3b3c
000001a0: 7a15 3f3e 2128 c3be 3a0b 58bd 3f76 b83c
000001b0: f43b 713e 9f5f 863d 1f53 63be 296e 87bd
000001c0: 6a30 3abe b5c1 31be 9fff 563e e0c5 65bd
000001d0: 0e04 823e 604b d33d 3427 21be 195d f7bd
000001e0: 0537 833e cfec 65be 107a c8bc 1b70 503e
000001f0: 93b7 24bc d415 523d 53fb 9e3e 98f2 12be
00000200: a60c 71bd 9951 bd3d 83b5 a6bd 562d 9b3c
00000210: 15e6 13be 07fc afbe b74f 923d ed98 11bd
00000220: 866a 18be 5b95 0d3e 3d32 9cbe 4a0d 013e
00000230: 9544 3c3e 144c 653e 331c 4a3e 44a4 91be
00000240: 5762 113d 2b2f cebc c80f 07be 391e 983c
00000250: 0374 5bbd b05b bcbd 7643 85be 8272 dcbd
00000260: f64c b13d f983 e0bd 7684 31be 1087 24be
00000270: 5d57 8e3e 6237 9d3e 1dff 053e 5ad5 64bc
00000280: c3f5 c73d 3c9e 1f3f 1c98 76be f666 05bf
00000290: dcc5 303e eb22 f8bd e0bd 783e 4354 89be
000002a0: c7c5 d0bd 7520 6dbd 22e3 86be 5b95 5b3e
000002b0: 51a1 163e 8bae 033e aeb0 a0bd 5e97 1abd
000002c0: 0d3d 9fbe 8441 dfbd 715e c73d a3d7 d2bc
000002d0: 72d5 8b3e f603 983d 9c72 993e 5e41 0cbf
000002e0: fc09 f13d 0239 523e 1402 78be bec6 d2be
000002f0: 884e 70bd 297b 7dbc 9191 60be ef97 833d
00000300: 76f5 71be 385f 52bd b6e8 2b3d 7077 093c
00000310: 517e c23e 932d e0bd 2bdb 783e c3bb 2dbe
00000320: dddc 09bc e3f3 0f3e 67e8 203e eb54 243e
00000330: 6dfa 57be 15d7 753d b3bf 083d 8971 293d
00000340: 3311 143d 0614 a1be 3992 fb3d 01df 73bd
00000350: 69d1 9cbe a884 21bd fcab 3f3e dea1 aebd
00000360: 1d9c 133e 7956 0a3e 8dc1 7b3d d183 cc3d
00000370: ea2e 673e 3f03 503e cb17 203e 9916 3fbd
00000380: a4af 7f3d cb0b 233e 9300 983c cfbf 2bbb
00000390: bf59 78be 390d 1cbd fc69 58bd 6438 883e
000003a0: d7d1 eebd 22ff 9c3d b82a 913e c413 c1bd
000003b0: 417e 293c 6744 923d 75da 873d 49d2 263f
000003c0: ee62 6ebd 2039 94bc 0f68 fdbd 5153 e2bc
000003d0: 7a1d e8bc 84b6 b43d 97d0 d6bd f7f6 debd
000003e0: ab92 963e 2168 a2bd 51ab bc3c d08d ec3b
000003f0: 389f 62be 23be 62be 8fd8 afbe 1248 c1bd

rnn.weight_hh_l0_reverse f4 [16, 16]
0.17769073 0.16028047 0.20900328 -0.44019392 0.18112364 0.4686153 0.47539383 0.15957047
-0.5198129 -0.27529147 0.20168929 0.40070206 -0.13486294 -0.2155467 0.17144908 0.24670051
0.16656749 -0.21360339 -0.057723552 -0.12968037 0.04398094 0.778498 0.6917034 0.73019415
-0.24091646 0.63770354 -0.06927388 -0.11641583 0.98076254 0.45461223 0.5468674 -0.24191858
0.10393199 -0.2974742 -0.025792496 0.15042938 0.4003074 -0.20817304 0.64002115 0.74620694
0.15405406 -0.23538096 0.32682902 0.85159487 0.45795783 0.08166106 0.47729215 0.69420993
-0.12701161 -0.44363627 -0.21740805 0.4098225 -0.5114349 -0.65140486 -0.4479992 -0.6883268
0.9485872 0.098705314 -0.017842405 0.22990449 -0.7472469 -0.5780728 -0.4536731 -0.065171085
0.52918094 0.43246028 0.5478066 -0.19584224 0.8417006 1.1849768 -0.29883292 0.22912805
0.7206517 -0.39348918 0.2695821 -1.0371011 0.74373364 -0.5749115 -0.178008 -0.36195195
0.26969105 0.5378027 0.48791808 -0.82803684 0.5364809 1.2379687 -0.21847954 0.06333125
0.32809016 0.10311516 0.03366594 -1.1228715 0.48770437 -0.6452526 -0.11492731 -0.06667499
-0.6394437 0.6317637 -0.14485767 -0.8753863 -0.5949077 -0.041321713 -0.50793827 -0.0120477
0.23377754 0.011064715 -0.35757044 0.02541213 0.25273407 -0.64236134 0.22935781 -0.61244416
-0.30502328 -0.40967178 -0.18705814 0.52271235 -0.7729166 -0.0045337738 1.1927091 0.7810417
-0.15145428 0.2134853 0.2666324 -0.11337597 0.13708949 0.058342084 0.77271247 0.37438655
-0.48275313 0.08589381 0.18253778 0.3647703 -0.65418726 -0.64716244 -0.24556957 0.45942032
-0.96214557 0.23069647 -0.9432249 -0.5847562 -0.33164504 -0.010300606 -0.3175417 -0.46415997
-0.5053432 0.22930107 -0.2585415 -0.23203538 -0.49411613 0.7528047 -0.22008407 -0.15648574
0.21250509 -0.359991 0.53792775 0.4214536 0.3410601 0.09244196 -0.046313327 -0.06813016
-0.17551638 0.3439425 0.38877708 -0.3373996 0.11231247 0.31309095 -1.0753276 -0.2668965
0.782597 -0.68943554 -0.39737222 -0.43228602 -0.655849 -0.98203105 -0.5109058 0.13501583
-0.16820368 -0.16843028 -0.16845164 0.15129836 -0.48231983 0.55752206 0.29449153 0.1202608
-1.3122433 0.49111614 -0.3760554 -0.9995323 -0.038598705 0.15908845 -0.2905414 -0.65127665
-0.30017668 -0.3512539 -0.61055744 0.63053685 -0.637494 -1.0668721 -0.03809923 -0.0097077405
0.16417369 -0.22222523 0.14135846 0.85038286 -0.676652 -0.39210778 0.18699658 0.88636655
-0.3144342 -0.07727572 -0.43618527 0.51052684 -0.22556062 0.75798815 0.82820463 0.26563293
-0.5006235 0.3585092 0.28478715 -1.0381495 0.47353795 -0.37251765 -0.06586327 -1.065497
0.026368687 0.0484137 0.29223073 -0.26750115 -0.1372881 -0.29260966 -0.03291295 0.9168768
0.7974825 -0.17880088 0.02732472 0.2649269 0.74365866 -0.42614836 0.13784063 -0.8927286
0.40961158 -0.10658604 0.71790403 -0.39732316 0.114937425 -0.15228438 -0.3955189 -0.03765848
1.5875624 -0.26652503 -0.3343462 -0.60814714 0.25095046 -0.7227816 0.30247542 -0.13167544
00000000: 8ff4 353e 9020 243e f504 563e 1961 e1be
00000010: 7a78 393e 58ee ef3e d266 f33e 7166 233e
00000020: 7512 05bf 01f3 8cbe a387 4e3e d228 cd3e
00000030: 8319 0abe 46b8 5cbe 5990 2f3e 0f9f 7c3e
00000040: ab90 2a3e d9ba 5abe 886f 6cbd eeca 04be
00000050: 5c25 343d a54b 473f 7913 313f 01ee 3a3f
00000060: ceb2 76be 8a40 233f 77df 8dbd 6c6b eebd
00000070: 4113 7b3f efc2 e83e 80ff 0b3f 81b9 77be
00000080: 4cda d43d 8a4e 98be c94a d3bc 290a 1a3e
00000090: 17f5 cc3e 502b 55be 6dd8 233f 6b07 3f3f
000000a0: 59c0 1d3e b507 71be 2256 a73e 1f02 5a3f
000000b0: 7379 ea3e ea3d a73d a35f f43e beb7 313f
000000c0: 550f 02be 4b24 e3be 37a0 5ebe 41d4 d13e
000000d0: 66ed 02bf 78c2 26bf 2760 e5be 2f36 30bf
000000e0: 9cd6 723f 0326 ca3d 3c2a 92bc 156c 6b3e
000000f0: 934b 3fbf 94fc 13bf d747 e8be 6b78 85bd
00000100: 6778 073f 6f6b dd3e 0e3d 0c3f de8a 48be
00000110: b179 573f 52ad 973f a100 99be 8ba0 6a3e
00000120: a17c 383f 6a77 c9be aa06 8a3e bbbf 84bf
00000130: 5465 3e3f 662d 13bf bb47 36be c451 b9be
00000140: f214 8a3e 70ad 093f 66d0 f93e 39fa 53bf
00000150: d056 093f c275 9e3f 1ab9 5fbe d0b3 813d
00000160: 6ffb a73e 0a2e d33d 4ce5 093d 41ba 8fbf
00000170: 63b4 f93e 462f 25bf 025f ebbd e68c 88bd
00000180: 95b2 23bf 44bb 213f 9255 14be 5119 60bf
00000190: df4b 18bf f540 29bd 3e08 02bf b763 45bc
000001a0: 6163 6f3e c748 353c 7913 b7be 192d d03c
000001b0: 5c66 813e cb71 24bf c6dc 6a3e 24c9 1cbf
000001c0: 032c 9cbe 80c0 d1be 2b8c 3fbe 7ad0 053f
000001d0: dddd 45bf 0d90 94bb b1aa 983f 59f2 473f
000001e0: d516 1bbe e49b 5a3e 0b84 883e a931 e8bd
000001f0: 3061 0c3e 1cf8 6e3d 7cd0 453f 98af bf3e
00000200: 6b2b f7be 18e9 af3d 2feb 3a3e 2cc3 ba3e
00000210: d178 27bf 70ac 25bf 9776 7bbe 2439 eb3e
00000220: 2c4f 76bf b23b 6c3e 3077 71bf 95b2 15bf
00000230: 61cd a9be dfc3 28bc d394 a2be 60a6 edbe
00000240: 2c5e 01bf e6cd 6a3e 8d5f 84be af9a 6dbe
00000250: cafc fcbe cfb7 403f b85d 61be cc3d 20be
00000260: ef9a 593e be50 b8be a2b5 093f c4c8 d73e
00000270: 6e9f ae3e 3652 bd3d 0bb3 3dbd d387 8bbd
00000280: 91ba 33be 3b19 b03e ca0d c73e a4bf acbe
00000290: 1504 e63d 754d a03e 56a4 89bf a8a6 88be
000002a0: 4758 483f d97e 30bf 5f74 cbbe 9854 ddbe
000002b0: b8e5 27bf 6366 7bbf b9ca 02bf 9741 0a3e
000002c0: 963d 2cbe fd78 2cbe 967e 2cbe f5ed 1a3e
000002d0: a0f2 f6be c4b9 0e3f 98c7 963e 4b4b f63d
000002e0: 97f7 a7bf 9373 fb3e 558a c0be 59e1 7fbf
000002f0: ad19 1ebd 15e8 223e d8c1 94be 11ba 26bf
00000300: c2b0 99be 8dd7 b3be 7e4d 1cbf dd6a 213f
00000310: cf32 23bf 448f 88bf f00d 1cbd 370d 1fbc
00000320: 261d 283e 038f 63be 46c0 103e b1b2 593f
00000330: 1139 2dbf 5ac2 c8be 087c 3f3e ebe8 623f
00000340: 85fd a0be bc42 9ebd ad53 dfbe e3b1 023f
00000350: 5df9 66be 830b 423f 3805 543f 0a01 883e
00000360: dd28 00bf 858e b73e 9fcf 913e 15e2 84bf
00000370: 9173 f23e a2ba bebe 52e3 86bd 3562 88bf
00000380: 2503 d83c 724d 463d 449f 953e e9f5 88be
00000390: 4095 0cbe efd0 95be bbcf 06bd 70b8 6a3f
000003a0: d027 4c3f 9417 37be 17d8 df3c 80a4 873e
000003b0: 6a60 3e3f 1e30 dabe 1826 0d3e dd89 64bf
000003c0: 9cb8 d13e c849 dabd 8fc8 373f f16d cbbe
000003d0: 5064 eb3d 70f0 1bbe 7481 cabe c73f 1abd
000003e0: 3f35 cb3f f875 88be 6d2f abbe 88af 1bbf
000003f0: 947c 803e 3708 39bf 0fde 9a3e edd5 06be

rnn.bias_ih_l0_reverse f4 [16]
0.5035154 0.23936273 -0.02506161 -0.27378795 0.21977754 0.32037485 -0.06376439 0.17377134
-0.35901493 -0.04327081 -0.023082355 -0.05234344 -0.1959225 0.042016674 0.17575955 0.063957356
00000000: 63e6 003f 811b 753e 014e cdbc ef2d 8cbe
00000010: 5d0d 613e 2c08 a43e e896 82bd 1df1 313e
00000020: ced0 b7be bc3c 31bd 3517 bdbc 1366 56bd
00000030: e89f 48be ad19 2c3d 50fa 333e 13fc 823d

rnn.bias_hh_l0_reverse f4 [16]
0.29063338 0.4576726 0.013307605 -0.4086025 0.17330453 0.16526073 0.0954055 -0.013323186
-0.06293916 -0.06308894 -0.03938319 -0.09453814 -0.27545667 0.18248516 0.047859203 -0.09693549
00000000: e6cd 943e 1054 ea3e 2408 5a3c 5934 d1be
00000010: be76 313e 1c3a 293e f563 c33d 7e49 5abc
00000020: 3fe6 80bd c634 81bd 4550 21bd 369d c1bd
00000030: a808 8dbe 64dd 3a3e 0308 443d 1d86 c6bd

fc1.weight f4 [12, 32]
0.65746164 -0.40655893 0.98443764 -1.5051471 0.4991137 0.42056867 -0.21930794 1.2624136
0.5218686 -0.45811868 0.83396727 0.024903744 0.5027328 -0.16198274 -0.4688167 -0.5530514
0.4882311 0.9646415 0.54895866 -0.82464343 0.9169113 0.93204087 0.40683976 0.31653428
-0.4519513 0.5664906 -1.1638548 -0.57055515 -1.0144885 0.6219091 0.8982775 -0.4424339
-1.633265 -0.7685723 -0.26202703 1.7373374 -2.173419 0.91266495 0.031729415 -0.7644508
-2.8852882 0.9634397 0.47881007 -1.1622137 0.6504241 -1.0941103 1.3128774 1.0043806
-3.1478257 0.92042184 -2.4908934 -1.1192849 -0.5714866 1.5671767 -1.6746252 -0.4060045
-1.6964482 -2.3860867 -1.2269076 2.2410645 -0.7884933 -0.718478 -2.5017345 -0.863961
-0.33365527 1.0541769 0.5895205 1.5158737 0.18662304 -0.74877965 1.6852672 -1.8856694
-2.354167 -1.7797551 -1.328445 1.1862723 0.9016772 -0.3445837 0.5878046 1.6682435
0.18363923 0.65543336 0.37472478 -0.5047875 -1.5366869 0.94034064 0.7416869 0.6398445
1.3049113 -0.17845392 1.7859416 0.6488179 0.6286903 0.1756429 0.9687653 1.7508657
-1.6132679 0.024016429 -1.1014012 -0.7936656 -0.6267659 0.8606624 1.3704708 0.038310625
-0.3031427 0.623189 -1.5740678 0.69176096 0.2079913 0.9692084 -0.3375651 0.2401614
-2.0848753 -1.9857166 1.4487848 -0.8800268 -0.48023272 0.81060374 -0.9966403 1.3480041
1.3888814 -1.4424671 1.3868915 0.55986905 0.9970727 -0.9020189 -1.081822 1.3688235
-2.1127105 0.38483876 -2.1913586 -0.24378021 -1.5912468 0.8765323 -0.09178107 -0.6504942
0.67733955 -1.3199453 -1.852525 0.15725198 0.6494748 0.02245219 1.5884054 1.3523091
-0.12563437 0.7288308 -1.1996037 0.6130199 -0.08468866 -0.42290685 -0.39775836 0.23134683
1.4889922 0.35992593 1.4477838 -1.2872773 -0.8965229 -1.5533378 0.026203042 0.254139
0.2386157 0.8077942 0.57653093 0.07669363 -0.008380297 0.04175306 -0.40957186 -1.7212789
0.28926823 0.18995696 -1.3367727 -0.2842708 0.032090265 0.77456075 -0.16897829 -0.24850431
0.06293192 -0.59188014 -0.098893754 0.43867624 -0.22196993 -0.10037708 0.11080834 -0.43122944
0.930253 0.19773835 0.49001786 0.21951747 -0.009094251 0.17747612 -0.32075143 -0.5849199
-0.16551653 0.28944823 -0.080446616 0.049903944 -0.188334 -0.3221456 -0.62295187 0.18831429
-0.0965283 -0.034588188 0.025933981 -1.0184177 -0.6103702 1.6372925 0.34879166 0.14438254
-0.14066163 -0.5526426 -0.07817814 -0.0720204 -0.9227523 -0.7108731 -0.105813645 -0.6006446
-1.3988966 -0.3028721 0.5546525 -0.943025 0.9381548 -1.8207192 0.087539755 1.8787327
-0.33217368 0.77863646 1.6832618 2.4920847 -0.38882026 0.18260264 -0.017057294 1.1060617
-0.3231541 0.17999886 0.56183887 -0.6940708 -1.4186003 1.8868444 0.33336323 0.19617613
-0.41303146 -0.35304815 0.15701582 0.068234675 1.6084907 1.2983061 -0.09860515 0.15674134
-0.103618555 -0.3001182 0.9489074 0.21129794 -0.53231597 0.98135954 -0.22598854 1.2514129
00000000: 684f 283f 7e28 d0be 1b04 7c3f a9a8 c0bf
00000010: d58b ff3e c754 d73e 4392 60be c596 a13f
00000020: 2e99 053f 888e eabe e17e 553f f002 cc3c
00000030: 19b3 003f cede 25be be08 f0be c794 0dbf
00000040: 6df9 f93e bff2 763f 8e88 0c3f d51b 53bf
00000050: b3ba 6a3f 3b9a 6e3f 4d4d d03e c810 a23e
00000060: 2966 e7be 8705 113f 32f9 94bf e70f 12bf
00000070: c2da 81bf 6f35 1f3f 84f5 653f b286 e2be
00000080: d40e d1bf 27c1 44bf 6828 86be 1261 de3f
00000090: 4c19 0bc0 69a4 693f b4f6 013d 0cb3 43bf
000000a0: 90a8 38c0 fca3 763f 9826 f53e 6bc3 94bf
000000b0: 3282 263f ce0b 8cbf 5e0c a83f 8b8f 803f
000000c0: fa75 49c0 c4a0 6b3f cc6a 1fc0 ba44 8fbf
000000d0: f24c 12bf 3f99 c83f 1e5a d6bf d2df cfbe
000000e0: 3725 d9bf a5b5 18c0 4f0b 9dbf 9a6d 0f40
000000f0: b2da 49bf 2dee 37bf 6b1c 20c0 8c2c 5dbf
00000100: ddd4 aabe 45ef 863f d1ea 163f 2608 c23f
00000110: 1c1a 3f3e 06b0 3fbf d6b6 d73f 9d5d f1bf
00000120: acaa 16c0 04cf e3bf 7c0a aabf c5d7 973f
00000130: 51d4 663f 466d b0be 5d7a 163f 0189 d53f
00000140: ec0b 3c3e 7bca 273f eddb bf3e c139 01bf
00000150: 28b2 c4bf 2aba 703f 31df 3d3f d9cc 233f
00000160: 5507 a73f a0bc 36be bc99 e43f ee18 263f
00000170: d9f1 203f bbdb 333e 0101 783f 5e1c e03f
00000180: 907f cebf 1abe c43c b7fa 8cbf ab2d 4bbf
00000190: bb73 20bf 5f54 5c3f 966b af3f 9aeb 1c3d
000001a0: 8535 9bbe 5089 1f3f 0e7b c9bf 3f17 313f
000001b0: acfb 543e 0b1e 783f 55d5 acbe dfec 753e
000001c0: 996e 05c0 f62b febf c871 b93f 7049 61bf
000001d0: 10e1 f5be ba83 4f3f d223 7fbf 668b ac3f
000001e0: dec6 b13f c3a2 b8bf a985 b13f 9453 0f3f
000001f0: 2840 7f3f b6ea 66bf 2579 8abf 9c35 af3f
00000200: a636 07c0 9609 c53e 383f 0cc0 85a1 79be
00000210: faad cbbf 6c64 603f b7f7 bbbd ca86 26bf
00000220: 2066 2d3f f8f3 a8bf 8a1f edbf aa06 213e
00000230: fb43 263f a8ed b73c de50 cb3f 7718 ad3f
00000240: 4ca6 00be a894 3a3f 9d8c 99bf dfee 1c3f
00000250: 4071 adbd 3f87 d8be fca6 cbbe 2fe6 6c3e
00000260: 4c97 be3f 3648 b83e fb50 b93f 81c5 a4bf
00000270: 8682 65bf c6d3 c6bf c3a7 d63c 821e 823e
00000280: ad57 743e 9acb 4e3f 8897 133f 8d11 9d3d
00000290: 834d 09bc 4205 2b3d 67b3 d1be de52 dcbf
000002a0: f71a 943e 1484 423e 5e1b abbf f18b 91be
000002b0: 1571 033d 9d49 463f a508 2dbe ea77 7ebe
000002c0: 73e2 803d 7585 17bf cf88 cabd 2c9a e03e
000002d0: 164c 63be 8092 cdbd 7cef e23d 1bca dcbe
000002e0: 1025 6e3f ec7b 4a3e 9fe3 fa3e 30c9 603e
000002f0: 0e00 15bc 4dbc 353e 8839 a4be 50bd 15bf
00000300: 2a7d 29be 8f32 943e 32c1 a4bd 1468 4c3d
00000310: a1da 40be 45f0 a4be c679 1fbf 76d5 403e
00000320: a1b0 c5bd 58ac 0dbd 8073 d43c 835b 82bf
00000330: 3941 1cbf cd92 d13f d294 b23e 04d9 133e
00000340: 9a09 10be fc79 0dbf dc1b a0bd 6e7f 93bd
00000350: 7f39 6cbf c8fb 35bf d3b4 d8bd d8c3 19bf
00000360: 0b0f b3bf 0d12 9bbe b5fd 0d3f 166a 71bf
00000370: ea2a 703f 540d e9bf 0b48 b33d 507a f03f
00000380: ab12 aabe b854 473f 1f75 d73f 517e 1f40
00000390: 7313 c7be 30fc 3a3e bdbb 8bbc 6e93 8d3f
000003a0: 7474 a5be 9f51 383e acd4 0f3f a0ae 31bf
000003b0: b294 b5bf 1e84 f13f 96ae aa3e 65e2 483e
000003c0: dc78 d3be bac2 b4be c1c8 203e 9fbe 8b3d
000003d0: 06e3 cd3f e52e a63f 7ff1 c9bd cd80 203e
000003e0: f735 d4bd 18a9 99be 98eb 723f 7d5e 583e
000003f0: dc45 08bf 613a 7b3f 8a69 67be 4c2e a03f

fc1.bias f4 [12]
0.21160974 1.344128 -0.9212366 -0.72040987 -0.8456051 -0.05535562 -0.50386816 -0.5291237
-0.1481982 -0.5140561 -0.54368186 -0.16931805
00000000: 39b0 583e 630c ac3f 29d6 6bbf c86c 38bf
00000010: 9379 58bf 93bc 62bd 81fd 00bf a774 07bf
00000020: 45c1 17be 2e99 03bf bc2e 0bbf b661 2dbe
