src/main/python/saved_models/java_1_55_RNNClassifier1_128embs_109id_16hd_1hl_Truebid_0.pt (torch, 77983 bytes, 11 tensors)

word_embeddings.weight f4 [109, 128]
000000 6d a0 9f bf 94 32 ec be 71 6a 50 bf 8b 1a 9e bf
       -1.2470833 -0.46132338 -0.81412417 -1.235185
000010 ac 2f eb be 22 c0 76 bf b8 c3 82 be af 32 d2 bf
       -0.45934808 -0.9638692 -0.25539947 -1.6421717
000020 43 65 40 bf 9f 40 39 3f 01 2d 3c bf e6 c4 3c bf
       -0.75154513 0.7236423 -0.7350617 -0.73737943
000030 15 c1 95 be 95 e4 0a 40 68 0e 16 3f b3 30 1d 3f
       -0.29248872 2.1702015 0.5861573 0.61402434
000040 44 82 27 bf 85 bc 6e bf 9e c5 25 3f b4 5b 81 bd
       -0.65433145 -0.9325641 0.64754665 -0.06316319
000050 39 82 6a 3f cf 03 44 3e 3e 13 1a bf 47 fc 43 3f
       0.91604954 0.19142078 -0.6018561 0.7655682
000060 87 38 8c 3f bb a8 80 3d ea 72 1d c0 82 14 a7 bf
       1.0954751 0.06282183 -2.4601388 -1.3053133
000070 25 19 98 3e 37 85 e7 be b1 ed 33 bf ff 73 36 3d
       0.29706684 -0.45218822 -0.70284563 0.044544216
000080 0f 84 d8 3f b6 49 ae 3e 32 29 d1 3d 65 70 5f bf
       1.6915301 0.34040612 0.102129355 -0.87280875
000090 b7 ab 60 3e 1d 91 8a 3e a0 c3 d3 3e 75 56 fc be
       0.21940504 0.27063838 0.41360188 -0.4928471
0000a0 ee 5a 72 3e a2 82 7b 3e 05 03 45 be c7 46 fa bd
       0.236675 0.24561551 -0.19239433 -0.12220531
0000b0 62 81 2c 40 7f 94 77 bf d3 c1 ef 3f 48 bc 4d bf
       2.695397 -0.9671096 1.8731025 -0.8036542
0000c0 ed 96 4c bf ab 96 fe 3e 0c 95 3c 3c 1a 27 07 bf
       -0.79917794 0.49724326 0.011510145 -0.5279404
0000d0 59 90 81 3f 2a 16 f6 3e 27 6c 93 3f c7 4b f5 3f
       1.0122176 0.48063785 1.151738 1.916375
0000e0 d8 aa b5 3d bb 03 93 3f ba 07 92 be 26 a1 1e bf
       0.088704765 1.1485513 -0.2852152 -0.61964643
0000f0 13 2b be 3f 0a d5 c5 be fe d6 56 c0 0e d8 5f bf
       1.4856895 -0.38639098 -3.356872 -0.8743905
000100 06 ff ac be e8 0e a3 bf ff 64 91 bf b1 59 9e bf
       -0.33788317 -1.2738924 -1.1358947 -1.2371122
000110 6a bd 58 3e 5b bb c1 be c7 0d 02 40 1b 41 28 bd
       0.21166006 -0.37838253 2.032091 -0.041077714
000120 5a 7e 76 bf 33 05 87 be 5c 22 87 bf 47 09 dd be
       -0.9628655 -0.26371154 -1.0557361 -0.4317114
000130 19 88 bf bd db a8 00 bf e1 d9 53 3f c3 63 4c bf
       -0.093521304 -0.50257653 0.8275433 -0.79839724
000140 49 de bf bc 91 4e 44 3e b1 34 ba be 9e 1f 11 3f
       -0.023421424 0.19170596 -0.36368325 0.5668887
000150 c3 2d a2 bf af a2 f2 be 8e 37 77 3d 18 a1 00 bd
       -1.2670215 -0.47389743 0.060355715 -0.03140363
000160 d7 61 42 bd 72 49 05 bf c3 e6 83 bf bb 7a 01 3f
       -0.04745659 -0.52065194 -1.0304798 0.50577897
000170 f4 b5 99 bf 49 63 22 bf 84 79 78 3e 50 c4 ce 3f
       -1.2008653 -0.6343275 0.24265105 1.615366
000180 03 a0 1e 3f 3e 48 81 3f a1 ed 85 3f 92 cb 84 bf
       0.6196291 1.0100172 1.0463144 -1.0374625
000190 ac 0b b3 3f 77 ec 65 bf c7 f7 a7 bf fb 27 bf 3f
       1.3987937 -0.8981394 -1.3122491 1.4934076
0001a0 1b 20 80 3f b0 83 35 3e 2e 5c 08 be 41 a6 89 3e
       1.0009798 0.17726016 -0.13316414 0.26884654
0001b0 65 c8 fc bf f1 5c 47 bf 81 22 e8 bf f2 73 b9 bf
       -1.9748656 -0.7787619 -1.813553 -1.4488509
0001c0 a8 a3 25 3f 77 c7 1f bf 29 0d eb 3f 58 3a ff 3e
       0.64702845 -0.62413734 1.8363391 0.498492
0001d0 d2 bf 68 3e 7c 97 e4 3e b4 db 94 3e 40 bb 23 bf
       0.22729424 0.44646823 0.2907387 -0.63957596
0001e0 31 1f 23 40 d6 8e d0 bd 9a e1 d3 bd 87 01 f3 3f
       2.5487788 -0.10183494 -0.103457645 1.8984841
0001f0 79 93 cc bf 68 44 ab 3f cc 98 c1 3e b5 c6 79 3e
       -1.5982505 1.3380251 0.37811887 0.24392207
000200 86 5d 36 3f 97 64 e3 bf bd 2d b5 3e ed 8c 99 3f
       0.71236455 -1.7765073 0.35386458 1.1996132
000210 7a 22 9b be 07 84 e1 bf 2d 85 22 3f 7a ea 4d bf
       -0.3029974 -1.7618417 0.6348446 -0.8043591
000220 e9 38 ce bf 03 91 ef bf 87 07 0b 3f 3c 22 29 3f
       -1.6111118 -1.8716129 0.5430836 0.6606786
000230 bf e4 12 40 a3 c6 2c 3f 1f 4e db 3f c0 aa e5 bf
       2.2952116 0.67490596 1.7133216 -1.7942734
000240 8a 7f ae bf 48 b4 7b bf 30 71 c1 3f a4 51 24 3f
       -1.3632672 -0.9832196 1.5112667 0.64187074
000250 50 28 f2 3e 29 70 db be a2 26 0d 3f 40 10 c6 bf
       0.4729638 -0.4285901 0.55137074 -1.5473709
000260 ff a2 04 3f 35 2f da 3d ed d9 89 3e ff 91 a9 3f
       0.5181121 0.10653535 0.26924077 1.324768
000270 8e 7d df 3f a0 6f ed 3f 9b d4 34 bf 4d a7 23 40
       1.7460191 1.854969 -0.7063691 2.5570862
000280 0e c7 d5 3e e8 d2 59 be 7d 07 57 bf 95 0c d7 be
       0.4175343 -0.2127186 -0.839958 -0.42001787
000290 d8 c0 1f bf 14 30 7a bf b3 f5 5f 3f 79 be 7c 3f
       -0.6240363 -0.9772961 0.8748428 0.9872814
0002a0 ca 80 9e 3e f8 a5 c2 3f 1b 45 9a 3f 49 65 e8 bf
       0.30957633 1.52069 1.2052339 -1.815591
0002b0 83 92 ce be 8a 8a 75 bf 63 a5 aa bb ff 82 a1 bd
       -0.40346155 -0.9591452 -0.005207704 -0.07886314
0002c0 ba f9 57 3f b3 35 95 3f 07 e5 06 3f b1 43 cf 3f
       0.8436543 1.1657013 0.5269322 1.6192533
0002d0 26 c7 76 bf b8 ea 10 3e bd 96 27 be f3 68 b7 be
       -0.96397626 0.14152038 -0.16366096 -0.35822257
0002e0 a6 73 dc 3f 43 6e 9b be 70 9b 74 3e 3b 08 ac 3f
       1.7222793 -0.3035756 0.2388742 1.3440012
0002f0 fe 67 d3 3d 68 d8 8c 3f b5 f0 ae be cd 84 72 3f
       0.10322569 1.1003542 -0.3416802 0.9473389
000300 43 8a 11 bf b4 6c 56 3f fe 4e e4 3f 67 1d 48 be
       -0.56851596 0.8375962 1.7836607 -0.19542466
000310 8b d1 03 3f 25 7a ec bf e9 ab 3a c0 88 3c 11 bf
       0.5149161 -1.8474776 -2.9167426 -0.5673299
000320 57 91 0a bf 20 2a 65 3f fb eb 61 bf c8 24 08 3f
       -0.5412802 0.895174 -0.882507 0.53181124
000330 07 dc c5 bf 82 75 31 be 5a 6e 3a 3f d1 b8 69 3d
       -1.5457772 -0.17329982 0.72824633 0.05706102
000340 fa cf 67 3f fd ec 85 3f d8 45 05 bf 8e 69 ad 3f
       0.9055172 1.0462948 -0.520597 1.3547838
000350 78 d6 70 3e ed 05 f5 3f 85 0f eb 3f 47 8a a9 3f
       0.23519313 1.9142433 1.8364111 1.3245324
000360 fc 10 78 bf 9f 35 a0 3f e7 eb 9a 3f ce 25 07 bf
       -0.96900916 1.2516364 1.2103242 -0.5279206
000370 ce cf 5f 3e cd 05 13 bf 13 83 ba 3f ad ae e2 3f
       0.21856615 -0.57430726 1.4571251 1.7709557
000380 60 30 d3 3f b4 2f dd be 0a c4 8a be 7b 36 b8 bf
       1.6499138 -0.43200457 -0.2710269 -1.4391626
000390 05 9f 9f 3f 8e 0d a3 3f 80 2a c8 3e 74 40 c6 3e
       1.2470404 1.2738512 0.39094925 0.3872105
0003a0 3d 7d a3 bd 7d f6 ae 3e 59 e6 72 3f d0 24 b1 bf
       -0.07982872 0.3417243 0.9488273 -1.3839359
0003b0 dc ae dc 3f 50 58 17 c0 1e f3 6d bf 0e 56 96 3e
       1.7240863 -2.3647652 -0.9294909 0.2936253
0003c0 92 4b 5c 3e 28 3f 70 3f 4f 9c bb 3f 1b 75 0e bf
       0.21513203 0.9384637 1.4657077 -0.5564744
0003d0 e3 ad 3e bf 4d 02 4f be 10 2e 6b be 3e 80 ae 3a
       -0.7448408 -0.20215721 -0.2296679 0.0013313366
0003e0 2a 24 c0 3e de c0 14 bf d5 82 12 bf 6c 3e 81 3f
       0.3752759 -0.5810679 -0.57230884 1.0097175
0003f0 b5 5e d8 bd 47 00 97 bf a7 ea b9 bd 43 28 10 3f
       -0.10564939 -1.179696 -0.090779595 0.56311435

rnn.weight_ih_l0 f4 [16, 128]
000000 8e 58 f3 bd 68 11 63 3e 26 ec 61 be 52 f5 b8 3e
       -0.11882125 0.22174609 -0.2206274 0.36124665
000010 f8 68 55 be cc 36 55 bd 40 a9 85 3d 73 4a bc 3e
       -0.20840824 -0.05205421 0.065264225 0.3677555
000020 97 89 34 bd dc 7b b0 3e 29 4b dc 3e 0c 29 3a 3d
       -0.04407653 0.34469497 0.43026093 0.0454493
000030 80 f9 d9 be 9e d4 18 3f 28 97 72 3e 72 2d 02 3c
       -0.42573166 0.5969943 0.23690474 0.007945405
000040 6d f5 28 3e 96 28 a3 3e aa 10 a6 3c 1d 36 4a 3e
       0.16499873 0.31866902 0.020271618 0.19747205
000050 02 34 7b 3e da 96 0a bc 84 ed 2d 3d 98 98 98 3e
       0.24531558 -0.008458817 0.04246284 0.2980392
000060 57 d3 10 3d 2a cf cd bd a6 d7 cf bc b3 9b 79 be
       0.0353578 -0.10049279 -0.025371384 -0.24375801
000070 02 dc 12 3e c7 3d b6 3e 81 9d 93 be b2 f8 82 be
       0.14341739 0.35594007 -0.28831103 -0.25580364
000080 7b f7 ab bd 67 9c 17 3e e6 3e 2c 3e 39 5e 93 be
       -0.083968125 0.14805757 0.16820869 -0.28782824
000090 a0 9c 52 be df 55 43 3e 62 33 d6 3d b8 01 a6 be
       -0.2056756 0.19075726 0.10459019 -0.32423186
0000a0 82 9b aa bd 78 fc 52 3e 3f 52 d4 bd 76 8d 4f be
       -0.08330442 0.20604122 -0.1036725 -0.20268807
0000b0 3c 46 b8 be bd 0d 0e 3d f5 49 db bc 28 e2 be be
       -0.35991085 0.03468107 -0.026768664 -0.3728192
0000c0 59 cf c4 bd f7 42 ee bd d9 d4 09 3e d8 bd 02 3e
       -0.09609861 -0.11633866 0.13460101 0.12767732
0000d0 47 b0 cb 3e 3e 83 12 be 19 0c 55 3e 5f 99 52 bd
       0.39782926 -0.14307877 0.20805396 -0.051415797
0000e0 bb 2d 54 3d 0a bd 45 3e bc f3 2a be 42 78 71 be
       0.051801424 0.19310394 -0.1669454 -0.23581031
0000f0 ca 34 78 3c a7 0b 99 bd 13 7d 23 3e 32 ab 92 bd
       0.015149305 -0.07472926 0.15965681 -0.07161559
000100 f8 88 0c 3e c9 c0 c6 bc 83 11 81 3c 4c 72 8c be
       0.13724124 -0.024261849 0.01575542 -0.27430952
000110 69 7c 81 3e 18 ce 26 3e 92 7b f3 3d b1 77 b7 3d
       0.2529023 0.16289556 0.118888035 0.08958376
000120 8e 46 ba bc 20 e7 7c 3d 02 40 cd be 60 99 02 3e
       -0.022738721 0.061743855 -0.40087897 0.1275382
000130 f1 26 01 bd 51 6c bc be 35 cc 77 3e 02 a8 cc bd
       -0.031531278 -0.3680139 0.24198993 -0.099929824
000140 1c 42 00 be 8a d0 a2 3e e2 ad a7 bd b0 08 d3 bd
       -0.12525219 0.31799728 -0.081874624 -0.103043914
000150 d8 e3 7c 3e 38 ed 72 3d 87 e7 79 be c4 7c 26 be
       0.2469629 0.05930826 -0.24404727 -0.16258532
000160 bd 21 5b 3d 8f 7b 17 be 4d 5b fa bd 58 d2 33 bc
       0.053498972 -0.14793228 -0.122244455 -0.010975443
000170 3d 5d f8 bd 80 67 8a be 98 9d 85 3e 01 19 b0 3d
       -0.12127159 -0.2703209 0.26096797 0.08598519
000180 f4 27 ea bd fc 53 08 bc e6 c7 c1 bd 5e d3 7f 3e
       -0.11433402 -0.008320805 -0.09461956 0.24982974
000190 4d 99 67 3e 5e 88 fd be e8 aa 12 be 62 d3 82 be
       0.22617073 -0.49518102 -0.14323008 -0.25551897
0001a0 86 6a 66 3e 4e ca 2c be 8f 4b aa 3c a7 fe 88 3e
       0.22501573 -0.16874048 0.020787982 0.26756784
0001b0 dd 3f 1e 3e 0e ce cc 3e 10 c9 a2 be 72 6b 7c be
       0.1545405 0.40000957 -0.31794024 -0.24650362
0001c0 f5 72 e9 be ee 81 c6 bd 75 8f ab bd 8c a8 a0 be
       -0.45595518 -0.09692751 -0.08376972 -0.3137859
0001d0 33 e0 9d 3d 4a 78 41 3e 47 37 1e bd 0c db 54 3c
       0.07708778 0.18893543 -0.038626935 0.012991678
0001e0 50 7d 34 3e fe 35 9f 3c fd 8b 05 be 20 e3 0a 3d
       0.17625928 0.019434925 -0.13041683 0.03390801
0001f0 71 5c 11 be 10 77 ad 3d e1 1f 85 bd 5e a4 c7 be
       -0.1419542 0.08469975 -0.06500221 -0.3899259
000200 b9 5b 2d bb 88 0b 28 be 69 83 47 ba ee 9a 99 bd
       -0.0026452376 -0.16410649 -0.0007610829 -0.075002536
000210 e0 ff 3c 3e 47 f5 04 3e 93 f7 fc 3d 33 d1 53 bd
       0.18456984 0.12984191 0.123519085 -0.05171318
000220 12 00 0a 3d e4 1f a9 bd d4 6a 6d bd d1 bd 6a 3e
       0.033691473 -0.08258036 -0.057963207 0.22923972
000230 a1 2a e2 3d f2 2e 02 bc 37 72 0f 3e bd 6d 43 3e
       0.11043287 -0.007945763 0.14008413 0.1908483
000240 33 2b 14 3e ea 54 0d be 78 7c 85 3e 27 6c a0 3d
       0.14469604 -0.13801923 0.26071525 0.078331284
000250 3f a6 19 3e 29 aa dc bd ff 0a 9e 3e e1 da 61 3e
       0.15004824 -0.10774643 0.30867764 0.22056152
000260 a0 41 07 3d 44 76 08 be c4 45 89 3e ae f6 0a 3e
       0.03302157 -0.13326365 0.2681104 0.13570663
000270 34 00 45 3e 34 94 10 3e e7 b7 28 3c ce d7 e5 bd
       0.19238359 0.14119035 0.010297752 -0.11222802
000280 0f 80 e4 bd 61 59 bf 3d da c4 2e 3d 3e fb 21 3e
       -0.11157238 0.093432195 0.0426682 0.15818498
000290 47 fa bc 3d 01 ac 8d be 8e f7 0c 3e a5 a8 15 be
       0.09227424 -0.2767029 0.1376631 -0.14615114
0002a0 16 bc fa bd 23 e1 7e 3e 83 cf f2 3d 35 22 fa bb
       -0.12242906 0.2489057 0.11855986 -0.0076334723
0002b0 b3 22 b3 3d d0 bb 9c bd ea 48 f0 3d 4b bd 6e be
       0.08746853 -0.0765301 0.11732657 -0.23314397
0002c0 c1 5a c9 3e a4 df 77 3d ad 52 86 bd a4 97 e9 bc
       0.39327052 0.060516015 -0.06558738 -0.02851469
0002d0 34 3c b8 bd e9 11 55 be 16 07 ef bd 06 ee 37 bd
       -0.08995858 -0.20807613 -0.116712734 -0.04490473
0002e0 bc c0 5b 3b e8 8b 72 be ea 19 50 3e 7a 39 07 3e
       0.0033531627 -0.23686182 0.20322385 0.1320552
0002f0 d5 ea 54 3e 5f d3 c4 be 4b c5 56 bd 91 79 37 3d
       0.20792706 -0.38442513 -0.052434247 0.04479367
000300 14 a5 5b 3e 7a b0 a0 bd a1 c8 43 be 4c 72 85 3e
       0.21449691 -0.0784616 -0.19119503 0.26063764
000310 eb 41 3d be 28 2d a3 bd e5 26 af bd 3e c7 07 3e
       -0.18482177 -0.07967597 -0.085523404 0.13259599
000320 fb fe a9 3e 2a ae 49 3e 09 27 ae bc a1 78 a4 3d
       0.33202347 0.19695345 -0.021258848 0.08030821
000330 40 25 52 bc d1 8a 7b be 6a ac 16 be 6d 55 26 3e
       -0.012826264 -0.24564673 -0.14714208 0.16243525
000340 53 9c 3a 3e e1 52 d6 bd 8d 96 1b 3d e7 00 ec be
       0.18223695 -0.10465027 0.037985373 -0.46094438
000350 0c 92 2f be 94 e8 70 bd 7e 96 33 bd a3 19 b8 3e
       -0.17145556 -0.058815554 -0.043844692 0.3595706
000360 09 cf 5b 3e d5 17 20 be 76 dc 59 be be a5 4e 3e
       0.21465696 -0.15634091 -0.21275505 0.20180413
000370 da 5f bf bd b3 9a 37 3d 99 9e 6a be ef 09 71 be
       -0.09344454 0.044825267 -0.22912063 -0.23538946
000380 33 92 a2 3d e9 e3 03 3e a0 9a 86 3e 33 e5 b3 3e
       0.079380415 0.1287991 0.26289845 0.35135803
000390 18 e8 57 3e ec e4 bf 3d 4b 6a 12 bd 37 1a 16 be
       0.2108463 0.09369835 -0.0357459 -0.14658438
0003a0 35 b8 93 bd 06 f9 50 3d 73 67 15 bd e6 b8 61 be
       -0.07212869 0.051018737 -0.03647561 -0.2204319
0003b0 db c2 32 3d 62 0a a0 bd 02 09 6f 3d d0 80 c1 be
       0.04364286 -0.0781448 0.0583582 -0.3779359
0003c0 57 52 d8 3d ea 58 54 be 98 0a 31 bd ae 67 8c 3d
       0.1056258 -0.20737043 -0.043222994 0.06855713
0003d0 a8 c5 4f be 19 ca 82 bd 61 f3 5a 3e 6c 9f 13 be
       -0.20290244 -0.06386203 0.21381904 -0.14416283
0003e0 48 d2 67 be 62 24 a0 3c e3 80 4d 3d c6 16 05 bd
       -0.2263881 0.019548599 0.050171744 -0.03249242
0003f0 5d c3 20 3e 26 58 34 3e 67 ff 20 3e 17 3d 24 3e
       0.15699525 0.17611751 0.15722428 0.16038929

rnn.weight_hh_l0 f4 [16, 16]
000000 3f 3e 8d be 1c db 84 3e 06 29 58 3d 3f 0e 1c bf
       -0.27586553 0.25948417 0.052773498 -0.6095924
000010 db ad c1 3e ee 62 36 3d af 44 c5 be ec 72 a3 be
       0.37827954 0.04452794 -0.38528964 -0.31923616
000020 4e 39 fb 3d 5b 1b 02 be 55 72 e2 3e bb 6e 3d 3d
       0.122667894 -0.12705748 0.44227853 0.04624818
000030 9f 61 94 3d 5c 67 8d 3e 79 9b 37 be b1 cf 00 be
       0.07245182 0.2761792 -0.17930402 -0.12579228
000040 32 44 6d 3e cd 9c 35 3f c2 6a 13 bf 82 71 73 3e
       0.23170546 0.70942384 -0.57584774 0.23773769
000050 4a b7 2e 3e b9 2b ee 3e 35 32 56 3f 56 44 2c bf
       0.17062107 0.46517733 0.8367036 -0.6729177
000060 78 07 32 bf 4f 75 0c 3f 52 a5 29 bf 73 5a 29 bf
       -0.69542646 0.548665 -0.66267884 -0.6615364
000070 24 63 17 bd c4 39 19 3f a2 7e d9 3d 6f f8 c3 bd
       -0.036959782 0.5985377 0.106198564 -0.09568869
000080 44 ae cc be 73 88 ef 3d 39 81 56 be 97 ec 56 3e
       -0.39976704 0.116959475 -0.20947732 0.2098869
000090 1f 05 b7 bd 41 74 d2 be 4b a5 e4 be 59 cc f7 3e
       -0.08936524 -0.4110432 -0.4465736 0.48398092
0000a0 b7 b8 fe 3d ce b5 5e 3f bc 7a 3e 3f aa 48 15 3e
       0.12437575 0.8699616 0.7440603 0.145785
0000b0 9a 24 6b 3f 7f 13 f7 3d d7 3b 3b bf 75 a9 82 bf
       0.91852725 0.120642655 -0.73138183 -1.0207964
0000c0 d7 a1 83 3f 46 79 a2 3d 38 cf 08 be 4a ce 38 bf
       1.0283765 0.07933287 -0.13360298 -0.7218977
0000d0 bf 4c 46 bf 0b 4e 8b bf 67 54 04 bf 3f f4 7a be
       -0.77460855 -1.0883192 -0.5169129 -0.24507235
0000e0 7a e8 8a be e2 29 5d 3f eb 30 32 3f 39 c6 b5 bd
       -0.2713049 0.86392033 0.6960589 -0.088756986
0000f0 90 72 b2 3e 4d 4f c3 3e 91 a6 22 be 8e b3 38 3e
       0.3485303 0.3814644 -0.15883853 0.18037245
000100 34 dd 86 3e cc 2c 39 3e 1e 73 7f be 5b 70 1a bf
       0.2634064 0.18083495 -0.24946257 -0.6032769
000110 91 45 9e 3e c1 5f 19 bf 0a 56 a9 be ec b1 32 bf
       0.3091245 -0.59911734 -0.33073455 -0.6980274
000120 23 db 9c 3d 9f 87 91 3e 57 17 24 3f d3 0c 7a be
       0.076589845 0.28423783 0.64098114 -0.24418955
000130 77 57 f3 bd 4d bc 0b 3e 7b ed e6 bd cc 75 99 be
       -0.11881917 0.1364605 -0.112757646 -0.29972684
000140 97 d3 ad be 03 0a c9 3e d3 25 99 3d e8 60 98 bf
       -0.33950493 0.3926545 0.074779175 -1.1904573
000150 89 df 9d 3e 8a 0d 53 3f c8 9c ca be 3d 19 a2 3d
       0.30834606 0.82442534 -0.3957274 0.0791497
000160 86 b9 c1 bd c5 d5 49 bf 6d c9 b3 3e 06 22 26 3f
       -0.09459214 -0.7884181 0.35114613 0.64895666
000170 64 49 1a 3f 4d 17 8c bd 98 51 b2 be 69 1e ea be
       0.60268235 -0.06840382 -0.34827876 -0.45726326
000180 0a 7d bb 3e be d4 23 be 11 aa db 3d 94 a3 69 bf
       0.36618835 -0.15999123 0.10725797 -0.91265225
000190 f4 77 6b 3e dd bd 36 be 7d 9e c4 be 44 35 8f 3e
       0.22994977 -0.17845865 -0.38402167 0.27970326
0001a0 6b 45 8f 3e 1d 38 75 bf 0e 94 05 3e e9 5e 42 3e
       0.2798265 -0.9578875 0.1304476 0.18981518
0001b0 58 da 8d bd 73 cd 12 3e f2 a8 04 3f b7 b5 6b 3e
       -0.069264114 0.14336185 0.5182029 0.23018537
0001c0 62 38 02 bd fb a4 2b bf f7 4f 6f 3e 1b 52 18 bf
       -0.031792052 -0.67048615 0.23370348 -0.59500283
0001d0 3b 59 da be ec 0a 4d be 55 b6 15 bf fb 05 8e 3f
       -0.42646202 -0.20023698 -0.5848134 1.1095575
0001e0 6c 66 a3 3e 59 fe d7 be b8 30 1e 3f a6 48 93 3f
       0.3191408 -0.4218624 0.6179309 1.1506546
0001f0 46 31 33 3f c8 9b 06 bf 3d a7 ce 3d 47 1f 47 3e
       0.6999706 -0.52581453 0.10090492 0.19445525
000200 1a 48 0f be ae 6e f0 be 17 1f 2e 3f 69 22 58 3f
       -0.13992348 -0.46959442 0.6801619 0.84427506
000210 dd c4 d1 3d 02 d5 51 be 51 19 9c bd f9 da 0b 3f
       0.10242627 -0.20491412 -0.07622016 0.54631
000220 77 02 c7 3c 8f b6 76 3e d2 eb 4f be 4a 6d 4a be
       0.024293168 0.24093078 -0.20304802 -0.19768253
000230 58 4d 02 3e 3a 72 a3 3d 93 e6 c5 bc f6 c5 bc 3c
       0.12724817 0.07980771 -0.024157798 0.023043614
000240 3b 1b b4 be e9 13 8d bd 76 72 1b 3e 3b 8d cf bd
       -0.35177025 -0.06888563 0.15180382 -0.101343594
000250 e2 b5 db 3c 57 dd a4 3e 48 38 9b 3c a9 f1 8f bd
       0.026820127 0.3220012 0.018947735 -0.07028515
000260 d9 a7 89 bd 33 38 83 be 7d 14 51 be a9 8c 80 3e
       -0.067214675 -0.25628814 -0.20417972 0.25107315
000270 53 4c 90 be a0 30 09 3f ee 23 63 3e 4c 5d 2f 3e
       -0.2818323 0.5358982 0.22181675 0.17125434
000280 56 b5 ba be 91 2a 15 bf f1 c1 f9 3e 14 49 87 3f
       -0.36466473 -0.58268076 0.48780778 1.0569177
000290 9f e3 1c 3f ba c1 08 3f fa fa 18 bd 0d d7 2d 3f
       0.6128482 0.53420603 -0.037348725 0.67906266
0002a0 91 17 1b 3e 3b 46 c2 3e 2e 83 ac bd f8 da 77 bd
       0.15145709 0.37944207 -0.08423458 -0.06051156
0002b0 89 bb 50 3f 54 0c 08 bf 1a 6a 14 bf 1f 3d 6a bf
       0.81536156 -0.5314381 -0.579744 -0.91499513
0002c0 48 76 5b be 32 4a 5a be 15 3b 24 3e d2 cd 10 bf
       -0.2143184 -0.21317366 0.16038163 -0.56564057
0002d0 86 ad c4 be b8 af c7 be bb 9e f7 3d 84 8d 68 3e
       -0.38413638 -0.3900125 0.12090822 0.22710234
0002e0 58 51 ed be 1c 4e c5 be 2f a1 1b be 08 a1 05 3f
       -0.46351123 -0.38536155 -0.15198205 0.5219884
0002f0 0d 94 0c 3f 39 20 23 bf b9 5a f8 bd 88 5a f3 be
       0.5491341 -0.6372104 -0.12126679 -0.47530007
000300 11 4f 3a be 9c 99 48 be 75 a0 60 3f 3b ff 5d be
       -0.18194224 -0.19589847 0.8774484 -0.21679394
000310 46 d0 1f be 0f fc f1 3d e5 07 62 be 2a 68 38 3f
       -0.15606794 0.118156545 -0.22073324 0.7203394
000320 5c cd 32 3f a6 17 88 bf de 66 57 be 7d 35 55 3f
       0.69844604 -1.0632217 -0.21035334 0.8328474
000330 ee b5 08 be 1f 51 84 be 2e 8b 82 3e 24 7e e3 3e
       -0.1335065 -0.2584314 0.2549681 0.44432175
000340 96 9c 72 3d 91 3e 4d 3f f2 2d 61 bf 47 03 50 3d
       0.059231363 0.80173594 -0.8796073 0.050784376
000350 54 12 98 3d a3 01 44 3e 84 9f 3a be 75 56 2e bf
       0.07425371 0.1914125 -0.18224913 -0.6810067
000360 0b 97 4d be 5c f5 2b 3f 26 79 8a be f0 dd b1 be
       -0.2007715 0.67171264 -0.27045554 -0.34739637
000370 69 5e bd be e0 4e a8 3f 6b 10 e0 3d 11 07 69 bd
       -0.36986092 1.3149071 0.109406315 -0.056891505
000380 d2 ae 1f bd bd 56 97 3e 13 c0 46 bf 29 9b 45 bf
       -0.03898508 0.29558364 -0.7763683 -0.7718988
000390 30 2d 6a 3c b9 70 95 3f 46 74 be 3e ac 15 e4 bc
       0.014293 1.1675025 0.37198085 -0.027842365
0003a0 4a 85 89 be 04 84 4b 3e 33 f1 6a bf 53 f5 2b 3d
       -0.26859504 0.19874579 -0.9177429 0.041982006
0003b0 e9 8b 44 be 9e 1c d2 3d f0 48 69 bd 85 39 4b 3e
       -0.19193996 0.102593645 -0.056954324 0.1984616
0003c0 11 57 48 3e 5d 28 5a be af 9d 00 3f 55 1d 5f bf
       0.19564463 -0.2130446 0.50240606 -0.8715413
0003d0 1d 0e 10 3e bf 0b e1 3f 59 1b 92 bd 66 a9 3f be
       0.14067884 1.758171 -0.071341224 -0.18716964
0003e0 ca ca 43 3e c4 53 d6 be 40 6e 48 3f 3e 97 e6 3e
       0.19120327 -0.41860783 0.7829323 0.45037264
0003f0 19 a0 fb bd 69 49 37 3d e3 76 02 3f c9 e0 a0 3d
       -0.122863956 0.044747744 0.50962657 0.07855374

rnn.bias_ih_l0 f4 [16]
000000 93 04 02 be b0 23 7e be c6 94 0c 3e 49 1b 8d be
       -0.12697057 -0.24818301 0.13728628 -0.2755988
000010 37 cf 09 bd 40 bd 99 3d e8 d1 56 3d 6e e0 94 3d
       -0.03364488 0.075068 0.052446276 0.07269369
000020 93 01 48 be e3 35 85 be f9 37 cd bd e4 f4 0d bd
       -0.1953185 -0.26017675 -0.100204416 -0.034657374
000030 21 4a 8c bd 7e 4b 80 be 3c fc 98 bd c4 4b 32 be
       -0.068500765 -0.25057596 -0.07469985 -0.17411715

rnn.bias_hh_l0 f4 [16]
000000 3c f1 1f be ef 74 1a be 39 0f 73 bd 64 00 8d bd
       -0.15619367 -0.15083669 -0.05934069 -0.0688484
000010 af 96 21 3d 7f ce 7f 3e 79 c4 11 be 1e 84 21 3e
       0.039450344 0.24981116 -0.14235105 0.15773055
000020 d1 0e 2b 3e 74 1e a2 bd 43 18 6d 3e c6 4f 30 be
       0.16704871 -0.07915965 0.23153786 -0.17217931
000030 b7 cc 15 3e 70 23 1f be 1c 98 18 3a ee 1a 87 be
       0.14628874 -0.15540862 0.0005821006 -0.26387733

rnn.weight_ih_l0_reverse f4 [16, 128]
000000 a9 ac 45 be f9 ec e4 3d 56 da bc 3e e0 a7 75 3d
       -0.19304146 0.111780114 0.36885327 0.05997455
000010 d9 0d d6 3e 26 55 01 3e b0 8f c6 3e 6b 7a 52 3e
       0.4180744 0.12630138 0.387815 0.20554511
000020 e8 9a e7 3d ed fb 91 3d 86 93 fa 3b 44 e7 86 3b
       0.11308843 0.07128129 0.0076469807 0.0041169245
000030 f1 bc 0d bf aa 4c a6 3e 25 42 ff bc b2 52 e4 3c
       -0.55366427 0.32480365 -0.03115947 0.027871463
000040 a0 3c 15 3e 3a 51 ff 3d 2e cd c5 3d cc 68 83 3e
       0.14573908 0.124666646 0.096582755 0.2566589
000050 50 3d c9 3d 5a e7 87 3d 43 49 a7 bd ee e4 0c 3e
       0.098261476 0.06635924 -0.081682704 0.13759205
000060 ed 1f e7 3e 94 28 89 3e d2 51 28 3d 74 56 97 3d
       0.45141545 0.2678877 0.041093655 0.073895365
000070 69 92 99 bc 7b 23 0e 3f fb 83 b2 be 47 ca 8e bd
       -0.018746572 0.5552289 -0.34866318 -0.06972175
000080 40 bd 07 be 85 d7 4f 3e d7 26 fa 3d e6 6a c6 be
       -0.13255787 0.20297058 0.12214439 -0.38753432
000090 92 2f 98 3c 04 9d 7a bd 27 84 94 3d 43 ee 03 be
       0.01857737 -0.061184898 0.072517686 -0.12883858
0000a0 94 9e 45 3d 28 fe 9e be 6a ee 81 be 65 d6 1e 3b
       0.048246935 -0.3105328 -0.25377208 0.0024236676
0000b0 c7 94 81 bd 2f c9 08 be a1 b9 14 be a3 f7 2b bd
       -0.06327205 -0.13357995 -0.14523937 -0.04198421
0000c0 1f fa 7a be 96 1b 77 bd d3 fc f3 bd a7 55 54 be
       -0.24509476 -0.060329042 -0.11913457 -0.20735799
0000d0 af a7 44 be 62 44 87 3d 70 47 9f 3e 61 50 cf 3b
       -0.19204591 0.0660484 0.3110919 0.0063267206
0000e0 10 a3 37 3e 9b 43 ab bc 60 61 c7 3d 37 71 84 3b
       0.17933297 -0.02090626 0.0973537 0.0040418166
0000f0 4e 1c a7 3e f0 4d 97 3e 3d 92 b2 3e 66 cb bb 3e
       0.32638782 0.2955165 0.34877196 0.36678618
000100 dc cb 1c bc f5 d7 1f be d3 76 77 be 9f 99 33 be
       -0.009570088 -0.15609725 -0.24166422 -0.1753907
000110 ed 3c 94 3e c0 ba 82 be 5b 81 b0 bd 16 21 a9 3e
       0.28952733 -0.25533104 -0.086184226 0.33033055
000120 aa 7e 40 be 86 78 62 3d 62 21 8c be 74 47 3b 3e
       -0.18798319 0.05529072 -0.2736922 0.18288976
000130 69 74 25 3e 6d 1a 81 be 75 9e 6f 3e c7 ff 97 be
       0.16157688 -0.25215474 0.2340029 -0.2968733
000140 ef a3 b8 3d eb d0 6d 3d 14 7c 48 3d 03 81 77 be
       0.09015643 0.058060568 0.048946455 -0.24170308
000150 f9 cf 7f be cb 42 ca 3d 45 d5 89 3d d4 46 b3 3b
       -0.24981679 0.09876021 0.06730131 0.00547109
000160 0f e2 9f be da a3 07 be 5b 1c 4e bd 7b 51 f5 3d
       -0.31227157 -0.13246098 -0.05032001 0.11978432
000170 fb 8a ea 3d 09 02 b6 be 97 58 84 bc 0b 3a 15 be
       0.1145229 -0.35548428 -0.016155524 -0.14572923
000180 21 91 61 be b3 4d eb bc a6 d0 81 be c0 e5 a0 3e
       -0.22028019 -0.028723573 -0.253545 0.31425285
000190 95 3b 90 bd 3f b1 ce be d3 b6 b2 bd 7d 05 fd 3d
       -0.07042614 -0.40369603 -0.08726277 0.123545624
0001a0 f5 b1 d3 3d c3 a6 4f be b7 72 86 be 45 f3 84 be
       0.10336677 -0.20278458 -0.26259395 -0.2596685
0001b0 36 21 b9 3d 30 17 f8 3d 65 e0 0b be f9 2a 10 3e
       0.090395376 0.12113798 -0.13659818 0.14078893
0001c0 ff 5b 9e 3d da 4f d3 bc 6f 1d 32 3d ac ea 8b 3e
       0.077323906 -0.025794912 0.0434851 0.27327478
0001d0 27 36 63 3e 92 f5 b6 3d c5 e5 aa be d2 e8 c1 3d
       0.22188626 0.089335576 -0.33378425 0.09468235
0001e0 b1 75 7c 3e 8a e4 01 be c4 cb 69 be c8 65 b0 3d
       0.2465427 -0.12684837 -0.22831637 0.08613163
0001f0 27 d1 65 3d bc 1c f8 3d 0b 9b 91 3e 78 c8 97 be
       0.056107666 0.12114856 0.284386 -0.29645133
000200 be 49 6c 3c 48 dc 0b 3e fc 71 8d bc db eb 33 3d
       0.014421878 0.1365825 -0.017266266 0.0439261
000210 85 81 49 be 6c 20 be be 72 90 d1 3d 5f d5 07 bd
       -0.19678314 -0.3713411 0.10232629 -0.03316247
000220 0f 57 fd bd 85 0c e1 3d 0a 3c a3 be 6a 1a b8 3d
       -0.12370121 0.10988716 -0.31881744 0.08989413
000230 77 f0 2f 3e 87 ec 28 3e 13 41 6d 3e ae ff 67 be
       0.17181574 0.16496478 0.23169355 -0.22656128
000240 57 99 8c bd da fc f9 bc 6b 54 e0 bd a9 65 70 bd
       -0.06865185 -0.030516077 -0.109536014 -0.0586907
000250 44 28 86 3d 7c f3 83 bd e3 8d 70 be ea 38 8e bd
       0.06550649 -0.06442925 -0.23491625 -0.06944449
000260 23 75 02 3e 8e 5c 87 bd 04 bd 05 be 3c 0e c3 bd
       0.12739997 -0.0660945 -0.13060385 -0.09524199
000270 66 13 9a 3e af 0c 97 3e f4 b8 1a 3e a4 f1 ed bc
       0.30092925 0.29501864 0.15109617 -0.029045887
000280 52 bb 12 3e 74 1c e3 3e 6c e9 38 be 5d 47 13 bf
       0.1432927 0.44357646 -0.18057793 -0.57530767
000290 f9 84 17 3e 80 45 15 bd ff 1e a3 3e 08 d6 a4 be
       0.14796819 -0.036443233 0.31859586 -0.32194543
0002a0 97 eb 14 bd 44 f4 25 3d 19 f8 90 bd cb f7 4f 3e
       -0.03635749 0.040516153 -0.07078571 0.2030937
0002b0 c0 d4 bf 3d cc 93 e6 3d 4a 7d 9a bd 54 58 df 3a
       0.09366751 0.11258659 -0.07543428 0.0017039874
0002c0 b7 4f 15 be 0f f3 01 be 76 91 ab 3d f2 b7 bb bb
       -0.1458119 -0.12690376 0.08377354 -0.005728715
0002d0 4c 15 7e 3e a4 28 63 3c f9 5a 8a 3e 09 64 ca be
       0.24812812 0.01386467 0.27022532 -0.39529446
0002e0 2f c7 8b 3d 3c d7 02 3e 84 ef 8e be d1 89 cb bd
       0.06825101 0.12777418 -0.2791711 -0.09938396
0002f0 da 48 a2 bd cf c0 74 bd e2 2f 8e be ec 06 43 bc
       -0.079240516 -0.05975419 -0.27770907 -0.011903506
000300 ab 17 2c be 8a 21 10 bd 56 6c b6 3c 20 5a 85 bd
       -0.16805904 -0.035188235 0.022268455 -0.065113306
000310 c6 85 cc 3e ce 1a fa 3d 75 90 6d 3e 79 dd 17 be
       0.3994581 0.12212144 0.23199637 -0.14830579
000320 00 df 48 3d d7 b6 13 3e 9d c7 28 3e bb eb af 3d
       0.049040794 0.14425217 0.16482396 0.08589884
000330 f2 08 3f be bb 21 73 3d 85 2c 26 3b b7 d2 8a 3d
       -0.18655756 0.05935834 0.0025356126 0.06778472
000340 94 40 36 3d af 4f a7 be 2c b8 80 3e fe 52 82 bd
       0.04449518 -0.3267798 0.25140512 -0.06363486
000350 11 b7 9e be f3 aa a9 3c bb c4 82 3e 46 7d ed bd
       -0.30999044 0.020711398 0.25540718 -0.1159616
000360 8f a6 f2 3e c9 5e fc 3d 1d 92 6e 3d 50 20 1b bd
       0.473927 0.12322766 0.058244813 -0.037872612
000370 c1 e4 07 3e 81 b4 41 3e 6c 70 8b 3d ae 61 d8 bd
       0.13270856 0.18916513 0.06808552 -0.10565506
000380 f6 4f 05 3e 8d ba 2f 3d be a3 48 3c f4 5d eb 3c
       0.13018784 0.042902518 0.01224607 0.028731324
000390 8b 1e 81 be 6c e5 a1 bd 33 9c 62 bd c8 86 ed 3e
       -0.25218615 -0.07905087 -0.055324744 0.46391892
0003a0 ce a1 79 bd c7 d1 81 3c 9e dc 52 3e 3c 95 d2 bc
       -0.060945325 0.0158471 0.20591971 -0.025705926
0003b0 d6 4c 4d 3d af bd 07 3e 72 f6 8d 3d 43 cc cf 3e
       0.050122105 0.13255952 0.06931771 0.40585527
0003c0 d4 8b b2 bd 61 8a 1a bd d6 51 4f bd 97 f7 5d bd
       -0.08718076 -0.037729625 -0.050615154 -0.0541912
0003d0 b8 4c 8e bd 03 ac bf 3d 6e a9 50 be b0 24 d3 bd
       -0.06948227 0.093589805 -0.20377132 -0.10309732
0003e0 d9 0b 8f 3e 80 ff 71 bd 8b 8b 10 bb b3 60 b6 bc
       0.27938727 -0.059081554 -0.002205583 -0.022262907
0003f0 20 32 21 be 61 ab 73 be 1d 19 96 be a8 38 04 be
       -0.15741777 -0.23795845 -0.29316035 -0.12912238

rnn.weight_hh_l0_reverse f4 [16, 16]
000000 54 0b 81 be b2 2b 22 3f 41 75 38 3f e3 c7 6f bb
       -0.25203955 0.63347924 0.72053915 -0.0036587648
000010 2d 62 ae 3d 1c 7d 2c 3f 35 80 b4 bd 27 75 04 3f
       0.08514819 0.673784 -0.08813516 0.5174126
000020 d1 03 3f be 05 11 80 3e 82 4f 16 3e 29 05 45 bf
       -0.186538 0.25012985 0.14678767 -0.76961
000030 3e 2f fc be 66 a3 b4 be 8d dd d1 bd ad 73 ea be
       -0.49254793 -0.35280913 -0.102473356 -0.4579138
000040 8c 27 a1 3e b7 f6 cc be 58 73 09 bf 0d 92 4b bd
       0.31475484 -0.40031978 -0.53691626 -0.04969983
000050 be 8b b9 be c7 8a 2e 3f 1f 23 5a 3f b2 d2 5f 3f
       -0.36239427 0.6818051 0.8520984 0.8743087
000060 b2 b1 38 be 5c ce 5a be 40 f0 a1 be d1 99 b6 3d
       -0.18036535 -0.21367782 -0.3162861 0.08916057
000070 4c 00 6f 3f 4f 53 62 bc 16 b2 21 3f 65 16 1e bf
       0.9335983 -0.013813808 0.6316236 -0.6175292
000080 18 8f 3c 3f 72 e9 94 3e 57 98 19 be 9d 73 6e 3d
       0.73655844 0.29084355 -0.1499952 0.058215726
000090 84 e5 ef bd c5 da 6c 3f 29 00 f8 be 11 d3 f1 3e
       -0.117136985 0.92521316 -0.48437622 0.47231343
0000a0 ed 75 01 3f 5b 6a db 3d 04 52 e4 be 04 29 86 be
       0.50570565 0.10713645 -0.44593823 -0.26203167
0000b0 6b 84 96 3e b3 be 83 be 63 7e 0c bf 36 c4 42 bf
       0.29397902 -0.2573143 -0.5488035 -0.76080644
0000c0 07 9b dc be cd e1 8a be 0d 17 30 be 33 38 ca 3e
       -0.43087026 -0.27125397 -0.17196293 0.39496002
0000d0 38 7e b3 be 6d ab 9d bf 5f 47 ef be bd 41 71 bf
       -0.35057235 -1.231794 -0.4673414 -0.94240934
0000e0 bc a1 12 3f 1b 0f 92 3e 2c 2a f1 bb 29 94 48 3e
       0.5727804 0.2852715 -0.0073597636 0.19587769
0000f0 b8 98 ec be 19 ba ab 3e 04 a5 24 bf a1 48 3e 3e
       -0.46210265 0.3354042 -0.64314294 0.18582393
000100 79 48 45 3f de 55 23 3e fd 95 7f 3b a0 42 94 be
       0.7706371 0.15950724 0.0038999312 -0.2895708
000110 33 4f e6 3e b4 48 8f 3f bf 28 38 bf d7 b6 3e 3f
       0.449823 1.1194062 -0.71937174 0.7449774
000120 b0 d9 8a 3f 93 f9 04 be c7 4e c1 3d 1f 8f 2f bf
       1.0847683 -0.1298583 0.09438854 -0.6857776
000130 34 b9 74 3e 6f 23 51 bf 73 c4 64 bc 59 66 78 bf
       0.23898774 -0.8169469 -0.013962853 -0.9703117
000140 b8 a4 86 3e 06 8e 4a 3e 1c 7d 80 3d b9 3f 57 bf
       0.26297545 0.1978074 0.06273863 -0.8408161
000150 d9 da 6d 3e 28 68 a7 3f aa ef 31 be 48 64 06 3f
       0.23228015 1.3078661 -0.17376581 0.5249677
000160 6c bd 18 3f 84 2a 03 bf 57 37 d5 be 15 d1 3b bf
       0.59664035 -0.5123675 -0.41643783 -0.7336591
000170 e6 57 4f 3e 8e 49 1b bf 8f 86 f5 bd 48 65 82 3e
       0.20248374 -0.6065911 -0.11988556 0.25467896
000180 8f 9a cc be 5b bd 09 3f 8d 62 db 3d e5 83 51 bf
       -0.3996167 0.5380456 0.107121564 -0.8184188
000190 9d 12 11 bf 34 fd 4b bf a1 b9 3a bf c8 0f 5a 3e
       -0.56669027 -0.7968323 -0.729395 0.21295083
0001a0 74 05 3f 3d f1 6e 9c be b9 89 2b bf af a0 38 bf
       0.04663606 -0.30553392 -0.67007023 -0.72120184
0001b0 30 8d de be 64 69 5b be ca 56 47 3e 74 fd 2e bf
       -0.43467093 -0.21426922 0.19466701 -0.6835549
0001c0 ab 16 1a bf 64 d0 f1 be 86 a0 1b 3f e4 2f 79 be
       -0.6019084 -0.47229302 0.60791814 -0.24334675
0001d0 d6 83 a2 be 8a a4 0a bf fb bd 18 3f 69 32 f5 bc
       -0.31741208 -0.54157317 0.5966489 -0.029931264
0001e0 ed f4 a4 be db 73 2e 3f 45 7e aa 3e ca db 04 3f
       -0.32218114 0.6814553 0.3329946 0.5189787
0001f0 db b6 9b 3e b9 a3 b9 3e 65 5b 21 3f d3 53 80 3f
       0.30412945 0.36257723 0.6303008 1.0025581
000200 bc 3e 17 bf e3 7c bf 3e 37 f3 5a 3e 49 2c e8 3e
       -0.590801 0.37399969 0.21381842 0.45346287
000210 bb 2d c5 be e2 5f a7 be 46 0c f0 bd 62 9a 8c be
       -0.38511452 -0.3269034 -0.11721091 -0.27461535
000220 01 e0 ec be 59 a6 3f 3f 42 62 e4 be 8f 79 89 bf
       -0.4626465 0.748632 -0.44606215 -1.0740222
000230 c0 4e 85 bf e3 88 bc 3e 23 ac 4d 3e 5e d1 df bc
       -1.0414658 0.36823186 0.20085196 -0.027321514
000240 e9 9e c9 be b9 ea e4 bd 75 6c a3 be c9 26 1a 3f
       -0.3937905 -0.11177582 -0.31918684 0.6021543
000250 62 0a be bb de 5e a4 3f 29 28 d3 be 59 a6 ce 3e
       -0.0057995776 1.2841451 -0.41241577 0.40361288
000260 ff 11 0b 3f ca 1c 5f 3e d7 90 b6 3c 24 c0 06 3f
       0.54324335 0.21788326 0.022285862 0.52636933
000270 38 01 00 3f 1f 52 05 bf f4 8e e8 be 53 06 e0 bf
       0.5000186 -0.5207843 -0.45421565 -1.750193
000280 58 41 89 be 55 4a 98 3e 85 38 96 3e 4f f4 ac 3e
       -0.26807666 0.2974421 0.29339996 0.33780143
000290 02 58 1f be c4 4c 27 3f 26 fa 1e bf 81 fe de be
       -0.15560916 0.6535151 -0.62100446 -0.43553546
0002a0 0b a6 1c 3f e3 24 8b be 2a 5e 82 be 3b a1 b4 be
       0.6119086 -0.2717658 -0.25462466 -0.3527926
0002b0 ea 1c 0b bf ab 92 39 bf 09 e4 4c bf 66 82 00 bf
       -0.54340994 -0.7248942 -0.80035454 -0.5019897
0002c0 93 58 b6 be a9 3e fa bd aa a2 d1 be ac 95 76 3e
       -0.35614452 -0.12218983 -0.40944415 0.24080533
0002d0 c7 bb 19 bf 57 84 07 bf f2 6e 27 bf 8d 68 b3 3e
       -0.6005215 -0.5293631 -0.65403664 0.35040703
0002e0 5f 6b 06 bf 42 0f de 3e ef d6 28 be 61 0b a5 be
       -0.52507585 0.43371016 -0.1648824 -0.32235244
0002f0 d7 4b a8 bd 89 39 a2 3e 53 52 30 bd c7 9b 43 bf
       -0.0821759 0.3168452 -0.04304726 -0.7640957
000300 40 aa 19 bf 11 5d 12 be 34 15 03 bf 35 7b fb 3d
       -0.60025406 -0.14293315 -0.5120423 0.12279359
000310 ad dc 8c be da 4d 57 bf bf 63 39 be 05 32 2a bf
       -0.27512112 -0.8410317 -0.18104456 -0.66482574
000320 e5 48 13 be 3e 85 33 be f3 1b 40 3d 2d b8 17 3f
       -0.14383276 -0.17531297 0.046901654 0.59265405
000330 e0 a8 d1 3c c7 aa 79 be d1 00 d4 3e 9d 99 75 3e
       0.025593221 -0.24381553 0.41406873 0.2398438
000340 0e 42 17 3f 38 db d7 be 74 e0 7c be 86 91 bd be
       0.59085166 -0.42159438 -0.24694997 -0.37025088
000350 6d a5 4d be 51 1b b1 be 7a 80 aa 3d 1b f5 48 bf
       -0.20082636 -0.34591153 0.08325286 -0.78499
000360 58 1e c9 3d e3 07 e1 3d c3 43 16 3f b6 39 70 3f
       0.09820241 0.109878324 0.58697146 0.9383806
000370 2a 53 0a 3f 06 82 04 3d 60 e5 cc bd 7a e8 13 3f
       0.5403315 0.032350563 -0.10004687 0.57776606
000380 65 4f 25 3d 80 fb e5 be fa de 95 be ae 05 ec be
       0.04035892 -0.44918442 -0.2927168 -0.46098083
000390 ab ef 86 3f 21 b9 08 bf f2 3c 22 bf 97 49 3c be
       1.0541891 -0.53407484 -0.63374245 -0.18387447
0003a0 fd f2 55 3e 11 66 0c bf 14 de ab 3e f6 08 08 3f
       0.20893474 -0.5484324 0.3356787 0.53138673
0003b0 38 b7 48 3e 5f b7 5f be 65 3f 01 3f fa 70 54 3d
       0.19601142 -0.21847294 0.5048736 0.051865555
0003c0 cd 59 03 3f 6d 11 5f 3d 6d 20 f2 3e 0b 18 34 bf
       0.513089 0.054459978 0.47290364 -0.70349187
0003d0 d1 05 fa 3e 4b 7f 38 bf a1 8b 49 bf 9c 47 e3 be
       0.48832563 -0.72069234 -0.7872868 -0.4439057
0003e0 07 31 d8 bc 7c ef eb be af 9d 4b be 0f 28 56 bf
       -0.026390566 -0.4608115 -0.1988437 -0.83654875
0003f0 14 2e be be fd f6 d8 be 08 39 24 be 53 ea 49 3f
       -0.3714453 -0.42375937 -0.1603738 0.78873175

rnn.bias_ih_l0_reverse f4 [16]
000000 00 52 a7 3e 5f 67 84 3e 8b 4c 2e be 24 92 82 be
       0.3267975 0.25860116 -0.17021386 -0.2550212
000010 01 59 8d 3e ad d2 9f 3e 78 c0 11 be bc 04 93 3d
       0.27606967 0.3121542 -0.14233577 0.071786374
000020 98 d8 73 be 88 77 08 bd db 5a 15 bd 18 a7 d4 3d
       -0.23813093 -0.03331712 -0.0364636 0.10383433
000030 fc 60 8d be 0e 5c 0d 3e 27 14 44 3e 14 dc 3f 3d
       -0.27613056 0.13804647 0.19148313 0.046840742

rnn.bias_hh_l0_reverse f4 [16]
000000 9a 4b e9 3d a7 2d f4 3e 00 02 07 be 5a 98 c7 be
       0.11391373 0.4769108 -0.13184357 -0.38983423
000010 31 1b 6b 3e 9a cf 20 3e 72 e6 89 3c d8 27 ec bd
       0.22959591 0.15704194 0.016833518 -0.11531037
000020 09 59 6d 3d 36 a4 59 bd 7a 1f 58 bd 32 79 7c 3d
       0.05794624 -0.05313512 -0.052764393 0.06163902
000030 15 1a b6 be 97 99 8e 3e d5 37 82 3d 51 94 e9 bd
       -0.35566774 0.27851555 0.06358305 -0.11405242

fc1.weight f4 [11, 32]
000000 d1 a5 58 3f e3 9c 42 bf f4 e6 bf 3f 7f d2 9d bf
       0.84628016 -0.7602064 1.4992356 -1.2329863
000010 cb 37 1e 3f 10 c3 83 3f 8a c7 ba be eb 38 73 3f
       0.61803883 1.0293903 -0.3648036 0.95008725
000020 b5 ad 06 3f 2a 1d 03 bf c3 8b 6b 3f 54 34 b0 3e
       0.52608806 -0.51216376 0.92010134 0.34414923
000030 17 a8 5e 3e 71 1c 27 3d d0 8b 1d bf 86 6b 47 bf
       0.21743809 0.04079861 -0.6154146 -0.7789844
000040 a7 ab 0a 3f b0 d9 66 3f fc ac ce 3e 1f 7a 2c bf
       0.5416817 0.90175915 0.40366352 -0.6737384
000050 8f 83 a2 3f 21 cc 8f 3f de cf 0f 3f ee 26 47 bf
       1.2696398 1.123417 0.56176555 -0.77793777
000060 8a 40 ea be db a7 4b 3f fb f4 12 bf cd 21 ce be
       -0.45752364 0.79553 -0.5740506 -0.40260163
000070 19 cd 4b be de fd 47 3f b6 6c 12 3f ca 78 1e bf
       -0.19902457 0.78121746 0.5719713 -0.6190306
000080 e2 92 0f c0 3c c7 51 bf c6 69 20 3e 8c fd b9 3f
       -2.24334 -0.8194463 0.1566535 1.4530501
000090 a9 08 fc bf a6 8b 9e 3f 4b 73 74 3f 86 a8 a2 bc
       -1.9690143 1.2386367 0.95488423 -0.019855749
0000a0 62 90 cd bf e5 0f 14 3f ab f4 83 3e 8c 25 06 bf
       -1.6059687 0.57836753 0.25772604 -0.5240104
0000b0 d8 1d 9e 3e 89 5f b6 be f1 fa fc 3f ff 8f 25 40
       0.30882144 -0.35619763 1.9764081 2.5869138
0000c0 97 e8 b7 bf d0 5b 9b 3e ba bf 0d c0 d8 df 97 bf
       -1.4367856 0.30343485 -2.214827 -1.1865187
0000d0 bf bd 04 3d 2d 6e 55 3f a4 92 bb bf 1a 3b 95 bf
       0.03240752 0.8337124 -1.4654126 -1.1658661
0000e0 42 be ad bf bb dd a9 bf 6f a8 3b bf 20 bc 21 40
       -1.3573687 -1.3270792 -0.73303884 2.5271072
0000f0 e6 dd 9c bf fe 0e 66 bf b1 15 da bf 0f 32 02 bf
       -1.2255218 -0.89866626 -1.703787 -0.50857633
000100 0f 37 8c be 14 b6 e6 3f 4b 9a de 3e af 67 c0 3f
       -0.27385756 1.8024316 0.4347709 1.5031642
000110 a2 b4 4b bf 6d 27 2b bf 6c 15 cb 3f d4 ad d1 be
       -0.795725 -0.66857034 1.5865912 -0.40952933
000120 e5 92 ef bf 4e 53 2d bf 06 0f 12 bf 56 42 b5 3f
       -1.8716704 -0.6770524 -0.57054174 1.4160869
000130 f0 ab 4f 3f 6f 2e 75 3e 49 ad de bd f8 f4 2c 40
       0.8112173 0.23943494 -0.10872895 2.7024517
000140 b0 51 00 3f 33 d1 c5 3f c7 73 82 3f 30 f4 46 bf
       0.50124645 1.5454468 1.0191582 -0.7771635
000150 f5 ec 06 c0 dc 48 d2 be 20 6b 00 3f 32 56 f6 3e
       -2.1082127 -0.41071212 0.5016346 0.48112637
000160 81 14 71 3f 7a 64 33 3f d1 d4 f8 3f 16 a9 23 3f
       0.9417191 0.7007519 1.9439946 0.6392988
000170 17 7a ac be 40 ab c6 bf bd 42 83 3e 5a 45 ba 3f
       -0.33686897 -1.5521011 0.25636855 1.4552414
000180 0b 06 b7 bf 0b 25 84 be 24 7b 81 be ad 34 ba bf
       -1.4298719 -0.25809512 -0.2528926 -1.4547325
000190 ed 47 5a be 87 4d eb 3e 72 c9 ad 3f 9b fa 62 be
       -0.213165 0.45957586 1.3577101 -0.22165911
0001a0 d1 46 2b bf 0a e5 da 3e d7 1f 91 bf 90 6e cb 3f
       -0.6690493 0.42752868 -1.1337842 1.5893116
0001b0 4b 53 28 3d 22 92 ae 3f b9 81 8d be 6c 51 70 3e
       0.04109506 1.3638346 -0.27638033 0.2346856
0001c0 d2 67 1f c0 4c c7 ce bf 0b b7 ab 3f 0c aa 98 bf
       -2.4907117 -1.615457 1.3415235 -1.1926894
0001d0 f7 24 37 3e da e2 52 bf 4f fb 81 bf fd 6d 9a 3f
       0.17885195 -0.823774 -1.0154818 1.2064816
0001e0 53 4f 87 3f 5e 0f 08 bf 3e c1 d6 3f b9 58 83 3d
       1.0571083 -0.5314845 1.6777723 0.06413407
0001f0 41 f3 8a 3e 36 90 f8 bf d2 c8 51 bf 57 15 88 3f
       0.27138713 -1.941901 -0.8194705 1.0631512
000200 f5 b8 f8 bf 48 a4 2c 3f 83 da a9 bf 4b a4 48 bf
       -1.9431444 0.67438173 -1.326981 -0.7837569
000210 c3 85 f1 bf 90 35 c1 3e aa 2b 86 be 39 f2 fa be
       -1.8868946 0.37736177 -0.26205188 -0.49012926
000220 82 b4 f4 3e d8 21 67 bf 58 21 b9 bf e6 88 03 be
       0.47793967 -0.90286016 -1.4463301 -0.12845191
000230 b9 2b a4 3e eb a5 39 be 17 45 c8 3f 3f 1a c7 3f
       0.32064608 -0.18129699 1.5646085 1.5554885
000240 c1 ce d6 be e9 37 fa 3e e0 5d 9f bf 7d 1f 97 3f
       -0.41954616 0.4887078 -1.2450523 1.1806484
000250 38 36 38 be ab 8e 8d bf 3f c1 f2 bb 40 8d f6 be
       -0.17989433 -1.1059164 -0.0074082906 -0.4815464
000260 7d ac 6d 3f b7 7e 5f 3e a0 a7 0f 40 6a 94 97 bf
       0.9284132 0.21825682 2.244606 -1.1842167
000270 f0 48 88 bf 9c 1f d9 bf fc 75 17 3d 4a d4 47 3d
       -1.0647259 -1.6962771 0.036977753 0.04878644
000280 60 c8 31 3e c6 a6 8a 3f c2 c3 6a bf 67 fc 17 3f
       0.17361593 1.0832145 -0.9170495 0.5936951
000290 4f 8b 9e bd 85 0c 68 3e ca 89 81 be b6 38 d1 be
       -0.07741415 0.22661026 -0.25300437 -0.4086358
0002a0 e5 94 53 3e da 0c 25 3e e8 71 ff bf f7 da db 3e
       0.20662268 0.16118184 -1.9956636 0.42940494
0002b0 06 01 3b bf bf 45 3a 3f 0a 5e a1 bd c6 4f 2e be
       -0.73048437 0.72762674 -0.07879265 -0.17022619
0002c0 7f ac 04 bd 53 36 2e bf 83 c2 18 be 80 5e 03 3f
       -0.032391068 -0.6805164 -0.1491795 0.5131607
0002d0 35 fe 69 bf 90 12 1d bf ec e8 a1 3e 81 61 42 bf
       -0.91403514 -0.6135645 0.31623018 -0.7593003
0002e0 85 02 dc 3e 7f e1 15 3e 78 26 c9 3e 7a a1 35 3d
       0.42970672 0.14636801 0.39287162 0.04434345
0002f0 74 9f ba 3e a8 ff 77 3d 84 02 bd bd 70 5a 8f be
       0.36449778 0.060546547 -0.092289954 -0.27998686
000300 f5 3e 32 bd 6a 16 09 3f 76 19 0b bd d0 2b 47 3f
       -0.04351707 0.53549826 -0.03395983 0.7780123
000310 2e b4 6f bd 45 bb 2f be 95 b1 e0 3e ea 56 57 bf
       -0.058521442 -0.17161281 0.43885484 -0.84116995
000320 0b 57 73 bd 52 02 da bc 84 b3 78 be bb ac 06 bf
       -0.059409183 -0.026612435 -0.2428723 -0.52607316
000330 c9 94 cd bf 2b 2e ba 3f 0e 76 87 3e 9c 35 d6 3c
       -1.6061031 1.4545339 0.26457256 0.02614861
000340 81 59 50 bd 2e f2 13 bf 01 0c 6e be 16 27 46 3d
       -0.050866608 -0.5779141 -0.23246767 0.04837712
000350 f7 fc 6e bf 3f fb 40 bf 06 9b cd bc 98 40 aa 3f
       -0.93354744 -0.7538337 -0.025098335 1.3300962
000360 f7 e7 69 3d db 13 e4 bf 03 3e fc be 8f ca 80 be
       0.057105985 -1.781856 -0.4926606 -0.2515454
000370 74 28 0e 3e bb 30 83 be ec 0f ca be 29 49 aa 3f
       0.13882619 -0.25623116 -0.39465272 1.3303577
000380 47 1a b9 be 8b 10 99 3f 09 6b 01 40 0e b4 cd 3f
       -0.3615286 1.1958174 2.022158 1.6070573
000390 90 d3 89 be 7e 6b 85 bf 9c 05 8f 3d ce 28 7c bf
       -0.26919222 -1.0423429 0.06983492 -0.98499763
0003a0 22 be 3f be 29 ef bb 3e c2 6c 5f 3f 62 e6 63 bd
       -0.18724874 0.36705902 0.87275326 -0.055639632
0003b0 89 85 1b c0 10 d5 c4 3e 92 81 a0 3e 35 2d b1 3e
       -2.4300253 0.38443804 0.31348854 0.34604803
0003c0 ff eb cf be 18 40 16 bf f5 10 24 3f 44 ed 3d 3e
       -0.40609738 -0.5869155 0.64088374 0.18547541
0003d0 81 0d a2 3f 05 67 90 3f fe db 90 3d b9 e2 80 bf
       1.2660371 1.1281439 0.0707321 -1.006919
0003e0 52 81 05 bf db ec 42 3f 9f fb c2 3f 8b 01 25 3c
       -0.5215045 0.7614266 1.5233039 0.010071169
0003f0 56 1d 99 3c 45 7a 0c bf ac e6 18 bf d1 02 06 3f
       0.018690746 -0.5487407 -0.5972698 0.5234805

fc1.bias f4 [11]
000000 02 6b 26 3f 5e b5 65 3f a2 37 70 bf c1 09 68 bf
       0.6500703 0.8972987 -0.9383489 -0.90639883
000010 ad d5 0a bf c1 e4 d3 bd 25 43 13 be 14 27 31 bf
       -0.54232293 -0.10346366 -0.14381082 -0.69200253
000020 1c f1 02 be fe ba af be 50 7a 16 bf
       -0.12787288 -0.3432235 -0.58780384
