src/main/python/saved_models/java_1_66_RNNClassifier1_128embs_109id_16hd_1hl_Falsebid_1.pt (torch, 67679 bytes, 7 tensors)

word_embeddings.weight f4 [109, 128]
0.46358976 0.6757949 -0.00315879 -1.4654762 -0.13886823 -0.06451779 0.18485764 0.52550966
0.20551583 -0.6855356 -1.066093 0.8991634 -2.0940232 -0.2755105 -1.4775616 -1.2241237
-1.5777775 0.6386134 -1.0065855 0.33825704 -0.32406914 -2.313659 -0.072721966 -0.6624672
1.2378896 1.390897 0.60304415 -1.1003894 1.034132 -2.3415291 -0.6891242 0.7231797
-1.1496135 -1.2418513 2.3096368 -1.3653295 1.8570228 -0.015724977 -0.37548336 0.050977204
1.437757 -1.2732344 0.8142975 1.5701028 -0.22225152 1.3647362 2.2700996 1.5839131
-1.3827627 0.14279959 -0.35917437 -0.85825366 -0.041365832 -0.62956643 1.2800839 2.1453683
-0.31521767 -0.3183874 -0.26269728 -0.06887176 -1.0343742 -0.8008149 0.4483452 -1.1758273
1.0349709 -1.2336688 -0.1745331 -0.47682422 -1.7159903 -2.369314 -1.0146884 -0.82436514
0.38398904 1.7453204 -0.67565477 -0.46202263 -1.6751745 -3.0970652 0.15717982 0.55587894
-0.6746073 0.3657425 0.38744715 -0.22590068 -0.8582416 -0.542756 0.58404595 -1.4900273
-0.5539644 0.048799396 -0.37940377 -1.5048525 -0.6736667 0.57515883 -0.7853043 0.485539
-0.33831358 -1.0820478 1.0030253 0.006993276 -0.33963722 -1.3487644 -0.19438598 -1.8952886
0.30680987 -0.46746054 -1.7570451 0.3022093 -0.5966533 3.1643062 1.1147928 1.1927478
1.1508541 0.09144427 -1.2235527 -1.2425351 -0.04555636 0.5762832 -0.7744256 0.8807404
2.0943067 1.3246819 0.19136605 -0.17853118 0.3297455 1.1663071 -0.39678103 -0.08763155
1.0701926 -0.6401758 -2.3982198 -0.9136182 0.14876577 -0.91343284 -0.49253556 -0.85385865
-1.5330303 0.7442261 -2.5997684 -0.5579197 -0.46532574 0.008566304 -0.6118153 1.8152245
0.2789166 -0.06366827 0.9824207 -0.024528624 1.5871276 0.097879454 0.12804784 2.4881341
0.68276185 0.7511772 1.8736145 -0.752676 1.0994647 0.46629652 -1.0484385 -0.5076676
0.037209533 -0.040645763 0.6844834 -0.49392408 -0.5474072 1.8424716 -0.87697166 1.1133244
-0.3315693 1.512288 0.98340195 -0.78296643 0.51035297 -2.021496 0.4440314 2.1701174
1.1207992 -1.9755882 -0.20474331 -0.09423447 0.06458944 0.8051644 1.1449925 2.5630038
0.8345975 0.7061153 0.100765176 -0.3698377 0.65439844 -1.6191275 0.5748925 0.06414663
1.3638986 1.0399088 1.5213101 -1.7701312 1.6593997 -0.101737425 0.08106634 -0.7878037
-1.0339875 -0.4340862 -0.5919373 -0.2850145 0.118272126 -0.22164345 -0.26450565 -0.086129665
0.7351615 -0.3628543 0.6684618 0.06480325 0.9920606 1.5755564 0.01118997 1.6575984
0.21665213 -0.47337654 2.213845 0.9788199 -2.3926988 0.65125823 1.3048606 1.4782124
1.19878 -0.13720831 1.4142135 1.1132413 1.9802848 0.4219474 0.1718239 -1.4453278
-0.59469223 0.9801335 -1.2793999 -0.13664477 -0.22896895 -0.5790806 -0.97284234 -1.059077
-0.117712945 -2.4799597 -0.2193206 -2.3390658 -0.16168489 -0.36421996 0.4075373 0.5681946
-1.7970859 -1.4099548 -0.39663842 0.82037175 -1.2042711 0.48870525 0.16423528 1.7603556
00000000: a35b ed3e e500 2d3f b403 4fbb b994 bbbf
00000010: 7933 0ebe e721 84bd 524b 3d3e cd87 063f
00000020: be72 523e 437f 2fbf bc75 88bf 932f 663f
00000030: 7a04 06c0 b60f 8dbe bd20 bdbf 16b0 9cbf
00000040: 9df4 c9bf 2b7c 233f cbd7 80bf 0730 ad3e
00000050: 64ec a5be fd12 14c0 41ef 94bd 7397 29bf
00000060: 2b73 9e3f ea08 b23f 1a61 1a3f 8fd9 8cbf
00000070: 705e 843f 9ddb 15c0 726a 30bf 4e22 393f
00000080: 8926 93bf fcf4 9ebf 17d1 1340 1ec3 aebf
00000090: ecb2 ed3f abd1 80bc 5b3f c0be 79cd 503d
000000a0: 6c08 b83f 58f9 a2bf cd75 503f 21f9 c83f
000000b0: e795 63be adaf ae3f 5049 1140 aabd ca3f
000000c0: 5efe b0bf 0e3a 123e b4e5 b7be 83b6 5bbf
000000d0: 386f 29bd 442b 21bf cad9 a33f b74d 0940
000000e0: 3664 a1be ac03 a3be 4280 86be a30c 8dbd
000000f0: 6066 84bf 3502 4dbf 818d e53e 8281 96bf
00000100: ed79 843f dce8 9dbf ceb8 32be 4e22 f4be
00000110: 92a5 dbbf d7a2 17c0 4fe1 81bf 9809 53bf
00000120: 369a c43e a966 df3f b6f7 2cbf 3b8e ecbe
00000130: 1e6c d6bf 5136 46c0 bff3 203e 154e 0e3f
00000140: 10b3 2cbf 9a42 bb3e 795f c63e 8252 67be
00000150: b9b5 5bbf 0ff2 0abf 0984 153f 37b9 bebf
00000160: 9cd0 0dbf e0e1 473d 3641 c2be 029f c0bf
00000170: 6c75 2cbf 9c3d 133f b409 49bf 9198 f83e
00000180: 7037 adbe 8b80 8abf 2263 803f da27 e53b
00000190: eee4 adbe 50a4 acbf 1e0d 47be d198 f2bf
000001a0: 2f16 9d3e fd56 efbe dbe6 e0bf 2dbb 9a3e
000001b0: 45be 18bf fe83 4a40 88b1 8e3f f6ab 983f
000001c0: 304f 933f 2247 bb3d 609d 9cbf 640b 9fbf
000001d0: 4e99 3abd 4c87 133f c240 46bf 3478 613f
000001e0: 1f09 0640 2d8f a93f 76f5 433e e1d0 36be
000001f0: 67d4 a83e 8d49 953f e226 cbbe 2c78 b3bd
00000200: 12fc 883f 90e2 23bf 6f7c 19c0 e2e2 69bf
00000210: 0e56 183e bcd6 69bf 9f2d fcbe 7b96 5abf
00000220: 563a c4bf 9a85 3e3f 9b62 26c0 d3d3 0ebf
00000230: 2d3f eebe af59 0c3c ed9f 1cbf 4759 e83f
00000240: 28ce 8e3e 8364 82bd ec7f 7b3f 41f0 c8bc
00000250: ff26 cb3f 0675 c83d f91e 033e 973d 1f40
00000260: 7bc9 2e3f 264d 403f 9ad2 ef3f 60af 40bf
00000270: 42bb 8c3f 6bbe ee3e 3c33 86bf 81f6 01bf
00000280: 0669 183d 2c7c 26bd 4e3a 2f3f 9ee3 fcbe
00000290: e122 0cbf 1cd6 eb3f 3781 60bf 6a81 8e3f
000002a0: 74c3 a9be a792 c13f 3bc0 7b3f 7d70 48bf
000002b0: 7ea6 023f 3160 01c0 1558 e33e 34e3 0a40
000002c0: 5976 8f3f 13e0 fcbf 3ba8 51be 00fe c0bd
000002d0: 7847 843d 411f 4e3f 1d8f 923f 4108 2440
000002e0: 2fa8 553f f9c3 343f f95d ce3d 5e5b bdbe
000002f0: a886 273f 923f cfbf 282c 133f 4f5f 833d
00000300: 3b94 ae3f bb1b 853f 4aba c23f a993 e2bf
00000310: 3667 d43f b65b d0bd 1c06 a63d 81ad 49bf
00000320: b459 84bf 8c40 debe 3489 17bf 6ced 91be
00000330: a838 f23d 80f6 62be 496d 87be c064 b0bd
00000340: 8b33 3c3f 0ac8 b9be 5020 2b3f 91b7 843d
00000350: aff7 7d3f d5ab c93f 2356 373c 2f2c d43f
00000360: 0eda 5d3e 695e f2be a3af 0d40 f193 7a3f
00000370: fa21 19c0 dcb8 263f ac05 a73f 1036 bd3f
00000380: 9f71 993f 5680 0cbe f304 b53f b17e 8e3f
00000390: f979 fd3f 7d09 d83e 9bf2 2f3e 8000 b9bf
000003a0: c03d 18bf 07ea 7a3f 60c3 a3bf 9bec 0bbe
000003b0: d676 6abe a03e 14bf 320c 79bf d68f 87bf
000003c0: 7c13 f1bd a9b7 1ec0 9495 60be 41b3 15c0
000003d0: b990 25be 0a7b babe bba8 d03e 3475 113f
000003e0: e906 e6bf 6679 b4bf 3114 cbbe e203 523f
000003f0: 8e25 9abf 9337 fa3e 4b2d 283e 5553 e13f

rnn.weight_ih_l0 f4 [16, 128]
-0.35719526 0.041256487 0.39168748 -0.4356069 0.17733634 -0.021517161 -0.12940145 0.029043214
-0.06909116 -0.15592483 0.26712456 -0.12453241 -0.041546397 -0.019025775 -0.25005054 -0.23677139
0.29959464 -0.24582873 0.15634759 -0.21274415 -0.13102834 0.42171204 0.13155587 2.035735e-06
-0.04657353 0.24781835 -0.063479334 0.10984523 0.08598199 0.047756247 0.04082102 -0.06524237
0.08119257 -0.14394659 -0.2397689 -0.07789351 -0.031215375 -0.1965158 -0.29298103 0.12099478
-0.29231712 -0.23534857 -0.2919901 0.07502026 -0.025348337 -0.39084136 0.25845423 -0.08030613
-0.025794286 0.25104794 0.27538362 0.25611362 0.06542252 0.21076332 0.18444672 -0.26619726
0.14384478 0.36040974 0.13480406 -0.24233058 -0.1784618 0.0926414 -0.135644 0.16701487
0.022642717 -0.045048848 0.0779587 0.17227036 0.0031313628 -0.070637606 -0.31012008 -0.07227598
-0.083624184 0.0511424 0.060557563 0.09254261 -0.053341035 -0.09613827 -0.048276443 -0.20455517
0.09750838 -0.016171146 -0.072373815 0.35719472 -0.029826699 -0.5921984 -0.3744257 0.16929676
-0.0026811839 -0.025150038 0.2143531 0.46794212 -0.09078694 0.02593211 0.09363956 -0.12246586
0.28491616 0.15513973 0.030193998 0.19304864 -0.5809681 0.07212499 0.048925646 0.06319893
-0.18325703 0.105802335 0.21711244 0.07018605 0.43419078 -0.053457525 0.04930487 0.08363783
0.095441535 0.36495647 -0.18354192 0.123066984 -0.0037970152 -0.36343363 0.07176224 -0.14554061
-0.19010867 0.19086118 0.048123177 0.07990641 0.008138168 0.04883858 -0.23358431 0.082574174
0.3162363 -0.31243533 0.01651623 -0.0601504 -0.07626859 0.32153356 0.10843204 -0.23983565
-0.14342216 0.11699257 -0.21221498 0.0145064145 0.16912116 0.1448335 -0.030296404 0.4625744
-0.12006058 0.35441312 -0.061551336 0.18751988 -0.01930149 0.25149283 0.11641094 -0.0279281
-0.034571346 -0.035555102 -0.41596496 -0.08789203 -0.24191776 0.2606816 -0.27351397 0.061687488
-0.042166013 -0.026722867 -0.40926915 0.36798075 0.024495486 0.026901778 0.1864183 0.1406416
-0.014296183 0.12661578 -0.07877571 0.08283233 0.010229185 -0.08758626 -0.08671144 -0.020955335
-0.20540658 -0.02006787 0.10850959 0.03886215 -0.061137974 0.4954307 -0.2552761 -0.40896103
-0.00982175 -0.14273277 -0.08430383 0.08126945 0.018006766 -0.25074738 -0.070712864 -0.12226328
-0.22942562 -0.17959799 0.26524168 -0.21573842 -0.35763192 -0.45119134 -0.16114269 0.43150228
-0.07084876 -0.32854074 0.18145154 -0.02970461 -0.082949586 0.28257096 0.0495778 0.19108859
0.07293877 0.23326133 0.31741312 0.28080302 0.0423977 0.29703894 -0.2060406 0.09682904
-0.0340965 0.2160275 0.43692112 0.30025482 0.03022025 -0.16275455 -0.06585231 -0.008895107
0.13776779 -0.3190022 0.31088483 0.2954799 0.15646707 0.28499734 -0.35122702 0.28353932
-0.31469986 0.21358676 -0.022504313 0.11030149 -0.2566078 0.118331395 -0.1757709 0.3176566
-0.07960618 0.4647217 0.05371872 -0.046640653 0.09761128 0.37403753 0.19359945 -0.49110064
-0.030610668 0.19471762 0.15763663 0.20320913 0.10995079 -0.0021941788 0.13009202 -0.051527534
00000000: 4ce2 b6be 90fc 283d 438b c83e de07 dfbe
00000010: a897 353e c244 b0bc d081 04be 09ec ed3c
00000020: ab7f 8dbd c2aa 1fbe 8dc4 883e d90a ffbd
00000030: 8e2c 2abd f1db 9bbc a006 80be 3374 72be
00000040: 7864 993e 87ba 7bbe 9519 203e 9ad9 59be
00000050: 4b2c 06be a4ea d73e 95b6 063e a99d 0836
00000060: e3c3 3ebd 18c4 7d3e 7401 82bd 89f6 e03d
00000070: 5317 b03d 0e9c 433d f133 273d cb9d 85bd
00000080: 4a48 a63d bc66 13be fb85 75be a286 9fbd
00000090: 63b7 ffbc 703b 49be 9c01 96be 1ccc f73d
000000a0: 97aa 95be 37ff 70be ba7f 95be 39a4 993d
000000b0: 51a7 cfbc 5c1c c8be 1d54 843e 8a77 a4bd
000000c0: 8a4e d3bc 5b89 803e 15ff 8c3e 5321 833e
000000d0: 3efc 853d 57d2 573e 9adf 3c3e 024b 88be
000000e0: 0c4c 133e a087 b83e 130a 0a3e 8225 78be
000000f0: b1be 36be c6ba bd3d 43e6 0abe f205 2b3e
00000100: 387d b93c 2485 38bd d0a8 9f3d a467 303e
00000110: 8d37 4d3b 73aa 90bd 0fc8 9ebe 6e05 94bd
00000120: 2843 abbd b17a 513d 350b 783d fb86 bd3d
00000130: 217c 5abd 24e4 c4bd 85bd 45bd e976 51be
00000140: 79b2 c73d 5a79 84bc b938 94bd 3ae2 b63e
00000150: 1f57 f4bc 509a 17bf bab4 bfbe 215c 2d3e
00000160: cdb6 2fbb 7407 cebc 617f 5b3e 1c96 ef3e
00000170: 81ee b9bd 946f d43c 19c6 bf3d 61cf fabd
00000180: 88e0 913e f3dc 1e3e 6759 f73c 8bae 453e
00000190: 53ba 14bf 44b6 933d 4266 483d 716e 813d
000001a0: bba7 3bbe e5ae d83d b952 5e3e b4bd 8f3d
000001b0: 414e de3e 47f6 5abd e7f3 493d 504a ab3d
000001c0: da76 c33d 93db ba3e 6af2 3bbe 8b0a fc3d
000001d0: 58d7 78bb f913 babe 15f8 923d 9908 15be
000001e0: d9ab 42be 1d71 433e cf1c 453d f9a5 a33d
000001f0: f355 053c f60a 483d ba30 6fbe a61c a93d
00000200: b9e9 a13e 86f7 9fbe 0b4d 873c 4460 76bd
00000210: b532 9cbd 0ca0 a43e 9e11 de3d 7a97 75be
00000220: 42dd 12be cd99 ef3d e24e 59be 50ac 6d3c
00000230: 192e 2d3e 3c4f 143e 2a30 f8bc 8dd6 ec3e
00000240: 52e2 f5bd a375 b53e 411d 7cbd 3605 403e
00000250: 291e 9ebc abc3 803e dc68 ee3d 79c9 e4bc
00000260: af9a 0dbd 3aa2 11bd 5cf9 d4be bd00 b4bd
00000270: 4ab9 77be 0f78 853e 060a 8cbe 05ac 7c3d
00000280: 45b6 2cbd eae9 dabc ba8b d1be f967 bc3e
00000290: c2aa c83c 1e61 dc3c 70e4 3e3e 5a04 103e
000002a0: 8a3a 6abc 91a7 013e 2955 a1bd ffa3 a93d
000002b0: 5098 273c 6d60 b3bd c495 b1bd 86aa abbc
000002c0: 1a56 52be 6065 a4bc 473a de3d eb2d 1f3d
000002d0: d06b 7abd 18a9 fd3e 8db3 82be 5763 d1be
000002e0: 68eb 20bc 8a28 12be 7da7 acbd 9970 a63d
000002f0: ed82 933c f661 80be e8d1 90bd 2c65 fabd
00000300: 8dee 6abe 89e8 37be c2cd 873e 88ea 5cbe
00000310: 881b b7be 8d02 e7be 9702 25be deed dc3e
00000320: 2819 91bd 7e36 a8be 6fce 393e 1557 f3bc
00000330: 79e1 a9bd 24ad 903e 1712 4b3d baac 433e
00000340: ec60 953d 0fdc 6e3e f983 a23e 6ac5 8f3e
00000350: 36a9 2d3d 7d15 983e 4ffc 52be 4e4e c63d
00000360: c6a8 0bbd 5036 5d3e 20b4 df3e 00bb 993e
00000370: 7590 f73c 21a9 26be 93dd 86bd c8bc 11bc
00000380: 0013 0d3e 4254 a3be 4c2c 9f3e 2449 973e
00000390: e738 203e 2ceb 913e 07d4 b3be 112c 913e
000003a0: 5720 a1be 7db6 5a3e f75a b8bc bfe5 e13d
000003b0: 1962 83be bb57 f23d 49fd 33be e3a3 a23e
000003c0: 9108 a3bd 01f0 ed3e 2908 5c3d 450a 3fbd
000003d0: 6ce8 c73d d981 bf3e ef3e 463e 8b71 fbbe
000003e0: 39c3 fabc 0e64 473e 7f6b 213e 0e16 503e
000003f0: e12d e13d 36cc 0fbb d836 053e 890e 53bd

rnn.weight_hh_l0 f4 [16, 16]
0.33923185 0.31661952 -0.05762852 0.46425202 0.6786812 -0.86531293 1.1391678 0.5540175
0.38256654 0.38673273 0.47741517 0.044141553 -0.63022447 -0.54922175 0.5753121 0.8567611
-0.5970269 0.2147627 -0.27542108 0.12298835 -0.62395954 -0.070895284 -0.08670333 -0.01939505
-0.020692362 -0.3969614 -0.0349025 -0.07678994 0.023762176 0.87936234 1.3241503 1.1206318
-0.2140777 0.06447047 0.6493714 -0.097296156 0.31918815 0.079670385 0.89931023 -0.2560891
0.070160195 0.98835254 0.65793616 -0.23145737 0.37115136 -0.40746686 -0.9424932 0.7414902
0.57314354 0.16487578 0.41256854 0.2209588 0.44808006 -0.26127934 1.1529515 -0.18968429
0.5022823 -0.6718442 0.3019072 -0.52010167 -0.44795355 0.051151633 -0.6118666 0.5678491
-0.28913975 -0.20742166 0.2519306 0.8698597 0.9443759 -0.109223366 1.1238886 0.8303145
-0.004184796 -0.42280212 -0.016730003 0.40169558 0.13307974 -0.07521518 0.75662124 1.0600278
0.5294239 -0.2721087 0.06975724 -0.7387869 0.18033297 -0.31721205 -0.028184647 -0.46452808
-0.6996193 -1.2075542 1.1916386 -0.040507503 0.54124194 -1.0878094 0.013904511 -0.19479887
0.45965636 -0.22410989 0.7571176 -0.37726474 -0.28456163 -0.027733652 -0.032541547 -0.14898127
0.1465816 1.2199137 0.66904056 0.9880801 -0.34802422 -0.11872462 -0.9763463 -0.4457127
0.096242815 -0.59889764 -0.8896327 0.00041437434 1.0516909 -0.31152245 -0.28827035 0.038403396
-0.11655606 0.027331902 -0.19638585 0.030229077 -0.0670801 0.12464253 -0.20232846 -0.27907622
0.4147543 0.5389278 0.052996397 0.2175158 0.14005423 -0.4558018 0.8671148 0.012640326
0.59924376 0.58961684 0.41149244 1.12879 -0.057651214 0.13179515 -0.62162656 0.8507003
0.028843166 0.5614272 0.8269687 0.0060170675 -0.11102291 -0.42417863 1.0554034 0.015826317
0.6214916 0.19463222 0.6997659 1.2282119 0.02884573 0.44422197 -0.023013722 1.1575402
-0.581496 -0.63131946 0.8685606 0.22280376 0.3262695 0.1458207 0.47065428 0.3038606
0.28670123 0.6466662 0.61737496 0.89347684 -0.010435652 0.164736 -0.79916966 -0.23881125
-0.23048396 0.36212805 0.52103627 0.1909098 0.099966675 -0.30936027 0.95995516 -0.13608943
0.5434136 0.25808492 0.8873394 -0.44220436 0.43302894 0.25361305 -0.815079 1.569748
0.60286194 -0.51982206 -0.30931774 -0.56969464 0.30947608 0.1256367 0.011241526 -0.13288188
-0.5151815 -2.2369013 0.17957957 -0.8343439 0.4451886 -0.19714169 -0.23239228 0.75189215
0.42938468 0.6173986 -0.42483526 -0.0967966 -0.31169677 -0.21948634 -0.42078507 -0.69139457
0.16205828 -0.09386135 -0.07478527 -0.1530789 0.18916187 0.1801993 0.9327577 0.08351289
0.43267584 -0.28472802 0.27995604 -0.24093951 0.36923268 -0.4777394 0.33776125 0.17258415
0.09232223 0.3287385 0.4944603 0.17700218 -0.44727445 -0.369201 -0.8290254 -0.7685821
0.10906353 -0.38285032 0.37718225 0.33181602 0.5468843 -0.054927923 0.3003719 -0.023492426
0.03818926 0.28478783 0.5359577 0.62365717 0.026919551 -0.15650588 0.18645902 0.41177905
00000000: ccaf ad3e f41b a23e e20b 6cbd 71b2 ed3e
00000010: 0dbe 2d3f 2685 5dbf 40d0 913f 17d4 0d3f
00000020: c3df c33e d501 c63e c36f f43e c6cd 343d
00000030: 6456 21bf cc99 0cbf a747 133f b254 5b3f
00000040: c1d6 18bf c1ea 5b3e fe03 8dbe 51e1 fb3d
00000050: d0bb 1fbf 8c31 91bd 8491 b1bd 5ee2 9ebc
00000060: 0783 a9bc 863e cbbe edf5 0ebd 0b44 9dbd
00000070: e5a8 c23c e41d 613f c27d a93f dd70 8f3f
00000080: 2f37 5bbe 1809 843d 343d 263f 3543 c7bd
00000090: a16c a33e 3a2a a33d 3239 663f 1c1e 83be
000000a0: 26b0 8f3d ac04 7d3f 816e 283f 2903 6dbe
000000b0: 8d07 be3e 7f9f d0be 3c47 71bf 4dd2 3d3f
000000c0: 89b9 123f 32d5 283e 2f3c d33e 0643 623e
000000d0: c06a e53e 68c6 85be ea93 933f 993c 42be
000000e0: 9395 003f fbfd 2bbf 9593 9a3e 6225 05bf
000000f0: 2b5a e5be 6084 513d 4aa3 1cbf 8f5e 113f
00000100: 200a 94be 5866 54be 0cfd 803e 20af 5e3f
00000110: 9ec2 713f 80b0 dfbd 95db 8f3f 7e8f 543f
00000120: 9d20 89bb 8579 d8be 5c0d 89bc 0bab cd3e
00000130: 0e46 083e 6b0a 9abd eeb1 413f feae 873f
00000140: 5388 073f d551 8bbe e2dc 8e3d 2321 3dbf
00000150: 35a9 383e 9e69 a2be 7de3 e6bc a0d6 edbe
00000160: 401a 33bf 2391 9abf 9d87 983f 32eb 25bd
00000170: d58e 0a3f 573d 8bbf bfcf 633c 5b79 47be
00000180: 1458 eb3e 107d 65be 76d2 413f d828 c1be
00000190: 10b2 91be af31 e3bc 494a 05bd 8c8e 18be
000001a0: 7d19 163e 2226 9c3f 3e46 2b3f d1f2 7c3f
000001b0: 3b30 b2be e525 f3bd d5f1 79bf 7434 e4be
000001c0: f41a c53d 5b51 19bf f8be 63bf 6240 d939
000001d0: cf9d 863f df7f 9fbe 2c98 93be e14c 1d3d
000001e0: f2b4 eebd 27e7 df3c 5f19 49be f8a2 f73c
000001f0: 4b61 89bd 9544 ff3d 312f 4fbe 14e3 8ebe
00000200: ad5a d43e 2cf7 093f c012 593d 76bc 5e3e
00000210: 606a 0f3e db5e e9be 3cfb 5d3f 5f19 4f3c
00000220: 0a68 193f 21f1 163f 23af d23e 317c 903f
00000230: ae23 6cbd 4ff5 063e eb22 1fbf 7fc7 593f
00000240: 8148 ec3c b1b9 0f3f 39b4 533f d22a c53b
00000250: fb5f e3bd f12d d9be 7517 873f 31a6 813c
00000260: 131a 1f3f ab4d 473e dc23 333f 0c36 9d3f
00000270: e14d ec3c 1071 e33e 4687 bcbc 472a 943f
00000280: ecdc 14bf 279e 21bf fd59 5e3f ab26 643e
00000290: cc0c a73e 0652 153e 99f9 f03e 9e93 9b3e
000002a0: 81ca 923e eb8b 253f 490c 1e3f e6ba 643f
000002b0: 4cfa 2abc 8eb0 283e 6296 4cbf f08a 74be
000002c0: fd03 6cbe d968 b93e a262 053f dc7d 433e
000002d0: 54bb cc3d 7864 9ebe 9fbf 753f 075b 0bbe
000002e0: 271d 0b3f b523 843e ad28 633f 9c68 e2be
000002f0: f8b5 dd3e 92d9 813e 04a9 50bf 81ed c83f
00000300: 2955 1a3f 0f13 05bf e55e 9ebe 82d7 11bf
00000310: a673 9e3e e8a6 003e 612e 383c 3012 08be
00000320: efe2 03bf 6429 0fc0 b5e3 373e 9097 55bf
00000330: c3ef e33e 83df 49be 3ef8 6dbe 017c 403f
00000340: 4fd8 db3e d60d 1e3f 0284 d9be 4c3d c6bd
00000350: b896 9fbe 07c1 60be 2471 d7be 3cff 30bf
00000360: 9bf2 253e 613a c0bd 0529 99bd b7c0 1cbe
00000370: a6b3 413e 2a86 383e 35c9 6e3f ce08 ab3d
00000380: b087 dd3e dfc7 91be 6656 8f3e d9b8 76be
00000390: 110c bd3e 429a f4be 0bef ac3e e6b9 303e
000003a0: 7013 bd3d 6a50 a83e e729 fd3e 0f40 353e
000003b0: 2801 e5be ea07 bdbe 023b 54bf ccc1 44bf
000003c0: b35c df3d f504 c4be 081e c13e cae3 a93e
000003d0: 9c00 0c3f 1afc 60bd 58ca 993e 3073 c0bc
000003e0: 576c 1c3d b6cf 913e 8634 093f ffa7 1f3f
000003f0: 6486 dc3c 1443 20be 1def 3e3e b4d4 d23e

rnn.bias_ih_l0 f4 [16]
-0.04099999 0.18634032 -0.16000251 0.17027052 0.06012764 0.32628748 0.08828574 -0.19092736
0.12513462 -0.31458315 -0.32918116 0.33278853 0.3170801 -0.4654667 -0.02840156 0.3062871
00000000: 9bef 27bd ffcf 3e3e b3d7 23be 655b 2e3e
00000010: 6648 763d 270f a73e 27cf b43d 7682 43be
00000020: 4a23 003e 0b11 a1be 6f8a a8be 4263 aa3e
00000030: 5358 a23e a751 eebe 63aa e8bc aad1 9c3e

rnn.bias_hh_l0 f4 [16]
0.01773383 0.16835909 -0.24387081 0.0038283034 0.33166286 0.2591762 -0.106094725 -0.1694228
0.032424852 -0.06321628 -0.3395656 0.17181616 0.10561609 -0.36150554 -0.107218444 0.3394355
00000000: 8946 913c 5366 2c3e 45b9 79be 46e4 7a3b
00000010: b7cf a93e beb2 843e 3148 d9bd 2c7d 2dbe
00000020: eccf 043d 8977 81bd 8bdb adbe 93f0 2f3e
00000030: 404d d83d 4117 b9be 5895 dbbd 7dca ad3e

fc1.weight f4 [12, 16]
-0.6610578 -0.62363285 -1.4156969 1.0229826 -0.8762115 1.3278959 -0.18916242 -1.061822
-1.2165534 -0.267358 -0.44436562 -0.46741986 1.5226817 -0.7767536 0.614659 0.55181485
1.1359464 3.487521 2.5070002 -4.0421033 3.1766503 1.7414353 0.9425544 4.4632244
1.1295869 -1.2144703 -0.3471732 0.88091564 1.5960025 -0.17621686 1.897058 -0.3637442
-1.2092505 3.1171517 -2.5095282 -2.314274 2.7116199 -2.0896523 2.5006928 0.08701657
1.4473631 -0.36093622 1.3929482 -1.4363692 -1.0331417 1.5303812 -0.26711577 -1.2867754
1.7040607 1.8093216 -1.105827 -0.19896464 1.8461454 -0.18960062 1.2650844 0.27929544
-1.7535208 1.755261 -1.0933435 -1.5151542 -2.851413 3.0897455 -0.5169317 1.3550515
1.462122 -0.58651376 -1.2779965 -0.40601036 1.8756504 -3.0074978 -0.92003053 3.6390111
0.9874945 0.90689045 -0.9431804 -0.966453 0.26291025 2.5308783 -1.3586458 1.7291425
1.2043644 0.49771225 0.28483412 0.096298836 1.3681953 -2.7112024 -1.1358795 -0.13061495
0.22329858 1.0142932 0.84384435 0.62049097 -0.18267319 0.19977818 -0.5087763 -0.21848696
0.8345571 -0.06823146 0.5166572 -0.058230195 -0.48149428 1.1097854 1.2692435 0.36521527
0.9424344 1.5526979 1.0516589 0.5037266 -0.8331428 0.21281068 -0.101782665 -0.27667758
-2.2125983 0.36640897 0.787552 -0.027944496 -0.66314507 -1.3275359 2.4303873 0.48908502
0.6264087 0.5556162 2.0074427 0.6967669 -0.67464375 0.58682907 -0.25280043 -0.40748197
1.3449386 -0.25432438 1.1011511 0.15682492 0.5022726 0.74418694 -1.1477251 0.041764256
1.1610439 0.70226526 -0.34208274 0.8883556 1.0244561 0.11297084 -0.46017957 -0.23048083
-0.5380986 -0.1644121 1.3672812 0.13514258 -0.2520406 -0.017089851 -0.6558158 0.070897326
-0.9705952 -0.8619415 -0.6295577 -0.024812832 -0.7429397 0.17477351 -0.45611188 -0.45610714
-0.37245178 -0.2585454 0.49713334 -0.7970653 -0.17050797 -0.60735583 0.13277794 0.032366846
-0.39717868 -0.7480202 0.60488504 -2.0022013 -1.5643042 0.067940265 -0.4002584 -0.19564545
1.9406035 0.07996558 -3.1544135 -0.46443304 -0.7405915 -2.044904 1.0313687 1.0216237
1.2506082 0.85229903 -1.9777853 -0.98353904 -2.2758617 0.17220822 1.0396465 -0.61359924
00000000: 153b 29bf 67a6 1fbf 8e35 b5bf 18f1 823f
00000010: 664f 60bf 7ef8 a93f cbb3 41be c9e9 87bf
00000020: 06b8 9bbf 26e3 88be e483 e3be a851 efbe
00000030: 3ce7 c23f 53d9 46bf 4b5a 1d3f bd43 0d3f
00000040: b166 913f 8b33 5f40 b172 2040 e958 81c0
00000050: 3d4e 4b40 5ae7 de3f 3f4b 713f bcd2 8e40
00000060: 4e96 903f c373 9bbf b0c0 b1be b083 613f
00000070: cf49 cc3f 3172 34be ccd2 f23f ae3c babe
00000080: b8c8 9abf 6a7f 4740 1c9c 20c0 111d 14c0
00000090: 2e8b 2d40 ddbc 05c0 5a0b 2040 be35 b23d
000000a0: 3243 b93f a2cc b8be 204c b23f f2da b7bf
000000b0: fd3d 84bf 88e3 c33f 66c3 88be 0eb5 a4bf
000000c0: a91e da3f da97 e73f bd8b 8dbf 63bd 4bbe
000000d0: 7e4e ec3f aa26 42be 49ee a13f d0ff 8e3e
000000e0: 5f73 e0bf 64ac e03f aef2 8bbf 93f0 c1bf
000000f0: 8d7d 36c0 64be 4540 a355 04bf 5472 ad3f
00000100: d026 bb3f c425 16bf 6495 a3bf 97e0 cfbe
00000110: 5015 f03f d87a 40c0 1f87 6bbf 8fe5 6840
00000120: 71cc 7c3f f929 683f 4574 71bf 7769 77bf
00000130: 2c9c 863e e9f9 2140 1be8 adbf 8b54 dd3f
00000140: 9d28 9a3f 24d4 fe3e c7d5 913e 5338 c53d
00000150: 0621 af3f 5784 2dc0 8064 91bf edbf 05be
00000160: 62a8 643e 5cd4 813f 2f06 583f 7fd8 1e3f
00000170: ae0e 3bbe a792 4c3e 2a3f 02bf 0cbb 5fbe
00000180: 89a5 553f f0bc 8bbd a543 043f c982 6ebd
00000190: 6b86 f6be 730d 8e3f 9276 a23f 7ffd ba3e
000001a0: 6143 713f cebe c63f c29c 863f 3af4 003f
000001b0: d948 55bf 0beb 593e 6e73 d0bd afa8 8dbe
000001c0: 369b 0dc0 f599 bb3e 029d 493f dbeb e4bc
000001d0: e0c3 29bf b2ec a9bf 778b 1b40 5a69 fa3e
000001e0: 525c 203f dd3c 0e3f f179 0040 515f 323f
000001f0: 74b5 2cbf 6e3a 163f 0f6f 81be 7aa1 d0be
00000200: f326 ac3f ce36 82be 85f2 8c3f b696 203e
00000210: f094 003f 0983 3e3f a8e8 92bf ff10 2b3d
00000220: 169d 943f a8c7 333f 7825 afbe 466b 633f
00000230: 6121 833f 415d e73d a89c ebbe 2b03 6cbe
00000240: d4c0 09bf a55b 28be 1203 af3f d162 0a3e
00000250: 770b 81be 0400 8cbc 8be3 27bf 9e32 913d
00000260: ed78 78bf 33a8 5cbf b22a 21bf 4844 cbbc
00000270: 4c31 3ebf d4f7 323e 7f87 e9be e086 e9be
00000280: 00b2 bebe 1060 84be 4388 fe3e 790c 4cbf
00000290: a499 2ebe ac7b 1bbf f1f6 073e 1993 043d
000002a0: 015b cbbe 407e 3fbf bfd9 1a3f 1124 00c0
000002b0: 1f3b c8bf 4424 8b3d abee ccbe 4857 48be
000002c0: b265 f83f fec4 a33d e9e1 49c0 2bca edbe
000002d0: 6897 3dbf b5df 02c0 e403 843f 91c4 823f
000002e0: ee13 a03f 4530 5a3f 1228 fdbf 37c9 7bbf
000002f0: b8a7 11c0 5a57 303e 2313 853f d714 1dbf

fc1.bias f4 [12]
0.52955425 1.9797077 -1.4347007 -1.7876058 -0.8480312 -0.11476793 -0.44368812 -0.4802932
-0.3754872 -0.4352314 -0.46417314 -0.7480285
00000000: de90 073f 1067 fd3f 46a4 b7bf 44d0 e4bf
00000010: 9318 59bf 730b ebbd 172b e3be fee8 f5be
00000020: dc3f c0be a6d6 debe 1aa8 edbe cc7e 3fbf
