src/main/python/saved_models/java_1_66_RNNClassifier1_128embs_109id_32hd_1hl_Falsebid_1.pt (torch, 79839 bytes, 7 tensors)

word_embeddings.weight f4 [109, 128]
-0.53077406 -2.5386627 -1.7114762 -0.91755104 0.33099037 1.421128 0.34537104 0.8131413
0.7183139 0.14568889 1.2291502 0.048105188 1.8528268 -0.86370337 1.8518316 -2.1634235
-1.2091568 -1.1588949 0.29796842 2.0417013 -1.4786329 0.057014618 0.18433508 0.7705988
0.4455506 0.076152965 1.242445 -0.06096303 -0.96645594 1.0181196 0.76156837 1.1511004
1.5324715 0.8687925 1.9439383 -1.4609053 0.5219485 -0.87995446 2.4766026 -0.23318495
1.8059145 1.401644 1.3048996 -0.55670244 0.19547963 -0.3356832 -1.8079067 -0.17415465
1.2403753 -0.0016609593 1.4941462 -0.89989674 1.6475966 0.011607623 0.7450635 1.8932985
-0.23846821 0.031124648 -1.4715502 -1.2928587 -0.04855861 0.20180842 0.042732865 -1.6176797
-0.29245192 1.414062 -1.6484618 -0.8575855 -2.7907794 1.9447461 -0.074946485 -1.1742562
0.94881034 0.24795213 -0.78462565 -0.36926034 1.0597838 0.62505436 1.4805965 -2.2101617
-0.13159545 -0.8858243 -0.20356143 -0.41082996 1.1582612 1.1129733 -0.72086376 -0.56952864
-0.18843815 0.2886448 -0.9124889 -0.79273146 0.632838 0.008263636 1.4953977 0.49087906
0.0031314038 -0.56054395 1.8460767 1.3954315 0.08844064 -0.6695995 0.40679184 -0.7894076
1.2791253 1.6380681 -1.150425 -2.2987216 0.035913732 1.4044328 -1.4652919 2.1162798
-1.4902276 -0.29865327 0.011336891 -0.62275535 1.2401094 0.03407718 2.8201656 1.9516083
-0.8912382 -0.32662874 -0.33861116 -0.39295986 -1.5328085 0.6401568 -0.38968712 1.5273582
-1.629712 -0.08003289 -0.004362107 -0.5949647 -1.0482495 0.4496575 1.2754519 -0.9647404
-0.28236097 0.6117626 2.0798721 -0.59989244 -2.360757 0.93199384 -0.07687332 -0.514437
1.4174643 0.44426793 -0.3740289 -1.3914974 -0.2967712 -1.5545735 -0.07226517 -1.6941948
2.0041828 -2.9639714 -0.5890614 -0.34064904 -1.0593325 0.026636975 1.6116016 -0.2897568
-1.7595568 0.57558495 0.3824768 0.18258907 -1.0587476 0.8507285 -0.5324725 -0.33585688
-0.031870533 -1.6007284 0.06912216 -1.9732597 0.22143881 -0.23169073 0.32846668 -0.74764866
0.152302 -0.2716553 -0.4750358 -1.3581907 -0.3634834 -0.26790565 0.9831269 1.219863
-4.0738544 0.8751394 1.8315737 0.34339425 -0.2108674 0.7875365 1.0523744 2.1040473
0.39350083 -0.10665302 0.3005861 -0.84667003 0.67739356 -0.44479176 0.35905546 -0.92761403
0.026070453 0.30139256 -0.48386696 0.10024436 0.36526963 -0.2015307 0.38524348 -0.2570732
-0.46144253 0.52415097 1.6495054 -0.79999214 3.0659814 1.2903643 0.2507948 0.6982919
-0.25014067 1.1959851 0.06312482 -0.050224863 1.2901863 0.9657385 0.6430711 -2.2425003
-0.35495955 0.9678151 0.26954457 -0.75685 -2.6269667 -1.1148986 -0.06828063 3.041802
-1.5399365 1.4186292 0.4072256 -0.8970259 -0.75478625 0.9846531 -0.3892966 1.1394725
0.85836226 -0.8800334 -0.88180166 -0.40675586 -1.6925685 -0.5064414 0.050209396 -0.109899595
-1.5089836 0.87885416 0.7255651 -0.13861595 0.54418695 1.1194695 -0.8219951 1.6561351
00000000: cfe0 07bf 7379 22c0 a711 dbbf a0e4 6abf
00000010: 9277 a93e 86e7 b53f 79d4 b03e 072a 503f
00000020: 6be3 373f 782f 153e cb54 9d3f f209 453d
00000030: 6e29 ed3f aa1b 5dbf d108 ed3f 8875 0ac0
00000040: a6c5 9abf ab56 94bf 518f 983e 3cab 0240
00000050: d843 bdbf 2988 693d 56c2 3c3e f745 453f
00000060: 351f e43e 16f6 9b3d 7008 9f3f 5fb4 79bd
00000070: a869 77bf be51 823f 25f6 423f 4257 933f
00000080: 0728 c43f 2f69 5e3f f8d2 f83f f2fe babf
00000090: 6b9e 053f b244 61bf a880 1e40 09c8 6ebe
000000a0: 3528 e73f 1269 b33f f306 a73f 0d84 0ebf
000000b0: d02b 483e abde abbe 7d69 e7bf 9955 32be
000000c0: 9ec4 9e3f 8cb4 d9ba 2f40 bf3f a25f 66bf
000000d0: 72e4 d23f e62d 3e3c 7bbc 3e3f 9b57 f23f
000000e0: 0331 74be 1ef9 fe3c c25b bcbf 657c a5bf
000000f0: 65e5 46bd dea6 4e3e a808 2f3d 2110 cfbf
00000100: 42bc 95be fcff b43f cc00 d3bf b98a 5bbf
00000110: 219c 32c0 71ed f83f 8b7d 99bd 074e 96bf
00000120: 3ce5 723f 2ae7 7d3e 3add 48bf b10f bdbe
00000130: ffa6 873f 9003 203f 3084 bd3f 4a73 0dc0
00000140: f5c0 06be 62c5 62bf 6872 50be 4e58 d2be
00000150: e741 943f e975 8e3f 878a 38bf a1cc 11bf
00000160: eef5 40be 40c9 933e df98 69bf 73f0 4abf
00000170: ac01 223f 3464 073c 3169 bf3f 8054 fb3e
00000180: 3d38 4d3b cf7f 0fbf 3e4c ec3f 809d b23f
00000190: 5e20 b53d df6a 2bbf 0547 d03e 9e16 4abf
000001a0: 61ba a33f 37ac d13f 2041 93bf 411e 13c0
000001b0: 471a 133d 74c4 b33f af8e bbbf 2171 0740
000001c0: c7bf bebf 15e9 98be 5ebe 393c e56c 1fbf
000001d0: e8bb 9e3f 8394 0b3d 987d 3440 4dce f93f
000001e0: 3028 64bf e23b a7be 715e adbe 0932 c9be
000001f0: 1233 c4bf 51e1 233f 1285 c7be 7980 c33f
00000200: 679a d0bf 49e8 a3bd 01f0 8ebb 9b4f 18bf
00000210: 0a2d 86bf 8239 e63e 0242 a33f 3af9 76bf
00000220: 9e91 90be 799c 1c3f a01c 0540 8d92 19bf
00000230: a516 17c0 2697 6e3f c26f 9dbd 25b2 03bf
00000240: 786f b53f 1677 e33e b780 bfbe 961c b2bf
00000250: 65f2 97be 44fc c6bf c3ff 93bd 60db d8bf
00000260: 8844 0040 b5b1 3dc0 bacc 16bf 8d69 aebe
00000270: 3598 87bf c935 da3c f648 ce3f 015b 94be
00000280: 2839 e1bf 8959 133f 00d4 c33e a1f8 3a3e
00000290: 0b85 87bf 58c9 593f 1e50 08bf 6ff5 abbe
000002a0: ad8a 02bd abe4 ccbf eb8f 8d3d c693 fcbf
000002b0: dbc0 623e 5640 6dbe c92c a83e e765 3fbf
000002c0: 0ef5 1b3e 6716 8bbe e437 f3be 31d9 adbf
000002d0: 7f1a babe ee2a 89be 34ae 7b3f 7924 9c3f
000002e0: 045d 82c0 2309 603f 0271 ea3f 5fd1 af3e
000002f0: a0ed 57be fe9b 493f 34b4 863f b6a8 0640
00000300: f178 c93e e66c dabd 6ce6 993e 5ebf 58bf
00000310: aa69 2d3f bfbb e3be 1ed6 b73e 1d78 6dbf
00000320: b491 d53c 2050 9a3e 69bd f7be ea4c cd3d
00000330: 9f04 bb3e 105e 4ebe a23e c53e 199f 83be
00000340: 3242 ecbe c22e 063f fe22 d33f 49cc 4cbf
00000350: 0a39 4440 a82a a53f 2d68 803e 42c3 323f
00000360: 7012 80be 0a16 993f 9647 813d 96b8 4dbd
00000370: d324 a53f a33a 773f 4fa0 243f 2085 0fc0
00000380: 42bd b5be bbc2 773f bf01 8a3e ecc0 41bf
00000390: 3920 28c0 ffb4 8ebf b7d6 8bbd e2ac 4240
000003a0: a41c c5bf a495 b53f e07f d03e 7da3 65bf
000003b0: ac39 41bf 3a12 7c3f e251 c7be 3cda 913f
000003c0: a1bd 5b3f de49 61bf c1bd 61bf 4e42 d0be
000003d0: 16a6 d8bf 25a6 01bf 5ea8 4d3d 0a13 e1bd
000003e0: 6026 c1bf 96fc 603f a2be 393f 57f1 0dbe
000003f0: d64f 0b3f c74a 8f3f 456e 52bf 3cfc d33f

rnn.weight_ih_l0 f4 [32, 128]
0.0542638 -0.20355336 0.10986645 0.2208219 0.11156961 0.058538936 -0.0019529625 0.0036698512
-0.035645373 -0.22562575 0.07393896 -0.23811097 -0.03145839 -0.0021986188 -0.066578366 0.029868972
0.052663557 0.093753695 0.00052709715 -0.21740216 0.15769063 -0.1449107 0.009935366 -0.03381659
0.069105655 -0.07320754 0.253055 -0.032897133 0.13333249 0.26716113 0.103063814 0.2687448
0.016060818 -0.068614304 0.189701 -0.057298653 -0.15979365 -0.078963 0.033145588 0.010698878
0.080897674 -0.1005384 0.12901197 -0.069606304 -0.102092035 -0.1507962 -0.16819929 0.26087174
-0.08950839 0.047109794 0.09450139 -0.15260714 0.12195269 0.21014902 0.13500595 0.18414779
0.021080717 0.25105697 0.17356242 -0.11183761 -0.15128367 -0.18281718 0.020724481 0.04911303
0.057003558 0.2689404 -0.33318952 0.029943671 -0.3459378 0.10383118 0.13446793 0.27058098
-0.11846775 0.099325314 -0.03169445 0.21009445 0.025956046 0.16321856 0.27637476 -0.15665875
-0.059684977 0.120132454 0.034846324 -0.024335856 0.040596787 -0.073042594 -0.27275872 -0.12675388
0.19165626 -0.41283676 0.19524683 0.1727954 0.25205666 0.076886594 0.014277175 -0.10841296
-0.20071739 -0.09894403 -0.093990564 -0.11912699 -0.23093666 0.2247167 0.07777378 -0.11737987
0.47089213 0.20598951 -0.19393851 -0.043075483 -0.017992297 -0.2346834 -0.10046117 -0.01302143
-0.23378083 0.081544444 -0.16565292 0.062226936 -0.20716073 -0.08758196 -0.09263024 -0.16524772
0.1312843 0.06295352 0.025076728 0.017403457 -0.13134496 0.29159954 0.07579994 0.21260305
-0.132005 0.1264324 0.06943627 0.3309811 -0.22411068 0.045913044 -0.029272765 -0.0845471
-0.1437943 0.20315304 -0.06571131 -0.007147264 0.029846726 -0.060071614 -0.021642266 -0.1264978
0.05109422 0.21984991 -0.04131885 -0.28191978 0.03986438 -0.009704043 0.1932994 -0.022140754
0.2552064 0.2406065 0.031173853 0.24686769 -0.041029483 -0.04101641 -0.16966732 -0.12868556
-0.041706573 -0.13154964 -0.0760363 -0.23543271 -0.08974189 0.15619569 -0.14596058 -0.072585925
0.11763549 -0.0011079304 -0.20836419 0.20505187 0.011540121 -0.15555032 0.16103733 -0.29728982
0.117188744 -0.12094903 -0.18852828 0.061631978 -0.1593349 -0.1848792 0.0033953602 -0.30006403
0.15698111 -0.036493603 -0.11597569 0.21841821 0.24300765 -0.25812805 0.19179188 0.04028828
-0.15123197 -0.11989181 0.2160931 -0.003701315 0.21882755 0.15157825 0.1909755 0.14871451
-0.010758877 -0.20145309 -0.20295127 0.22228608 -0.04625074 -0.227292 -0.16640134 0.07748411
0.069506586 -0.18884057 0.18995722 0.011491523 0.012304861 0.22372477 -0.2978825 -0.04837624
-0.37555575 0.06372967 -0.09966184 0.1600499 -0.46628764 -0.2199633 0.29243228 -0.3089617
0.026219128 -0.12755975 0.008547926 -0.0034338126 0.1541618 0.17954227 0.08810994 -0.2727159
0.11303308 -0.03269682 0.12037934 -0.042253368 0.0032470124 0.1990412 -0.15756583 -0.0530706
0.22318648 0.017709818 -0.31179798 -0.29306218 0.10179309 -0.18674412 -0.13197874 0.086530395
-0.13440718 0.14351285 0.24700055 -0.0072060353 0.091717765 0.019545514 -0.08139856 -0.18804622
00000000: b843 5e3d 4b70 50be a901 e13d 231f 623e
00000010: 9c7e e43d 86c6 6f3d 8cfa ffba e381 703b
00000020: e200 12bd 700a 67be 4f6d 973d 5dd3 73be
00000030: 83da 00bd b416 10bb 3d5a 88bd c6af f43c
00000040: beb5 573d f001 c03d e42c 0a3a ac9e 5ebe
00000050: a779 213e 7863 14be f2c7 223c 4483 0abd
00000060: 4487 8d3d d6ed 95bd 6d90 813e 25bf 06bd
00000070: 5088 083e 58c9 883e 1f13 d33d eb98 893e
00000080: fa91 833c a885 8cbd fb40 423e feb1 6abd
00000090: f2a0 23be 5ab7 a1bd abc3 073d 594a 2f3c
000000a0: aead a53d 14e7 cdbd b71b 043e c08d 8ebd
000000b0: a115 d1bd 526a 1abe 6f3c 2cbe fb90 853e
000000c0: 2d50 b7bd 33f6 403d f289 c13d 0c45 1cbe
000000d0: 55c2 f93d 4e31 573e 003f 0a3e 3d91 3c3e
000000e0: 78b1 ac3c 8a8a 803e 59ba 313e 1e0b e5bd
000000f0: 1bea 1abe 6d34 3bbe 63c6 a93c bf2a 493d
00000100: 907c 693d 8eb2 893e d197 aabe 6e4c f53c
00000110: c21e b1be 71a5 d43d f6b1 093e 9789 8a3e
00000120: 389f f2bd 126b cb3d 0ad2 01bd 0023 573e
00000130: c6a1 d43c c422 273e fe80 8d3e 276b 20be
00000140: 3c78 74bd 0108 f63d 05bb 0e3d fd5b c7bc
00000150: d148 263d 5b97 95bd 08a7 8bbe c5cb 01be
00000160: 8a41 443e 575f d3be c9ee 473e 47f1 303e
00000170: 920d 813e b876 9d3d d0ea 693c 9d07 debd
00000180: dc88 4dbe 2ba3 cabd 207e c0bd daf8 f3bd
00000190: a97a 6cbe 221c 663e dc47 9f3d db64 f0bd
000001a0: c618 f13e eaee 523e d197 46be eb6f 30bd
000001b0: 9564 93bc d850 70be 96be cdbd d657 55bc
000001c0: 3e64 6fbe c600 a73d eba0 29be ace1 7e3d
000001d0: f121 54be 2c5e b3bd ecb4 bdbd b336 29be
000001e0: 646f 063e c6ed 803d b66d cd3c b291 8e3c
000001f0: 4b7f 06be 894c 953e 003d 9b3d 9db4 593e
00000200: 522c 07be 7f77 013e 9a34 8e3d 5b76 a93e
00000210: 457d 65be 510f 3c3d 70cd efbc 0827 adbd
00000220: d03e 13be 5a07 503e a793 86bd 9933 eabb
00000230: 1f81 f43c a70d 76bd 1f4b b1bc a488 01be
00000240: 2c48 513d 5620 613e f43d 29bd ca57 90be
00000250: d548 233d b5fd 1ebc 47f0 453e 8760 b5bc
00000260: 6aaa 823e 8d61 763e 4f60 ff3c e2ca 7c3e
00000270: 880e 28bd d300 28bd 45bd 2dbe 26c6 03be
00000280: 83d4 2abd f3b4 06be ebb8 9bbd 4615 71be
00000290: 99ca b7bd c3f1 1f3e b176 15be eea7 94bd
000002a0: e0ea f03d fa37 91ba 6c5d 55be 1ef9 513e
000002b0: c712 3d3c 9548 1fbe f8e6 243e 5f36 98be
000002c0: a700 f03d 20b4 f7bd 8f0d 41be d071 7c3d
000002d0: b028 23be f950 3dbe b184 5e3b fea1 99be
000002e0: a8bf 203e 517a 15bd aa84 edbd 06a9 5f3e
000002f0: ffd6 783e 5c29 84be 1765 443e 5305 253d
00000300: 8edc 1abe d689 f5bd 8247 5d3e c391 72bb
00000310: 5414 603e 5437 1b3e 158f 433e 9e48 183e
00000320: 0046 30bc b849 4ebe 75d2 4fbe f69e 633e
00000330: 6a71 3dbd 3cbf 68be 1d65 2abe fdaf 9e3d
00000340: 7859 8e3d 6c5f 41be 2584 423e f146 3c3c
00000350: 549a 493c 1b18 653e 0e84 98be 2a26 46bd
00000360: d848 c0be b484 823d 821b ccbd 1fe4 233e
00000370: 41bd eebe 0f3e 61be afb9 953e 3a30 9ebe
00000380: 7fc9 d63c 069f 02be 9a0c 0c3c d109 61bb
00000390: 97dc 1d3e eed9 373e fc72 b43d 6ba1 8bbe
000003a0: e37d e73d 1aed 05bd 7289 f63d de11 2dbd
000003b0: d4cb 543b 75d1 4b3e f058 21be 8f60 59bd
000003c0: ff8a 643e 2e14 913c fca3 9fbe 3f0c 96be
000003d0: e578 d03d da39 3fbe 6f25 07be d936 b13d
000003e0: 09a2 09be 08f5 123e b6ed 7c3e 9b20 ecbb
000003f0: 86d6 bb3d ea1d a03c 4ab4 a6bd 308f 40be

rnn.weight_hh_l0 f4 [32, 32]
-0.08006277 -0.35454398 -0.09035398 0.019714234 -0.92562073 -0.122488216 -0.2233321 -0.25311267
-0.13760175 -0.5107699 -0.50701815 -0.4408524 -0.16374199 0.21198401 -0.3732317 0.30676088
-0.11083638 -0.511904 -0.09143023 0.20182638 -0.07645018 0.24804294 0.26322404 -0.6112568
-0.3280514 0.2853157 0.5159695 0.3397234 0.10094811 0.42468613 -0.6691876 0.040991064
-0.25561973 0.29156575 0.5080395 -0.775301 0.12933089 0.27391917 0.060530234 0.39476404
-0.097158834 0.13701585 0.35088935 0.68925107 0.4988047 0.15922834 -0.36963016 -0.6793454
-0.20659342 -0.15691581 -0.32278916 0.17130892 0.17698486 0.44388142 -0.51246506 0.12404711
0.26724327 0.21955968 -0.5412406 -0.16613166 -0.12235265 -0.55454504 0.02146106 0.21875027
-0.40221396 -0.19556107 -0.15155485 -0.023737615 0.067824274 0.5171823 0.2853651 -0.23654725
-0.034297958 0.23220669 0.10484816 -0.122324444 -0.47670674 0.44865987 0.48115787 0.12565237
0.39144114 -0.059601963 0.16171433 -0.1154968 0.037532628 -0.14848484 -0.17939675 0.5667718
0.055200707 -0.58968043 0.18022256 -0.7528281 -0.3382571 0.40397325 0.7725965 0.20902677
0.15220018 -0.33513105 0.0533591 -0.29354078 -0.6000723 0.32774556 0.016602254 -0.55331826
0.0067767682 -0.57564425 -0.7723117 0.7989679 -0.55021644 -0.26654857 0.60421264 0.31665567
-0.22886501 -0.14862238 0.04902073 0.0036581338 -0.33011553 0.180066 0.4595154 -0.44270846
-0.33865142 -0.27363417 0.29050353 0.4196755 -0.59978735 0.2952149 0.20247777 0.44527408
-0.9081007 0.42574254 0.008930477 -0.056175925 -0.17447634 -0.03058924 -0.7318027 0.10660646
0.011432388 0.25072384 0.33029002 0.18237883 0.8592537 -0.06649688 -0.5061291 -0.4786933
-0.54540485 0.25068048 0.30393115 0.03708888 0.015683172 -0.32162872 -0.24908295 0.13516589
0.46136558 0.011837462 -0.15177101 -0.19609132 0.35011315 -0.8695331 0.03934842 0.11918233
0.43070132 -0.27442905 -0.051467124 0.0018578335 -0.18247221 -0.40230224 -0.28437972 0.29308444
-0.09880506 -0.09988724 0.21961373 -0.2293923 0.46668115 -0.20209812 -0.4899208 -0.35516772
-0.23621534 0.11606626 -0.22724639 0.3461055 -0.38282874 0.51900834 0.26184598 0.19435309
-0.2891735 0.45036867 0.17406254 0.74922144 0.28589436 -0.581408 -0.72678155 -0.4008007
-0.041657105 -0.31145912 0.15508243 0.1790747 -0.44108313 0.20656395 0.11875056 -0.7529422
-0.36452135 0.023485882 -0.5558777 -0.61793333 0.111841835 0.14367047 0.12357829 -0.1079548
0.13788256 -0.61561006 -0.10547469 0.095324665 0.07929361 -0.5704054 0.10600106 0.79911035
0.24965633 -0.294272 0.45470384 -0.50531745 0.5671946 -0.06462136 0.5658366 -0.44868135
-0.15040557 0.2947703 0.024021067 -0.3324555 0.026786989 0.7699281 -0.14847106 0.69380057
0.3700356 -0.57416815 0.6341859 0.48256513 -0.3006868 0.1507332 0.09468039 0.025817355
0.6261395 0.3748061 -0.085353106 0.25341326 -0.14306456 0.19014071 -0.24100219 -0.48844165
0.3276013 0.30233085 -0.52458465 -0.22858068 -0.36190563 -0.004851958 0.13324673 0.25920394
00000000: f3f7 a3bd ca86 b5be 820b b9bd bf7f a13c
00000010: 7bf5 6cbf 1adb fabd 2cb1 64be fc97 81be
00000020: 79e7 0cbe d1c1 02bf f1cb 01bf 68b7 e1be
00000030: fbab 27be 5612 593e 3a18 bfbe c30f 9d3e
00000040: 2ffe e2bd 240c 03bf c63f bbbd 93ab 4e3e
00000050: e991 9cbd f8fe 7d3e 4dc5 863e 537b 1cbf
00000060: 5af6 a7be e614 923e 9416 043f 3af0 ad3e
00000070: e2bd ce3d 7670 d93e e14f 2bbf 3fe6 273d
00000080: 97e0 82be 1b48 953e e00e 023f 207a 46bf
00000090: 516f 043e 223f 8c3e 8dee 773d 831e ca3e
000000a0: 36fb c6bd e24d 0c3e c5a7 b33e c272 303f
000000b0: 5463 ff3e c10c 233e 2a40 bdbe 95e9 2dbf
000000c0: 3a8d 53be 8aae 20be 9f44 a5be 9b6b 2f3e
000000d0: 853b 353e 6d44 e33e e930 03bf 690c fe3d
000000e0: 1cd4 883e 41d4 603e be8e 0abf 6b1e 2abe
000000f0: 0794 fabd aaf6 0dbf 1bcf af3c 1200 603e
00000100: fdee cdbe 2941 48be 3231 1bbe 6375 c2bc
00000110: 74e7 8a3d 0f66 043f 601b 923e 7139 72be
00000120: 047c 0cbd 97c7 6d3e a2ba d63d 3d85 fabd
00000130: e812 f4be bfb6 e53e 535a f63e 04ab 003e
00000140: f96a c83e 3021 74bd 7198 253e 9689 ecbd
00000150: d0bb 193d 690c 18be c8b3 37be f517 113f
00000160: 231a 623d 4cf5 16bf 438c 383e 58b9 40bf
00000170: 0930 adbe 95d5 ce3e e2c8 453f 1d0b 563e
00000180: 5dda 1b3e 4c96 abbe 128f 5a3d fa4a 96be
00000190: 579e 19bf 44ce a73e 7301 883c 44a6 0dbf
000001a0: a70f de3b 6c5d 13bf 38b6 45bf 2989 4c3f
000001b0: fcda 0cbf 0e79 88be aead 1a3f b120 a23e
000001c0: 975b 6abe 7730 18be f6c9 483d 4dbd 6f3b
000001d0: e704 a9be 3963 383e 9a45 eb3e afaa e2be
000001e0: b863 adbe c719 8cbe e1bc 943e b5df d63e
000001f0: aa8b 19bf 6826 973e 5556 4f3e f7fa e33e
00000200: 4a79 68bf edfa d93e 2351 123c ba18 66bd
00000210: eda9 32be 4996 fabc 6c57 3bbf 7d54 da3d
00000220: e94e 3b3c e05e 803e c61b a93e 84c1 3a3e
00000230: 0df8 5b3f 842f 88bd ad91 01bf 4a17 f5be
00000240: a79f 0bbf 3159 803e dd9c 9b3e 82ea 173d
00000250: ff79 803c 85ac a4be 9a0f 7fbe ed68 0a3e
00000260: 1c38 ec3e eaf1 413c dc69 1bbe 2acc 48be
00000270: 0842 b33e b999 5ebf cf2b 213d de15 f43d
00000280: e284 dc3e f781 8cbe 31cf 52bd 8c82 f33a
00000290: ffd9 3abe 8ffa cdbe 389a 91be 2a0f 963e
000002a0: 4f5a cabd ae91 ccbd 6ce2 603e d1e5 6abe
000002b0: d5f0 ee3e cff2 4ebe e6d6 fabe 8bd8 b5be
000002c0: 6fe2 71be 26b4 ed3d 47b3 68be bd34 b13e
000002d0: 2102 c4be bbdd 043f ad10 863e 7f04 473e
000002e0: 8d0e 94be b996 e63e 733d 323e facc 3f3f
000002f0: bf60 923e 28d7 14bf 5b0e 3abf c035 cdbe
00000300: a4a0 2abd 9277 9fbe eecd 1e3e 5c5f 373e
00000310: a6d5 e1be 8085 533e 7e33 f33d d2c0 40bf
00000320: 8ba2 babe 7765 c03c 004e 0ebf e130 1ebf
00000330: 550d e53d 5a1e 133e 9d16 fd3d 6817 ddbd
00000340: 1631 0d3e 9f98 1dbf 1d03 d8bd 9439 c33d
00000350: b064 a23d 1706 12bf 1517 d93d 7f92 4c3f
00000360: e9a5 7f3e d2aa 96be f1ce e83e 7c5c 01bf
00000370: aa33 113f 3458 84bd abda 103f 90b9 e5be
00000380: eb03 1abe 22ec 963e d4c7 c43c 9b37 aabe
00000390: 6370 db3c 021a 453f cc08 18be ea9c 313f
000003a0: 4e75 bd3e affc 12bf 025a 223f c712 f73e
000003b0: 9ff3 99be ce59 1a3e cbe7 c13d eb7e d33c
000003c0: ae4a 203f 96e6 bf3e 9ccd aebd 62bf 813e
000003d0: 847f 12be 3fb4 423e 47c9 76be 0615 fabe
000003e0: 5cbb a73e 1ccb 9a3e 2e4b 06bf 0e11 6abe
000003f0: b24b b9be 2cfd 9ebb d571 083e 61b6 843e

rnn.bias_ih_l0 f4 [32]
0.05491787 0.007228765 -0.25242218 -0.052203804 0.25164524 0.06469501 -0.18949352 -0.10634434
0.07745839 0.07937652 0.07919135 -0.04231135 0.3433253 -0.029451862 -0.13440254 0.09994417
0.010890468 0.10405172 0.026095657 0.02969204 -0.248813 -0.25435925 0.15184389 0.055826835
0.06270865 0.21713749 0.06626047 -0.045904413 0.33295566 -0.16396822 -0.22558492 0.1862276
00000000: 8ff1 603d 47df ec3b 7b3d 81be a8d3 55bd
00000010: a5d7 803e d17e 843d 970a 42be 10cb d9bd
00000020: 81a2 9e3d 2890 a23d 132f a23d ab4e 2dbd
00000030: 55c8 af3e 0845 f1bc d2a0 09be 87af cc3d
00000040: ef6d 323c 1119 d53d 8fc6 d53c b93c f33c
00000050: d6c8 7ebe 603b 82be f77c 1b3e aeaa 643d
00000060: 656d 803d 4a59 5e3e 92b3 873d 4406 3cbd
00000070: 2a79 aa3e 49e7 27be bcff 66be 73b2 3e3e

rnn.bias_hh_l0 f4 [32]
0.027375152 0.037515085 -0.1233763 0.08621116 0.012982055 0.2323431 -0.084770255 0.08991035
0.19122949 0.046029635 -0.13282773 -0.07304762 0.10942868 0.051358294 0.073766805 0.116489746
0.27574947 0.18103084 0.20975858 0.056542855 -0.17912817 0.029500077 0.20367919 0.17194913
-0.081832156 0.22926272 0.0063182437 0.04892343 0.40811938 -0.26516083 -0.23403864 0.15940149
00000000: db41 e03c 6ba9 193d b7ac fcbd 7a8f b03d
00000010: afb2 543c 59eb 6d3e 079c adbd eb22 b83d
00000020: aad1 433e 9289 3c3d fe03 08be fe99 95bd
00000030: 251c e03d 135d 523d 0d13 973d 2d92 ee3d
00000040: 092f 8d3e 2660 393e f4ca 563e 7b99 673d
00000050: 606d 37be 25aa f13c 4791 503e 6f13 303e
00000060: 9e97 a7bd d9c3 6a3e 4509 cf3b ef63 483d
00000070: 06f5 d03e 29c3 87be d3a7 6fbe 253a 233e

fc1.weight f4 [12, 32]
0.74752855 -0.5584272 -0.6345336 0.54800385 0.31713402 0.17436904 0.0018617444 -0.104451284
0.6483495 0.19858888 -0.7026109 -0.42123118 0.5116824 -0.8221121 -0.40360796 0.2521816
0.95658475 0.63597435 0.5072523 -0.79324555 -0.71325433 0.51558137 0.40257052 -0.2602511
-0.13839053 0.39732185 -0.421596 0.45167625 0.26683137 -0.5705187 -0.31826225 0.5283594
1.8135396 1.2869892 -0.38054666 -1.3082225 0.5352864 1.7516062 -1.2818084 -0.8998534
-0.63174105 -1.2828555 0.75895214 0.84381 0.07683864 3.7671368 1.8630905 0.12068988
-0.5020991 -1.5422634 1.0352508 3.0701766 1.8138047 -2.2996154 0.7732678 0.89905435
2.1909924 -0.84379524 2.0710917 -0.4123511 1.7477006 -0.22517918 -0.4159694 -0.43032905
-0.14737032 1.2487102 1.6580614 1.0968714 -2.036555 -1.1416878 -0.45269716 2.0464714
0.5839291 -0.4095368 1.128245 -0.8035734 -1.2258896 2.8674033 0.98377323 0.19238111
0.6774828 -1.3389622 -2.3778248 2.475037 0.5669635 -1.84923 -0.78988945 -0.52665114
-1.3128037 -0.36736247 -0.7282573 -0.8396473 -0.44639045 1.4601749 1.4866354 -0.5286467
-0.42220518 2.2235937 0.431661 0.530351 -0.6240999 0.5744419 0.8558335 0.7697977
0.17110251 -0.3493996 -0.86401373 1.9229608 0.9890669 -0.15399823 -0.06544775 0.77250135
-1.2426754 -0.08799053 -2.6677237 1.7782849 -0.026221689 -1.8195221 0.014714557 0.0313624
0.782108 -0.1644133 2.2717423 -1.8875091 -0.9665642 1.5514516 0.7552244 -1.6961986
0.77542025 0.21113537 -0.4296006 -1.82843 0.29354358 0.25413424 1.64693 1.5593466
-0.11443089 -0.26805037 1.0588578 -0.5068932 0.99090225 0.039682213 1.3046352 0.06023396
-2.5344293 0.035257943 -1.5187682 1.3819602 -0.45957735 -1.405732 -2.8232298 0.6555908
0.28221017 -2.1758964 1.8502111 -0.28898352 -0.18042785 -0.537153 0.51391226 -0.4773032
-0.48566014 0.050323248 0.30427966 -0.43709674 -0.03060413 -0.13776726 0.53056455 0.1944211
-0.6505777 -0.053475477 -0.1549142 -0.57518893 -0.1337381 1.3038921 -0.88785845 -0.70441794
0.020350998 0.07358783 -0.28591955 0.22610205 -0.588859 0.14586739 -0.5240373 0.74367166
-0.3980385 0.85400647 1.1554712 -0.01954977 -0.41976428 0.13532458 0.136821 -0.5982287
-0.20389448 -0.115618646 0.56181616 -0.51577735 -0.9161687 -0.24451275 0.37647012 -0.097296216
-0.4630853 0.3066837 -0.44995347 0.33262676 -0.2613222 -0.2792563 0.3741433 -0.65801984
-0.029818114 -0.36349332 -0.08437768 0.036910433 0.39529443 0.2989174 0.2573362 0.40084392
-0.48594743 -1.0865061 -0.34636384 -0.17829238 -0.17016806 0.35305852 0.06397388 -0.56022507
-0.24835487 0.026385427 0.6034864 1.2206872 -0.7030511 -0.515882 -0.48701572 -0.09072574
-1.0220733 0.66026914 -0.33007446 0.84278816 -0.6322288 0.012898411 -0.764712 0.9927623
-0.20705639 -0.62209916 0.034118753 0.105391085 0.9004203 0.07294913 -0.49131235 -0.52293146
-0.7166929 -0.6479942 -0.02020129 -0.019597234 -0.6101505 -0.119211964 0.022794016 -0.32090968
00000000: 085e 3f3f 16f5 0ebf cb70 22bf fb49 0c3f
00000010: 645f a23e cc8d 323e c705 f43a 8eea d5bd
00000020: 3cfa 253f e25a 4b3e 4fde 33bf 9dab d7be
00000030: 9efd 023f f075 52bf b4a5 cebe f21d 813e
00000040: bde2 743f 37cf 223f 49db 013f 2412 4bbf
00000050: d697 36bf 24fd 033f b91d ce3e a23f 85be
00000060: 3fb6 0dbe c56d cb3e 6edb d7be 1c42 e73e
00000070: 1f9e 883e 830d 12bf 45f3 a2be 9042 073f
00000080: 1122 e83f 10bc a43f 03d7 c2be d673 a7bf
00000090: 8808 093f a234 e03f 4c12 a4bf cb5c 66bf
000000a0: c8b9 21bf 9c34 a4bf b04a 423f ef03 583f
000000b0: 945d 9d3d c518 7140 c079 ee3f 412c f73d
000000c0: 9189 00bf e368 c5bf 1983 843f c67d 4440
000000d0: c12a e83f e62c 13c0 e1f4 453f 6d28 663f
000000e0: 3839 0c40 f702 58bf c48c 0440 af1f d3be
000000f0: a7b4 df3f 5f95 66be f1f9 d4be 1754 dcbe
00000100: 3fe8 16be bcd5 9f3f 5b3b d43f 4866 8c3f
00000110: eb56 02c0 d322 92bf ecc7 e7be 63f9 0240
00000120: 617c 153f cfae d1be 556a 903f fdb6 4dbf
00000130: f3e9 9cbf 8983 3740 90d8 7b3f 8eff 443e
00000140: 836f 2d3f 1d63 abbf 482e 18c0 0267 1e40
00000150: 8524 113f 92b3 ecbf 3236 4abf 9cd2 06bf
00000160: f409 a8bf ef16 bcbe 126f 3abf 20f3 56bf
00000170: 4a8d e4be 03e7 ba3f 124a be3f 6455 07bf
00000180: 472b d8be 5c4f 0e40 ac02 dd3e 15c5 073f
00000190: 03c5 1fbf a00e 133f e717 5b3f 7611 453f
000001a0: 7f35 2f3e 81e4 b2be 0130 5dbf 9423 f63f
000001b0: 7d33 7d3f b6b1 1dbe 7809 86bd a6c2 453f
000001c0: fd0f 9fbf 6134 b4bd fcbb 2ac0 d79e e33f
000001d0: dece d6bc 1ae6 e8bf 5315 713c dc75 003d
000001e0: 3b38 483f f65b 28be 3a64 1140 e699 f1bf
000001f0: c070 77bf f795 c63f 6356 413f 091d d9bf
00000200: f181 463f df33 583e 9cf4 dbbe ff09 eabf
00000210: 584b 963e e21d 823e 9ace d23f ab98 c73f
00000220: be5a eabd e63d 89be a788 873f c1c3 01bf
00000230: c5ab 7d3f d189 223d 49fe a63f e3b7 763d
00000240: 1734 22c0 a26a 103d ff66 c2bf 12e4 b03f
00000250: b94d ebbe 07ef b3bf ccaf 34c0 ccd4 273f
00000260: da7d 903e e341 0bc0 b8d3 ec3f a6f5 93be
00000270: 14c2 38be dc82 09bf c18f 033f 1661 f4be
00000280: 72a8 f8be c01f 4e3d 8bca 9b3e 25cb dfbe
00000290: 83b5 fabc dc12 0dbe 14d3 073f 5316 473e
000002a0: 438c 26bf 1a09 5bbd d4a1 1ebe 953f 13bf
000002b0: a4f2 08be f0e5 a63f b14a 63bf bc54 34bf
000002c0: 23b7 a63c 37b5 963d 0c64 92be 4c87 673e
000002d0: 77bf 16bf 435e 153e 4f27 06bf 4461 3e3f
000002e0: b4cb cbbe 2ba0 5a3f 7be6 933f d726 a0bc
000002f0: 58eb d6be 8792 0a3e ce1a 0c3e 8425 19bf
00000300: b7c9 50be 78c9 ecbd 2fd3 0f3f fc09 04bf
00000310: 088a 6abf 8d61 7abe b1c0 c03e 3d43 c7bd
00000320: 8419 edbe a505 9d3e 4d60 e6be 0e4e aa3e
00000330: 06cc 85be affa 8ebe b68f bf3e fd73 28bf
00000340: 1e45 f4bc cc1b babe 35ce acbd 652f 173d
00000350: 0864 ca3e b40b 993e 92c1 833e 6a3b cd3e
00000360: 1ace f8be a212 8bbf 9a56 b1be 4792 36be
00000370: 8940 2ebe 16c4 b43e bd04 833d e96a 0fbf
00000380: bd50 7ebe 4026 d83c 167e 1a3f 7a3f 9c3f
00000390: 28fb 33bf d810 04bf 205a f9be 6bce b9bd
000003a0: 4cd3 82bf 6607 293f 85ff a8be f7c0 573f
000003b0: bfd9 21bf db53 533c 2ac4 43bf ac25 7e3f
000003c0: 9706 54be e441 1fbf 1bc0 0b3d 48d7 d73d
000003d0: f281 663f 5a66 953d 4b8d fbbe d6de 05bf
000003e0: 3079 37bf f3e2 25bf 2d7d a5bc 618a a0bc
000003f0: d332 1cbf 6725 f4bd 84ba ba3c 464e a4be

fc1.bias f4 [12]
0.32123742 0.5118846 -1.2647969 -0.8874851 -1.1051137 -0.10436955 -0.07956706 -0.40730774
0.048874345 -0.050683115 -0.059948 -0.64449376
00000000: 3b79 a43e df0a 033f dde4 a1bf 3932 63bf
00000010: 5e74 8dbf b4bf d5bd 0ef4 a2bd a48a d0be
00000020: 7730 483d 1999 4fbd 098c 75bd 8bfd 24bf
