src/main/python/saved_models/java_1_28_RNNClassifier1_128embs_109id_16hd_1hl_Falsebid_1.pt (torch, 67423 bytes, 7 tensors)

word_embeddings.weight f4 [109, 128]
00000000: f00d 583f 3764 02bf 2cd6 d6bd 940d c1bf
00000010: 5d96 53bf cfb8 78be 3664 f23f 5ea6 b23e
00000020: 0f00 1d3f 8a7c 6e3e a0a6 89bd 7a95 0540
00000030: e36a fe3f 5546 9b3f 44f0 643f dcee 10bd
00000040: 7193 b23f 7ff5 a03f 9d84 4ebf 5e19 83bf
00000050: 65fa 8c3f a2de 10bf 785f a23f b451 473f
00000060: 3b76 81bf ccba 5e3c 6dbb 8a3f 0723 ee3e
00000070: 8df0 02c0 7ee3 e63f c774 e8bd cb32 f73e
00000080: bb21 88be 2ae4 023f ad35 adbf 1a32 39bf
00000090: a0d0 323f bf78 babf 5a5c 2f3f e6c4 96bf
000000a0: 16c3 de3e 7f4a 233f e295 0c3f 4c75 2fbf
000000b0: 8a58 e6be f349 173e fbec 8bbe f61a 2a3f
000000c0: 7374 353f a153 3f3f 6ea9 8bbf 52ef 463f
000000d0: 492f f9be b65b 993d 10bf f3bd f7a8 a8be
000000e0: c077 393e 39aa 6ebf 40a0 59be 5fc0 16bf
000000f0: 66c7 bdbf f264 2b3f 2be5 11be 154b f53f
00000100: 046c 5fbf d8c0 8f3f 5e5c afbf f392 c9bf
00000110: 7cb0 8f3e d2df 3b3f aa57 863c e1e7 a5bf
00000120: b2b9 81bf b0b0 093f 3bb2 1cc0 c5ac 943f
00000130: c805 803e 0bec aabe b211 93bf 940a b23f
00000140: 0e91 02c0 9ee9 4d3f b105 73bf eac9 9bbf
00000150: 6a02 a9bf ce81 0a3f 46b2 5fbf 2053 893f
00000160: 6407 4bbf 0478 71be a25c 923f c5ae c7bf
00000170: 3d11 a13f 9c75 c13f 9ebc 963f ab74 b2bf
00000180: 5d33 dfbc aeec c8bf 3162 48be 9706 56bf
00000190: edb7 52bf b455 b7bf ae47 f93f 1d89 9ebf
000001a0: 9b79 3dbf df8f 56be ea5d c8bf 07d6 35bf
000001b0: b642 ec3e e945 14bf c488 423f b3b3 de3f
000001c0: 4984 66bf d706 bc3e 3da0 1dbf 1995 173f
000001d0: 136e 8fbf 9aea 4fbe bd4d ddbe db25 67bf
000001e0: 7aa0 49c0 8c49 e93e db3b a5bf b617 c43d
000001f0: 1c2f 5b3e e1a2 8abd ebd5 883d 6a5b 3ebe
00000200: 8a29 683d 2869 b53f 60ae 50be 1a5d fc3f
00000210: 2ce4 c33f 7ec8 45bf 9e8e 5dbf d22b ecbe
00000220: 12ca e7bf 1e61 ddbc 3103 c2be 83d8 443f
00000230: 947a 27be 637b 0440 1186 d1be 5529 cabe
00000240: 8e28 afbf 8e6e 773f fb45 9ebf 881e 2cbf
00000250: 6162 3e3e 5f70 223f f6d6 a93e fa1e a03d
00000260: dca4 9cbe 123a 893f 6e1f 033e a2fd 84bf
00000270: 29d0 9bbf 218d 16bf 4694 91be ce46 febf
00000280: 4341 203f 232c 8c3f 73fc 95bf d398 1e3f
00000290: da68 4abf eb1c 4abf d4fc 433e 5a5c 153f
000002a0: 0896 a43f d04b f4bd 85a1 a2bf e8dd 4ebf
000002b0: e2e6 613e 0b52 163e cdbe 94bf e1f1 88be
000002c0: 398c dc3f 315e be3e c28b c1be 202e 4a3f
000002d0: 9fd8 223f cf93 1d3f 13e2 9dbf 6ba7 babf
000002e0: 3a2d bd3d 443f 533f 7930 563f 7f1b 023f
000002f0: 94c9 ed3f 0763 a83f 8f79 a7be 0a05 6fbe
00000300: c653 5e3e 591e b8be 8344 1bbe f489 b03f
00000310: 12fc 883f 90e2 23bf 6f7c 19c0 e2e2 69bf
00000320: 47d9 3d3e bcd3 0e3f e5b5 c73f 9702 c5bf
00000330: 563a c4bf 9a85 3e3f 9b62 26c0 d3d3 0ebf
00000340: c6d9 803f 84f6 6a3f 2fce a4bf a6d5 593f
00000350: 28ce 8e3e 8364 82bd ec7f 7b3f 41f0 c8bc
00000360: 0ec5 bdbf 9fc2 3b3f 2f60 213f 6977 5ebe
00000370: 7bc9 2e3f 264d 403f 9ad2 ef3f 60af 40bf
00000380: 3206 853c 201b 313f 46c0 a2bf 9352 1f40
00000390: 0669 183d 2c7c 26bd 4e3a 2f3f 9ee3 fcbe
000003a0: 8869 e63e 21ed d4bd fbe3 923f 08d7 53bf
000003b0: 74c3 a9be a792 c13f 3bc0 7b3f 7d70 48bf
000003c0: 3e6f ab3e 237f 2e3f faa0 7abf 4937 1a3f
000003d0: 5976 8f3f 13e0 fcbf 3ba8 51be 00fe c0bd
000003e0: 0670 6b3f 792d f2bf 8519 c6be 469d 13be
000003f0: 2fa8 553f f9c3 343f f95d ce3d 5e5b bdbe
0.84396267 -0.50934166 -0.10490069 -1.5082269 -0.8265131 -0.24289249 1.8936832 0.34892553
0.61328214 0.23289695 -0.06721234 2.0872483 1.9876369 1.2130839 0.89429116 -0.035384044
1.3951246 1.257492 -0.806711 -1.0242116 1.1013914 -0.5658971 1.2685385 0.77859044
-1.0114206 0.0135943405 1.0838448 0.465111 -2.045932 1.8038175 -0.113503985 0.4828094
-0.26588234 0.511294 -1.3532006 -0.72342074 0.69849586 -1.4568099 0.6850029 -1.1778839
0.43508214 0.63785547 0.54916203 -0.68538356 -0.44989425 0.14774303 -0.2732924 0.6644739
0.7088081 0.7473698 -1.0911081 0.77708924 -0.48668888 0.074881956 -0.11901677 -0.3294141
0.18112087 -0.9322849 -0.21252537 -0.58887285 -1.4826477 0.66950905 -0.14247577 1.9163538
-0.87274194 1.1230726 -1.3700063 -1.574797 0.28064334 0.733884 0.016399223 -1.2961389
-1.0134795 0.5378523 -2.4483783 1.1615225 0.2500441 -0.33383211 -1.1489775 1.3909478
-2.0401034 0.80434597 -0.9493056 -1.2170994 -1.3203862 0.54104316 -0.873814 1.0728493
-0.7930815 -0.23580939 1.1434519 -1.560021 1.2583386 1.5114017 1.1776311 -1.3941854
-0.027246172 -1.5697229 -0.19568707 -0.83603805 -0.823119 -1.432303 1.9475 -1.2385594
-0.7401368 -0.2095332 -1.565366 -0.71029705 0.46144646 -0.57919174 0.7598994 1.739859
-0.900456 0.36723968 -0.6157263 0.5921188 -1.1205467 -0.20304337 -0.43223372 -0.9029214
-3.1504197 0.45563924 -1.2908891 0.09574835 0.2140469 -0.06769348 0.066814266 -0.18589559
0.05668024 1.4172716 -0.20379019 1.9715912 1.5304008 -0.7725905 -0.8654574 -0.46127182
-1.8108542 -0.027023848 -0.3789306 0.7689287 -0.16355354 2.070031 -0.40922597 -0.3948466
-1.3684251 0.9665307 -1.2365106 -0.67234087 0.18592216 0.63452715 0.33171815 0.07818408
-0.30594528 1.0720847 0.12804958 -1.0389903 -1.21729 -0.58809096 -0.28433436 -1.9865358
0.6259958 1.095097 -1.1717666 0.6195194 -0.7906624 -0.78950375 0.19139415 0.5834404
1.2858286 -0.119285226 -1.2705542 -0.8080735 0.22060731 0.14679734 -1.1620728 -0.2674704
1.7230293 0.37181237 -0.3780194 0.7897663 0.6361179 0.61553663 -1.2334617 -1.4582342
0.09237142 0.8251841 0.83667713 0.50823206 1.8577142 1.3155221 -0.3270993 -0.23341766
0.21711645 -0.35960653 -0.15162854 1.37921 1.0701926 -0.6401758 -2.3982198 -0.9136182
0.18539916 0.5579183 1.5602385 -1.5391415 -1.5330303 0.7442261 -2.5997684 -0.5579197
1.0066459 0.91782403 -1.2875422 0.85091627 0.2789166 -0.06366827 0.9824207 -0.024528624
-1.4825761 0.73343843 0.6303739 -0.21725239 0.68276185 0.7511772 1.8736145 -0.752676
0.016238306 0.69182014 -1.2714927 2.489415 0.037209533 -0.040645763 0.6844834 -0.49392408
0.4500239 -0.10396791 1.1475824 -0.82749987 -0.3315693 1.512288 0.98340195 -0.78296643
0.3348331 0.68162745 -0.9790188 0.6024061 1.1207992 -1.9755882 -0.20474331 -0.09423447
0.9196781 -1.8920127 -0.38691345 -0.14415464 0.8345975 0.7061153 0.100765176 -0.3698377

rnn.weight_ih_l0 f4 [16, 128]
00000000: fe19 31be 5923 1fbc e628 aa3e 974f 5e3e
00000010: e0c0 f939 3fb6 d7bd b051 70bd 8e55 863e
00000020: 1d15 973e 0a7e 473e d0ee de3c 266f 393e
00000030: 77fa cc3e aa93 26be f7e4 26be 86d0 a33d
00000040: fab1 b03d e312 c1be 2488 373e 5a96 073e
00000050: d3cb 39be b5d7 5d3e 8a76 db3d 6c34 8f3e
00000060: 0c01 0a3e 3ec3 333e 6512 2abe 5bf8 8bbd
00000070: d72a 94be d7df 2cbe ea3a acbd 46b4 03be
00000080: 94ea 1f3e f33c 2a3e 621b 1cbb 5c94 463e
00000090: 0b4d a6bd 1b66 f6bd 8e7c 033e c774 5a3e
000000a0: 8ce3 87bd 37bd 6b3e 9054 acbe 32d2 bdbe
000000b0: 9f08 fabd b1f7 603e 6209 bebd 7800 8bbc
000000c0: 0f38 a33e 6675 5abe 2b6c c4bd 1322 093e
000000d0: b01d f9bd d163 1abe 4d0d 2b3e c945 9c3d
000000e0: 63f4 ec3d 0f42 c3bd 18f3 4a3e af7a e83d
000000f0: bef9 19bd 7bdb c33d 4a60 843d c6da da3d
00000100: 0000 303e 47b8 a8be 274e a1bd 56b3 983d
00000110: cf60 0bbe 9ec4 69be f1de cfbd 237a 25be
00000120: d752 f53d 1fd2 a3bc 0640 2a3e 10df 85bb
00000130: 7004 53be 1343 b9bb fc33 8b3e 0e09 9b39
00000140: 776a 12be 772d 66be d5d8 f9be db44 ddbe
00000150: 0f70 18be e0ce 1b3c fe8a 043b 94d0 48be
00000160: 3d22 ebbd 3969 293e 823f 8f3e 607d 45bc
00000170: 6523 16bd a4ae bdbc 4b7e 3dbe fb6d b73a
00000180: 32af 1abd c393 d0bd 1933 adbc b6e2 5cbc
00000190: 8656 6a3e 92bb 81be 9517 9ebe 5054 d5bc
000001a0: b553 e13d 4af6 bd3e aa04 4dbe bab8 533c
000001b0: 1838 5b3d 2086 b1be 7b2c 303c 0e01 7ebd
000001c0: 1efc c93d 3e01 92be edbc ecbc f0aa d3bd
000001d0: 1010 ca3d e441 383e 1a1a 173e 737e 96bd
000001e0: 1327 ef3d 8065 c93d fff4 433e 3c3d e1bd
000001f0: 9bb6 023e 4de9 d83e e5b7 8d3d 1db1 b1be
00000200: 4fe6 5abe 103f f53d b652 80bb eb9e e03e
00000210: fd3f d43d 82b7 5d3d 374b a73d 4431 ae3e
00000220: 685a 873d e12e 4f3e ca86 e6bc c268 a03d
00000230: 4f2b 3d3d 0c4b f6bd 1f03 fe3d 5d79 7e3d
00000240: 172e b43a 7cdf 94be 1b2d ff3e fadb debd
00000250: 0d98 683e befd 9dbd ec79 2d3d d575 683d
00000260: cd6f d9bd c9f2 273b 0d27 14bd ca25 333e
00000270: 8a4e 01be 683b f3bd fd6a 35bb 89f1 483d
00000280: 766c bbbd e3f9 463e abcb 8a3e 03d7 82be
00000290: cfc5 5c3d 32b4 7cbd d383 0f3e aa3b 143e
000002a0: 9046 34be f12e a8bd 1416 c43d 5bf7 7ebc
000002b0: 661c e1bd 1e24 be3d 4ccf 243e e2f4 a03c
000002c0: 93b0 553e b26f 88be 69f8 083e 1deb 33be
000002d0: 9b8c de3d 30a3 343e 3bc9 a03d 25dd 29be
000002e0: 6010 663e 651d 16be 2ffd c23d cf74 0cbe
000002f0: 913c a7be af1b 77be 26f2 453c bc12 893d
00000300: 6eeb a2bd f60d bdbd af5e 343d 0264 333e
00000310: 39c7 093e 9103 ebbc f095 74bd 1252 bbbd
00000320: 0b01 b83d df33 513f 52f2 33bd cd87 8abe
00000330: 5053 2e3e 6a01 563e 3986 593e 9b57 133e
00000340: 6ebd b7bd 820d 533f 9e03 4bbe 4991 a83b
00000350: 3e4f 76be 1834 093e 97d2 a6be 8a8b 0dbe
00000360: 3b6c ca3c ad03 8b3d bd28 2dbe f8dc 5bbc
00000370: 1426 b03c a458 b6bd a8a5 d8bd 2229 1f3e
00000380: 3575 cabe 6b2c 2c3e 5a28 aabe 675d 84bd
00000390: 4347 6abe e5ef 9b3d 04f3 d2be 4064 b33d
000003a0: 490d 9739 566e d4bd 09b8 123e f953 3e3e
000003b0: e507 dabd b310 0f3d f254 d9bd 9539 083e
000003c0: 5360 8a3e 9fd3 b9bd 82ed e5bd 31f0 383d
000003d0: 96bf 9d3c 37cf 583e 7d63 d53e b248 d33d
000003e0: 3542 c63d 0902 9d3e 9d9a 473e 6286 7abe
000003f0: ad02 57bd fa12 72be 8eec 57be 4e11 a23d
-0.17295071 -0.009713017 0.33234328 0.21710049 0.00047636684 -0.105328076 -0.058671653 0.26237148
0.29508296 0.19481674 0.027213484 0.18108806 0.4003484 -0.16267267 -0.1629828 0.07998757
0.08627696 -0.37709722 0.17923027 0.13240948 -0.18144159 0.21664317 0.10715969 0.27969682
0.13476962 0.17554948 -0.1660858 -0.068344794 -0.28938934 -0.16882263 -0.084096745 -0.12861738
0.15616828 0.16624813 -0.0023820032 0.19392532 -0.081201635 -0.12031194 0.12840483 0.2133361
-0.06635198 0.23021398 -0.33658266 -0.3707443 -0.122086756 0.21969487 -0.092791334 -0.016967997
0.31878707 -0.21333846 -0.09590944 0.13391905 -0.121638656 -0.1507714 0.16704293 0.07630498
0.115700506 -0.09534084 0.19819295 0.11351525 -0.03759169 0.09563347 0.06463678 0.10686259
0.171875 -0.32953092 -0.078762345 0.074560806 -0.13611148 -0.2282891 -0.101499446 -0.16159873
0.11978691 -0.019997654 0.16625986 -0.004085429 -0.20607162 -0.005653748 0.27188098 0.0002957065
-0.14298426 -0.22478281 -0.48798242 -0.43216595 -0.14886497 0.009509772 0.0020224447 -0.19610816
-0.1148114 0.16544046 0.2797814 -0.0120538175 -0.03665485 -0.023154564 -0.18505208 0.0013994569
-0.037764736 -0.10184433 -0.02114253 -0.0134817865 0.22884569 -0.25338417 -0.30877367 -0.02604118
0.11002294 0.37101966 -0.2002131 0.01292246 0.053520292 -0.34672642 0.0107527925 -0.062012725
0.09862541 -0.28516573 -0.02889868 -0.10335338 0.09866345 0.17993885 0.1475605 -0.07348337
0.11677375 0.09833813 0.19136427 -0.10998008 0.12764971 0.42365494 0.06919841 -0.3470544
-0.21376918 0.11974919 -0.00391611 0.43871245 0.10363767 0.054130085 0.08168643 0.34021962
0.066090405 0.20232727 -0.028140444 0.07832481 0.04618388 -0.12026033 0.12402939 0.06212746
0.0013746646 -0.29076755 0.498391 -0.10881801 0.22714253 -0.07714413 0.042352602 0.056753
-0.106170274 0.002562689 -0.036170054 0.17494884 -0.12627617 -0.11876565 -0.0027682178 0.04905847
-0.09151547 0.19431262 0.2710851 -0.25554666 0.053899582 -0.061695285 0.1401513 0.14475885
-0.17605042 -0.08212078 0.095745236 -0.015561904 -0.10991745 0.092842326 0.16094702 0.01964802
0.20868139 -0.26647717 0.13376011 -0.17570157 0.10866662 0.17640376 0.07850882 -0.16588266
0.22467184 -0.1465965 0.09520947 -0.13716434 -0.32663396 -0.24131654 0.0120816585 0.066930264
-0.07955061 -0.092311785 0.04403561 0.17518619 0.13454904 -0.028688224 -0.059713304 -0.09146513
0.08984574 0.81719774 -0.043932267 -0.27056733 0.17023969 0.20898977 0.21242608 0.14388888
-0.08971678 0.82442486 -0.19825599 0.0051442725 -0.24053666 0.13398778 -0.32582542 -0.13822761
0.024709811 0.067878105 -0.16910072 -0.013419382 0.021502532 -0.089036256 -0.105784714 0.15543035
-0.39542547 0.16813819 -0.3323391 -0.064631276 -0.22878747 0.076141156 -0.4120103 0.087593555
0.00028810863 -0.103726074 0.14328016 0.1858672 -0.10646037 0.034928035 -0.10611905 0.13303216
0.27026615 -0.09073567 -0.11226942 0.04515094 0.019256394 0.21172796 0.41677466 0.103166
0.09680597 0.30665615 0.19492574 -0.24465325 -0.052492786 -0.23640051 -0.21086332 0.07913457

rnn.weight_hh_l0 f4 [16, 16]
00000000: aa72 60bf b620 babd 4260 26be fbb8 49be
00000010: 4525 a23e fd9f c9be 17a3 2ebe 1b6f 09bd
00000020: c6fc edbe 90d3 5abe d1f5 aabe df9b f0be
00000030: 9949 cebd 11d1 4e3e a8a5 103e 05d0 6bbe
00000040: ceff 4e3f c139 4a3f 9754 293f 8ec7 10bf
00000050: 2d58 093e 7e68 ee3d e020 0c3f 9fdb 4bbf
00000060: 1048 c93e 85bd 63bd a367 1d3f b72e 243f
00000070: 2a2d 493f 87ba f0be 09a7 5fbf d01b 9b3e
00000080: b4d6 9d3e a584 833f 1dae f93e 394b ba3e
00000090: 68f0 dfbe fd38 17be 1161 ab3e 7b06 363e
000000a0: 2a0d ac3e c1e1 88bd 4eda d63d c55b 1fbf
000000b0: 115c 933e 65fd 063e 1af2 21bf 6763 563f
000000c0: caea 403d 548a abbd 0ab4 453d d80d 5b3f
000000d0: 6539 2cbe 4ab5 aa3e d250 9b3e 9cb9 ea3e
000000e0: 47da a83e dffc 1b3d 93d0 fc3d ee8a e03e
000000f0: 17df 81bf 4fba 80bc 98c0 023f a591 2b3e
00000100: 3b0e 2dbf 451b 20bf 31a2 b13e ca3d 04bf
00000110: 58fe 4f3f 8f4a d3be e78a c3bd 4577 663f
00000120: 137c 2ebf 090e 443d b000 04bf c44d b2be
00000130: d21b 95bd 252a 823e a108 b63e 6385 8d3e
00000140: d198 21be af67 e9bd 8265 9fbe c43c 863f
00000150: 5a60 1fbf 8228 fb3e ba1e 7cbc 7e29 fb3e
00000160: 8784 2abf cf15 ec3d 37d2 b33f c7a6 c43e
00000170: 0a29 0fbf ffcb 943d 91a6 193e bc83 c43e
00000180: ff3a e73e 0b7a 9c3e 9ad6 5b3e 4b6a 403f
00000190: 9c7b b0bd f161 393e a3bc 133f bace 3e3b
000001a0: a4f2 3fbf d300 fb3c 6b20 613f 359d 9f3e
000001b0: 4e4c 66bc e445 4cbe 8643 cf3e 22f6 9abd
000001c0: c9b3 9e3d d797 5abf 2b21 b13d c544 0cbd
000001d0: 06de 663f afd7 1d3e 1210 923d 5b42 5f3f
000001e0: 1f78 a93e 67b9 32bd 1b74 8abc 3da3 21be
000001f0: 09c1 243c b921 853d acb3 1b3f 36f6 94bf
00000200: 52b2 e13e 4f30 313d bd2b 143f d7bd c83e
00000210: 4bff 8cbf e0fa 80be ed8e 843e 3b4c 42bf
00000220: 2e91 2d3c ff6a 74bd df7f 0bbe ab14 3cbb
00000230: 6ac3 7b3f f611 1cbf 21b9 a23c 7703 d2be
00000240: d9c7 4ebc 74f5 b5be ad42 c6bd 79c9 bd3f
00000250: 89af d5be 5121 d4bd 6170 ef3e 274b 713f
00000260: 6d33 923f a48c d13e a92e 47be 0303 c33e
00000270: 75fd 4cbf 9e34 20bf ebee 43be 2220 9f3e
00000280: 375c 923f d96b 8cbe dc05 19bf 5631 f23d
00000290: 5af9 cdbd e6e9 0a3f bc71 a73e 69c7 42bf
000002a0: 5d40 093f daa7 78bd 3080 e73d 2449 793f
000002b0: be92 d7be a2c5 853e 9b61 4d3e 1e85 cfbe
000002c0: c16b c13e c54e 893d c6ad d9bd 3c5e 61bc
000002d0: 72ce e4be 5d2d 183c 3c60 4c3e 27da 0ebf
000002e0: 4db2 9c3e ac26 c03d 5a90 153f f473 d33e
000002f0: 699d 74bd 16cc aa3d 7041 77be d67e 6a3d
00000300: 565c 63be c5b9 c33e f1ba de3e 81c9 26bf
00000310: ec96 40bf 8b62 b1be 5abc d0bd e47e 0abe
00000320: 4d6f b53d 3550 48be 3953 14bf 13a8 70bf
00000330: 2bd9 333f f934 45be c716 71bd a0ea 153f
00000340: 5470 4f3f 73ad 0bbf 2c89 143d 5996 1d3f
00000350: 7013 233f 49e2 003f 1d75 3f3d fdd2 aa3e
00000360: c488 df3e 1530 f23d cee1 e43e 5764 d13e
00000370: 5591 cfbe d3dc 6cbd 6202 703c a8fb 1dbe
00000380: 2997 88bf a9c0 a2be 87af e9be c131 723e
00000390: 9e18 0fbe 3792 c53e 4591 adbe 0d0c 843f
000003a0: a0cc a7bf 36df 4f3e d291 fd3e a61f ccbd
000003b0: 2b61 07bf f950 d23e 70da 443e dece 4a3f
000003c0: 4fab bf3e 4458 093e 848c f0bb 5d5f 853c
000003d0: 9cbd 37be 0c59 543e 7cbd 2ebe 07aa 0dbe
000003e0: 5b90 d63d 4335 acbe b0e4 483e d9c5 2f3d
000003f0: 9b97 133e 8d07 eb3e 08dc e63d 42ba edbe
-0.87674963 -0.0908827 -0.16247657 -0.1969947 0.3166906 -0.39379874 -0.17054401 -0.033553224
-0.46481913 -0.21369767 -0.33390668 -0.4699392 -0.100726314 0.2019694 0.14125693 -0.23028572
0.80859077 0.78994375 0.661447 -0.56554496 0.13412543 0.11641024 0.54737663 -0.7963199
0.39312792 -0.05560066 0.6148626 0.6413378 0.7858454 -0.4701731 -0.8736425 0.30294657
0.30827868 1.0274855 0.4876565 0.36385515 -0.43738103 -0.14767833 0.33472493 0.1777591
0.33603793 -0.06683684 0.10490857 -0.62249404 0.2878118 0.131826 -0.6326004 0.83745426
0.047098912 -0.08375993 0.0482674 0.85568 -0.1681877 0.33341438 0.30335099 0.45844734
0.32979032 0.038082954 0.1234447 0.43855995 -1.0146207 -0.015713839 0.51075125 0.16754778
-0.6759984 -0.6254161 0.34694055 -0.5165678 0.8124747 -0.4126782 -0.09547978 0.9002574
-0.6815807 0.047864947 -0.5156355 -0.34824955 -0.07280697 0.2542278 0.35553458 0.27640828
-0.15780951 -0.11396729 -0.31132132 1.0487294 -0.62256396 0.49054343 -0.015388185 0.49055094
-0.6660847 0.11527597 1.4048527 0.3840849 -0.55921996 0.07265472 0.15004946 0.38381755
0.45162198 0.3056186 0.21468583 0.7516219 -0.086173266 0.18103768 0.5770971 0.0029114918
-0.74979615 0.030640041 0.8794009 0.31174627 -0.014056278 -0.19948536 0.40481204 -0.07566477
0.07749135 -0.8538794 0.086489044 -0.03424527 0.9018253 0.15414308 0.071319714 0.87210625
0.33099458 -0.043633845 -0.016901067 -0.15784927 0.010055789 0.06500573 0.6082103 -1.1637638
0.4408136 0.04325896 0.5787924 0.39207336 -1.1015409 -0.25191402 0.25890294 -0.7589757
0.010593696 -0.059672352 -0.13622998 -0.0028698843 0.98345053 -0.60964906 0.019863667 -0.41018268
-0.01262089 -0.35538828 -0.09680686 1.482711 -0.41735485 -0.10357917 0.46765426 0.942553
1.1421944 0.40927613 -0.19451393 0.38088235 -0.80074245 -0.6258029 -0.19134109 0.31079203
1.1434392 -0.2742603 -0.59774566 0.11825816 -0.10057326 0.5426315 0.3270396 -0.76085526
0.53613836 -0.06070695 0.11303747 0.9737723 -0.42104143 0.26127344 0.20056765 -0.40531248
0.37777522 0.06704477 -0.10628848 -0.013755377 -0.44688755 0.009288159 0.19958586 -0.55801624
0.30604783 0.09382376 0.5842339 0.41299403 -0.05972043 0.083397076 -0.24146056 0.057249866
-0.22203192 0.38227668 0.43502 -0.6515122 -0.7523029 -0.34645495 -0.10192175 -0.13524967
0.088591196 -0.19561847 -0.5793949 -0.9400646 0.7025325 -0.19258489 -0.058859613 0.58561134
0.81030774 -0.5456154 0.03626363 0.6155754 0.63701534 0.50345284 0.046742547 0.33364096
0.4365903 0.11825577 0.44703525 0.40896866 -0.40540567 -0.057827782 0.014649006 -0.1542803
-1.067113 -0.31787613 -0.4564173 0.23651792 -0.13974234 0.38588116 -0.33899894 1.0316178
-1.3109322 0.20299992 0.49525315 -0.09966974 -0.5288264 0.41077402 0.19223952 0.79221904
0.37435386 0.13412577 -0.0073409695 0.016280824 -0.17943424 0.20737094 -0.1706447 -0.13834392
0.10476752 -0.33634385 0.19618487 0.04291329 0.14413302 0.45904198 0.112724364 -0.46431166

rnn.bias_ih_l0 f4 [16]
00000000: a3f6 b53b 2edf a2bc b7f3 b43c c11f 0b3e
00000010: 39dd 743e 7206 f1bd f243 7e3d 10ed 98bd
00000020: ad06 bf3d 2574 c9be 1185 cbbd adab bdbb
00000030: e738 e23d 56cc fd3c d9ed ea3d c975 233e
0.005553083 -0.019881811 0.022088869 0.13586332 0.23912515 -0.117688075 0.062076516 -0.07467091
0.09327445 -0.39346424 -0.0993749 -0.0057882876 0.110460095 0.030981224 0.11471147 0.159629

rnn.bias_hh_l0 f4 [16]
00000000: 4006 253c 88c6 b9be 15fc 883d 3a52 083e
00000010: 1e3d 5a3e 9249 0d3e 6caf 8bbd e008 e8bd
00000020: c310 5fbd f6f1 c0be aa45 8dbe 8da2 d5bd
00000030: 0621 0f3e cba3 723e 39b2 e03e 8e08 433e
0.010072291 -0.3628428 0.06688706 0.13312617 0.21312377 0.13797596 -0.068205684 -0.11329818
-0.054459345 -0.37684602 -0.27592212 -0.10431395 0.13977441 0.23695295 0.43885973 0.19046232

fc1.weight f4 [8, 16]
00000000: 804a 2b3e 378b 21bf 8418 3f3f 5d45 11bf
00000010: 3e44 603f 2513 bfbe 204a 71bf 2148 d1be
00000020: f772 8abf 7ee4 4bbf 648d 8cbf 3794 b9be
00000030: 9595 223f 419a 5c3f 6a9f 773f a001 a4be
00000040: 2c88 18bf 2d76 46bf 3d7f 55c0 b9a9 89bd
00000050: a21a 803f 537e dfbf b154 9640 9a94 b43f
00000060: 8300 0f40 71a5 33be bd12 d13f 4c1c 25be
00000070: af4f 07c0 f5d2 8cc0 864f 7b3f d82c 6540
00000080: 3e4e fc3e 67e6 de3f 6cd7 003f bf23 1f40
00000090: 167d c5be cec7 3540 35f4 ca3f d312 2d40
000000a0: b278 adbe f3a9 49be b8a0 143f 6e11 cabf
000000b0: 0f14 ec3d d6b6 30c0 f9da 35c0 b9b3 2840
000000c0: eba4 803f b4b5 12bf 4a31 30c0 df7a cf3f
000000d0: 55a2 1a3f f553 29bf d666 68be 6353 47bf
000000e0: ed61 aebf bada 3b40 5eb7 19be 3435 9d3e
000000f0: 8b3e 03bf a3e4 15c0 e79e 40c0 94fb 2640
00000100: 7521 f9bf 6990 8c3f d3bc 0dc0 1458 f53f
00000110: 7bb7 83bf fd5a 0340 a66c dcbe 4a6b dd3f
00000120: dd93 5a3e 960e 5540 550b f7bf e30d d8bf
00000130: 35b0 ccbf 6d0d 86bf 551a 60c0 1a9d d1bf
00000140: 69ee 613e af14 a0bf bac8 553e 61d7 393f
00000150: d696 2ebf dd38 5c3f a5bb b63e 1cc0 9abe
00000160: c544 9a3f ab27 d13f b5e9 883e f404 c33e
00000170: 9b7f 923e f6b3 293e 04ca 003f 5ee6 4bbe
00000180: f562 8c3d 2c15 be3f 4471 f1b8 cdbe b4be
00000190: c362 10bf 8572 a53f 7378 a13f e2bc 11be
000001a0: 846a 0d3f 77eb 42bf ff39 7e3f 9736 733e
000001b0: bb51 98bc d01f 5d3e 8d14 91bd 559f fabc
000001c0: c9be 273d 5eaf 8d3f 2425 3ebe 328c 94be
000001d0: 8e3e 80bf e80c a4bf 6334 cb3d 84df 3f3e
000001e0: d4dc 7b3f fdcd bf3d 6e97 8d3f ec73 ea3d
000001f0: 92c2 123d 98e5 243e 648b 16c0 f2df 97be
0.16727638 -0.6310305 0.7464678 -0.56746465 0.8760413 -0.37319294 -0.9425373 -0.40875342
-1.0816334 -0.79645526 -1.0980649 -0.3624589 0.63509494 0.8617287 0.9672762 -0.3203249
-0.5958278 -0.7752407 -3.335891 -0.06721825 1.0008128 -1.7460426 4.6978383 1.410785
2.2344062 -0.1754358 1.6333843 -0.16124076 -2.1142385 -4.4007516 0.9816822 3.580862
0.49278444 1.7414063 0.5032871 2.4865568 -0.38571995 2.84032 1.5855776 2.704274
-0.33881146 -0.19693737 0.5805774 -1.5786569 0.115272634 -2.7611594 -2.84149 2.6359694
1.0050329 -0.57308507 -2.7530084 1.6209372 0.6040395 -0.66143733 -0.22695479 -0.77861613
-1.3623635 2.935225 -0.15011355 0.30704653 -0.5126731 -2.3420799 -3.0096986 2.609105
-1.9463335 1.098157 -2.21465 1.9167504 -1.0290369 2.0524285 -0.43051642 1.7298367
0.21345468 3.3290153 -1.9300333 -1.6879238 -1.5991274 -1.0472847 -3.5016072 -1.6376069
0.22063603 -1.2506312 0.20877352 0.7259427 -0.6819891 0.86024266 0.35690036 -0.30224693
1.2052237 1.6340231 0.26740804 0.38089716 0.2861298 0.16572556 0.5030825 -0.19912097
0.06854812 1.4850211 -0.00011512873 -0.3530182 -0.564007 1.2925574 1.2614883 -0.1423221
0.55240655 -0.7614054 0.99307245 0.23751293 -0.01859366 0.21594167 -0.07083998 -0.030593554
0.04095343 1.1069143 -0.18568856 -0.2901321 -1.001909 -1.2816439 0.09922101 0.18737608
0.9838383 0.09365461 1.1061838 0.114478916 0.035830088 0.16103208 -2.3522577 -0.29663044

fc1.bias f4 [8]
00000000: f7d4 953e 7e1a 8a3f cace 3cc0 0d0c 09c0
00000010: c331 81bf 1120 d2be a21d 01bf f9e0 22bf
0.29264042 1.0789335 -2.9501214 -2.1413605 -1.0093311 -0.4104009 -0.5043584 -0.6362453
