src/main/python/saved_models/kotlin_1_28_RNNClassifier1_128embs_178id_32hd_1hl_Falsebid_1.pt (torch, 114655 bytes, 7 tensors)

word_embeddings.weight f4 [178, 128]
000000 b9 cd 83 be 52 d1 57 bf 78 ab 0c c0 b0 bf 0b bf
       -0.2574289 -0.8430377 -2.1979656 -0.54589367
000010 cb 35 26 bf 22 53 15 3f 9e bd 02 3f 1e 47 69 3f
       -0.6492583 0.58329976 0.5107058 0.9112414
000020 2f 06 69 3f 56 c8 43 40 c8 25 68 3e e2 74 a3 39
       0.9102506 3.0591025 0.22670662 0.00031176867
000030 38 ca e8 3e 9f f5 21 c0 4c cd 51 bf f8 e1 9a be
       0.4546678 -2.5306165 -0.81953883 -0.30250525
000040 c8 fc d7 bf e5 1e 73 3e cd e7 2a bf a9 63 b5 bf
       -1.6874018 0.23742254 -0.6675995 -1.4171039
000050 44 8f b2 3e 7a 92 1c 3d 27 1a 71 3f e8 6f d3 3f
       0.34874928 0.03822563 0.9418053 1.6518526
000060 b6 da 45 bf a4 a9 f1 3d 7b af 1d bd ef ff 75 3e
       -0.7728685 0.117999345 -0.03849743 0.24023412
000070 6e 8a 1d 3f 3c 3a 14 c0 5f f5 99 3f 3e 41 21 bf
       0.6153935 -2.3160543 1.2028006 -0.62990177
000080 2d 66 a9 3e b2 30 62 3f 85 c7 77 bf 31 b9 40 3f
       0.33085766 0.88355553 -0.9678882 0.7528258
000090 af f8 4f 3f c8 07 13 40 90 b9 1e bf 9e bf 4b bf
       0.81238836 2.29735 -0.62001896 -0.7958926
0000a0 e3 7e bb bd 98 35 11 40 81 be f2 be da 77 8b bf
       -0.09155061 2.268896 -0.47410968 -1.0895951
0000b0 eb 42 2f 40 e6 38 c0 bf 26 2e f0 bf c4 ba 7d 3e
       2.7384593 -1.5017364 -1.8764083 0.24778277
0000c0 a9 30 fa 3d 03 b3 1f 3f 8e 62 82 3f 63 ee 85 bf
       0.122163124 0.62382525 1.0186327 -1.0463375
0000d0 82 46 63 3f 52 b6 4a 3e ed 36 ae 3f c4 1c 43 3f
       0.8877946 0.19796112 1.3610512 0.7621577
0000e0 0f 45 9e 3f 06 c2 e8 bf 4f cb 7e 3d ed c9 be 3d
       1.2364825 -1.8184211 0.06220561 0.09315858
0000f0 55 dd f8 3f 0f 3d e7 be a1 de 16 3e 72 32 47 bf
       1.9442545 -0.45163772 0.14733364 -0.7781135
000100 a1 2f 06 3f 6b 7a 33 bf cb b5 8c bf b7 99 7d 3e
       0.52416426 -0.7010867 -1.0992979 0.24765669
000110 a6 24 79 be 95 6d 37 3f d6 1c 08 3e e4 e0 8b bf
       -0.24330387 0.71651584 0.1329225 -1.0928006
000120 3c 99 1f c0 3e 5f f3 be d0 e7 eb bf f2 3d 6c bf
       -2.4937277 -0.47533602 -1.8430119 -0.9228202
000130 de bf b1 bd 30 fa f2 3e dc 2c 02 3f 20 eb 1e bf
       -0.08679174 0.47456503 0.508497 -0.6207752
000140 b2 1c b9 3f 76 a1 cc bd d0 83 1d bf 1e 02 f1 bf
       1.4461882 -0.09991734 -0.61529255 -1.8828771
000150 d0 68 1c 3e 3a 73 8e bf e6 54 35 3f bd 27 97 bf
       0.15274358 -1.1128914 0.7083267 -1.1809002
000160 a7 76 99 3f f8 50 37 3f ab dc cc 3f f7 f5 b5 bf
       1.1989335 0.71607924 1.6004843 -1.4215688
000170 ed 43 73 3f e3 73 ba bf 80 d4 94 bf 55 41 f6 3f
       0.9502552 -1.4566616 -1.162735 1.9238688
000180 32 4b 82 bf aa 3b be 3d e8 52 ed 3f b5 9f f7 bd
       -1.0179198 0.09288724 1.8540926 -0.120910086
000190 a4 dc 1e c0 d0 af 45 3f 81 29 5b bf b1 dd 59 3f
       -2.4822168 0.77221394 -0.85610205 0.851039
0001a0 e6 da 85 bf 37 17 0d 3e 7b ef 0f 3f 57 5c c1 3e
       -1.0457428 0.13778387 0.56224793 0.37765762
0001b0 a4 0f 4f 3f bc 3c 01 40 6d d6 10 bf 16 9e 85 bf
       0.8088324 2.019332 -0.5657719 -1.0438869
0001c0 3d 30 b9 bf 07 9a d0 bd d4 45 a5 bf 19 7c a0 be
       -1.4467846 -0.101856284 -1.2911935 -0.3134468
0001d0 e7 89 a8 3f d7 23 cc bd d3 fd 7e bf 29 05 b8 3e
       1.3167084 -0.099677734 -0.99606055 0.35941437
0001e0 60 05 3d 3f 23 62 1f 3f b9 c5 1a 3f 83 bb f0 bf
       0.73836327 0.6225912 0.6045795 -1.8807224
0001f0 2c e5 be bd ff 22 b7 be e9 1b de bf 5d 73 dd 3f
       -0.09321055 -0.35768887 -1.7352268 1.7300831
000200 8d 41 51 3e 21 b4 a2 3f b7 54 0c c0 3e 59 e4 3d
       0.20435162 1.2711221 -2.1926706 0.11149834
000210 dc e2 6e 3f d4 d3 23 bf 36 84 2a 3f df 57 88 bf
       0.9331491 -0.639951 0.6660799 -1.0651816
000220 d8 48 32 3e 61 7b 9a be 88 79 1a 3f ef e8 64 3f
       0.174106 -0.30172256 0.6034169 0.8941793
000230 08 81 76 3f 15 b2 21 40 15 1e d5 bd e2 87 ca 3e
       0.96290636 2.5264943 -0.10406128 0.39556795
000240 d2 c2 48 3f cd 62 28 be 89 0b c9 3e f8 0d 56 3d
       0.7842227 -0.1644394 0.39266613 0.052259415
000250 45 ca ab 3f 3b 70 db 3d f8 45 54 bf a0 9a 1d 3f
       1.3421103 0.10714766 -0.82919264 0.61564064
000260 f6 02 d2 bf ef 52 24 3f 5b 5c b1 3f c1 a1 43 3f
       -1.6407154 0.64189047 1.385631 0.7641869
000270 3b 2f 8c 3e 21 40 36 3f 62 13 48 bf 1d 67 f0 3f
       0.27379784 0.711916 -0.78154576 1.8781468
000280 ae 4d 9e 3e d5 f9 21 3f be 17 25 3e 76 fb c2 bf
       0.3091864 0.6327184 0.16122338 -1.523299
000290 8f 3a 48 3b 9e 93 ae 3f 44 b5 00 c0 97 51 08 bf
       0.0030552482 1.3638799 -2.0110636 -0.53249496
0002a0 66 85 79 bf fa e8 50 be 26 33 2a bf 55 7d 51 bf
       -0.97469175 -0.20401374 -0.66484296 -0.81831867
0002b0 f0 e7 a2 3f 04 7e c3 bf fb a2 8a 3d d2 18 6a 3f
       1.2727032 -1.5272832 0.06769367 0.9144412
0002c0 52 57 df be b1 39 3a be b4 b8 31 3e d6 eb 49 3f
       -0.43621308 -0.1818607 0.17355615 0.7887548
0002d0 21 a3 05 3f e0 0a b1 bf e2 31 f0 3f b5 53 42 bf
       0.5220204 -1.3831444 1.8765223 -0.75908977
0002e0 b2 c5 17 40 47 92 46 3f 99 ba 3f bf d7 db 52 3d
       2.3714414 0.7756695 -0.748941 0.051479187
0002f0 2a 49 44 3f 02 4e 91 3e 5c 5d a9 3e 8a a2 9c 3f
       0.7667414 0.28379828 0.3307904 1.2237103
000300 b6 6e 37 bf 20 b5 11 3f 11 0a e5 be 6a 19 07 3f
       -0.71653306 0.56917 -0.44734243 0.52773154
000310 d4 c9 96 3f 91 ae 61 bf 14 04 42 be f3 cb 8a 3f
       1.1780343 -0.8815699 -0.18946868 1.084349
000320 a5 4d 49 3f 2a 51 30 bf 3f 11 d3 3f ff 5f 7a 3f
       0.786341 -0.68873847 1.6489638 0.9780273
000330 5b 06 d7 3d be 43 75 3e b0 5e 0c 3f 08 5f 05 3e
       0.10499259 0.23951623 0.5483198 0.13024533
000340 fd c5 05 3e 80 71 37 40 38 27 11 3f 6f d2 3e bf
       0.13063808 2.8663025 0.5670047 -0.74539846
000350 36 86 c3 bf 09 06 2b be 51 21 09 bf 1e 26 54 3f
       -1.5275333 -0.16701521 -0.5356646 0.8287066
000360 f6 f8 09 bf c8 e0 fd bd 95 57 ac bf 52 9f a8 be
       -0.5389551 -0.12396389 -1.3464228 -0.32934052
000370 09 cb 6a 3f 96 44 50 3f 2f 56 cb be 65 54 8a 3e
       0.9171606 0.81354654 -0.3971419 0.27017513
000380 be 28 d0 3e 77 88 0a 3e 26 4f 09 be fa 83 98 3c
       0.40656084 0.1352862 -0.13409099 0.018617619
000390 c8 d7 87 3f 98 9e 8e bf 65 47 b5 3e c6 d6 18 3f
       1.0612726 -1.1142149 0.35406032 0.5970272
0003a0 67 55 b3 bb f4 1f 73 bf d2 6b 52 3e 95 83 07 3e
       -0.0054728272 -0.9497063 0.20548943 0.13233788
0003b0 a6 d5 00 bf 70 b4 38 bf 4e 8a bc 3f e1 92 08 bf
       -0.50326 -0.72150326 1.4729707 -0.5334912
0003c0 f6 a6 dc 3e 61 22 05 3f 85 0b 84 3f e7 2c e8 3e
       0.4309613 0.52005583 1.0316015 0.45346758
0003d0 59 42 84 3e 5c 93 cd bf 1c ed da be 45 d5 03 bf
       0.2583187 -1.6060596 -0.42759025 -0.514973
0003e0 09 6b d5 3f 6c b6 58 3f 47 70 93 3e d4 43 d4 3f
       1.667329 0.84653354 0.28796598 1.65832
0003f0 da 28 99 3e 8a 83 2d be 8f 67 dd be 55 23 c4 bf
       0.2991398 -0.1694471 -0.4324307 -1.5323282

rnn.weight_ih_l0 f4 [32, 128]
000000 94 52 e9 bb b9 6f 7b bd 73 da a2 3d 30 6d 84 3a
       -0.00712044 -0.061385844 0.07951822 0.0010103341
000010 44 a7 9d be 29 76 23 bd ae 7e d7 3b f7 fb 25 3c
       -0.30791676 -0.03990761 0.0065763807 0.010130874
000020 f9 0c 25 3e 7c 32 71 bd 0c 10 ec 3d 7f f7 39 3e
       0.1611823 -0.058886036 0.11526498 0.18160819
000030 a0 94 90 bc b4 95 ac 3d 2b 06 c9 bd e9 34 39 3e
       -0.017648995 0.08426991 -0.098156296 0.1808659
000040 51 1c 0d bd 40 55 27 be 57 0e 9a 3d a6 5c 26 be
       -0.034450833 -0.16341114 0.07522266 -0.1624628
000050 14 28 66 be 24 e3 21 3e 3d 65 38 3e 99 7d 4e bd
       -0.22476226 0.15809304 0.1800737 -0.050412748
000060 ad da b0 3e 4c 96 d0 bb b4 69 1e 3e cb 52 a2 bd
       0.34541836 -0.006365573 0.1547001 -0.07925948
000070 02 24 0a be 4f c8 15 3e 75 78 06 3e 69 33 78 3c
       -0.13490298 0.14627193 0.13131888 0.015148976
000080 d9 40 b5 bd 8e 06 4c 3d 1d 0b 38 3e b4 94 26 3c
       -0.08850259 0.04981094 0.1797299 0.0101672895
000090 19 dc 2e 3e d9 28 95 bd 22 72 c7 3d 5c 7f 8c 3d
       0.17076148 -0.07283182 0.09738566 0.068602294
0000a0 ce e7 b2 3d de af d9 bd 09 54 4b 3e 9c f9 11 bd
       0.087356195 -0.10629247 0.19856276 -0.035638437
0000b0 da 49 91 be c8 18 5c 3d 40 12 de 3c 0c f8 1e 3c
       -0.28376657 0.05373457 0.027108312 0.009702694
0000c0 19 88 6c be f8 b0 d3 bd 32 d0 06 3e ee 20 a6 3d
       -0.23098792 -0.103364885 0.13165358 0.081117496
0000d0 0c f3 18 be 4e c2 19 be 5a 9d 47 be 8b da 7f 3d
       -0.14936465 -0.15015528 -0.19493619 0.06246428
0000e0 e1 c7 b2 3d 21 5a 71 3c 29 d7 08 3d 43 da 66 3d
       0.0872953 0.014730961 0.033408318 0.056360494
0000f0 cb 94 16 be 31 6f 8e bd f7 ec 57 bd ce 74 89 be
       -0.14705198 -0.06954802 -0.05271622 -0.26846927
000100 2b 0c 61 bc c3 7d f7 3d f5 74 88 3b c4 d6 8e be
       -0.013735811 0.12084534 0.004164333 -0.27898228
000110 0c d0 b6 3c a1 c2 93 3c fd 34 fd bd 4f c2 14 be
       0.022316001 0.018037142 -0.12363622 -0.14527248
000120 56 41 73 bc 97 dd b5 bc cb b3 1d be 74 8a be 3c
       -0.01484712 -0.022200389 -0.15400617 0.023259379
000130 b0 a9 d6 3d b4 35 af bd 51 b9 fe 3c e6 04 a1 3d
       0.10481584 -0.08555165 0.031094225 0.078622624
000140 15 c8 ef bd 5a e9 1b 3e 60 44 83 be 65 9a 0d be
       -0.117080845 0.15225735 -0.25638103 -0.13828428
000150 89 e5 22 be d4 e0 2d 3d 18 8a 07 be a1 bc 3a be
       -0.15907873 0.04245074 -0.13236272 -0.18236019
000160 e1 cc af bd 2f 76 2e bc 89 d1 67 3c 5c 21 f8 3c
       -0.085839994 -0.010648294 0.014149078 0.030289344
000170 91 68 40 3d 43 02 7b 3d d6 78 51 3d 2f 1f f0 3d
       0.046974722 0.061281454 0.05114063 0.11724698
000180 3b 36 5d bb db 14 ed 3d 36 78 04 bd ed 4c 62 3c
       -0.0033754248 0.115762435 -0.032341205 0.013812286
000190 c5 6e 17 bc dc f1 9a 3b 8f 8d 25 3e fb 3f f3 bd
       -0.009242718 0.004728539 0.16167282 -0.11877438
0001a0 e8 b7 a5 be cb 0e d7 be 43 27 af 3e bb c9 1a be
       -0.32366872 -0.42003474 0.34209642 -0.15116017
0001b0 79 f0 d6 3d e4 45 0c be 29 35 33 3b cd f8 05 3d
       0.10495085 -0.13698536 0.0027344918 0.032707978
0001c0 5c 3f b2 3d 56 7b 48 be 0c 7d cf 3c a7 1c b6 3d
       0.08703491 -0.19578299 0.025328182 0.08892184
0001d0 20 75 90 3d 21 00 58 3d 25 c7 4f be 9b e3 6d 3c
       0.0705359 0.052734498 -0.20290811 0.014519597
0001e0 91 6e 23 3e c1 a0 9a 3d 9f b9 02 be bc e7 bb 3d
       0.15960146 0.075501926 -0.12766121 0.09175059
0001f0 f9 d6 da 3d ba 6e 33 bd a6 f8 1b be d8 5f 20 bd
       0.10685534 -0.04380677 -0.1523157 -0.039153904
000200 33 1f cd 3d b9 8b 83 bd d9 91 a1 3d 56 c9 fa bd
       0.100157164 -0.06423134 0.07889146 -0.12245433
000210 1c 21 a1 3e ec 81 5e bb e8 72 b4 bd b6 3d b5 bd
       0.31470573 -0.0033951951 -0.08810979 -0.08849661
000220 06 6d 21 bd 3a fe 08 3d 01 0e 41 3e 46 0c c3 bd
       -0.039410613 0.033445574 0.18852998 -0.09523825
000230 57 a2 45 3e 01 10 07 be 37 da ad 3d 49 7e e1 bd
       0.19300209 -0.13189699 0.08488887 -0.11010415
000240 a9 67 d5 3b df 5a 36 be ff f6 20 3e 62 2d bf bb
       0.0065126014 -0.17808102 0.15719222 -0.0058342675
000250 22 c8 43 3c d6 51 b3 3d 93 8a 26 39 28 16 09 be
       0.011949571 0.08755843 0.00015882617 -0.13387358
000260 55 cd 37 bd 9b af 77 3e b0 4c 86 3d ee 33 09 be
       -0.044873554 0.24188082 0.06557596 -0.13398716
000270 6f cf cc 3c f3 0a 81 bd 56 55 44 3d 29 5e 53 3e
       0.025001256 -0.063009165 0.047932945 0.20641388
000280 ac cd bc 3a e4 ad 4d bd 11 58 0e 3e 97 ef 87 3e
       0.0014404557 -0.050214663 0.13900782 0.2654998
000290 1d 1f 92 bd 57 3a b6 bb 3c 14 d8 3d 20 4f ef bd
       -0.07134841 -0.005561154 0.105507344 -0.11685014
0002a0 0a 6c 85 3e f5 ce e6 bc 3d 57 68 bb 62 dd 41 be
       0.2605899 -0.028174857 -0.0035452389 -0.18932107
0002b0 9d 01 a5 bd 70 b6 1e be ed 9f d9 3d 37 28 89 3e
       -0.08056948 -0.15499282 0.106262065 0.26788494
0002c0 91 32 a0 bd e3 96 f0 bd 31 66 00 be 1c cd d4 bd
       -0.07822145 -0.11747529 -0.12538983 -0.10390684
0002d0 ca 1e c7 bd 2f 29 5d bd 11 f4 39 bd a8 13 9f 3d
       -0.097226694 -0.053994354 -0.045398775 0.07767421
0002e0 ca 4a cc 3d 09 37 88 3d 02 c2 e0 3d ab d1 04 3e
       0.099752024 0.06651122 0.10974504 0.12970607
0002f0 32 30 e8 bc 2f aa a0 bb c7 dc b5 bd a8 25 0f 3c
       -0.028343294 -0.0049031 -0.088800006 0.008737005
000300 0b 8f 66 3e 5f 65 63 3d ac 9b e1 bd 00 23 97 bd
       0.22515504 0.055516597 -0.1101602 -0.073797226
000310 9b 66 dd bd df b1 8f be 5a 6c 2d be 31 0b 9b 3d
       -0.10810586 -0.28065392 -0.16935864 0.07570494
000320 76 5d 49 bc 63 0d fa bc 92 b5 7f bd ad f9 a2 3e
       -0.012290349 -0.030523961 -0.06242902 0.31831113
000330 60 1b 40 be c4 4d ee 3d 5c 01 20 3e 0d 50 2c 3d
       -0.18760443 0.11635926 0.15625519 0.04206853
000340 0d 6e 98 3d 0d 08 06 bc 80 ac 11 bd 1d 41 78 3e
       0.074428655 -0.00818063 -0.0355649 0.24243589
000350 3e 10 ec bd 8f 7a 9f bb 6a 93 70 be 3e ea 5e be
       -0.115265355 -0.004866905 -0.23493734 -0.21769044
000360 80 84 74 3b 9b fa ed bd 3f 23 1e be 5d 1b b6 bd
       0.0037310421 -0.11620065 -0.15443133 -0.08891938
000370 5a cc 0a 3b af 87 5e 3d dd 63 a0 3d 71 e8 51 3d
       0.0021178932 0.054328617 0.078315474 0.051247064
000380 ba af 69 be 8b f4 a6 3b db 21 66 3d ba 14 ce bd
       -0.2282094 0.0050950698 0.05618463 -0.10062547
000390 30 bf b0 3e a9 7b b7 bd 4e 18 d3 3b 1a 06 7f 3c
       0.34520864 -0.08959133 0.0064421063 0.01556542
0003a0 4f 28 a2 3d 7f 31 5d bc 11 12 69 3d 39 5e 6c bb
       0.079178445 -0.01350057 0.056901995 -0.0036066903
0003b0 e8 08 c6 3d 1f c6 8c be fa 60 82 bd ea a2 02 be
       0.096696675 -0.27494904 -0.06366153 -0.1275746
0003c0 53 c2 87 3e 6b 43 8d be f9 ca c6 bc 71 ac 56 bb
       0.26515445 -0.27590498 -0.024266707 -0.0032756592
0003d0 39 60 2e bd fa 7e 5c bd 78 65 2d 3c a0 89 ab 3d
       -0.042572234 -0.05383203 0.010583274 0.08375859
0003e0 02 60 59 be c3 6d 80 3e 9e 9c 96 bd 4a 73 6d bd
       -0.2122803 0.25083742 -0.07354091 -0.057971276
0003f0 09 cb aa 3d 77 23 23 3d c6 3d 2c 3e e7 f5 21 be
       0.08339507 0.039828744 0.1682044 -0.1581646

rnn.weight_hh_l0 f4 [32, 32]
000000 76 1a 88 3e bf 4f ec be dd ca 1a 3e 9f 5d 00 bf
       0.26582688 -0.4615459 0.15116449 -0.50142854
000010 a9 f0 4a 3e 1f 31 96 3e 03 88 00 3f b2 e3 79 3d
       0.19818367 0.2933435 0.5020754 0.061008163
000020 7f 4d 40 bf 61 d7 39 be 56 d8 a3 3e 02 f0 dc bd
       -0.7511825 -0.18148567 0.3200099 -0.10787965
000030 83 96 0c bf 96 64 de 3d 61 ee 36 bf c8 2b 91 3e
       -0.5491716 0.10859029 -0.7145749 0.28353715
000040 44 07 e3 3e d9 3a 97 bb a5 4e 8d 3e 13 64 5a be
       0.4434148 -0.0046151695 0.27599064 -0.21327238
000050 da b0 d8 be a0 ff bf 3e 4a 9c 46 3d 27 10 69 bd
       -0.42322427 0.37499714 0.048488893 -0.05690017
000060 12 40 22 3e b4 2a cc 3e 29 43 6d 3e d7 7b b8 3e
       0.15844753 0.3987633 0.23170151 0.36031982
000070 3f fc e9 3e c1 4a 78 be 83 c0 1a 3e 71 f0 3e 3f
       0.4570026 -0.24247266 0.151125 0.74585634
000080 27 12 07 bf 8f e7 47 bd d4 d7 90 be ec 88 c4 be
       -0.52762073 -0.048804816 -0.28289664 -0.38385713
000090 74 f0 ae be 72 72 56 3e e3 19 59 3e 7d 8b 32 3e
       -0.34167826 0.20942095 0.21201281 0.17436023
0000a0 15 bc fa be ca cf 4f 3e 4c 82 a5 3e f4 19 be bd
       -0.4897162 0.20294109 0.3232597 -0.09282294
0000b0 a7 95 40 be 39 28 36 bf 5f e9 07 3e ae 6a d2 3d
       -0.18807088 -0.71155125 0.13272618 0.10274254
0000c0 6c a2 1a 3d f8 e8 cc 3e 3f f9 e5 3b f5 e8 24 3e
       0.037752554 0.4002149 0.007018238 0.16104491
0000d0 27 c0 47 bf 0a 37 13 3f cb 41 49 3e 03 25 cd 3e
       -0.78027576 0.5750586 0.19654004 0.400673
0000e0 d5 73 62 3c 39 f4 f3 3e 36 fd 0a 3f 14 6d 35 3e
       0.013821562 0.47647265 0.5429262 0.17717391
0000f0 57 3d 90 3e 1a 89 41 bd 43 77 77 be 43 5c e2 3d
       0.281718 -0.04724989 -0.24166588 0.11052754
000100 97 48 18 3e c9 54 35 be 3c 75 4c 3e bb 94 3f be
       0.14871441 -0.17708124 0.19966596 -0.1870908
000110 52 c8 57 3e 37 68 1f 3e 1e 95 10 bc 50 8d 17 be
       0.2107251 0.15567099 -0.008824615 -0.148
000120 b1 06 30 3e 72 53 e6 bd e9 81 27 bf 05 b1 a6 3d
       0.17190053 -0.11246385 -0.654326 0.081392325
000130 0a 84 9e 3e 12 5e a7 3c bb 22 96 be 94 e9 82 be
       0.30960113 0.020430598 -0.29323372 -0.2556883
000140 08 c1 6d be c5 ba ef 3c d5 98 29 be b2 66 77 bc
       -0.23218167 0.029263863 -0.16562207 -0.015100168
000150 40 c7 2e 3e e4 a9 f9 3c 91 4f b1 3d de b6 84 3d
       0.17068195 0.030476518 0.08657754 0.06480192
000160 cd a9 ad be f0 de d7 bd af 27 7c bf a0 4a 40 be
       -0.3391861 -0.10540569 -0.9849805 -0.18778467
000170 f5 52 31 bf dd d7 86 3e 21 9a 5f 3e 64 71 03 bc
       -0.6926721 0.26336566 0.2183614 -0.00802264
000180 de d8 9c bd a0 7f 5a be 7e 74 4d 3d 3d f6 2b 3e
       -0.07658552 -0.21337748 0.050159924 0.16793151
000190 b9 66 49 be 88 56 68 bd 81 b9 78 be 30 0f 71 3f
       -0.19668092 -0.056723148 -0.24289514 0.941638
0001a0 60 94 65 3e c1 d9 29 3e 21 f0 c8 3e 47 e5 83 be
       0.22419882 0.16586973 0.39245704 -0.25760862
0001b0 be 40 9c be a7 d0 12 3f 56 38 aa 3e 56 da 41 3e
       -0.30518144 0.5734963 0.33246106 0.18930945
0001c0 dd 6b 72 3e d0 5d bf 39 49 be 43 3f de 1d 77 be
       0.23673959 0.00036500255 0.7646223 -0.24132487
0001d0 a1 ce 82 bd 59 23 f2 bd 94 ec 8a bd 95 a3 b9 bd
       -0.063870676 -0.11823148 -0.06783405 -0.09064404
0001e0 b2 c3 53 bd 0f e5 9a be ac 12 96 3e 97 1e bf bc
       -0.0517003 -0.30252883 0.2931112 -0.023330016
0001f0 d4 c8 b2 bd ad 11 87 3e 30 20 20 bf 8e 66 85 bd
       -0.08729711 0.26380673 -0.62549114 -0.065137014
000200 e6 8f c5 be 6c 9c 1d bf c4 78 23 3e db 88 73 3d
       -0.38586348 -0.61566806 0.15964037 0.059456687
000210 ca ad d8 3d 4f fc ff bd 59 41 26 bf 1f a9 64 be
       0.10580023 -0.12499296 -0.6494346 -0.2233014
000220 fd 51 8d 3d 5a 14 d7 3d 61 29 89 be c0 0e d4 be
       0.06900404 0.10501929 -0.26789382 -0.41417503
000230 66 97 08 3f a6 ac a6 3d 86 02 18 be 4a 4f 44 be
       0.53356016 0.08138399 -0.14844713 -0.19170871
000240 b1 c0 a5 be 80 74 d7 bc 36 bd a5 bb 20 70 ed bd
       -0.32373574 -0.026300669 -0.005057956 -0.11593652
000250 a4 9b c4 3d b0 38 53 bf dc 7c 24 3e 25 3d 2c be
       0.095999986 -0.82508373 0.16063255 -0.168202
000260 c4 99 18 3b dd d2 26 3e ee 14 a5 be 5f 6c 0c be
       0.002328501 0.16291375 -0.3224253 -0.13713215
000270 97 72 6c be 99 dc 59 3e 8a 3e cc 3e 1e e7 89 be
       -0.23090588 0.21275558 0.39891464 -0.2693414
000280 47 92 1c be 21 bb 0f 3f 23 2e 8e be 38 fa 30 be
       -0.15290175 0.5614491 -0.27769575 -0.17282951
000290 cb c2 4a bd 39 cf 98 be 21 f6 4d 3e bf 9d a2 be
       -0.049502175 -0.29845598 0.20113422 -0.31760976
0002a0 04 17 a7 3e f8 c4 8e 3d 79 2e db be e8 b5 13 3e
       0.32634747 0.069711626 -0.42808893 0.1442486
0002b0 16 da 66 3f 72 2e 05 3d 20 8b ce 3e 0b cd c8 bd
       0.9017652 0.032514997 0.4034052 -0.09804734
0002c0 b0 8c 9f be 06 df 45 3d fe 8e 1a bf 6b 1c b4 3e
       -0.31162024 0.048308395 -0.6037444 0.3517793
0002d0 7d df f0 3e 7e 64 10 be 8c 64 1e 3e cf 62 0c 3b
       0.47045508 -0.14100835 0.15468043 0.00214212
0002e0 4f 7f 24 bd 7b 4e 7c be b5 18 79 be 21 a8 e5 be
       -0.040160473 -0.24639313 -0.24325831 -0.44854835
0002f0 66 3d 03 bf c5 80 ac 3e c9 a6 48 3e 25 a7 9e be
       -0.5126556 0.33691993 0.19594873 -0.30986896
000300 ad 8b e7 3e 86 55 a5 3e 32 2b ac 3e 35 a3 d2 be
       0.45223752 0.32291812 0.33626705 -0.41140142
000310 b1 56 b6 3e f9 fb 8d 3e 28 2e 81 3f 70 4e aa be
       0.35613015 0.27731302 1.0092211 -0.33262968
000320 b6 24 77 be 79 6c 01 3d 98 89 9a be 07 e0 1b be
       -0.24135098 0.03159759 -0.301831 -0.15222178
000330 30 2f 34 be 21 55 41 3d 2c 79 dd be 80 fe 22 be
       -0.17596126 0.047200326 -0.4325651 -0.15917397
000340 0f c3 32 3e 76 f7 27 3e 51 3b 27 be b9 52 87 3e
       0.17457221 0.16402993 -0.16331221 0.264303
000350 d2 1b 68 bc 66 1f e1 3e eb e8 a8 3d 50 ef a5 3e
       -0.014166789 0.43969268 0.082475506 0.32409143
000360 b9 a1 6a be 80 96 20 3f 7f 31 94 3e 61 b3 85 3d
       -0.22913255 0.62729645 0.28944013 0.065283544
000370 e2 b3 e6 bd 28 48 1a be d6 05 dc 3e 5e 58 c4 3e
       -0.11264779 -0.15066588 0.42973202 0.3834867
000380 ca ec 12 be ca 34 17 bc 9a fc b1 be ef ff 05 3d
       -0.1434814 -0.0092288945 -0.34763032 0.03271478
000390 11 3a 80 3e 8e 26 aa bd 6f b9 f6 be 10 b8 aa be
       0.250443 -0.08308135 -0.4818835 -0.33343554
0003a0 12 25 b3 3e a2 36 e9 bd 42 99 84 be 58 9f 1d 3e
       0.3498922 -0.113873735 -0.25898176 0.15392816
0003b0 86 21 23 3e 04 6a f0 3d 28 8d 0c be 8d 3b a7 3c
       0.15930757 0.11738971 -0.13725722 0.020414138
0003c0 c4 6f af 3e ce a7 93 be 21 d6 bf bd 79 8a 1e be
       0.34264958 -0.28838962 -0.09367014 -0.1548251
0003d0 58 2e 51 3f 90 e1 40 bf c3 66 6f be b8 83 24 bf
       0.8171134 -0.7534418 -0.23379044 -0.64263487
0003e0 84 8a 30 be 75 d8 11 bf 37 93 3d 3f 0f 6c 8b 3e
       -0.1724034 -0.5697091 0.7405276 0.2723088
0003f0 7c 7f 5d bd f1 f0 ff 3e e6 ae d4 be 9d 55 89 be
       -0.054076657 0.4998851 -0.41539687 -0.2682313

rnn.bias_ih_l0 f4 [32]
000000 44 90 34 be 1d 8f 04 3e 7f 64 18 3e 1e e2 17 3e
       -0.17633158 0.12945218 0.14882086 0.1483235
000010 c1 6b 35 bd cc 4c 1e 3b 7e b8 a4 bd 97 f9 9a 3e
       -0.044292215 0.0024154661 -0.080430016 0.30268547
000020 f3 1d 1c 3d f5 b2 9e bc 87 64 26 3e bf 8a 94 be
       0.0381145 -0.019372443 0.16249286 -0.29012105
000030 cd f6 08 be 3e 20 f7 3c 53 49 ff 3d 9b fb 08 be
       -0.13375397 0.030166741 0.12465157 -0.1337723
000040 1e 9a a4 be fb 1a 2b be 47 57 fb bc fc 83 cf 3d
       -0.32148832 -0.16709511 -0.030681266 0.10132596
000050 82 9b 4c 3e 1e 80 ba bc 41 18 d8 bc c1 6d 6b be
       0.19981197 -0.02276617 -0.026378753 -0.22991087
000060 eb 2b 18 bd 17 8e 0a be 1c 1d 79 3e 2b d0 04 3d
       -0.03715126 -0.13530765 0.2432751 0.032425087
000070 23 e1 27 bd 99 50 00 3d c4 52 33 be dd ab 84 bb
       -0.04098619 0.031326864 -0.17512041 -0.004048808

rnn.bias_hh_l0 f4 [32]
000000 7a a7 fc bc cb 92 98 bd a2 90 18 bc c1 38 9e bc
       -0.030841578 -0.074498735 -0.009311827 -0.019314172
000010 9a 44 a9 3d 63 2e b4 3d 86 55 84 bd 0e 92 03 3e
       0.08265038 0.0879791 -0.06461625 0.12848684
000020 32 d8 c0 bd de f1 fd bd 53 72 1f 3d 2b 3a b9 bd
       -0.09416236 -0.12399648 0.038927387 -0.09044298
000030 ab 52 29 bd 33 66 e5 bd 40 cb 9b 3e ca b7 98 3c
       -0.041338604 -0.112011336 0.30428505 0.018642325
000040 cc ef d9 bd 0a 11 0b be 7e 23 26 be 1a 9e fb 3d
       -0.10641441 -0.13580719 -0.16224477 0.12286015
000050 97 e0 56 3e ea 42 98 bd 27 f8 d2 bd d4 34 24 be
       0.20984112 -0.07434638 -0.103012376 -0.16035777
000060 9b 23 b4 bd b6 31 5c 3c ee 3c ca 3d 48 05 ce 3d
       -0.08795854 0.013439586 0.09874903 0.10059601
000070 21 7e b2 bd a3 17 d1 3d 3c d3 69 bd 57 01 b7 bc
       -0.087154634 0.102095865 -0.057086214 -0.022339506

fc1.weight f4 [8, 32]
000000 03 9c 99 bd fe 36 ad be 2d 85 d4 3e fe 7b 29 3f
       -0.0750046 -0.33831018 0.41507855 0.6620482
000010 49 18 12 3f b1 48 01 3f cc 3b bd be 39 5e 8f 3e
       0.57068306 0.50501543 -0.36959684 0.28001574
000020 ee 2b 76 be 85 9c b5 be b8 c6 0a 3f 3f 98 c7 be
       -0.24040195 -0.35470977 0.5420947 -0.38983342
000030 ac b7 c8 3e e9 66 d6 3e 5c 27 b3 3e e8 89 93 3e
       0.3920263 0.4187539 0.34990966 0.28816152
000040 24 6b 17 bf 3d 10 97 be 20 08 81 3e b7 3e 3f 3f
       -0.5914786 -0.29504576 0.2520151 0.7470507
000050 fc fa 91 3e 15 93 fc be e4 22 00 3f c7 f5 0d bf
       0.28511798 -0.49330965 0.5005324 -0.5545315
000060 67 83 f9 3e 9f bd e1 3e e3 3d 8b 3e b9 01 1e bf
       0.48733065 0.44089982 0.27195653 -0.6172138
000070 85 d3 15 bf ac cf df 3e 36 f6 9e be 9e 3d 51 be
       -0.5852588 0.4371313 -0.3104722 -0.20433661
000080 25 e0 99 bd a5 bc 91 3f 11 93 d0 be 07 e0 99 3e
       -0.07513455 1.1385695 -0.40737203 0.30053732
000090 87 56 d3 3e e8 44 51 bf 58 c2 22 3f a6 87 a4 3e
       0.41276953 -0.8174577 0.63577795 0.32134742
0000a0 b8 3e 8f 3f 4d f2 98 3f 61 33 70 bf 71 d6 c9 be
       1.1191015 1.1948944 -0.938284 -0.39421418
0000b0 da 1a 93 3e a5 e8 7b be 21 e8 6f bf a9 75 82 bf
       0.28731424 -0.24600466 -0.93713576 -1.0192157
0000c0 ab 79 11 bc 94 57 5f 3f f7 64 1d 3f 58 25 98 bf
       -0.008879106 0.8724301 0.61482185 -1.1886396
0000d0 3e 6d b3 be 26 ee 84 3e eb 29 a6 3e 8d 68 01 3f
       -0.35044283 0.25962943 0.32453856 0.50550157
0000e0 bd 04 97 bf c9 f5 ce 3c b0 6c 31 bf f9 89 9a ba
       -1.1798321 0.025263684 -0.6930647 -0.0011790387
0000f0 2f 16 08 bf 30 c0 85 bf 6c 20 2a bf 32 7a 90 bd
       -0.5315885 -1.0449276 -0.6645572 -0.07054557
000100 b6 ee 89 3e d2 47 86 bd 43 56 b3 3f 8a dc 5d bf
       0.26939934 -0.065566674 1.40107 -0.8666464
000110 b1 45 9c bf 4f 9d 2f bf 52 fd ab 3d 29 b1 1d bf
       -1.2208768 -0.6859941 0.083979264 -0.6159845
000120 12 56 56 3f 12 7c 4e 3f dc ee d7 bd 9f 35 e4 3e
       0.8372508 0.80658066 -0.10543606 0.4457216
000130 9b ee 24 bf 08 31 30 bf 49 94 85 bf 9c 67 c7 be
       -0.64426583 -0.68824816 -1.0435878 -0.38946235
000140 b6 bf 73 3f c9 93 8d be 8c 41 3f bf 10 cb 1b bf
       0.952144 -0.27651814 -0.7470939 -0.60856724
000150 46 0e 30 bf 71 02 c5 be ca db 6d bf 7b 11 44 3f
       -0.6877178 -0.38478425 -0.92913496 0.76589173
000160 aa 48 60 3f 60 f4 03 bf 4b a3 43 3f ac 1e 8f be
       0.87610877 -0.5154476 0.7642104 -0.27953088
000170 be 78 9b 3f 17 5e 58 bf 7a 9d 1e be ef 18 c2 3c
       1.2146223 -0.8451857 -0.1548976 0.02369353
000180 90 aa 09 3c e0 68 55 3f 4f a3 c6 be de bd 0f bd
       0.008402482 0.8336315 -0.3879647 -0.03509318
000190 e5 54 a4 bf 97 a4 32 bf 61 80 44 3e e7 d8 0f be
       -1.2838408 -0.69782394 0.19189598 -0.14047585
0001a0 3c 67 ea be c5 89 2f 3f dd f3 66 3e b1 ad 11 3b
       -0.45781887 0.68569595 0.22553964 0.0022228772
0001b0 7b 99 77 bf 01 cb 23 be 06 e7 04 3f 79 0c db be
       -0.9671857 -0.15995409 0.51915014 -0.42782953
0001c0 5e cb 77 3f b0 1e 13 3b 3f da 40 3e 93 02 9f 3e
       0.9679469 0.002244871 0.18833254 0.3105665
0001d0 a2 df 8a be b9 20 21 be ec 6b 86 bf e4 23 10 be
       -0.27123743 -0.15735139 -1.0501685 -0.14076191
0001e0 9f f1 8a bf ca 1a 35 bd 50 76 5e 3f 70 83 34 3f
       -1.0854987 -0.044215 0.8689928 0.7051306
0001f0 94 13 5c 3f f6 ae 03 bf 84 05 83 3f 03 9f ce bd
       0.85967374 -0.51438844 1.0236058 -0.10088923
000200 15 5c 13 3f 99 ec c5 3f 91 ff b3 be 30 0e e1 bf
       0.5756238 1.5462829 -0.3515592 -1.7582455
000210 0c 7d 09 bf 49 8b de 3d 62 00 df be 25 9b 8e bf
       -0.5370643 0.1086641 -0.4355498 -1.1141096
000220 19 0d 9e 3f b3 4a 8f 3e e7 52 bb be da 97 b9 3f
       1.2347747 0.27986678 -0.36586687 1.4499466
000230 3d 74 13 3f 27 89 87 3e 24 28 b0 be e3 b2 fb be
       0.5759924 0.26471826 -0.34405625 -0.49159917
000240 20 9c 01 3d cd 2b 8c 3f 9d 20 34 3e d1 7c fe bf
       0.031643033 1.0950867 0.17590566 -1.9881841
000250 3a 95 0e be 02 96 81 3f bc c9 bd bf a0 03 4e be
       -0.13924113 1.0123904 -1.482719 -0.2011857
000260 f5 38 1b 3f 1f 32 f5 3e f2 8f 03 3f 65 25 ed 3e
       0.60633785 0.47889802 0.5139152 0.46317592
000270 96 d3 1a 40 4d cc 0f 3c c4 26 c2 3f 31 3d 07 bf
       2.4191642 0.008776736 1.516808 -0.52827746
000280 75 87 05 3f b0 37 1e be 3e 28 f5 bd cd ab 34 3e
       0.52159816 -0.1545093 -0.11970566 0.17643662
000290 3f 9f 20 bf 36 56 d1 3d ed cd f7 3e cd a8 01 bf
       -0.6274299 0.102215216 0.48399296 -0.50648195
0002a0 85 39 79 bd 3b 70 3b 3d fc bb 4d bf 5f ee fd 3e
       -0.06084587 0.04576133 -0.80364966 0.49595925
0002b0 ad 20 9f be f8 22 0b bf 0b 7c 63 bf a0 e3 1a bf
       -0.31079617 -0.54350233 -0.8886115 -0.6050358
0002c0 b3 0d 2b bb 4f 03 d0 3e 74 df 34 be ee 61 ab 3e
       -0.0026100695 0.40627524 -0.17663366 0.33473152
0002d0 27 c4 33 3d 14 66 02 3e 8e 6a de 3e a6 f3 d7 3e
       0.043888237 0.12734252 0.4344067 0.42178077
0002e0 38 b8 21 3f 93 13 1b be 16 45 ae be a2 ae 0d 3f
       0.6317172 -0.15144186 -0.34037083 0.55344594
0002f0 1d 06 1f 3e aa c4 3c be da a9 dd 3e ea a5 f1 be
       0.15529676 -0.18434396 0.4329365 -0.47196895
000300 95 0b 05 bf 5d 72 5c bd fc 34 1d bf c1 39 d4 be
       -0.519708 -0.053820003 -0.6140897 -0.41450313
000310 e6 a5 d3 3d 39 0c 16 be ff 39 2a bc af d7 80 3e
       0.10334377 -0.146531 -0.010389804 0.25164554
000320 cf 60 91 be 06 f2 f8 bc 0f a7 d1 3e a2 79 f1 3e
       -0.28394172 -0.030388843 0.40947768 0.4716311
000330 a7 cc 4f bf 1d 99 52 be 51 58 4b 3f 1c bd 09 3f
       -0.8117165 -0.2056622 0.79431635 0.53804183
000340 d5 9d 34 3f cf 4e ba 3e dd 39 4b bf 78 a4 57 bf
       0.7055333 0.3638825 -0.7938517 -0.84235334
000350 3f 87 4d 3e 7d 46 8c 3f 1e f0 fb 3d 8a 69 bf 3e
       0.20071124 1.0959011 0.12301658 0.37385207
000360 bb b7 38 3e eb 1f c1 be a5 d5 38 bf 56 e7 f9 3d
       0.18038838 -0.37719664 -0.72200996 0.12202327
000370 b5 61 6c 3e ef 21 13 bf 62 46 27 be 7a b9 8a 3f
       0.23084147 -0.57473654 -0.16335443 1.0837853
000380 fc eb e5 3e b4 4a 8e 3e 8c 40 4a be 50 55 25 bf
       0.44906604 0.2779137 -0.19751185 -0.645833
000390 df c5 05 3d c4 70 4e bd d7 e4 bc 3e 03 95 19 bf
       0.032659408 -0.05040051 0.3689334 -0.59993
0003a0 6b 18 9f bd 65 83 5c bd 1f 87 17 bf 90 59 86 3d
       -0.07768329 -0.053836245 -0.59190553 0.065600514
0003b0 86 a2 08 3f a6 48 90 3e 84 eb 00 bf 68 66 c6 3e
       0.5337299 0.28180426 -0.5035937 0.38750005
0003c0 87 9f 9b bd a9 5d 8a be 9c 19 04 bf ea 1b 13 3e
       -0.07598787 -0.27024582 -0.51601577 0.14366117
0003d0 9f db aa bc c2 df b2 be 32 ce c7 be e8 ae 78 be
       -0.020856677 -0.3493634 -0.39024502 -0.24285471
0003e0 58 30 bf bf e9 c5 84 3d ba 59 de be be 9f 27 3f
       -1.4936628 0.06483061 -0.4342783 0.6547812
0003f0 6e d8 00 bc c8 58 0b be a7 03 f7 3e 5a 05 df 3e
       -0.007864101 -0.13608086 0.48244974 0.4355877

fc1.bias f4 [8]
000000 bc aa 01 3f 36 be 06 be 11 89 24 bf 61 b5 92 be
       0.50651145 -0.13158497 -0.64271647 -0.28654006
000010 ce b2 ee bf f7 91 a5 be 03 30 55 be ba 13 2e be
       -1.8648317 -0.32337925 -0.20819096 -0.16999713
