src/main/python/saved_models/kotlin_1_37_RNNClassifier1_128embs_178id_16hd_1hl_Falsebid_1.pt (torch, 102751 bytes, 7 tensors)

word_embeddings.weight f4 [178, 128]
000000 7a a5 5b 3f 88 ac 17 3e a9 cf a1 bf c1 53 05 bf
       0.8579937 0.14811909 -1.2641498 -0.52080923
000010 ac 93 a5 bf 5e 3e 09 40 62 c8 b4 bf 0b 2e c0 be
       -1.2935691 2.1444316 -1.4123652 -0.37535128
000020 66 46 11 40 0d 27 40 bd 9c 19 4f 3f 97 ae 15 3f
       2.2699218 -0.04691224 0.8089845 0.5846953
000030 2a e7 6d 3f 4e 7a ef bd 0c fc bd be 94 06 33 bf
       0.92930853 -0.1169325 -0.3710636 -0.6993191
000040 cc 4a ac 3e dc ff 3f 3e f9 f9 cf bf f2 20 c6 3f
       0.33650815 0.18749946 -1.6248161 1.5478804
000050 c0 ef 18 3e 9c 5d 6b 3e 9d f7 ac 3f 90 0e 72 3e
       0.14935207 0.22984928 1.3513066 0.23638368
000060 07 f1 5d bf b4 d6 20 40 12 2d e7 3e c8 98 f9 bc
       -0.86695904 2.5131044 0.45151573 -0.03046836
000070 96 aa 08 c0 33 9c f1 3f cd 12 6a 3f 54 3c 9d be
       -2.1354117 1.8875793 0.9143494 -0.3071009
000080 61 d0 be 3f 2d 23 6c 3e d4 b0 f6 be 2c 34 b5 3e
       1.4907342 0.23060293 -0.48181784 0.35391366
000090 12 76 f0 bf e6 1d 6a 3f a3 9e af bf cd 3b 32 c0
       -1.8786032 0.9145187 -1.3720287 -2.7849
0000a0 ee 74 a1 bf d8 ff 66 3f 34 16 b2 bf d9 93 87 3f
       -1.2613809 0.90234137 -1.3913026 1.0591995
0000b0 4e a4 26 3f 16 ef 05 be 8b c3 2a bf 0e 1e 3d bf
       0.6509446 -0.13079485 -0.66704625 -0.73873985
0000c0 6c 55 4b bf 98 35 b7 be c0 7e 06 bf 96 65 cf be
       -0.7942722 -0.35783076 -0.52537155 -0.4050719
0000d0 8f 37 fc be ec 2a 86 bf 8f 6b a9 be 8e b3 b4 3f
       -0.49261138 -1.0481849 -0.33089873 1.4117296
0000e0 64 08 c5 be a5 c3 da be f8 53 c4 3f e1 ce 17 bf
       -0.38482964 -0.4272739 1.5338125 -0.5930005
0000f0 39 1c 93 be 20 8b b2 3d 61 40 cd be 33 7a 68 bf
       -0.2873247 0.08717942 -0.4008818 -0.9081146
000100 37 27 27 bf 1e 98 93 bf 35 21 12 c0 c4 15 e2 be
       -0.6529421 -1.1530797 -2.2832768 -0.4415723
000110 0c ab 05 bf fb c2 92 3e 80 32 b6 be aa e7 3f 3f
       -0.5221412 0.28664383 -0.35585403 0.74962866
000120 6f 94 8a be b7 25 8c 3f df 68 cf be b3 27 50 3f
       -0.2706637 1.094901 -0.40509698 0.81310576
000130 d4 90 ea 3f fc 20 05 c0 70 e8 88 bf 27 9b db 3f
       1.8325448 -2.0801382 -1.0695934 1.7156724
000140 3b 14 3a bf 03 fd a7 3f 0d 0b 5a 3f 67 e1 84 3f
       -0.7268712 1.3124088 0.8517311 1.0381287
000150 18 fd b2 3d d7 32 47 be b4 ba cb be e7 fe 94 3e
       0.0873968 -0.19452988 -0.3979088 0.29100725
000160 ab 94 ac bf 14 7d 6c bf e5 87 45 3d 8c 4a ba 3f
       -1.348287 -0.92378354 0.048225302 1.4554
000170 91 7a 48 3f 12 1a e6 bc bf ce 79 3f d2 85 e5 be
       0.7831202 -0.028088603 0.97581095 -0.4482866
000180 94 bd 26 bf 4b 81 bb 3f 01 dc ee bd ab ca e5 bf
       -0.65133023 1.4648832 -0.11663056 -1.7952474
000190 73 9b 8f 3e dc a5 b2 bf 8c a8 89 3f f9 e3 32 c0
       0.28048286 -1.3956866 1.0754561 -2.7951643
0001a0 07 aa 38 bf 5f 91 a7 be 67 6a 26 bf 69 60 13 bf
       -0.7213444 -0.32728097 -0.6500611 -0.57568985
0001b0 a7 10 c3 bf d2 2d 3d bf 4e cd 4b 40 f5 04 98 be
       -1.5239457 -0.7389804 3.1844058 -0.29691282
0001c0 96 dc bb 3e a7 c3 26 3f 33 81 23 bf f1 59 30 3f
       0.3669173 0.6514229 -0.6386902 0.6888724
0001d0 33 b7 17 3f 1e 3f c2 be 38 22 23 bf 2d 7f eb 3f
       0.59263915 -0.3793878 -0.6372409 1.8398186
0001e0 33 f6 9d 3c 7c d9 b8 be 49 92 a7 3e 7a 8f 13 40
       0.019282436 -0.36103427 0.32728794 2.305632
0001f0 f6 38 11 c0 41 48 af bf 66 94 08 be 94 ae 2c 3f
       -2.2691016 -1.3693925 -0.1333786 0.67453885
000200 fe a4 33 3f 7f 80 57 bf 46 bb 4d 3e 49 35 5f bf
       0.70173633 -0.84180444 0.2009097 -0.8719068
000210 d1 91 0a 40 48 69 3f c0 52 7c f0 3e 38 68 1e bf
       2.16515 -2.9908009 0.4696985 -0.61877775
000220 32 a1 5c bf 32 ed 5d 3e 22 0e 81 3f a9 b7 06 c0
       -0.86183465 0.21672514 1.0082438 -2.1049597
000230 fc 3a 0e be 08 be b0 3d 50 17 83 3f d8 10 5c bd
       -0.13889688 0.086299956 1.024149 -0.053727
000240 43 7d 20 3f 1c 41 fb 3e 69 d6 a6 3e bb dc ab 3d
       0.62691134 0.49073112 0.32585457 0.0839171
000250 86 5b 01 c0 f4 22 bb 3f 03 a1 86 be 73 75 db 3e
       -2.0212111 1.4620042 -0.26294717 0.42863044
000260 78 f8 45 bf f3 af 1a bf 7f 78 5e be e0 be 8e 3f
       -0.7733226 -0.6042473 -0.21725653 1.1152
000270 0f d3 3c 3f 58 f5 92 3f 62 67 51 bf 06 ff 66 bd
       0.7375955 1.1481123 -0.81798375 -0.056395553
000280 33 f1 06 bf 14 75 e0 3f 55 8e 39 be b4 8d 8b 3e
       -0.5271179 1.753573 -0.18120702 0.27256548
000290 9d bc 40 3f 2b e9 a5 bf 31 61 8d be c2 a6 a1 3f
       0.752878 -1.2961782 -0.27613214 1.2629015
0002a0 07 35 83 bf 5a 74 62 be 2a a9 0e 3f 3b 3f d6 3e
       -1.0250558 -0.22114697 0.55726874 0.41845116
0002b0 05 c0 90 3f 68 85 cc bc 87 e2 3e bd 43 3f 22 bf
       1.13086 -0.024965957 -0.046602752 -0.6337778
0002c0 db d4 4b be 95 73 53 bf 27 18 e5 3e 93 ad f6 bd
       -0.19905417 -0.8259824 0.4474499 -0.120448254
0002d0 1a 0f 1f 3d a3 3b 21 be 61 3f 2d 3f 9c 50 2c bf
       0.03883276 -0.15745406 0.67674834 -0.673105
0002e0 3f fb 4f bf a7 68 a8 3e 93 6a 33 bf d9 60 a0 3f
       -0.81242746 0.32892343 -0.70084494 1.2529556
0002f0 fb 1d 93 be 8e b6 f9 3e 82 01 99 3f ce ae 49 3f
       -0.2873381 0.4877209 1.1953585 0.78782356
000300 c6 2b 14 c0 26 70 97 bf 49 35 8e 3e 2b 1d 01 bf
       -2.3151717 -1.18311 0.27775028 -0.5043513
000310 e0 24 58 3f 06 ec 5f bf 10 ef e3 bf e3 44 13 3e
       0.84431267 -0.8746952 -1.7807331 0.14381747
000320 2c 5c a6 be 5d 9e 07 bf d5 52 bb 3f f8 18 1b bf
       -0.32492197 -0.5297602 1.4634653 -0.60584974
000330 f9 bd 24 3f 99 6d c4 be 20 41 50 3f d9 b6 03 3e
       0.64352375 -0.38364866 0.8134937 0.1286272
000340 ff 2f 87 3f 2a 93 cb 3f 56 cb 2a 3f ea e5 d1 bf
       1.0561522 1.5904286 0.66716516 -1.6398289
000350 34 f0 16 bf 36 df 54 3f 8d 0c e2 bf 5f a1 d7 3d
       -0.5896027 0.8315309 -1.766008 0.10528826
000360 3e 2d 68 3f a8 77 2c 3f 25 21 3b 3f 9c 25 d1 be
       0.90694034 0.6737008 0.7309745 -0.40849006
000370 cf 4b 1e 40 31 b5 56 bf cd d2 1b 3f bf 7c f5 3f
       2.473377 -0.83870226 0.6086853 1.9178694
000380 22 c1 b2 bf ea cb 66 3f 22 a6 2f 3f d1 57 c4 3d
       -1.396519 0.901549 0.68612874 0.09587062
000390 ad ee 79 3e 6b 89 82 bf ac 32 33 3f e2 8c 0f 3f
       0.24407454 -1.0198187 0.69999194 0.56074345
0003a0 46 ed 77 bf d6 7a 15 40 63 d5 04 bf ef d8 12 bf
       -0.96846426 2.3356223 -0.518881 -0.57362264
0003b0 ee d9 37 bf 26 c3 e1 3f b3 a7 c0 bf 69 94 04 bf
       -0.7181691 1.763768 -1.5051178 -0.51788956
0003c0 02 63 78 3f 43 c3 f0 bf 06 7c b4 3d 7b 51 99 3f
       0.97026074 -1.8809589 0.08812718 1.1977991
0003d0 7f 6d 1c be ce 81 20 c0 9f 0b 9d 3e b2 2f 22 bf
       -0.15276144 -2.5079226 0.3067293 -0.6335403
0003e0 17 f2 ed 3f 57 ac 0a be 23 53 4d bf 7c 3b db bf
       1.8589505 -0.13542305 -0.8020498 -1.7127528
0003f0 d6 b0 78 3e d3 88 15 bf 54 e8 30 3f 91 eb 6e bd
       0.24286208 -0.584119 0.69104505 -0.058330122

rnn.weight_ih_l0 f4 [16, 128]
000000 67 a1 92 3d 36 98 22 be 07 78 05 3f f2 97 65 3c
       0.07159691 -0.15878376 0.5213627 0.014013277
000010 61 44 0b 3d ab bd 21 3f 1b 0d d4 bd ff 13 52 3e
       0.034000758 0.63180035 -0.10354062 0.2051544
000020 58 03 b2 be 88 1d cb bc b9 23 e8 bc 25 a8 f0 3d
       -0.34768176 -0.024794355 -0.028337346 0.11750821
000030 8f 02 fc bc 8a e5 e8 3d ae da 8a 3d 7e 3b 2b be
       -0.030762939 0.11371906 0.06779991 -0.16721913
000040 58 00 35 3e b6 9e 9f 3e d7 70 9e 3e 35 8a 42 3e
       0.17675912 0.31175774 0.30945465 0.18998034
000050 a2 aa a7 3e f1 7e 4e 3e f4 d4 b1 bd 84 61 39 bc
       0.3274737 0.20165612 -0.08683196 -0.011314753
000060 65 8c 1a bc a0 39 fb 3d 0d dd 26 3e c2 57 7d be
       -0.009432887 0.122668505 0.16295262 -0.24740508
000070 18 04 10 bf 44 96 0f be 3b 8f 6a bb 2d 57 c7 3e
       -0.56256247 -0.14022166 -0.0035790938 0.38933697
000080 09 76 ba bc 18 6e 38 3e 6d 0b 9d 3d 48 35 85 be
       -0.022761362 0.18010747 0.07668195 -0.26017213
000090 e7 3e 03 3e ee 6b 6c 3e cb 07 dc be 39 7f 32 3e
       0.12816964 0.23088047 -0.42974696 0.17431344
0000a0 fd 68 b4 be e8 cb 5e be 4d 01 6c be 57 43 09 3d
       -0.3523635 -0.21757472 -0.23047371 0.033511486
0000b0 4c 63 68 3c 3d 72 64 bd 77 b7 07 3c 67 49 62 3e
       0.0141838305 -0.05577301 0.0082834875 0.22098313
0000c0 c2 ae 1b 3c 03 43 8f be ab ed 85 be 7b 63 ac bb
       0.009502115 -0.27980813 -0.2615789 -0.0052608824
0000d0 fe 82 6e be f3 15 59 3e 59 61 6d be 63 e0 fb bd
       -0.23292157 0.21199779 -0.23181666 -0.12298658
0000e0 0f 16 07 3e 81 4c 05 3e 2d 2f a7 3e 90 b3 54 bc
       0.13192008 0.13017465 0.3265318 -0.012982264
0000f0 b3 64 8f 3e c2 b9 bc bc 20 65 58 3d 30 0a 79 be
       0.28006515 -0.023037795 0.052830815 -0.24320292
000100 ce c0 11 3e 11 f0 40 3e a8 b3 76 be 83 b6 8f be
       0.14233705 0.18841578 -0.24091971 -0.28068933
000110 da 2a 67 bd 86 25 24 3e ab b2 64 be ce 93 23 3d
       -0.05643735 0.16029939 -0.22333781 0.03993588
000120 71 de 90 3d f6 ab 90 be 72 02 86 bd c1 06 a2 3d
       0.07073677 -0.28256196 -0.06543435 0.079114445
000130 5c 6f 92 3e 5b a7 12 bf 9a 89 53 ba 83 60 f7 bd
       0.28600585 -0.57286614 -0.00080695155 -0.12078955
000140 85 b5 3c 3d 0f 9f 5d be 47 5f bc bd c6 5d a9 bd
       0.046071548 -0.21642707 -0.0919786 -0.08269839
000150 57 c5 b6 3e 03 f9 f7 bd f0 e5 19 3e 2b b3 12 3d
       0.35697433 -0.12108042 0.1502912 0.0358154
000160 33 0d dc be 8d 53 66 3e 49 bf 88 bd 72 17 cb 3d
       -0.4297882 0.2249281 -0.0667711 0.09916581
000170 7c e1 a8 3c cc 3b b0 3d f8 e0 59 bc 41 23 47 be
       0.020615332 0.08605155 -0.013298266 -0.19447042
000180 6a 96 3d 3e 28 c1 92 3e 87 13 44 3e 37 9f 9d bc
       0.1851441 0.28662992 0.19148074 -0.019240959
000190 40 22 73 3e 47 11 0a be 0e 7e 87 3e b3 e5 86 be
       0.23743534 -0.13483153 0.2646336 -0.26347122
0001a0 f2 f5 8d be 79 7d b2 3d 73 45 14 3d 5d fc f5 be
       -0.27726704 0.08715338 0.036199044 -0.480441
0001b0 09 35 ae ba 9f cf cf 3d 54 81 a8 3d 1e b6 86 3e
       -0.0013290952 0.101470225 0.082277924 0.2631082
0001c0 b4 01 09 bf 16 b4 e6 3d c1 56 38 3e 21 77 b2 bd
       -0.53518224 0.112648174 0.18001844 -0.08714128
0001d0 f7 3e ea bd e3 80 b4 3d 39 2d 27 3d f2 25 5c bd
       -0.11437791 0.08813646 0.040814612 -0.053747125
0001e0 94 e1 12 bd d5 55 12 3e ed cc ac be 28 97 b0 3e
       -0.03585966 0.14290555 -0.33750096 0.34490323
0001f0 2d 03 95 3d 1d ef d0 bd c1 1c 80 3e 12 91 99 be
       0.07275996 -0.10201857 0.25021937 -0.29993492
000200 c5 fb 4e be 37 5c 35 be 7a aa 31 be 5b a8 cc bd
       -0.2021323 -0.17710958 -0.17350188 -0.09993049
000210 b5 a4 0b 3e 0c ed 9f 3d 60 3f 1e be 63 b7 3d 3e
       0.1363705 0.07808885 -0.15453863 0.18526988
000220 53 a4 2e 3e bc ea 24 be d5 f8 66 bd 4c 44 ba 3c
       0.17054872 -0.16105169 -0.05638965 0.022737645
000230 45 e5 06 3e df 33 31 bc 25 16 6f be b0 17 61 be
       0.13173397 -0.01081559 -0.23348291 -0.21981692
000240 04 a9 83 be a1 ce 5a be e6 43 bf bd c1 f2 ad 3d
       -0.25714886 -0.21367885 -0.093391225 0.08493567
000250 42 de 44 3d d2 81 8f 3d a3 54 ed bd e0 70 fd bd
       0.048063524 0.07007183 -0.11588409 -0.12375045
000260 61 80 88 be ac 4c d1 3b 6a 24 a9 bc 2f d8 57 3e
       -0.26660445 0.006387314 -0.020647246 0.21078561
000270 22 c9 01 3e ab 75 13 be 01 01 b4 3c 80 73 8f 3e
       0.12674382 -0.14400356 0.021973135 0.28017807
000280 d5 bf e4 3d f6 d5 d5 bd ee 7e 1a 3e 07 1c 35 3e
       0.111694016 -0.104412004 0.15087482 0.17686473
000290 59 77 38 be a8 af 82 3e af 9d ac bd 77 4c 13 bd
       -0.18014278 0.2552464 -0.08428513 -0.035961594
0002a0 28 dd 0a be ab be 09 3e 51 d6 aa be e6 86 be bb
       -0.13560927 0.1345164 -0.33366635 -0.005814421
0002b0 4e f9 28 3e 6d 39 f9 3d 8c 7f 0d 3e a3 e2 24 3e
       0.16501352 0.12169156 0.13818187 0.1610208
0002c0 1f 06 80 3d 22 9d 56 bd ab 70 1d be 07 6d 8d be
       0.062511675 -0.052395947 -0.1537501 -0.27622244
0002d0 d1 60 93 bd c6 f6 81 3e 67 31 46 3d c4 29 0a 3c
       -0.07196201 0.25383586 0.048386957 0.008432809
0002e0 dd 6c 56 be e4 dd 4b be f5 59 20 3c f2 68 22 be
       -0.20939966 -0.19908863 0.009787072 -0.15860346
0002f0 0b 7c ef 3d c4 a2 f6 3c e4 1f 5e 3e cc e7 29 be
       0.11693581 0.03010691 0.21691853 -0.1659233
000300 eb b7 a8 bd 27 95 ab 3d 4e 19 ec 3c b2 6d 53 be
       -0.082382046 0.08378058 0.02882066 -0.20647314
000310 bf fc 94 be de 4b 00 3e 8c c5 a5 be 1f a1 34 be
       -0.2909908 0.12528941 -0.3237728 -0.17639588
000320 41 a0 9d 3d 95 00 e4 3d 5e ec 66 bc c7 08 3c 3b
       0.07696582 0.111329235 -0.01409444 0.0028691755
000330 0d 7a 85 3e 5e 63 4a be 5a 23 11 3e 20 e1 e0 3d
       0.2606968 -0.19764468 0.14173642 0.10980439
000340 af 38 98 bd 42 ba 87 bd e8 eb c7 3d e5 10 21 bc
       -0.074326865 -0.06627323 0.097617924 -0.009830688
000350 08 47 9e 3e be c8 f5 3c cf b0 1a bd 29 46 76 3e
       0.30913568 0.030002948 -0.037766274 0.24050201
000360 5a b9 36 be c8 35 26 3d 02 94 98 bd 0f 04 55 3d
       -0.17844144 0.040578634 -0.07450105 0.052005824
000370 f0 f8 2d be e5 cf 60 3e 6a f6 73 be 3f 91 7e bd
       -0.16989493 0.21954305 -0.23824468 -0.062150236
000380 58 3c ac 3e f2 fb b3 bd fb 0e ff 3e ae d0 2e be
       0.3363979 -0.08788289 0.49816117 -0.17071792
000390 88 c9 87 bd 91 da 92 3e c0 bc 55 3e cd 11 86 be
       -0.06630236 0.28682378 0.20872784 -0.26185456
0003a0 ef 50 eb 3d c9 cc 66 bd 79 26 61 bd 25 dd de be
       0.11490046 -0.056347642 -0.05496833 -0.43528095
0003b0 ff 35 ba 3d a3 61 4c 3d b9 fd 65 3d 94 32 93 3d
       0.0909233 0.0498978 0.056150172 0.071873814
0003c0 76 b0 d3 3d 60 b0 06 be 47 34 f0 bc 5b 0e aa bd
       0.10336392 -0.13153219 -0.029321803 -0.08303519
0003d0 73 93 aa bc a0 9c c2 3e 0b 2d 5b 3e 14 0d 17 3e
       -0.020822262 0.3801012 0.21403901 0.14751083
0003e0 47 43 00 3e 5d 99 0e 3d 42 96 d2 3e 94 56 09 bf
       0.12525664 0.034814227 0.41130263 -0.5364773
0003f0 60 ae 12 bf b0 e2 15 3e a8 96 a3 3b 30 df 06 3e
       -0.57297325 0.14637256 0.004992325 0.13171077

rnn.weight_hh_l0 f4 [16, 16]
000000 2a 39 7a be 66 cf cb 3d bc c1 80 3e b5 f3 8e bd
       -0.24435869 0.099516675 0.25147808 -0.06980077
000010 c5 f4 6e bd 87 38 93 be 83 ae af bc aa 11 cf 3e
       -0.0583389 -0.28754064 -0.021445518 0.40443164
000020 31 52 2a 3f 23 fa 9b be 61 b4 dc bd 07 6b 93 3e
       0.66531664 -0.30464277 -0.10776592 0.28792593
000030 56 25 93 be 55 48 a9 bd 2d c2 a9 3d e6 cf 2a be
       -0.28739423 -0.08265749 0.08288989 -0.1668087
000040 a0 b0 9d bd 58 04 c9 3f c6 58 9c 3e d1 cd 32 3f
       -0.07699704 1.5704451 0.3053648 0.698453
000050 24 e8 27 3f 10 14 05 3f aa c1 6d 3e dd c9 4f bf
       0.65588593 0.5198374 0.23218408 -0.81167394
000060 5c 71 a8 3e 08 85 c4 bf e0 3a e5 bc 09 69 48 be
       0.32898986 -1.5353098 -0.027982175 -0.19571318
000070 3c 26 8e be 1f 32 18 be 7f cd 73 3f 13 96 49 3d
       -0.27763546 -0.1486287 0.9523544 0.049215388
000080 e6 61 30 3e 7f 57 81 3e df f9 9c 3d 1b 2b cb be
       0.17224845 0.25262067 0.07664847 -0.39681324
000090 c2 a1 37 3f 82 f0 ff 3d 3b 0d cb bd 86 81 c3 3e
       0.717312 0.12497045 -0.09914633 0.38184756
0000a0 ff 5b 83 be 77 54 75 be a5 75 af be 31 8e ae bd
       -0.25656125 -0.23958002 -0.34269443 -0.085232146
0000b0 66 3b ee 3e b2 f0 a2 3d 5d 0e b3 3f b3 b9 05 be
       0.46529692 0.07956065 1.3988758 -0.1305912
0000c0 97 27 8e bd 84 32 23 3f 19 dd 74 bf 85 87 b9 3d
       -0.06941145 0.63748956 -0.9564987 0.090590514
0000d0 aa 22 26 3f 18 5d 1e 3f 5b b4 6b be b3 70 fe be
       0.64896643 0.618608 -0.23018019 -0.49695358
0000e0 d3 d7 eb be 0c d5 2c bc 6b 5e 32 be c0 4f 17 bf
       -0.46063098 -0.010548841 -0.1741883 -0.59106064
0000f0 f2 f0 50 3e 28 74 ff bc af ea 4c 3e 1b f5 bf 3e
       0.20404413 -0.031183317 0.200114 0.37491688
000100 6a d1 86 3d 6a 10 00 3f 07 1c 3d 3f 5d a2 90 be
       0.06582911 0.50025046 0.7387089 -0.28248873
000110 f1 b2 73 3f 6a da 48 3f d1 25 9e 3e d2 21 95 3e
       0.9519492 0.78458273 0.30888227 0.29127365
000120 23 f3 f2 bc 2e 7d f2 be 71 53 59 3e b8 ba b4 be
       -0.029656952 -0.4736113 0.21223237 -0.35298705
000130 93 f4 dc 3e 7b 62 9f 3d a3 a4 eb 3f 9d 5d 02 bd
       0.43155345 0.077824555 1.8409618 -0.031827558
000140 79 db 36 be e1 06 37 be 79 21 68 3e c7 58 4b 3f
       -0.1785716 -0.17873718 0.22669019 0.7943234
000150 0d 33 1c bf c6 d4 d9 3e f8 dd b6 be 57 fe 24 3d
       -0.610154 0.42545146 -0.35716224 0.04028162
000160 38 e4 97 3f 99 2a cd 3e 4c 3f ff be da 60 4b bf
       1.1866522 0.40071562 -0.4985298 -0.7944466
000170 b4 b1 a6 be a0 42 98 be b3 46 85 be a5 98 48 3f
       -0.32557452 -0.2973833 -0.26030502 0.7835792
000180 72 bf a7 3e c7 4f 2b 3f d2 65 10 3f b4 70 a5 3d
       0.3276325 0.66918606 0.56405365 0.08078137
000190 16 5a 99 3f 33 60 ed 3c f7 0a 90 3d 53 82 50 bf
       1.1980617 0.028976535 0.070333414 -0.8144886
0001a0 5a 88 82 bf 63 e0 0a bf 20 54 68 3e 43 20 93 be
       -1.0197861 -0.54248637 0.22688341 -0.2873555
0001b0 d0 51 68 bf 35 4b 47 3d af c7 16 3f bf c9 28 be
       -0.90749836 0.048655707 0.58898443 -0.1648321
0001c0 ca 82 4f be 8d c9 d2 bd 4b b0 3b 3e f8 8e 07 bf
       -0.20264736 -0.10292349 0.18328969 -0.5295253
0001d0 e0 ec a8 be e1 cb c8 3d 1f 09 7f 3e 7e 3e 9c 3f
       -0.3299322 0.09804512 0.24905823 1.2206571
0001e0 4e e3 56 3f 6e 20 3d 3e 12 f5 95 3c 70 0f 28 be
       0.8394059 0.18469402 0.018305335 -0.16412139
0001f0 2f b5 45 be 38 f1 ef bd df b2 c1 3f 82 82 40 be
       -0.19307397 -0.11715931 1.5132712 -0.18799785
000200 7e 0d 70 be 2b f5 19 3f 3a be de be e0 5b d5 be
       -0.23442647 0.6013972 -0.43504506 -0.41671658
000210 03 43 cd bf b9 eb dd bc b8 91 54 be 91 c2 fc 3e
       -1.6036075 -0.02708994 -0.20758712 0.49367192
000220 fd 1a 80 3f c2 ae 9d 3e 67 75 59 bf d1 52 d4 bd
       1.0008236 0.30797392 -0.84944767 -0.103673585
000230 78 d0 8c be ee c2 94 bd 61 11 9c 3e af e2 0e 3d
       -0.275028 -0.072637424 0.3048201 0.03488415
000240 4d 27 94 be 0f f5 d0 be 3f c1 8a bd dd 74 1c bf
       -0.28936234 -0.40811965 -0.0677514 -0.6111582
000250 85 c5 0a 3f 44 6c fc be 59 99 2d 3e b6 64 f4 3e
       0.5420764 -0.4930135 0.16953029 0.47733086
000260 cf a6 7f bf 2d 0c 95 3f 50 9f a9 3d 59 f1 83 be
       -0.99863905 1.1644341 0.082823396 -0.2577007
000270 72 88 94 be 18 48 fe 3e d6 d0 d6 bd 5d 85 a5 bd
       -0.2901035 0.49664378 -0.10489051 -0.08082078
000280 13 ad 39 3e 65 7f 5d be 46 db 82 be df d3 e4 3e
       0.18132429 -0.21630628 -0.25557917 0.44692895
000290 9e 46 72 bf 3d 47 d8 be 1f 75 90 3c 81 c8 81 3d
       -0.94639003 -0.4224185 0.017633973 0.06337071
0002a0 c0 31 18 be 82 37 fb 3d 9f 32 20 bf 66 b1 d0 bd
       -0.14862728 0.12266447 -0.6257724 -0.10190086
0002b0 12 49 71 3e 2a 1d dd bd 70 54 9b bf 13 68 24 3e
       0.2356303 -0.10796578 -1.2135143 0.16055326
0002c0 5f 54 ba 39 95 b1 8d be 76 59 b3 3d d2 29 57 be
       0.00035539546 -0.27674547 0.08757298 -0.21012047
0002d0 6e 1f c7 be bf da 51 be 0d 04 d2 3e 7b 8a 5b 3d
       -0.38891166 -0.20493601 0.41018716 0.053598862
0002e0 6c 67 03 3f 86 12 fd be 9c a9 eb bd 0f 1a 72 3f
       0.51329684 -0.49428195 -0.1150696 0.9457101
0002f0 6e 1d e0 bd 3f 4f 00 3d 66 56 32 3f 81 6d a9 be
       -0.10943113 0.031325575 0.69663084 -0.33091357
000300 f3 d6 34 3b 66 58 87 bf 99 ed 3e bf 09 16 c3 bd
       0.002759394 -1.0573852 -0.74581295 -0.09525687
000310 30 ed 5e bf 87 56 c4 3e ec bf 70 be cd f6 8d be
       -0.8708067 0.38347265 -0.23510712 -0.27727357
000320 cf 18 ba 3e 2f f9 d9 3d 7b 8b bb be 30 f5 c3 be
       0.36347052 0.10643231 -0.36629853 -0.38273
000330 82 60 3f 3e e9 ae 06 bf c2 7a 17 3f b7 53 77 3e
       0.18689159 -0.5261064 0.5917169 0.24153028
000340 ff 7b d9 bd d6 6c d1 3e 3a 6c ad bd 16 ff 5d 3e
       -0.106193535 0.40903348 -0.08467908 0.21679339
000350 e2 c3 03 3f 09 12 1d 3e 16 7d a7 3e 98 45 78 be
       0.5147077 0.15338911 0.3271262 -0.24245298
000360 51 37 8d be 7e 70 10 3e fe 10 68 be 35 da 9d 3d
       -0.27581266 0.14105412 -0.22662732 0.07707635
000370 77 36 31 be f1 f5 9e 3e 46 05 5f bc 18 f8 95 bd
       -0.17305933 0.31047013 -0.013612097 -0.07322711
000380 c6 f4 88 3d c1 6c 13 3f ab c1 9b 3f 3a aa ae 3e
       0.06687312 0.5758782 1.2168478 0.34114248
000390 1c 76 22 3f 21 f5 73 3f d1 db 77 3e d3 dc 02 be
       0.6346147 0.9529591 0.24204947 -0.1277955
0003a0 bc 46 62 3f a5 c5 f5 be c7 87 3e bf d1 b0 4b be
       0.8838918 -0.48002353 -0.7442593 -0.19891669
0003b0 4d 25 43 3f e5 d6 ab 3d 93 72 f8 3e eb 4a c1 3c
       0.7622879 0.08390597 0.48524913 0.023595294
0003c0 71 d6 9b 3e 7b d9 12 bf ec 7e 6b bd cc 5c 69 bc
       0.30437043 -0.573631 -0.05749409 -0.014243316
0003d0 83 00 58 bd 99 9d 9e 3e a0 be 1b bf eb 99 8c be
       -0.052734863 0.30979612 -0.60837746 -0.2746118
0003e0 09 e5 16 bf 09 ef 31 bd 9b 02 f9 3d de 69 59 bf
       -0.5894323 -0.043440852 0.121587 -0.84927166
0003f0 40 df 26 3e cb ee 12 bf fe 56 0a 3f 6c 88 77 3d
       0.162961 -0.5739562 0.5403899 0.060432836

rnn.bias_ih_l0 f4 [16]
000000 a8 8b d9 3d c6 42 21 3e b2 98 48 be 2b f5 8a be
       0.106223404 0.15748128 -0.19589499 -0.27140173
000010 35 ca 23 3d 76 2e 23 be 04 2f 6d 3e 0b 37 69 be
       0.03998776 -0.15935692 0.23162466 -0.22774903
000020 f8 01 b0 3d 25 3e 74 be e1 f2 e6 3d 98 a3 d2 bd
       0.085941255 -0.23851831 0.11276794 -0.10285109
000030 78 df 90 be e2 24 ac 3d 81 c3 43 3e d8 6d 33 3d
       -0.28295493 0.08405472 0.19117548 0.043805927

rnn.bias_hh_l0 f4 [16]
000000 07 60 38 3e d2 44 95 3e b1 96 8d bd 16 c7 fa 3b
       0.18005382 0.29154068 -0.06913508 0.0076531274
000010 6d 86 d1 3c 72 bf 9a be 88 d2 c9 3d ed 36 42 3d
       0.025576795 -0.30224186 0.09854609 0.047415663
000020 80 7f bb 3c 12 9a 39 bd dc c4 60 be 6f b7 0e 3e
       0.022887945 -0.04531295 -0.21950096 0.13937162
000030 4c 89 60 bd 58 5c 78 3e c6 b4 30 bd b0 0c 70 be
       -0.054818437 0.24253976 -0.04314115 -0.2344234

fc1.weight f4 [8, 16]
000000 3a e9 4e 3f 94 29 e4 3e c4 65 8c bf 10 c4 0b bf
       0.80824625 0.44562972 -1.0968556 -0.5459604
000010 2e fa a0 3f b4 a3 00 bf 41 84 86 3f 66 32 19 be
       1.2576349 -0.5024979 1.0509111 -0.14960632
000020 e0 09 49 bf c4 50 a6 be 1b 0f 20 bf 36 a1 66 3f
       -0.78530693 -0.32483494 -0.6252305 0.9008974
000030 da f3 85 bf af 44 44 3f 61 52 6a 3f 05 4d 8b bf
       -1.0465043 0.766673 0.9153195 -1.088288
000040 d2 e3 02 c0 71 cf c6 bf 4c dc 82 3f 87 f7 d4 3f
       -2.045155 -1.5532056 1.0223479 1.6638039
000050 d3 cc 8f bf 74 ce 82 be 59 59 e9 3e 8d 8e a8 bf
       -1.1234382 -0.25548136 0.4557598 -1.3168503
000060 1f 41 13 3f 32 9f bd 3f 0a 7b 20 bf 41 01 d6 bf
       0.5752124 1.4814208 -0.6268774 -1.6719133
000070 ef 14 8b bf 6c 25 84 3f e1 54 b0 bf 98 ab 28 3f
       -1.0865763 1.032392 -1.3775903 0.6588683
000080 3d f8 02 3f 04 b2 6f be 06 ec a4 3d a9 b8 18 be
       0.5116003 -0.23407751 0.080528304 -0.14914192
000090 00 e2 60 3f f4 0f cd 3f ae 22 e5 bd 50 cd ca 3f
       0.8784485 1.6020494 -0.11188255 1.5843906
0000a0 51 b0 91 3f b0 24 84 3f a6 ab 85 3f 01 46 84 bf
       1.1381932 1.0323696 1.0443008 -1.0333863
0000b0 3b 72 60 bf f1 9d e4 bf 41 10 90 bf 2a 0d 0a 40
       -0.876743 -1.78607 -1.125496 2.1570535
0000c0 df 50 97 bf 3d 95 f3 3e 58 9a a2 bf cf 43 b6 3f
       -1.1821555 0.47574797 -1.2703352 1.4239444
0000d0 f4 46 43 bf 4c e7 94 3f 5b a9 34 be d3 bc 6e bb
       -0.7628014 1.1633086 -0.17642729 -0.0036428466
0000e0 57 c0 84 bf 88 39 d9 be 48 c3 b2 3f 61 c5 84 bf
       -1.0371197 -0.42426705 1.3965845 -1.0372735
0000f0 5b 4d 14 3f 21 b4 fd bf ba b8 25 3d dc f9 de 3f
       0.57930535 -1.9820596 0.040459372 1.7420001
000100 4f 77 ad bf 31 3a 87 bf 23 98 8e 3f bb 8b 71 3f
       -1.3552035 -1.0564634 1.1140178 0.94353837
000110 29 42 29 3f b1 6d c6 3f f2 f0 26 c0 5c 9e d0 3f
       0.6611658 1.5502225 -2.6084561 1.6298327
000120 54 54 85 bf 7e 82 07 40 e5 a7 f9 be 07 d5 d0 bf
       -1.041636 2.1173396 -0.48760906 -1.6315011
000130 96 e2 b4 3f 3a 14 1f c0 58 10 f4 3f fa 14 3e 3f
       1.4131649 -2.4856095 1.9067488 0.7425076
000140 7f 18 99 3d 27 62 3a c0 11 c2 26 3f 44 69 ab be
       0.074753754 -2.9122407 0.6513987 -0.3347875
000150 9e c8 4c bf 1a 4b 8c be 3d fa 84 bf de 2b 93 bf
       -0.7999362 -0.27401048 -1.0388867 -1.1497762
000160 cf 83 7a bf b8 82 0b bf d0 6c 88 3e 5f d0 85 3e
       -0.97857374 -0.54496336 0.26645517 0.26135537
000170 69 dd b3 3f c1 ac 3b be 5d c6 a3 3f df f2 52 3e
       1.4051944 -0.18327619 1.2794911 0.2060046
000180 2d b8 c2 bc 98 a5 9d 3f 9a a8 49 3f c5 8d 02 3e
       -0.023769462 1.231616 0.7877289 0.12749393
000190 5a fb 81 bf 79 6f 5d 3e d0 c2 a6 3e 1c 0b aa be
       -1.0154831 0.21624555 0.32570505 -0.332116
0001a0 2b a2 60 3f ee a3 bf 3d 7c e3 86 3f df 1f 49 be
       0.8774745 0.09357439 1.0538173 -0.19641064
0001b0 ce c2 13 3f 05 77 c8 3d ce 29 58 bf 9c b3 89 bd
       0.57719123 0.09788326 -0.8443879 -0.06723711
0001c0 0a 78 c4 be e0 08 79 3e 9d 47 02 3f 10 a1 d7 3d
       -0.38372833 0.24319792 0.50890523 0.10528767
0001d0 e5 26 42 be eb 75 53 3e 72 e4 a9 bf 42 ea cb 3f
       -0.1896015 0.20650451 -1.3272841 1.5930865
0001e0 b8 7d ba 3f 22 c3 b1 bd 26 d3 fc 3e c8 e7 95 bd
       1.4569616 -0.08679797 0.49379843 -0.073195994
0001f0 db 9e 5f 3f 23 40 16 3b 84 0e cc be 57 ae 2d bc
       0.8735177 0.0022926412 -0.39854825 -0.010600648

fc1.bias f4 [8]
000000 d6 3f 1b 3f dc 5b 4e be e0 0d 9d bf 5a 54 09 bf
       0.6064428 -0.20152229 -1.2269859 -0.53644335
000010 99 12 fa bf 58 8d a9 be 57 60 21 be 65 66 41 be
       -1.9536926 -0.3311565 -0.15759407 -0.18886717
