src/main/python/saved_models/kotlin_1_28_RNNClassifier1_128embs_178id_16hd_1hl_Falsebid_0.pt (torch, 102751 bytes, 7 tensors)

word_embeddings.weight f4 [178, 128]
000000 40 95 8f bf 5a 60 ee be 89 f5 d5 be 7c 31 df bf
       -1.1217422 -0.46557885 -0.4178889 -1.7436976
000010 8c b6 d9 3e f8 ac 8a bf 11 51 c0 bf 66 83 08 c0
       0.42522085 -1.0834036 -1.502474 -2.13302
000020 54 b6 24 bf c2 0c 74 be cb 7d e2 be 8c cf 4e bf
       -0.6434071 -0.23832992 -0.44236597 -0.8078544
000030 b4 ce 28 bf ec c3 c4 3f 8c 0b 3e 3f 03 06 7a 3f
       -0.65940404 1.5372291 0.7423637 0.97665423
000040 83 c4 60 be f6 0c 91 bf 4f ed a6 3f ad e8 10 3f
       -0.21949963 -1.133208 1.3041171 0.56605035
000050 44 58 a0 3f 37 84 f3 be ef ec 00 bf 52 d5 b0 3f
       1.2526937 -0.4756181 -0.5036153 1.38151
000060 77 fd a8 3f 23 e6 b2 3e 86 49 1b c0 b3 64 ba bf
       1.3202351 0.34941205 -2.4263625 -1.4561981
000070 3f 3c c9 bc a0 97 9f bd 7b c7 9f bf d4 c5 ff be
       -0.02456486 -0.07792592 -1.2482752 -0.49955618
000080 2e e9 cd 3f 13 11 ae be bc ec 00 bf 7e c1 84 be
       1.6086786 -0.33997402 -0.5036123 -0.25928873
000090 6a a2 b2 3e 33 35 15 3f 4f df ab be 4d 5e 32 bf
       0.34889537 0.582843 -0.33568808 -0.6967514
0000a0 c5 5e 91 3e a7 df 9c 3e b3 f5 b1 3d c0 c0 0c 3f
       0.28392616 0.30639383 0.086894415 0.54981613
0000b0 86 68 fe 3f ef 61 7e bf 05 d7 8a 3f 7d 35 74 bf
       1.9875648 -0.99368185 1.0846869 -0.95394117
0000c0 98 a0 84 be d1 c7 9a 3f 54 22 93 3e 6e e9 1f bf
       -0.25903773 1.2092229 0.28737128 -0.6246556
0000d0 85 a9 9c 3f 0e f2 75 be 4c a4 b6 3f 27 c2 1e 40
       1.2239233 -0.24018118 1.426889 2.4806
0000e0 f0 9e 22 3f 6f d7 92 3f c3 ba c3 be b8 cd 37 bf
       0.6352377 1.1471995 -0.38228425 -0.71798277
0000f0 02 0b da 3f da da 7f be db d4 37 c0 d4 c5 a0 bf
       1.7034609 -0.24985829 -2.8723667 -1.2560372
000100 98 b3 12 3e 66 69 05 bf 07 f1 33 3c 9c 49 80 bf
       0.14326322 -0.5211395 0.010982758 -1.0022464
000110 c9 ad 19 3e de 4f 9d be 54 1d ad 3f b0 9c 37 be
       0.150077 -0.30724996 1.3524575 -0.17930865
000120 9c 4e a1 bf 4d c1 7b bf 64 b5 97 bf e6 fc 6e bf
       -1.2602115 -0.9834183 -1.1852231 -0.9335464
000130 b1 e5 ce be cf 3e e1 be 2c e6 31 3f 64 28 06 bf
       -0.40409616 -0.43993232 0.6949184 -0.5240538
000140 13 f1 b2 be 90 c3 af bd 54 89 1f be b4 dd 99 3f
       -0.3494955 -0.085822225 -0.1557973 1.2020783
000150 7c df dc bf bd 67 19 be 1e b5 c0 bd c6 5f 85 3e
       -1.7255702 -0.1498098 -0.09409545 0.26049632
000160 76 93 d5 bd be 24 d8 be a7 eb 26 bf f6 e2 aa 3f
       -0.104285166 -0.42215532 -0.65203327 1.3350513
000170 00 43 18 bf 60 23 ff 3d 48 72 45 3e 20 ea cc 3f
       -0.59477234 0.12457919 0.19281876 1.6008949
000180 10 b3 7d 3f a8 80 0d 3f 28 10 71 3f 9d 54 41 bf
       0.9910135 0.5527444 0.9416528 -0.75519735
000190 93 65 08 40 3a 88 1f bf fd 70 f6 be aa 17 d6 3f
       2.1311996 -0.6231724 -0.48133078 1.6725972
0001a0 b6 39 f7 3f 5c 73 66 3e a6 f6 f8 bd 2b 5a 70 bf
       1.9314487 0.22504944 -0.121564195 -0.93887585
0001b0 9a b5 27 c0 65 72 57 bf d6 f1 f2 bf 71 13 4c bf
       -2.620459 -0.8415893 -1.8980052 -0.79717165
0001c0 6f 16 7e 3f 4f ee 29 bf 92 81 fc 3f 6c 21 6c 3f
       0.9925298 -0.66379255 1.9727042 0.922385
0001d0 b1 0a a7 be a0 ef ff 3d db cd 2b 3f 91 ce 63 bf
       -0.32625344 0.12496877 0.67110986 -0.8898707
0001e0 c7 03 10 40 cd 55 86 3e 7d ce 0a 3f 2c 99 ee 3f
       2.2502306 0.26237336 0.54221326 1.8640494
0001f0 f2 d5 ba bf 9e 7e 04 40 36 7f 84 3d 4a 8a 09 be
       -1.4596541 2.070228 0.06469576 -0.1343166
000200 86 5d 36 3f 97 64 e3 bf bd 2d b5 3e ed 8c 99 3f
       0.71236455 -1.7765073 0.35386458 1.1996132
000210 7a 22 9b be 07 84 e1 bf 2d 85 22 3f 7a ea 4d bf
       -0.3029974 -1.7618417 0.6348446 -0.8043591
000220 e9 38 ce bf 03 91 ef bf 87 07 0b 3f 3c 22 29 3f
       -1.6111118 -1.8716129 0.5430836 0.6606786
000230 bf e4 12 40 a3 c6 2c 3f 1f 4e db 3f c0 aa e5 bf
       2.2952116 0.67490596 1.7133216 -1.7942734
000240 8a 7f ae bf 48 b4 7b bf 30 71 c1 3f a4 51 24 3f
       -1.3632672 -0.9832196 1.5112667 0.64187074
000250 50 28 f2 3e 29 70 db be a2 26 0d 3f 40 10 c6 bf
       0.4729638 -0.4285901 0.55137074 -1.5473709
000260 ff a2 04 3f 35 2f da 3d ed d9 89 3e ff 91 a9 3f
       0.5181121 0.10653535 0.26924077 1.324768
000270 8e 7d df 3f a0 6f ed 3f 9b d4 34 bf 4d a7 23 40
       1.7460191 1.854969 -0.7063691 2.5570862
000280 0e c7 d5 3e e8 d2 59 be 7d 07 57 bf 95 0c d7 be
       0.4175343 -0.2127186 -0.839958 -0.42001787
000290 d8 c0 1f bf 14 30 7a bf b3 f5 5f 3f 79 be 7c 3f
       -0.6240363 -0.9772961 0.8748428 0.9872814
0002a0 ca 80 9e 3e f8 a5 c2 3f 1b 45 9a 3f 49 65 e8 bf
       0.30957633 1.52069 1.2052339 -1.815591
0002b0 83 92 ce be 8a 8a 75 bf 63 a5 aa bb ff 82 a1 bd
       -0.40346155 -0.9591452 -0.005207704 -0.07886314
0002c0 ba f9 57 3f b3 35 95 3f 07 e5 06 3f b1 43 cf 3f
       0.8436543 1.1657013 0.5269322 1.6192533
0002d0 26 c7 76 bf b8 ea 10 3e bd 96 27 be f3 68 b7 be
       -0.96397626 0.14152038 -0.16366096 -0.35822257
0002e0 a6 73 dc 3f 43 6e 9b be 70 9b 74 3e 3b 08 ac 3f
       1.7222793 -0.3035756 0.2388742 1.3440012
0002f0 fe 67 d3 3d 68 d8 8c 3f b5 f0 ae be cd 84 72 3f
       0.10322569 1.1003542 -0.3416802 0.9473389
000300 43 8a 11 bf b4 6c 56 3f fe 4e e4 3f 67 1d 48 be
       -0.56851596 0.8375962 1.7836607 -0.19542466
000310 8b d1 03 3f 25 7a ec bf e9 ab 3a c0 88 3c 11 bf
       0.5149161 -1.8474776 -2.9167426 -0.5673299
000320 57 91 0a bf 20 2a 65 3f fb eb 61 bf c8 24 08 3f
       -0.5412802 0.895174 -0.882507 0.53181124
000330 07 dc c5 bf 82 75 31 be 5a 6e 3a 3f d1 b8 69 3d
       -1.5457772 -0.17329982 0.72824633 0.05706102
000340 fa cf 67 3f fd ec 85 3f d8 45 05 bf 8e 69 ad 3f
       0.9055172 1.0462948 -0.520597 1.3547838
000350 78 d6 70 3e ed 05 f5 3f 85 0f eb 3f 47 8a a9 3f
       0.23519313 1.9142433 1.8364111 1.3245324
000360 fc 10 78 bf 9f 35 a0 3f e7 eb 9a 3f ce 25 07 bf
       -0.96900916 1.2516364 1.2103242 -0.5279206
000370 ce cf 5f 3e cd 05 13 bf 13 83 ba 3f ad ae e2 3f
       0.21856615 -0.57430726 1.4571251 1.7709557
000380 60 30 d3 3f b4 2f dd be 0a c4 8a be 7b 36 b8 bf
       1.6499138 -0.43200457 -0.2710269 -1.4391626
000390 05 9f 9f 3f 8e 0d a3 3f 80 2a c8 3e 74 40 c6 3e
       1.2470404 1.2738512 0.39094925 0.3872105
0003a0 3d 7d a3 bd 7d f6 ae 3e 59 e6 72 3f d0 24 b1 bf
       -0.07982872 0.3417243 0.9488273 -1.3839359
0003b0 dc ae dc 3f 50 58 17 c0 1e f3 6d bf 0e 56 96 3e
       1.7240863 -2.3647652 -0.9294909 0.2936253
0003c0 92 4b 5c 3e 28 3f 70 3f 4f 9c bb 3f 1b 75 0e bf
       0.21513203 0.9384637 1.4657077 -0.5564744
0003d0 e3 ad 3e bf 4d 02 4f be 10 2e 6b be 3e 80 ae 3a
       -0.7448408 -0.20215721 -0.2296679 0.0013313366
0003e0 2a 24 c0 3e de c0 14 bf d5 82 12 bf 6c 3e 81 3f
       0.3752759 -0.5810679 -0.57230884 1.0097175
0003f0 b5 5e d8 bd 47 00 97 bf a7 ea b9 bd 43 28 10 3f
       -0.10564939 -1.179696 -0.090779595 0.56311435

rnn.weight_ih_l0 f4 [16, 128]
000000 7a 59 84 3e a3 ec 2d be c4 76 b7 3d 9a c2 dc bd
       0.25849515 -0.16984801 0.089581996 -0.10779305
000010 e0 28 01 be 67 25 70 3d 3b c2 c5 3e a4 50 cb 3e
       -0.12613249 0.05862942 0.3862475 0.3970996
000020 41 c6 a2 3d 05 a9 b0 3e 97 e4 84 3e dc 9f b1 3e
       0.0794797 0.34503952 0.2595565 0.34692276
000030 c7 45 6a 3e 0b 02 c4 3e 21 67 4b be 8f ce e9 bd
       0.2287818 0.3828281 -0.1986356 -0.11416351
000040 25 d3 b8 bd 36 a3 af 3e db b8 2b be aa 22 8d be
       -0.090246476 0.34304208 -0.16769736 -0.2756551
000050 97 ca 93 be 27 aa 23 3e f8 14 a7 be 6b b9 b5 bc
       -0.288655 0.15982877 -0.32633185 -0.02218314
000060 4e 68 da bc ad 4f 78 be 97 25 bc bd 5e 4d de 3e
       -0.026661064 -0.24249144 -0.09186857 0.434184
000070 ba 11 dd 3e 70 5c 08 3d 5e 6d 30 be 30 aa 87 be
       0.43177587 0.03329128 -0.1722922 -0.2649703
000080 5e 72 8c 3e a5 11 90 3e b9 a3 09 bd d7 d6 01 be
       0.27431005 0.28138462 -0.033603404 -0.12679611
000090 24 9e 8f 3e 77 26 b7 bd 44 7d cf bc 45 a0 ac 3e
       0.2805034 -0.089428835 -0.025328286 0.33716026
0000a0 b4 86 2a be ba 39 33 bd 09 36 ec 3d 07 fc 99 be
       -0.16652948 -0.043756224 0.11533744 -0.30075094
0000b0 8c 76 ed 3e 3d 82 da 3b 15 ba 6f b9 4a e3 0e bd
       0.46379507 0.0066683576 -0.00022862137 -0.03488473
0000c0 99 e4 92 3d ed 41 eb be 51 44 6c 3d f5 fc 52 bd
       0.07172508 -0.45948735 0.05768234 -0.05151077
0000d0 c9 d9 f6 3d 2a ff 38 3b a4 c6 00 be f0 06 5b bd
       0.12053258 0.0028228262 -0.12575775 -0.053473413
0000e0 86 45 0c 3e 6c 65 c9 3e e2 30 7f 3e b3 3e 62 be
       0.13698396 0.3933519 0.24920991 -0.2209423
0000f0 95 d3 eb 3d a2 e8 af 3e 58 0b 43 bc ce f6 29 be
       0.115149654 0.34357172 -0.01190456 -0.16598055
000100 9b a8 61 3e a1 45 06 be 0a 95 92 bd e0 87 d6 3d
       0.22036974 -0.13112499 -0.07157333 0.10475135
000110 25 6c 8c be ff 58 08 3e 32 d5 bd 3e f8 5c 83 3e
       -0.27426258 0.133152 0.37076718 0.25656867
000120 dd a1 61 3e cd 72 ab 3e ca 22 2b 3e 37 c3 64 be
       0.22034402 0.33486024 0.1671249 -0.22340094
000130 27 54 38 3e 2b ed a0 be 75 ab 3d bc eb 67 17 3e
       0.18000852 -0.31430945 -0.011576523 0.14785735
000140 fc c1 ee be 0a 12 de 3d b1 20 29 be 1a 74 12 be
       -0.46632373 0.108432844 -0.16516377 -0.14302102
000150 7b 02 95 be d1 a1 b6 bd 46 69 34 3e ad 8f c0 bd
       -0.29103455 -0.08917583 0.17618284 -0.09402404
000160 4e 23 39 3c 53 6a 00 3e 0f 92 2a 3e cf be 9f bd
       0.011299921 0.1254056 0.1665728 -0.07800066
000170 c5 83 87 bc 4c 16 5e bc 7e 87 5d be 44 eb 15 3e
       -0.016542325 -0.013555121 -0.21633717 0.14640528
000180 75 67 7e bd bc 50 76 3e 2e 71 d9 bd e1 7b e1 bd
       -0.062110383 0.24054235 -0.106172904 -0.11009956
000190 94 50 b5 3d 09 4c cc 3d 62 9f 93 bd fc 6c 82 3e
       0.0885326 0.0997544 -0.07208134 0.25473773
0001a0 12 79 3c 3d 47 a0 54 be 90 8f 43 3e 43 6f c9 3e
       0.0460139 -0.20764266 0.19097733 0.39342698
0001b0 37 f6 cf 3d 42 1d 93 bd b9 6f 8f be a2 95 fe 3d
       0.10154384 -0.07183315 -0.28014925 0.12430884
0001c0 65 5c d1 bd 6b 2a 6e bd 96 08 24 3e 49 d3 71 be
       -0.10222701 -0.05814592 0.160189 -0.23615755
0001d0 9a e8 f2 3d f7 ab 82 be b8 58 83 3d b0 20 58 3e
       0.118607715 -0.25521824 0.06413406 0.2110622
0001e0 6d dd f1 bd 7e db 97 be 7a bb 24 be 2a 68 36 3e
       -0.11809812 -0.29659647 -0.16087142 0.17813173
0001f0 03 51 05 be 0c 5e 03 bf d9 2a b0 be e8 ff 89 3d
       -0.13019185 -0.5131538 -0.3440769 0.06738263
000200 af 78 1a 3d 60 59 4a 3e dc a1 c0 be d0 88 2a 3e
       0.03771275 0.19760656 -0.3762349 0.16653752
000210 88 07 17 3d ed e7 11 bd 53 5c 88 3e 8e 0a 84 be
       0.036872417 -0.035621572 0.26632938 -0.25789303
000220 e0 a0 67 bd 0c 42 72 bd c0 f6 b8 be fd 67 df bd
       -0.056549907 -0.05914502 -0.36125755 -0.10908506
000230 df 67 84 be d4 b3 1e 3d ce ab 7f be 6d 82 6a be
       -0.25860497 0.038745716 -0.24967882 -0.22901316
000240 ea 81 64 3e bd c2 23 bd 18 33 24 be e8 bc a1 3e
       0.22315183 -0.03998064 -0.16035116 0.31589437
000250 47 0f e3 bd 8f ac c9 bd 86 7f b8 3c 63 8b 35 3e
       -0.11086898 -0.09847366 0.022521745 0.17728953
000260 c3 04 cc 3d d4 fc 32 be 26 62 3e 3e 3e 60 12 be
       0.09961846 -0.17479259 0.18592128 -0.14294526
000270 26 1b b6 bd a8 6f 92 bc 56 96 b8 3d 4d 99 8e bc
       -0.08891897 -0.017875507 0.09013049 -0.017407084
000280 e1 db 5f 3d 33 b0 bb 3d 75 a0 96 3e 71 11 aa ba
       0.054653052 0.09164467 0.29419294 -0.0012975169
000290 27 43 07 be 14 f6 f3 3d a9 23 49 3d 3e 82 88 be
       -0.1320921 0.1191217 0.049106274 -0.26661867
0002a0 4f c0 b4 bd 7c 42 df 3d 50 6c 30 3e 9c 5e 17 3e
       -0.088257425 0.10901353 0.17228818 0.14782184
0002b0 f5 21 cc bd db 7d f2 bd 6b 4e 5a 3e 77 10 df 3d
       -0.09967414 -0.11840411 0.21318977 0.10891812
0002c0 5c 8e f3 bd c5 ee 3f be fa 5a 3f be c1 c0 14 be
       -0.11892387 -0.18743427 -0.18687049 -0.14526655
0002d0 e2 87 5f 3c ff 4c 13 be 43 81 1e 3e 52 f6 b8 bd
       0.013643237 -0.1438484 0.15478997 -0.09031357
0002e0 df 2f ba bc f1 54 02 bd 0a a6 21 be 9d 0b 4d be
       -0.022727905 -0.031819288 -0.15785995 -0.20023961
0002f0 c1 0c df 3d a4 ef 44 3d d9 4f 38 3d 31 5c 20 3d
       0.108911045 0.0480801 0.044998024 0.03915042
000300 5d 77 95 be a3 02 35 3e 5b c0 36 be 0b de 0c be
       -0.2919263 0.17676787 -0.17846815 -0.13756578
000310 50 5c a0 3c 64 46 ac 3d 97 63 88 3c b3 1a 10 3b
       0.019575268 0.084118634 0.01664905 0.002198857
000320 c2 48 18 3e d0 4a c4 3c a0 c2 96 be 87 aa 02 3e
       0.14871505 0.023961455 -0.29445362 0.12760364
000330 7f 74 da 3c 9a d1 8e 3e 18 3b b2 3b 7b 11 3d 3d
       0.026666878 0.27894288 0.0054391734 0.04615925
000340 84 e3 54 3e ad 00 00 3e 18 91 c4 bd 1a 04 fc 3d
       0.20789915 0.12500258 -0.09597987 0.1230547
000350 6e 19 63 3e 9b 20 a6 3d c1 6f 8a be 96 6b d2 be
       0.2217767 0.08111688 -0.27038386 -0.41097707
000360 60 3a 0c 3e 27 1c 3a 3e cf c9 09 be be b0 6a be
       0.13694143 0.18174802 -0.1345589 -0.22918984
000370 7b 4e dc be 88 c7 0c be ea 13 a5 3d b0 77 a7 3b
       -0.43028626 -0.1374799 0.08060439 0.0051107034
000380 09 da cb 3d 6c 9b 43 3e 3f dc cf 3d 31 a1 0b 3e
       0.09953696 0.19102257 0.101494305 0.13635708
000390 27 80 93 be 60 41 04 be bb 9e 14 3e 9b ba 5e bd
       -0.2880871 -0.12915564 0.14513676 -0.05437718
0003a0 9d 66 73 be 69 a5 2a 3e 6e 1b d8 be d6 aa d1 3e
       -0.23769613 0.16664661 -0.42208427 0.4095065
0003b0 68 14 b5 3e d9 4f 9c 3d 7f 05 a9 3d 6c 73 8f 3e
       0.3536713 0.07632417 0.082530014 0.28017747
0003c0 07 0d 90 bd 58 63 9d 3c 9c 71 5b be 9b 46 a7 3d
       -0.07033735 0.01921241 -0.21430057 0.08167764
0003d0 82 4e 15 be f9 25 7e 3e a2 63 b8 bd bc 3c b8 3e
       -0.1458073 0.24819173 -0.090033785 0.35983837
0003e0 5d a0 2b be 19 58 f2 bd 43 b3 8e 3d 87 f4 6a 3c
       -0.16760392 -0.118332095 0.06967785 0.014340526
0003f0 b7 23 3c be b5 b0 7a be fc f9 08 3d 93 0c 73 3e
       -0.18372999 -0.24481471 0.03344153 0.23735265

rnn.weight_hh_l0 f4 [16, 16]
000000 54 6b 0b 3f 73 60 93 be cb cd 03 3e ca d7 d5 3e
       0.54460645 -0.28784522 0.12871473 0.41766196
000010 1c a4 6c be 70 48 db 3c 56 f7 d4 bd d1 9e 5c 3e
       -0.23109478 0.02676794 -0.10398738 0.21544959
000020 55 a4 ab 3e 9d fd b7 3e 1f 2b a6 be 26 dc da bf
       0.33523813 0.3593568 -0.32454774 -1.7098434
000030 7f 0b 89 3f d4 e8 bb 3d 2e c3 90 be 0d 7f 23 be
       1.0706633 0.09175268 -0.2827391 -0.15966435
000040 79 0a 86 be ff 83 24 3e f2 36 d2 be bf d6 30 3e
       -0.26179865 0.16065978 -0.41057545 0.17269419
000050 da ef ed be 62 b2 1d 3e 4a 19 8c bd 21 5f 54 be
       -0.46472055 0.15400079 -0.06840761 -0.20739414
000060 f2 5a 72 be c6 a4 8b 3f f0 d8 2b 3f 8d 76 5b 3f
       -0.23667505 1.090966 0.67127895 0.8572777
000070 07 11 51 3f 16 31 75 3c c7 00 41 bf f6 16 80 3c
       0.81666607 0.014965316 -0.7539181 0.015635949
000080 c6 a3 ad be 4e d6 bf 3e 43 d2 f7 3f 63 4a 0e 3d
       -0.33914012 0.3746819 1.9361042 0.03473891
000090 04 57 bf 3e 69 9c 14 bf 0d 4e 97 bd 9f 34 d1 3e
       0.37371075 -0.5805116 -0.07387934 0.4086046
0000a0 fa 73 6b 3e 8b 9a a2 3d b8 0e 21 bf a2 ed 9a bf
       0.2299346 0.07939633 -0.62913084 -1.210377
0000b0 37 86 72 bf 12 2f f6 3d c4 55 15 3f 29 26 80 bf
       -0.94736046 0.12020697 0.5833399 -1.0011646
0000c0 32 00 83 3e e9 21 31 3e 8f 39 87 be 17 3d 20 3f
       0.25586087 0.17298092 -0.264111 0.62593216
0000d0 a2 26 3b 3e 58 bd 8f 3a c7 86 a7 3d 79 4e 6b 3e
       0.18276456 0.0010966463 0.081800036 0.22979154
0000e0 0a 3e 61 be ac 6e 0e 3e 95 27 24 bf 72 d4 26 3f
       -0.21996322 0.13909405 -0.641229 0.65167916
0000f0 e4 e2 b4 3a b1 82 cb bd cd 5f 9a 3f 16 2f 88 3d
       0.0013800529 -0.09937037 1.2060486 0.06649606
000100 e2 cd 8e 3d 1d 88 3d be 66 53 e9 bf 90 df b2 bd
       0.06972863 -0.18508954 -1.8228576 -0.087340474
000110 cc ff 58 be 9a 51 c9 3e 59 0d 77 be ff 4b 41 3e
       -0.21191329 0.3932007 -0.24126185 0.18876646
000120 67 11 52 be b4 19 09 3c 9f 48 b9 3e 7e 7b a6 3e
       -0.20514451 0.0083679445 0.36188218 0.32516092
000130 2c 3f f8 3e 7a d6 b3 be 26 eb 15 3e 96 4f 73 3e
       0.48485696 -0.3512457 0.14640483 0.23760828
000140 ae 5d ef bd 66 f2 1c 3e 6f b6 7a bf 49 14 17 bd
       -0.1168779 0.15326843 -0.9793462 -0.03688458
000150 38 de b7 be ff db da 3e b7 bc 7a 3e ad b8 a0 3c
       -0.35911727 0.4274597 0.24486051 0.01961931
000160 57 6e 02 be f3 64 0c 40 f8 e3 9d 3e ae e8 63 3e
       -0.12737404 2.1936615 0.3083799 0.22256729
000170 1d 1d 49 3f 78 56 06 be 2a 4c 8b be f9 cf 80 bd
       0.7856005 -0.13118923 -0.27206546 -0.06289668
000180 a3 78 1a ba a8 4f 0d 3e 4b b5 bb 3e aa 2d 81 be
       -0.000589261 0.13799918 0.36661753 -0.2523015
000190 54 63 77 3e f6 a4 5e be e5 40 16 be 26 04 bb 3e
       0.24158984 -0.21742615 -0.14673193 0.36526603
0001a0 f8 ba 27 3e ab bc 73 bf f9 5f 11 bf 6a b7 85 be
       0.16379917 -0.9520976 -0.5678707 -0.26116496
0001b0 ff 8c 72 bf e2 5e 18 be 08 fc 8b 3f 40 64 d8 bd
       -0.9474639 -0.14879945 1.0936289 -0.10565996
0001c0 74 01 91 be b1 3a 3d 3c fe 81 85 bd 97 9a 77 3d
       -0.2832142 0.011549638 -0.06518935 0.060450163
0001d0 96 b7 a8 be 79 1c b4 bd d2 0c bc 3d 4c 1a 9d 3e
       -0.32952565 -0.08794493 0.09182133 0.30684125
0001e0 4a 63 3c be 46 f4 05 40 ad 3d 13 bf 82 89 01 bd
       -0.18397251 2.0930343 -0.57515985 -0.03162528
0001f0 2c f9 4f 3f d7 f7 bb 3e c8 5f a9 3c 05 5f cd 3e
       0.8123958 0.36712524 0.020675555 0.40111557
000200 6c fd 4f 3e 65 69 d3 bc 0e d4 d8 be fb 5c 44 3e
       0.20311517 -0.025807092 -0.42349285 0.19176094
000210 fd 99 8b be d3 b4 14 3e 17 b4 66 be bf 13 f7 bb
       -0.2726592 0.14522104 -0.22529636 -0.0075401957
000220 00 7d 72 3c c1 d9 7e 3e cf 41 73 bf 6c 79 92 bf
       0.01480031 0.24887754 -0.9502229 -1.1443305
000230 d0 db 15 3f 4a 0c aa bd ed 6d b6 3e a2 00 18 3e
       0.5853853 -0.08303125 0.35630742 0.14843991
000240 32 03 c3 be 0a f0 e8 3e b5 53 b8 3e 3b b7 af be
       -0.38088375 0.45495635 0.36001363 -0.3431948
000250 8a 3b e6 3e 43 e5 44 3f b8 02 2d bf 39 8d df 3e
       0.449673 0.76912326 -0.67582273 0.43662432
000260 15 6a 48 be cc ca da bc c4 1d 33 3e 64 50 34 3f
       -0.19571717 -0.02670803 0.17491823 0.70435166
000270 3f f0 69 3e 75 bf 7a bf 03 6c fd be 9e b1 80 3f
       0.22845553 -0.9794839 -0.4949647 1.0054204
000280 86 3e 95 bd f2 7b 10 be 9f c8 ce bf e9 79 fc bc
       -0.07287316 -0.14109781 -1.6154975 -0.03081985
000290 e9 c9 64 3d d8 fd 45 3c 2a 18 41 3e be 1c 64 be
       0.05585662 0.012084447 0.18856874 -0.2227659
0002a0 49 1c e5 be ca 75 9f 3f 1c c0 92 3d c7 e9 97 bf
       -0.44748142 1.2457821 0.07165548 -1.1868218
0002b0 cd 71 bc 3f 46 94 84 3e e8 64 8b bf e8 f5 bf be
       1.4722229 0.25894374 -1.0890169 -0.374923
0002c0 7f db 08 3f bc aa c2 be 99 47 13 bf db ff 52 3f
       0.53459924 -0.38020885 -0.57531124 0.82421654
0002d0 c7 cf 7d be 36 80 3d be 0d 23 3d 3f 7c 1a 46 3e
       -0.24786292 -0.1850594 0.7388161 0.1934604
0002e0 aa ce cf 3e ea d2 0f 3e 8e e0 2d bf 4b 64 b7 be
       0.4058736 0.14045301 -0.6792077 -0.35818705
0002f0 a7 2a 01 bf 39 8c 54 3f d2 21 02 3f be 1f 53 3f
       -0.5045571 0.8302646 0.50832856 0.8247031
000300 76 c4 02 bf 87 45 c4 be fd a1 fa bd 88 70 4b bf
       -0.51081026 -0.38334295 -0.12237928 -0.79468584
000310 65 08 38 bf 36 72 53 3f d5 a3 8d bd 21 eb 86 3e
       -0.7188781 0.8259615 -0.06916014 0.26351264
000320 f3 40 e9 bc e5 5a 05 bf 6a c9 f1 be 14 44 a7 3f
       -0.028473353 -0.5209182 -0.4722398 1.3067651
000330 40 db bf be 89 2c 44 be 10 3c 5f be 77 0a 6c 3f
       -0.37471962 -0.19157614 -0.21800256 0.9220347
000340 88 e4 10 3e 75 0a 23 be 6c ef bd 3e d5 a9 08 3d
       0.14149678 -0.15921958 0.37096727 0.03336509
000350 d5 53 9b be 52 fe 45 3d 83 66 c2 3e 6a ff b1 3d
       -0.30337396 0.048338242 0.37968835 0.086912945
000360 be 3b 72 bd 5e eb 92 bf 53 30 b5 3d 2c 02 ab 3f
       -0.059139006 -1.1478078 0.08847108 1.3360038
000370 0e 2d 8c bf 4e 5f bc be 56 0b 2c 3d 61 05 20 3d
       -1.095125 -0.36791462 0.042003 0.03906763
000380 9c 3a 8e 3e 13 04 2e be 22 98 83 3e 6d 4e 81 be
       0.2777909 -0.16993742 0.25702006 -0.25255147
000390 b8 30 45 bf 73 5e 4e bf bf 6a e8 3e 70 9a 1d bf
       -0.77027464 -0.8061287 0.4539394 -0.6156378
0003a0 70 51 f8 be 41 bb c1 3d 6b 41 1f bf ce b5 e0 be
       -0.48499632 0.09459544 -0.62209195 -0.43888706
0003b0 a7 3e b8 3e 0d 77 d1 3d d4 a3 c3 be 07 76 32 be
       0.359853 0.10227785 -0.38210928 -0.17427836
0003c0 ea d2 2f 3e 20 0a b5 3e 96 db 41 bf 8c 4e 02 3c
       0.17170301 0.35359287 -0.75725687 0.007953297
0003d0 d9 90 a2 3e 7f 37 e0 3e 96 3b c1 be e7 81 02 3d
       0.31751135 0.4379234 -0.37740773 0.031862166
0003e0 cf e5 52 be 24 f2 35 bf 5e 41 29 3e 33 d3 6c 3f
       -0.20595478 -0.710726 0.16528842 0.92509764
0003f0 fb 06 c6 be 47 f0 a0 3e c7 1f d2 be 09 e1 4f be
       -0.386772 0.31433317 -0.4103987 -0.20300688

rnn.bias_ih_l0 f4 [16]
000000 a5 6b b0 be 9c d2 a1 be 6c 9c 45 bd 90 23 89 bd
       -0.34457126 -0.31605995 -0.04824488 -0.06696236
000010 f5 b4 8e be d2 89 ba 38 d9 ac 01 bd 6e b1 c1 be
       -0.27872434 8.894842e-05 -0.03165898 -0.3783068
000020 d1 e5 fc 3c 00 21 91 be 33 0c 6a 3e 00 d6 69 3e
       0.030871304 -0.2834549 0.22856216 0.22835541
000030 c0 90 8c 3d f5 45 77 3e 9b 46 4f bd 35 ed 5a be
       0.06863546 0.2414778 -0.050604444 -0.2137955

rnn.bias_hh_l0 f4 [16]
000000 78 c9 95 bd 12 a2 cb bb 7a 30 c9 bc ac 26 27 3d
       -0.07313818 -0.0062143886 -0.024559248 0.040808365
000010 d7 c0 10 3e 67 81 8e bd dd b2 83 be fa df 4f be
       0.14136063 -0.06958275 -0.257224 -0.20300284
000020 97 64 94 be 43 80 2b be b6 1b aa bd 83 2b 3e be
       -0.28982994 -0.16748147 -0.08306067 -0.18571286
000030 87 b0 17 be 5f 95 61 3e 58 4f 82 3c fb a6 6b 3d
       -0.14813434 0.22029637 0.015906975 0.05753229

fc1.weight f4 [8, 16]
000000 b9 01 51 bf 66 d2 83 bf 38 81 15 3f b5 0a 16 3f
       -0.81643254 -1.0298584 0.584003 0.5861009
000010 d6 78 01 bf 32 57 0e bf 68 c3 44 3f ec d7 32 bf
       -0.50575006 -0.556018 0.76860666 -0.6986072
000020 66 35 55 bf 0a b4 1c bf 0f 66 00 3e f9 db 10 3f
       -0.83284605 -0.6121222 0.12538932 0.5658565
000030 ae 7c 4e bf 77 6d b7 3e 80 cb 04 bf c6 40 77 bf
       -0.80658996 0.35825703 -0.51873016 -0.9658321
000040 a4 a2 85 3e 81 83 cf 3f 64 28 8e bf 12 3d a4 bf
       0.26100647 1.6212007 -1.1106076 -1.2831137
000050 af 9d 30 bf 00 25 d5 be 1f 1a c4 bf 78 b1 81 bf
       -0.68990606 -0.4162979 -1.5320472 -1.0132284
000060 5f 65 82 bf e5 f5 e3 bc ff 59 d3 3f cd 90 1f bf
       -1.0187186 -0.027827213 1.651184 -0.62330323
000070 4c 76 a3 3f e2 61 be be 2e 08 bd 3f 5d c8 94 3f
       1.2770476 -0.37184054 1.4768121 1.1623646
000080 aa a5 d3 3f 5a 5c 80 be f0 1f da 3e b8 b6 b0 3f
       1.6534932 -0.2507046 0.4260249 1.3805761
000090 f4 9f 51 3f be fb 0d 3f 68 5e 8f 3c fd 62 a8 3f
       0.81884694 0.55462253 0.017501071 1.3155209
0000a0 fb 35 e7 3f 1c b9 f1 3f 9a b0 c4 3f 8c 8e cc bf
       1.8063349 1.8884616 1.5366395 -1.5981002
0000b0 a6 fe df 3f 6b 24 34 bf cd d0 12 3f 81 ce d3 3f
       1.7499588 -0.7036807 0.57349855 1.6547395
0000c0 f0 09 cf 3f 4d cf aa be cf fd fa 3c d1 32 af bf
       1.6174908 -0.33361283 0.030638603 -1.3687383
0000d0 ce 3e d9 3f 76 53 78 3e b5 4b 8d bf 57 7c 97 3d
       1.6972291 0.24250588 -1.1038729 0.07396763
0000e0 33 43 96 3f f4 34 12 3f e5 80 04 bf 3d e9 cf bf
       1.1739258 0.5711205 -0.5175918 -1.6243054
0000f0 af 29 98 3f 7b 73 c9 bf b3 e7 76 3e 66 b0 34 bd
       1.1887721 -1.5738367 0.24111824 -0.04411354
000100 fb 1b 3a bd 2b a5 29 bf f2 07 16 bf 5d 66 ae bf
       -0.04543684 -0.6626765 -0.58605874 -1.3624989
000110 94 10 02 40 a4 85 eb 3f ba 82 78 3f 3d 12 fe 3f
       2.0322618 1.8400159 0.9707447 1.9849316
000120 59 8f 4b bf 21 88 0c 40 ef 54 b9 3e c0 8b f7 bf
       -0.79515606 2.1958086 0.36197612 -1.9339523
000130 e4 06 41 bf 41 6f 8a bf 20 38 4d 3f 49 aa a9 3f
       -0.7540114 -1.0815202 0.80163765 1.3255092
000140 2e 79 f9 3d a5 b7 45 3f ee 7e 92 bf b3 0f dc 3e
       0.12181316 0.77233344 -1.1444986 0.42980728
000150 a1 d7 7a 3f 0f aa 53 bf a6 cd 3b bf 29 36 46 3f
       0.97985274 -0.82681364 -0.7336067 0.7742639
000160 e3 f3 1b 3f ad 3c 9d 3d c4 d1 e5 3f 43 37 94 3e
       0.60919017 0.076775886 1.795464 0.2894841
000170 77 12 02 3d 9c a7 a2 be fc 8c 20 bf bb 1c bb be
       0.03175589 -0.317685 -0.62715125 -0.36545357
000180 66 33 b7 3e 09 01 17 3f e5 5d 8a 3f 5e b8 2f bf
       0.357814 0.58985955 1.0809904 -0.68640697
000190 5b ca e0 be 7d 8e fe 3f 38 73 bd be c2 fd e5 3f
       -0.43904385 1.9887234 -0.37001967 1.7968066
0001a0 f5 91 93 3f ad d8 2b be 6b ee aa bf 86 70 51 3e
       1.1528918 -0.16781874 -1.3354009 0.2045308
0001b0 13 bd d6 3e 1a 5a 3c 3d a4 48 12 3f 5a 3c c9 3e
       0.41941127 0.045984365 0.5714209 0.39303857
0001c0 29 d0 b5 3e 6f 43 17 3f ce 86 b8 bf 77 83 0f bd
       0.35510376 0.5908727 -1.4416139 -0.035037484
0001d0 40 e6 c1 3f 97 76 a2 3f e4 f9 29 bf 26 45 16 bf
       1.5148392 1.2692441 -0.6639693 -0.5869926
0001e0 e4 ef 0c 3f 7a 63 7e 3e 55 18 25 bf 9a e8 af bd
       0.55053544 0.24842635 -0.6449025 -0.08589287
0001f0 4f fb a3 3d e6 ff 93 3f 1d a3 a5 3e 2f d4 44 3f
       0.08006918 1.1562469 0.32351008 0.76886266

fc1.bias f4 [8]
000000 71 2d d6 3e a4 95 69 be 70 3d eb bf a9 bb 39 bf
       0.41831544 -0.2281099 -1.8378124 -0.7255197
000010 a0 e3 1a c0 6c d8 f3 be ca 35 c6 be 06 8a 0d bf
       -2.4201431 -0.47626054 -0.38712913 -0.5528873
