src/main/python/saved_models/kotlin_1_55_RNNClassifier1_128embs_178id_32hd_1hl_Truebid_2.pt (torch, 137503 bytes, 11 tensors)

word_embeddings.weight f4 [178, 128]
000000 6e 6c 10 c0 ec 6e c0 be 71 79 08 bf c1 b5 39 3f
       -2.256618 -0.37584627 -0.53310305 0.7254296
000010 d3 e6 ad bd c9 b7 be bd c2 07 95 bf a2 b6 82 3f
       -0.08491292 -0.09312398 -1.1642992 1.0211985
000020 5d 9c bd 3c 8e 52 61 3e c6 cf 04 bf 14 11 0b 3d
       0.023145849 0.22004148 -0.5187954 0.033951834
000030 44 4e cc 3f 73 d5 15 bf 81 fe d6 bf 9a 3a 01 40
       1.5961385 -0.5852882 -1.6796418 2.0192018
000040 69 9b 52 3f f8 4a f2 3e fb 1f 95 be 58 0a d4 3c
       0.8226839 0.47322822 -0.29125962 0.025883839
000050 5c 22 01 bf 18 ea b4 3f 51 70 57 bf 97 31 2e 3f
       -0.50443053 1.413394 -0.84155756 0.6804442
000060 2d 5c 98 3f 8e 83 7d bf 64 96 10 3f 13 69 74 3f
       1.190313 -0.9902886 0.5647948 0.9547283
000070 22 46 e3 bf 77 4e 05 c0 b5 25 11 40 51 0f e3 3e
       -1.7755778 -2.082914 2.2679265 0.44347623
000080 f3 78 35 bf a0 ef c5 3f a1 3e fc 3f 7a e1 a5 3d
       -0.7088768 1.5463753 1.9706613 0.08099647
000090 dd 14 6b 3f 1f b1 a9 3e 02 b5 07 40 99 4d 76 bf
       0.9182871 0.33142945 2.1204228 -0.96212155
0000a0 e7 7d aa bf 04 bb 85 be 6f b6 84 bf a8 cf 60 be
       -1.3319672 -0.26119244 -1.0368174 -0.21954215
0000b0 c8 f5 ec 3d c9 2a 5e 3f fe 81 2b bf d3 f6 51 be
       0.115703166 0.86784035 -0.6699523 -0.20504312
0000c0 fb f2 e2 bf 9b 07 44 3f bb 33 49 bf 71 0e 4b 3f
       -1.7730402 0.76574105 -0.7859456 0.7931891
0000d0 7d e2 c0 bc 59 f6 da 3e 7f a8 31 be a3 2c a4 3e
       -0.023545498 0.42766073 -0.17349432 0.32065305
0000e0 3f 5e 66 bf 50 db 01 3f 83 8e ea 3f f7 f4 86 be
       -0.8998756 0.5072527 1.8324741 -0.26358768
0000f0 e3 24 6c 3e 1b c9 8b be c2 c1 1e bf f8 a2 a6 be
       0.23060946 -0.2730187 -0.620144 -0.3254621
000100 94 85 c2 be 82 46 31 bf ea 41 2c be c1 9c f9 be
       -0.37992537 -0.6924821 -0.16822019 -0.48752406
000110 34 c0 af 3f 02 20 df 3f d6 b1 ad 3f 92 4e 89 3f
       1.3730531 1.7431643 1.3569896 1.0727103
000120 6c 3d 4b 3f 6e 45 cb 3e 60 3a 85 bd c4 d4 3b be
       0.793906 0.39701408 -0.06505275 -0.18342882
000130 f9 04 20 c0 ff d8 ec be dc 9e b8 be 4f cc 44 3f
       -2.5003035 -0.46259305 -0.360587 0.7687425
000140 8f 42 97 bf 6e 92 45 be ba 8a 11 be e6 d2 cb 3e
       -1.1817187 -0.1929414 -0.14213076 0.3980934
000150 ee d6 26 3e 5c fe d2 3e 08 bb be bf a3 b1 0b 40
       0.16292927 0.41209686 -1.4900827 2.182717
000160 06 49 15 3f dd d6 39 bf 2a 8d 99 bd d3 dd b9 bf
       0.5831455 -0.7259348 -0.07497628 -1.452082
000170 52 bd ef 3e 8b cb ab 3f 9c 09 25 bf 8e 5d c7 3e
       0.46824127 1.3421491 -0.6446779 0.38938564
000180 41 44 0a 3f 87 83 37 bf 4e 97 35 3e 10 7e e7 bc
       0.540104 -0.7168507 0.177335 -0.028258353
000190 cb c1 1f bf 25 9b 88 bf 13 6d e2 3f 1b a4 18 bf
       -0.6240508 -1.0672346 1.7689537 -0.59625405
0001a0 7c 46 e6 3e 35 ee b8 3f ac f8 6b 3f 6f 8c f0 bf
       0.4497565 1.4447695 0.9217632 -1.8792857
0001b0 84 f3 c4 bc 34 6d b6 bf 64 ea 81 3e 7f 7a 09 40
       -0.024041899 -1.4252076 0.25374138 2.1481016
0001c0 16 f9 a1 bb b6 18 16 bf 43 4e d7 bf eb 2e 13 3f
       -0.0049430234 -0.58631456 -1.6820759 0.57493466
0001d0 2c b0 14 3f f6 a6 c8 bf ff 75 af 3f b2 3d 09 3f
       0.58081317 -1.5675952 1.3707885 0.53609765
0001e0 48 7d a6 3f ad 3f 29 bf 5b bf ea 3f 8a b5 59 3f
       1.3006983 -0.66112787 1.8339647 0.8504263
0001f0 0f 13 be 3f 5c cb 69 3f ec 22 bf 3e a1 a1 9b be
       1.4849566 0.91325927 0.3733133 -0.3039675
000200 5a c3 41 3f 00 45 0b bf 0e ae a0 3f 9c 82 68 3f
       0.7568871 -0.5440216 1.2553117 0.90824294
000210 4c 8f 89 be e3 ec 89 bf 44 c2 02 40 51 26 0a be
       -0.2686714 -1.0775417 2.043107 -0.13491179
000220 e6 b4 ce bf 60 b3 2d bf 5a 5a d3 bf 6e 61 5d bf
       -1.6148956 -0.6785183 -1.6511948 -0.8647679
000230 5e f0 8c bf b7 19 9b bf 95 d1 e9 be f6 87 09 c0
       -1.1010854 -1.2117223 -0.4566771 -2.1489234
000240 26 42 af 3d 05 85 b3 3e 90 ed e5 3d e3 d0 5c 3d
       0.08557539 0.35062423 0.11226952 0.053910147
000250 80 64 76 3f a7 f6 27 bf 1a 3a a8 3f 70 65 90 3f
       0.962471 -0.65610737 1.3142731 1.1280956
000260 92 5a a0 be df 4c 17 c0 73 bd cd bf 25 76 9a be
       -0.313191 -2.3640668 -1.607344 -0.30168262
000270 e9 77 a6 bf d8 64 77 bf 48 2d d3 be cb 2e 6e bf
       -1.3005344 -0.9663825 -0.41245484 -0.9304015
000280 d8 34 7c bd 9c 08 db 3e 86 aa 58 3f 78 89 85 bf
       -0.061573833 0.42780006 0.846352 -1.0432577
000290 1c fe 0e c0 93 22 27 be f5 e1 bd bf 96 6f 47 3f
       -2.2342596 -0.16321783 -1.4834582 0.7790464
0002a0 2f 58 ba 3f bd f3 47 3f 08 a4 aa 3e 55 84 34 3e
       1.4558161 0.7810629 0.3332827 0.17628606
0002b0 65 5a 1c 3f 39 64 97 3f 72 d0 06 40 eb c6 d2 3e
       0.6107543 1.182746 2.1064725 0.41167387
0002c0 bb 46 bb be 0d c2 c5 3f e4 fb c0 bf bf f9 8c 3f
       -0.365774 1.5449845 -1.5076871 1.1013716
0002d0 9e 91 8c bd 68 c3 1b bf 0e 5c 8a 3f 77 da 61 3f
       -0.06863712 -0.6084504 1.0809343 0.88223976
0002e0 82 ad 5b be 81 84 6c 3d cc cf 8c 3f 43 94 6a 40
       -0.21452907 0.057743553 1.1000915 3.6652992
0002f0 cb e1 5a bf 89 b2 e1 be 12 f3 a7 3f f6 45 4f bf
       -0.8550078 -0.44081524 1.3121054 -0.80966127
000300 75 75 78 bf 40 08 13 bf 4e 9e 9a 3e 0c fb 1b 3f
       -0.97054225 -0.57434464 0.30198902 0.6092994
000310 62 af ce bb 7a 35 07 bc ab 06 f7 3f ba 18 d9 3f
       -0.0063075284 -0.008252496 1.929891 1.6960671
000320 b8 70 e5 3f 55 ee 6f 3f f8 f0 9d 3f 2f 2f 26 3d
       1.7925024 0.9372304 1.2339163 0.04057234
000330 85 c5 e1 3c b7 d2 90 be 77 14 37 3f 93 60 72 3f
       0.027560005 -0.28285763 0.715156 0.9467861
000340 0d 66 0f 40 01 13 04 3f 2f e0 86 bf 09 19 c2 bf
       2.2406037 0.515915 -1.0537165 -1.516389
000350 db f8 98 bd 32 5e b3 bc 41 57 81 3f 36 5f 68 3e
       -0.074693404 -0.021895502 1.0104753 0.2269257
000360 d1 36 68 bf 2a 31 1e 3f 3c f3 aa 3e bc c4 7e 3e
       -0.90708643 0.6179377 0.33388698 0.24879736
000370 1c 0f 51 be e6 51 ca be 32 e7 31 3e f5 c2 10 bf
       -0.2041592 -0.3951561 0.1737335 -0.5654748
000380 a8 25 92 3d 82 3a c8 3f 01 4e 75 bf 11 7d 73 bf
       0.071360886 1.5642855 -0.9582215 -0.9511271
000390 3b 30 35 bf 98 85 60 3e 64 f3 d0 3e 17 a5 92 bf
       -0.7077672 0.21925962 0.40810692 -1.1456631
0003a0 30 3f 4c be a5 89 da 3f fc 59 6d 3e 61 30 46 3e
       -0.19945979 1.7073256 0.23178858 0.19354393
0003b0 6d 88 ee 3f 2f 2f 09 3f 60 93 79 3f ae 78 0d c0
       1.8635384 0.5358762 0.974905 -2.2104907
0003c0 c8 a0 19 bd b8 67 3d 3f 9c 2d 1f 40 d4 50 d9 bf
       -0.03750685 0.7398639 2.4871588 -1.6977792
0003d0 26 89 7f be b1 90 5f 3f 69 f5 c9 3e 06 dd b1 bf
       -0.24954662 0.87330157 0.39445046 -1.3895576
0003e0 36 d1 cc 3f 62 00 cf bf 15 90 a1 3f 46 a0 95 3f
       1.6001346 -1.6171992 1.2622095 1.1689537
0003f0 1f 28 a1 3e e7 8d 08 3f 1e 8d 3a 3e d1 33 cd 3f
       0.31475922 0.53341526 0.18217894 1.6031438

rnn.weight_ih_l0 f4 [32, 128]
000000 5d 61 e5 bd 5e 94 56 bd 5f b4 ec bd 27 84 22 be
       -0.11200211 -0.052387588 -0.115578406 -0.15870725
000010 49 8b 87 be 0f 35 9a 3d 58 a4 74 3d 50 08 4d be
       -0.26473454 0.075296514 0.059727043 -0.20022702
000020 01 51 0c 3f f7 0e 92 be 7e ce fa 3d f5 37 a4 3d
       0.548111 -0.28527042 0.122464165 0.080184855
000030 6b 5a 2b be 9d cb a9 3d c3 43 9c 3e b0 7e 34 3e
       -0.1673371 0.08290789 0.30520448 0.17626452
000040 44 8b 07 3e 41 0b 05 3d ff f8 6d bd d4 74 90 3d
       0.1323672 0.032481436 -0.05809879 0.07053533
000050 4e 24 15 be f3 12 86 bd f7 b1 b5 3c d6 70 5b be
       -0.1456463 -0.06546583 0.022179587 -0.21429762
000060 5d d0 25 3e f9 6a 3b be 84 73 46 bc c1 99 c8 bd
       0.16192766 -0.18302526 -0.012112502 -0.09794951
000070 a9 f9 05 be f6 63 2f be 8e 82 3a 3e 28 f3 d6 3d
       -0.13083519 -0.17127976 0.18213865 0.10495597
000080 b2 80 32 3e 50 3f cb bd f3 76 70 3e a7 37 8f be
       0.17431906 -0.09924185 0.23482876 -0.27972147
000090 b2 d9 cf 3d 98 33 6b 3d 7f c9 88 be ae 9e e4 bd
       0.10148944 0.05742225 -0.2671623 -0.11163078
0000a0 72 7d 34 3e e7 b9 94 3e 47 99 cd 3d 05 a0 69 3e
       0.17625979 0.29048082 0.10039001 0.22814949
0000b0 bb b8 d5 bd 1c db 8c be b6 17 68 3e 44 bf 04 3e
       -0.10435625 -0.27510917 0.22665295 0.12963587
0000c0 30 55 4b be b0 7c a3 bd 7b e6 82 be 27 d4 4b be
       -0.19856715 -0.07982767 -0.25566468 -0.19905148
0000d0 db a0 b1 3e db 7c a2 bd 19 f3 c0 bd fe bf e3 3a
       0.34693035 -0.079339705 -0.09421367 0.0017375944
0000e0 e9 e4 ac 3c 3b e3 b1 bd 64 ef 95 bd a6 75 c1 be
       0.021105247 -0.08685919 -0.07321051 -0.3778507
0000f0 64 ee 3e bd 94 aa 7a 3d 54 b2 38 3e 2a ee 1f be
       -0.046614066 0.061197832 0.18036777 -0.15618196
000100 36 6e 3c 3e bb e5 0d bf 14 54 1a be af 2d 1f ba
       0.18401417 -0.55428666 -0.15071136 -0.0006072176
000110 5f cb 68 bd 77 10 34 3e 64 00 8b bd 0b 98 41 bd
       -0.056834575 0.17584406 -0.06787184 -0.04726414
000120 a8 74 dc bd 3e d6 3a 3e 86 34 62 3c 6b 9d 24 3d
       -0.10764438 0.1824579 0.013806468 0.040189188
000130 90 99 48 3e 08 7f ca bd b7 39 4c 3d 10 67 ba 3e
       0.1958983 -0.098875105 0.04985973 0.36406755
000140 a1 0c 82 3c 33 02 35 be 00 40 84 3e f5 da fa be
       0.015875163 -0.1767662 0.25830078 -0.48995176
000150 b2 1c bd bc 94 0d 4d 3e 82 f2 32 3d f8 0a 14 bd
       -0.023084972 0.20024711 0.043688305 -0.036143273
000160 a0 d0 18 be f7 63 2f 3d 8c 73 04 3e 33 1a d4 3d
       -0.14923334 0.042819943 0.12934703 0.103565596
000170 a8 45 c5 bd e9 4a 3e be 51 f1 f9 bd e0 a8 97 be
       -0.096324265 -0.18583263 -0.122042306 -0.2962103
000180 d7 a5 bb bd 6d c7 80 bd a1 cd a0 39 f3 b6 23 bc
       -0.09162491 -0.062880374 0.00030670784 -0.009992349
000190 57 39 46 be c4 7d 83 3c db d2 04 be 0a 02 da 3e
       -0.19357811 0.01605118 -0.1297106 0.4257968
0001a0 4c 5d 71 be 34 81 d8 bd 4a f6 8d bd b9 5c a3 be
       -0.23570746 -0.105715185 -0.069317415 -0.3190668
0001b0 98 49 f4 3d 00 4f 77 bd 2b 4a c2 3c 3c fc 99 be
       0.119280994 -0.060378075 0.023717007 -0.30075252
0001c0 3e 9f 31 be b2 89 14 3e ce 8f b4 be 17 00 d7 bd
       -0.17345902 0.14505652 -0.35265964 -0.10498064
0001d0 c4 39 4e 3c da eb 26 be a1 b7 55 3d fa 60 1a be
       0.012587015 -0.16300908 0.052177075 -0.15076056
0001e0 62 70 f3 bd 28 62 a8 3e 23 bc ef 3c b5 64 1b 3e
       -0.1188667 0.32887387 0.029264515 0.15175135
0001f0 2e 0e 20 bd ee 2b 60 bc 37 bb 83 3d fa 50 22 3e
       -0.039076023 -0.013682349 0.06432193 0.15851203
000200 94 40 4a bd 71 41 25 bd 8d 62 a5 3c d3 5c 96 bd
       -0.049377993 -0.040345613 0.020188594 -0.073419236
000210 81 d0 88 be 9c cb ea bb 04 60 b7 3d 07 4c f3 3d
       -0.26721576 -0.0071653854 0.089538604 0.118797354
000220 88 3d 6a be bc c5 a0 3d 49 b5 02 be e3 b0 d8 3d
       -0.22875035 0.07850215 -0.12764467 0.105806135
000230 7d 9f cc 3d 36 56 0c be 92 42 6d bc 0b 67 cb bd
       0.099913575 -0.13704762 -0.014481204 -0.09931763
000240 9d f1 c4 3e 65 09 80 3e 50 0b 96 3d 60 e1 7f bd
       0.38465586 0.25007167 0.073263764 -0.062470794
000250 92 bf 87 be d3 13 f4 bc 53 52 25 be b5 c7 62 3d
       -0.26513344 -0.02979461 -0.16144685 0.055366237
000260 d1 ab 88 3e d1 f8 84 be e5 22 f3 bd 3f 43 a6 3e
       0.26693586 -0.25971082 -0.1187189 0.3247318
000270 a1 e6 4c bc c2 94 bc bd bb ca 75 bc a1 ee c7 3c
       -0.012506158 -0.09208061 -0.015001948 0.02440578
000280 c0 6a 3c 3e e7 f8 08 3e ab 2d 84 be cf 85 cc 3d
       0.18400097 0.13376199 -0.25816092 0.099864595
000290 85 c6 d5 bd 35 c5 51 3c b7 5b 18 3e 1c 72 3d be
       -0.10438255 0.0128033655 0.14878736 -0.1850056
0002a0 33 a3 aa 3e a9 f6 98 3e c1 53 49 3e 00 4d a9 3e
       0.33327636 0.29875687 0.19660856 0.3306656
0002b0 ae 95 6a bd c6 1b d4 3d eb cd 5a b8 5c f5 cd 3d
       -0.057271652 0.1035686 -5.2167026e-05 0.10056564
0002c0 34 71 97 be f9 4a d0 3d a3 00 a3 bd d6 65 4a 3d
       -0.29578555 0.1017055 -0.07959106 0.049413525
0002d0 15 ff 91 3b 2d 1b 4c 3e e0 48 16 3e 97 cd 0b 3e
       0.004455457 0.19932242 0.14676237 0.13652645
0002e0 e3 f7 77 be 19 30 30 3e 0e 11 08 be 9b 39 1b be
       -0.24215655 0.17205848 -0.13287756 -0.15158693
0002f0 5f c3 a4 3c 16 15 4e be f9 41 c7 3d d1 90 7b be
       0.020112691 -0.20125231 0.0972938 -0.24566962
000300 e0 4c 62 be 7c 89 58 3e a7 0f 2a bd a2 d6 2a be
       -0.22099638 0.21146196 -0.041518833 -0.16683438
000310 74 47 2f 3e de 85 ae bd c5 e0 f8 bd 58 66 47 be
       0.17117101 -0.08521627 -0.121522464 -0.19472635
000320 33 d9 03 be fd fa 04 3d c6 61 f7 bd 45 fb 8d 3d
       -0.12875824 0.032465924 -0.12079196 0.069326915
000330 a2 8f 0e be 79 c8 36 bd c3 50 7b bd 74 78 81 bd
       -0.13921979 -0.04462478 -0.061356317 -0.06321803
000340 3a 0d b4 bd be 59 6c be 70 2b 0a be 83 9e 01 3e
       -0.08791585 -0.23081109 -0.13493133 0.12658124
000350 76 7d 79 3e 72 7a 6f 3c a5 fc cf bc ec f6 45 be
       0.24364266 0.014616596 -0.025389025 -0.19332474
000360 f5 8b b1 3d 1d 93 25 3d a2 1d af 3c 2b dd a7 bd
       0.08669273 0.0404235 0.021376435 -0.08196481
000370 e7 18 89 be db 90 82 bd c4 77 d1 3c 8b 2f b3 3b
       -0.2677681 -0.06375285 0.025569804 0.005468314
000380 a8 f7 b4 bd d8 37 24 bd 3c b5 16 be e5 7e 60 3e
       -0.08836299 -0.04009232 -0.14717573 0.21923406
000390 fd 93 16 be 60 fe b8 bd a0 47 e7 3d 53 4a 8f 3d
       -0.1470489 -0.09032893 0.11292958 0.06996598
0003a0 f0 f4 e1 3c 01 11 e2 3b 71 4f 4a be 90 22 4c 3d
       0.027582616 0.0068989997 -0.19756867 0.04983765
0003b0 bd 71 82 3d a8 da 2e 3c 04 fb a5 3d b9 94 92 3e
       0.0636935 0.010672249 0.08104518 0.2862909
0003c0 11 59 3c bc 33 62 24 be a8 f3 3c bd e3 4e bb 3d
       -0.011495844 -0.16053085 -0.046130806 0.09145906
0003d0 97 90 f7 3c 06 9b 33 be 30 a4 95 bd aa e3 13 3d
       0.030220313 -0.17539605 -0.07306707 0.03610579
0003e0 5e 79 df bd d0 01 94 bc 1e a3 56 3e 04 2f ee bd
       -0.10911821 -0.01806727 0.20960662 -0.11630061
0003f0 8b 85 a4 bd 17 48 a8 bd d2 41 ab bc f6 1d cc bd
       -0.08033284 -0.08216875 -0.020905409 -0.09966652

rnn.weight_hh_l0 f4 [32, 32]
000000 cb a9 a8 3e f3 a9 03 be 10 93 9b bd f0 20 ad be
       0.32942042 -0.12857799 -0.07596409 -0.33814192
000010 7d c2 05 be 76 b9 17 3f 00 aa a5 be 46 b0 ca bd
       -0.13062473 0.59267366 -0.32356262 -0.09896903
000020 ca 80 8e 3e 95 ba eb 3e a8 bf 12 3e 44 c5 a5 3e
       0.27832633 0.46040788 0.14330924 0.32377064
000030 4a b0 81 be d8 f1 eb 3d 51 90 86 3e 8f 4f 5f bf
       -0.2532981 0.115207374 0.2628198 -0.8723077
000040 ac e0 98 3e 0d de 0e 3e 88 ca 64 3c 09 51 9f be
       0.2985891 0.13951893 0.013964303 -0.31116512
000050 76 36 c5 bb 30 91 fa 3d fb 10 e0 3e 54 b8 1e be
       -0.006018455 0.122347236 0.43762955 -0.15500003
000060 64 c5 5c bf b0 26 c7 be cd 9e 93 bd be 8a 96 be
       -0.86238694 -0.38896704 -0.07208023 -0.29402727
000070 50 e0 b1 3c 19 81 83 3d b8 33 cd 3d 1e 54 bc 3e
       0.021713406 0.06421108 0.1001963 0.36782926
000080 73 7b ed 3d f3 3c 8b 3e 8f 8f 97 3e 72 dc f6 bd
       0.11595812 0.27194938 0.29601714 -0.12053765
000090 75 12 dc 3d ea 5d 82 be c4 c9 e6 be 6f 9b 39 bf
       0.10745708 -0.25462276 -0.4507581 -0.725028
0000a0 87 ee f5 bc 30 a1 f1 be e9 7b 43 3e 70 f3 94 3e
       -0.030020965 -0.4719329 0.19090237 0.29091978
0000b0 56 ca 1d be ec d7 38 be 5e 9e 8d be 3e 9a a0 3d
       -0.15409216 -0.18051118 -0.27659887 0.07841919
0000c0 59 0d e0 3e 80 f1 1b 3f ad 2e c3 be af a8 1b be
       0.43760183 0.60915375 -0.38121548 -0.15201066
0000d0 72 f7 ed bd c2 0a 74 bd 72 85 7c be ac 08 f7 3d
       -0.11619462 -0.059580572 -0.2466028 0.12062201
0000e0 fb 9c fc be 2a a6 f6 be cd f7 14 3e 36 2c 22 3e
       -0.49338517 -0.48173648 0.14547653 0.15837178
0000f0 dd bd 19 3f f7 47 e9 bd a2 62 20 3e 78 6c 92 3e
       0.60055333 -0.11390679 0.15662625 0.2859838
000100 f0 16 9f 3e f6 f0 6c 3d bf d4 89 3e 7c cf b2 3e
       0.31072187 0.057846986 0.26920125 0.34923923
000110 e6 f0 4b 3e ce a3 c7 3d 80 10 48 bf 69 27 fe be
       0.19916114 0.0974804 -0.78150177 -0.49639443
000120 f9 15 25 bf e8 0f 28 bf 8b d4 0e be 29 72 46 be
       -0.6448665 -0.6564927 -0.13948266 -0.19379486
000130 f8 8c 63 3c fd 21 c1 3e 8d be 88 3e 73 92 7e 3f
       0.01388859 0.37721244 0.2670788 0.99442214
000140 19 cd d4 3c a9 44 82 3d 7f c1 a4 3e d1 fb 25 be
       0.025976704 0.06360752 0.32178876 -0.16209342
000150 bf 79 c2 3e 7c 6d d0 be ff 8c 42 be 19 64 88 be
       0.3798351 -0.4070853 -0.18999098 -0.26638868
000160 82 a0 c5 3e 86 a6 8a be da 1a b1 bd 9e 6c 4f bd
       0.3859902 -0.27080172 -0.086477 -0.050640695
000170 22 e6 19 be e6 e9 39 3e cf f5 90 be 7a 1b 63 3c
       -0.15029195 0.18155631 -0.28312537 0.013861531
000180 43 b3 a9 3d 12 7d 1c bd d4 65 01 3f fb 1b 4b be
       0.082861446 -0.038205214 0.50546 -0.19834892
000190 00 72 d3 be ed df c0 be bb bd fe be 68 7d ba be
       -0.41297913 -0.37670842 -0.49754128 -0.36423802
0001a0 5c 85 47 be ca 3a 01 bf 1b 84 a2 3e b3 a0 98 3e
       -0.19484466 -0.5048033 0.31741413 0.29810104
0001b0 63 8f b4 3d 48 8d d9 3e f9 98 6c 3e 89 1e 00 bf
       0.08816411 0.42490602 0.2310523 -0.5004659
0001c0 41 c3 9b 3e 95 d1 27 3e 17 52 8c be bc 32 4c bf
       0.30422404 0.16388543 -0.2740638 -0.79764915
0001d0 8a ee b6 be cf 88 f0 be 4d 96 b2 3e 48 89 76 be
       -0.35728866 -0.46979377 0.34880295 -0.24075806
0001e0 ce 03 38 bf a1 bc 33 be 13 d7 2d be ab a4 9a be
       -0.71880805 -0.17552425 -0.16976576 -0.30203757
0001f0 42 69 3a 3f e3 29 02 3e 69 ff 60 3d e7 34 48 3d
       0.7281686 0.12711291 0.054931078 0.048878577
000200 85 d5 d2 3e f0 56 d7 3e ed db 93 be 8a 6d 81 3e
       0.41178527 0.42058516 -0.28878728 0.25278884
000210 3b e0 84 3e 26 5a d1 3e 4c 8a 13 bf 77 7d 99 be
       0.25952324 0.4088909 -0.576329 -0.29978535
000220 8a 0b 0e bd e9 d7 00 3d ab 8b 13 be 02 ff 90 be
       -0.034678973 0.031455908 -0.14408748 -0.28319556
000230 91 dd 07 be 7b 0c 89 3f 41 0d 06 bf b7 db df 3d
       -0.13268115 1.0706934 -0.52363974 0.10930579
000240 3b 22 e9 bd 92 e6 82 3e bd 50 06 bf c3 4f 5d be
       -0.11383482 0.25566536 -0.52466947 -0.21612458
000250 96 49 34 be 1a 1c c8 be 5a 19 1f be de ea b6 3e
       -0.17606196 -0.3908394 -0.15537015 0.35726064
000260 67 8a f1 bd bb c8 26 be ce bf dd 3d a7 d9 7d be
       -0.11793976 -0.1628751 0.108275995 -0.24790059
000270 bf ee b6 bd f5 9c 01 3f fe 23 b9 bd d7 9c 38 bd
       -0.08932256 0.5063012 -0.09040068 -0.04507145
000280 7a b5 61 3d d8 7c 91 3e cd 01 c2 bd ba 85 9b 3e
       0.05510471 0.2841556 -0.09473 0.30375463
000290 21 45 09 3e 9c ec 37 3e 62 8f 2c 3d c9 6d af 3e
       0.13405277 0.17961353 0.042128928 0.34263447
0002a0 4c 31 cb 3e 92 ed 99 be 99 51 cf be 47 47 25 be
       0.39686048 -0.30064064 -0.40491942 -0.16140471
0002b0 79 df f6 bd 0a 83 a2 3e 80 81 a0 bd 43 44 85 3f
       -0.12054343 0.317406 -0.078372 1.0411457
0002c0 98 e2 77 be e0 5c 0c 3d 10 b6 50 be 07 51 ce 3d
       -0.24207532 0.03426826 -0.20381951 0.100740485
0002d0 e3 75 a7 3e 51 aa 86 be 17 8f e2 be 66 96 8e 3e
       0.32707128 -0.26301816 -0.44249794 0.2784912
0002e0 00 ba 54 3e 08 cd b4 be c6 33 aa bd ab ce cc 3d
       0.20774078 -0.35312676 -0.08310656 0.10000356
0002f0 4c 0b d1 be 76 1d cd bd 3f cc 69 3e 0f ca 65 be
       -0.4082893 -0.10015385 0.2283182 -0.2244036
000300 a1 38 2f bf df 92 01 be ae 30 8c 3e 16 d1 22 be
       -0.68445784 -0.12653683 0.2738089 -0.15900072
000310 20 22 54 bd db 92 8e 3e fe ce 07 3f 08 6a 01 3f
       -0.051790357 0.27846417 0.5305022 0.50552416
000320 a9 36 22 3f bc b1 04 bf 11 50 33 bc ff 93 d0 b9
       0.63364655 -0.518337 -0.010944382 -0.00039783117
000330 be 62 19 bf 82 ae 9f 3d 83 20 de bd 8a 8e 27 3e
       -0.59916294 0.077969566 -0.10846045 0.16362968
000340 b5 9c c4 3b 0f 86 2f be 16 78 57 3e a8 81 8d 3e
       0.0060001262 -0.17140983 0.21041903 0.27637982
000350 36 41 15 bf ea bc af 3e a9 98 01 be d8 df a0 be
       -0.5830263 0.34323817 -0.12655891 -0.3142078
000360 c9 43 10 3e 90 2f 3b bf a8 a1 b2 bc d6 30 04 3f
       0.14088358 -0.7311945 -0.0218056 0.5163702
000370 9a a6 99 be c2 e2 88 bd 4f 82 9c 3e c1 16 49 3f
       -0.3000992 -0.066838756 0.30568168 0.78550345
000380 25 58 3c bf 0a 56 53 be 78 8f 7e be 29 cf b0 3a
       -0.73572 -0.2063829 -0.24859416 0.0013489473
000390 64 b3 9a bd 9b ec a0 3e a3 d4 11 3f f6 69 82 3f
       -0.07553747 0.31430516 0.5696508 1.0188587
0003a0 ed f3 de 3c bc a3 00 bf 03 58 2c 3d 79 1f 06 be
       0.027215922 -0.5024984 0.042076122 -0.13097943
0003b0 54 8d f6 be a9 8e 6a be e0 43 b6 3e f6 03 c6 3e
       -0.481547 -0.22905983 0.3559866 0.38674897
0003c0 97 d7 c5 be e5 ab bf bc 44 5b 9f 3d 33 39 de 3e
       -0.38641044 -0.023397395 0.077810794 0.43403015
0003d0 a5 90 b1 be 90 a5 de 3e 03 fd c0 be bc 51 f5 3d
       -0.34680668 0.4348569 -0.37693033 0.1197848
0003e0 64 77 c4 3e 7f c4 71 be 80 75 2c 3e ef 2a 23 3f
       0.38372338 -0.23610114 0.16841698 0.63737386
0003f0 3a e0 be be 2f f3 ee be 4c aa 22 3e 10 76 af 3e
       -0.37280446 -0.4666991 0.15885276 0.34269762

rnn.bias_ih_l0 f4 [32]
000000 c6 24 89 3e 5e ac 4f 3e 77 4e 64 3e 5d 24 14 3e
       0.26785868 0.20280597 0.22295557 0.14466996
000010 2a 60 93 3d 17 1b ce bd 1d 6e 96 bd 6b 6d 66 be
       0.07196076 -0.10063761 -0.07345221 -0.22502677
000020 3a 7d d6 3c 7a 67 65 be 2a f7 ab bc 02 26 97 3d
       0.02618276 -0.22402754 -0.02099188 0.07380296
000030 bb 38 eb 3d 90 29 04 3e b2 d1 b7 bd f1 98 9f 3e
       0.1148543 0.1290648 -0.08975543 0.31171373
000040 72 41 72 3d 53 8f 34 3d ed 87 a1 bd 61 93 43 be
       0.059144445 0.044081997 -0.07887254 -0.1909919
000050 bb d0 60 be fd 2a 06 be ae 0f d6 bd 66 f9 97 3d
       -0.21954624 -0.13102336 -0.104522094 0.07420616
000060 ed 8b 31 be 93 e9 28 bc 1c 79 aa 3e 27 e5 b8 bd
       -0.17338534 -0.010309595 0.33295524 -0.09028082
000070 98 9a c2 bd a5 b5 92 3d 30 f3 2d 3e 56 87 88 3e
       -0.09502143 0.07163552 0.169873 0.26665753

rnn.bias_hh_l0 f4 [32]
000000 72 0a 09 3e 1a 22 41 3e 58 f1 8f 3e 06 30 57 3e
       0.13382891 0.18860665 0.28113818 0.21014413
000010 58 61 ee bd 6e 20 0c be 0d d6 f7 3c b5 ad 8f bc
       -0.116396606 -0.13684246 0.030253435 -0.017538885
000020 6e 1d 02 be f1 1b 96 bd 58 80 47 3a 0a 73 d1 bd
       -0.12706539 -0.07329548 0.0007610372 -0.1022702
000030 4b 49 f6 bd f5 b7 63 3d 2a cb 86 3d 7c 43 81 3e
       -0.12025698 0.055595357 0.06581719 0.252468
000040 82 4d 26 3e bf 77 3a 3e 3e 36 65 be 71 83 79 be
       0.16240504 0.18209742 -0.22383973 -0.24366547
000050 e2 0e e5 bd fe aa c7 3d 8d 53 45 be 36 d4 26 3d
       -0.11184479 0.09749411 -0.19270153 0.040729724
000060 80 4e a9 be 56 0f 30 bd 21 1a 95 3d 85 38 66 bd
       -0.33067703 -0.042983375 0.07280374 -0.056206245
000070 e6 cf 7a 3e 1d a2 35 3e 2d d3 06 3d 44 b0 60 3e
       0.2449337 0.17737623 0.032916237 0.2194224

rnn.weight_ih_l0_reverse f4 [32, 128]
000000 30 b7 6e 3c fc 21 c3 bd f3 03 c9 bd 5a fb 04 3c
       0.0145700425 -0.095279664 -0.098152064 0.0081165675
000010 47 f8 76 3e e6 83 ac 3d 64 d1 59 3e 6a dd 75 3c
       0.24118148 0.08423595 0.21271282 0.0150064025
000020 40 d9 7d 3e d3 a6 0a 3e 0a bd 54 3c 36 30 01 be
       0.24789906 0.13540201 0.012984524 -0.12616047
000030 b8 dd 56 be c5 f3 6a 3e 5e 9a 79 3e a5 49 14 3e
       -0.20983016 0.22944553 0.24375293 0.14481218
000040 76 44 ab bd 6b 33 c4 3e 67 be 75 3e e1 09 5a bd
       -0.08362667 0.3832048 0.23998414 -0.053232078
000050 7e 82 49 be 98 60 f2 bd 04 fa 13 be fb d1 b6 be
       -0.19678685 -0.1183483 -0.14450842 -0.35707077
000060 42 b8 dd bd fe 07 d7 bd 92 58 85 be 23 19 b6 bd
       -0.1082616 -0.10499571 -0.26044136 -0.08891513
000070 f5 8f 00 bd 5e da eb 3d 52 83 a6 3c 82 9e 96 be
       -0.031387288 0.115162596 0.02032629 -0.29417807
000080 d3 3d 07 be 1c 24 c4 bc 5a db 96 be ab 69 94 3d
       -0.13207178 -0.023943 -0.29464227 0.07246717
000090 23 fb 8a bd cc 0f a8 bd 36 5b 82 bd b7 10 25 be
       -0.06786182 -0.08206138 -0.06365053 -0.16119657
0000a0 db b2 cf 3d ed e2 1e 3e 3d 95 54 be 9d 58 8a 3d
       0.10141536 0.15516253 -0.20760055 0.06755183
0000b0 63 51 09 bd ee 91 18 be 01 68 27 3e 9b 74 8d 3d
       -0.033524882 -0.14899418 0.16348268 0.06907006
0000c0 39 31 53 3d 01 5e 93 3e c8 10 a5 3e 74 f7 d7 3c
       0.051560614 0.28782657 0.32239366 0.026363112
0000d0 cf bd 57 be 81 80 2a 3e d6 e0 be be b3 69 b0 3d
       -0.210685 0.16650583 -0.3728091 0.086139105
0000e0 7f 08 80 be cc 78 fa bc a5 77 b2 3e f3 b8 21 bd
       -0.25006482 -0.030575179 0.34856907 -0.039483022
0000f0 7f 65 c4 bd 5f c9 12 be 71 3f ed bd ef 2a 06 be
       -0.09589671 -0.1433463 -0.11584366 -0.13102315
000100 69 02 26 bc 4f f0 ef bd 0e 09 bb 3b 2b eb 07 3e
       -0.010132411 -0.11715757 0.0057078665 0.13273303
000110 40 34 c8 bc 60 d9 7e 3e 7d 61 a3 bd 44 57 8b 3e
       -0.024438977 0.2488761 -0.07977579 0.27215016
000120 dc bb db 3d 3f 21 93 3d 47 3b 57 3d 0a 13 13 3d
       0.10729191 0.071840756 0.052546766 0.03590683
000130 35 8b 28 3e 9b 3d ab bc 26 7b af 3c 1c 79 2e 3e
       0.16459353 -0.0209034 0.021421026 0.17038387
000140 5f a1 ae be c0 4f ce 3e 64 5f 13 be 26 f7 dc 3d
       -0.3410749 0.4029522 -0.14391857 0.10789327
000150 2e 79 a4 3d ff 59 16 3e 2c c9 f9 3d 29 d7 78 bb
       0.08030926 0.14682768 0.121965736 -0.0037970042
000160 7d c9 98 3d ac 0b 3f 3e 37 99 86 3e fb 39 7f be
       0.07460306 0.18656796 0.2628877 -0.24924462
000170 8a 76 07 3e a0 e9 a7 bd 7e 75 00 bd 29 ad 50 be
       0.13228813 -0.08198857 -0.03136205 -0.20378555
000180 38 21 1a 3d 38 51 f5 bc 60 46 e1 3d a3 f9 bd bd
       0.037629336 -0.029945955 0.10999751 -0.0927613
000190 c1 79 d5 bd 54 7d 6a be 26 33 df bd a8 0b cf bd
       -0.10423613 -0.22899371 -0.10898428 -0.10109645
0001a0 e1 86 57 bd 50 bb 84 be f1 76 8a 3e 5c 5d cc 3d
       -0.052618865 -0.25924158 0.2704387 0.099787444
0001b0 ec c7 3c 3e 64 72 20 bc 7f e7 91 3d 8d 79 31 bd
       0.18435639 -0.009792898 0.071242325 -0.04332881
0001c0 b8 d4 81 3e 45 ca 8b 3e 8e 0c 79 bd cb 08 3f bd
       0.25357604 0.27302757 -0.06080299 -0.046639245
0001d0 7c 5c b1 bd 7a 85 af bc db c4 55 bd 4c 1e 03 be
       -0.08660218 -0.021425951 -0.05218969 -0.12804526
0001e0 15 d4 f4 3d 83 d9 9e 3d 74 56 e4 3c d0 4d 5a 3d
       0.11954514 0.07756331 0.027873255 0.053296864
0001f0 71 15 8f bd c6 fd 0d be dc 5f 30 be ff 73 d9 bd
       -0.069865115 -0.13866338 -0.17224067 -0.106178276
000200 2b 68 b8 bc 81 7a a3 3d 7a 49 ff 3c ff 75 d6 3d
       -0.022510609 0.0798235 0.031162966 0.10471725
000210 0b 25 de bd 2a c3 7c bc 59 e2 dd 3d e5 fc 15 be
       -0.10846909 -0.01542739 0.10834188 -0.14647253
000220 9e 92 34 bd d7 a2 62 bd 34 b1 5a 3d 32 ed 5c 3b
       -0.044085138 -0.055331077 0.05339165 0.0033710715
000230 c1 e6 cc 3d b3 88 2f 3d 87 64 7f 3d dc 27 16 3e
       0.1000495 0.042854976 0.06235173 0.14663643
000240 d5 58 2b bd 49 72 44 bd 16 6e b7 be 14 67 6f 3e
       -0.041832764 -0.047960553 -0.35826176 0.23379165
000250 0c 6e b1 bd 6f e7 47 3e 69 77 d2 bc 9a e5 f3 3d
       -0.08663568 0.19521879 -0.025691705 0.119090274
000260 4d 45 9e 3e 94 f1 88 3e 21 db f2 bc 25 ab 6d 3d
       0.30912247 0.2674681 -0.029645504 0.058024544
000270 ae c0 a1 3e 55 8f 95 3c 6d cd 09 3e 95 f2 6b 3c
       0.31592315 0.018256823 0.1345727 0.014401098
000280 26 03 3b be 77 e4 2d 3e 9b 5d 51 3e 0f 32 2d be
       -0.1826292 0.16981684 0.20445864 -0.16913627
000290 c6 3b ea bd 5e 50 cc 3d 4b c5 2e bd a9 29 8d 3e
       -0.11437182 0.09976266 -0.042668622 0.27570847
0002a0 8e f8 10 3d f3 f4 e4 bd f7 ea 17 3e a3 fa 7e 3e
       0.03539329 -0.11179533 0.14835726 0.24900298
0002b0 ae 04 b5 bc 4e 85 16 be 7c cd d7 be 81 15 04 3f
       -0.022096958 -0.14699289 -0.4214896 0.5159531
0002c0 ad 91 2c bd bf 25 03 bf a1 13 80 3e 94 65 92 3d
       -0.042131115 -0.5122947 0.25014976 0.07148281
0002d0 9d 69 6b 3e b0 2c 97 3d 79 56 1c bf 9c ac 8f be
       0.22989507 0.0738157 -0.61069447 -0.28061378
0002e0 57 27 0a 3e 6c 98 a6 bd 77 48 9f be 0d 3b 1f 3c
       0.1349157 -0.08134541 -0.31109974 0.009718669
0002f0 45 0b 24 3d 02 0d 93 3d ae d4 77 3c f8 12 32 3e
       0.04004981 0.071802154 0.01512639 0.17390049
000300 3c c7 e7 bc 5e bf 16 bc 8a ff b0 3d d7 65 11 be
       -0.028293245 -0.009200899 0.0864249 -0.14199005
000310 9c 02 96 3d 9b 81 42 be 53 ee 8d bd 09 fd 88 bd
       0.073247164 -0.18994753 -0.06930222 -0.066888876
000320 b9 28 0a be 8f 8a 1e be 64 9a 39 be 58 a3 90 be
       -0.13492097 -0.15482543 -0.18125302 -0.2824962
000330 a7 f4 af 3d 97 99 c4 3d a6 26 ae bc df dd 9c 3e
       0.085915856 0.095996074 -0.021258663 0.30638024
000340 5d ca cc 3d 18 81 70 be db c8 c5 3b 4d 9b 94 be
       0.09999535 -0.23486745 0.0060359067 -0.29024735
000350 db d1 3d 3e 71 c5 35 be 4a ac c3 bd 07 7a 14 be
       0.18537085 -0.17751099 -0.09554346 -0.14499675
000360 1f 24 6c bd 85 41 2d be 64 d7 23 3e 31 e2 34 be
       -0.057651635 -0.16919525 0.16000134 -0.1766441
000370 8a 3c 12 3e 1a 4f 12 be cb 12 a9 be 31 4e 8e bd
       0.14280906 -0.14287987 -0.3302215 -0.069485076
000380 53 9a 87 be 5d c3 d0 bd 17 8b 2f be e6 75 71 be
       -0.26484928 -0.101935126 -0.17142902 -0.23580131
000390 13 c8 a3 3e 00 6c 79 be 7a b0 3a bd 69 e3 d3 3d
       0.31988582 -0.24357605 -0.045578457 0.103461094
0003a0 15 f9 af 3c 21 77 d0 bc ec 8a ad bd 11 1b 02 be
       0.021481076 -0.02544743 -0.08473763 -0.12705638
0003b0 f3 aa 4d bd 09 c1 55 bb 74 d1 e8 3d bd 24 82 be
       -0.050211858 -0.0032616279 0.11368075 -0.25418654
0003c0 aa c7 39 bd 5a d1 c3 3d 49 b5 75 3d fb d7 82 3e
       -0.04535643 0.09561415 0.05998734 0.25555405
0003d0 7f bd 31 be 1e 2b db bd c9 b3 60 3e d7 78 6d be
       -0.17357443 -0.10701583 0.21943583 -0.23190628
0003e0 f3 97 c7 bc 34 dd 8c 3d b5 af 06 be 2e 66 48 3d
       -0.024364447 0.06878129 -0.13152964 0.04892557
0003f0 88 8f d2 3d c9 8a 8c be 0f 34 18 bd 0f 03 9f bd
       0.10281283 -0.27449635 -0.037159022 -0.07764255

rnn.weight_hh_l0_reverse f4 [32, 32]
000000 4c 63 28 3e f6 40 84 3e 2f 61 95 bd aa b8 db be
       0.16444129 0.2583081 -0.07293927 -0.42914325
000010 4a 57 00 bd c9 42 ac 3e 3f 25 4a 3c 41 71 28 be
       -0.031333245 0.33644703 0.012337982 -0.16449453
000020 d3 a5 d7 bd 96 b9 fc bd 14 07 2c be d5 a2 0e be
       -0.10529675 -0.12340085 -0.16799575 -0.13929303
000030 76 a8 be 3e 94 3c 3c 3f 17 04 53 3e da e5 ba 3d
       0.372379 0.73529935 0.20607029 0.09125872
000040 cc 86 2e 3d 61 79 65 bf 8e 6e 2a 3d ce cf 91 3e
       0.04260902 -0.89638335 0.04160934 0.28478855
000050 90 0e ec be 6e bf b9 3e 5e 4f a2 bd 19 f6 53 3a
       -0.4610486 0.36278862 -0.07925294 0.00080856826
000060 66 a3 f5 bd 81 17 5e 3d cc d6 5e 3e f5 7a 25 be
       -0.119940564 0.054221634 0.21761626 -0.16160186
000070 90 11 88 3f eb e3 fd 3e 79 3c 05 3d 31 47 c4 3e
       1.063036 0.4958795 0.032528374 0.38335565
000080 09 e5 2d bf ba 77 b8 3e 08 e0 08 3d 9d 23 b9 3d
       -0.67927605 0.36028844 0.033416778 0.09039996
000090 d0 b5 00 3f ad ae 73 be 86 8c 8b be 71 a4 47 3d
       0.50277424 -0.23797102 -0.27255648 0.048740808
0000a0 a1 da 17 be 1a 4c 5d be 04 98 04 bd b5 50 e0 be
       -0.14829494 -0.21611062 -0.032371536 -0.43811575
0000b0 e8 4b 6c be 2b 26 5e 3e 25 e1 08 be d4 b1 4f 3c
       -0.23075831 0.21694247 -0.13367136 0.012676675
0000c0 d6 06 12 bf 49 46 0e be 09 1a ae 3e 7d 7d e1 bd
       -0.5704168 -0.13893999 0.34004238 -0.11010263
0000d0 9e 12 47 be ce b4 9c 3e 4d 9e 80 3e 0b d4 8b be
       -0.19440696 0.30606693 0.25120774 -0.27310213
0000e0 bd ce 33 3e 1d bd 0a 3f b3 b9 32 be b7 db 7b 3e
       0.17559333 0.54194814 -0.17453651 0.24595533
0000f0 ef 15 dd 3d 1b 8b f1 3d 8a df 32 be 18 b3 f5 3e
       0.10795199 0.117941104 -0.17468086 0.479882
000100 65 71 30 3e 6f bc 26 be 8a 85 4b 3e 44 11 8a 3e
       0.17230757 -0.16282819 0.1987516 0.26966298
000110 5b 40 5e be cb 73 89 bc b7 9e 07 be cb 29 9d bd
       -0.21704237 -0.016778847 -0.13244139 -0.07673987
000120 5b 01 96 3e c8 b8 25 be 54 6c 29 be f6 0d 27 be
       0.2929791 -0.1618377 -0.1654523 -0.1631392
000130 5f f0 0d 3f 7d 98 b4 3c 54 a1 c5 3d 0f ce 1a 3d
       0.554449 0.022045368 0.096499115 0.03779417
000140 9f 62 65 3e c3 90 2c be bd 39 2a bf d8 51 e5 3d
       0.22400902 -0.16852097 -0.6649435 0.11197251
000150 1f 52 35 bf 0c 62 8c 3b ea a8 52 bd 1c f5 3c 3e
       -0.7082843 0.004284149 -0.05143062 0.18452877
000160 7d 59 e6 be a0 52 92 bd 41 c4 a8 3c 1b 62 91 3e
       -0.4499015 -0.07144666 0.020601394 0.2839516
000170 8d 03 1e 3f bf b8 b0 bd 35 34 74 be 6d 11 4a 3e
       0.6172417 -0.086289875 -0.2384804 0.1973321
000180 45 55 3e 3b ce 29 87 3c 13 92 5a 3e d6 a6 b6 3d
       0.0029042524 0.016499426 0.21344785 0.0891854
000190 33 32 ad be e4 22 b9 3c 11 94 af bd 5d b3 e5 bc
       -0.3382736 0.022599645 -0.08573163 -0.028039629
0001a0 19 71 be 3d 02 d9 4c 3e 68 87 57 3d 41 e2 ed be
       0.092989154 0.20004657 0.052619368 -0.4646168
0001b0 bf c9 26 3e 14 06 5c be a2 74 24 bf 05 36 d5 3d
       0.16287898 -0.21486694 -0.6424047 0.10410694
0001c0 67 0f 94 3e e9 d1 aa 3e 3b 27 16 bf 44 fa 01 3d
       0.28918 0.33363274 -0.5865361 0.031732813
0001d0 45 60 e2 bd 61 f5 57 be ea 94 e3 be 86 a9 d0 be
       -0.11053518 -0.21089698 -0.4444955 -0.40754336
0001e0 84 24 97 be 94 b5 88 bd a7 f5 79 be 05 df ef 3e
       -0.29520047 -0.06675258 -0.24410115 0.46849838
0001f0 c4 7a 9b bd 19 2d e4 be f8 31 81 3e 6a 22 71 be
       -0.07591775 -0.44565657 0.25233436 -0.23548284
000200 93 cb 31 3d 61 7d 43 3f e1 ce bf bd f9 f5 94 3e
       0.043407034 0.7636319 -0.09365631 0.29093912
000210 1f c3 87 3d fe d1 2d bf b1 e2 ed 3d f2 5f 9b be
       0.06629013 -0.6789855 0.116155036 -0.30346638
000220 b0 61 01 bf f6 f7 60 3e 90 30 db 3e 63 4d 17 bd
       -0.50539684 0.2196959 0.42810488 -0.036939036
000230 56 98 35 bf e5 5f f9 be 86 62 2e be c7 d1 09 be
       -0.7093557 -0.48705974 -0.17029771 -0.1345893
000240 44 ed 27 3e 70 5f 77 ba 5f 03 70 be 0b 7e 19 be
       0.16399103 -0.00094365235 -0.23438786 -0.14989488
000250 d9 da 43 3e 87 78 74 3d d8 a2 c3 3e 37 c8 23 be
       0.19126453 0.059685256 0.38210177 -0.15994345
000260 6a 2d 43 be 35 fe 74 be a7 cd 4b 3c 9c 51 f7 3d
       -0.19060293 -0.23925097 0.012439168 0.12076113
000270 5d c0 25 be 87 2c ad 3c 08 e1 8a 3e bd 05 18 bf
       -0.16186662 0.021139396 0.2712481 -0.59383756
000280 99 7a f4 3d c7 32 f3 3e 94 fc 2a 3e 23 1f e6 3d
       0.11937446 0.47499678 0.16697913 0.112364076
000290 b4 f9 47 be c6 06 0d bf 8c 7d 02 bc bd 14 a6 3e
       -0.19528848 -0.5508846 -0.007964503 0.32437697
0002a0 91 07 91 be ae c8 e3 3e 5f 93 b4 3e 1f 52 28 be
       -0.28326085 0.44489044 0.35268685 -0.16437577
0002b0 a0 10 0d 3e 8e a5 cf 3e 7e b0 b2 be 16 8f b6 be
       0.13775873 0.40555996 -0.34900278 -0.3565604
0002c0 3f b6 5c 3d 20 df 4f 3f 80 a5 99 be 34 80 1d bf
       0.05388474 0.81199837 -0.3000908 -0.6152375
0002d0 06 a6 c4 3e 3f 5a 41 be 84 21 4a 3e 22 d6 0d bf
       0.38407916 -0.18882082 0.19739348 -0.55404866
0002e0 c3 7b 7a bd 5e 56 09 bf c4 c2 b9 bd e0 3c a7 3e
       -0.061153185 -0.5364741 -0.09070352 0.3266363
0002f0 9b 1b 52 3e af d1 85 3e fb e2 c7 3e 62 10 0a 3f
       0.20518343 0.26136538 0.3904036 0.5393125
000300 b7 a8 a2 be 53 e5 cf 3a d4 dd bf be bd f0 7e 3d
       -0.31769344 0.0015861191 -0.3747393 0.062241305
000310 ea 63 1e 3e d3 5d c8 bd 83 c0 f7 bd b9 54 ca 3e
       0.15467802 -0.097835205 -0.120972656 0.39517763
000320 80 84 b1 bd 5e 7a 9a 3d 7a c0 30 3e e7 7f a5 3e
       -0.086678505 0.07542871 0.17260924 0.32324144
000330 c7 fa 06 bd 9d 11 1a 3c f9 b4 a2 3c 6c 5c 92 3e
       -0.032954004 0.009403613 0.019861685 0.28586137
000340 25 bd 90 bd f5 e0 9c be c4 2c b7 3e 5d 38 16 3e
       -0.070673265 -0.3064038 0.3577634 0.14669938
000350 63 ba 17 3f 49 c7 a4 bd 82 f2 95 3e 22 50 4e 3e
       0.5926878 -0.08045823 0.2928658 0.20147756
000360 7c 71 82 3e 8f 30 32 bf 98 bf c2 bc b2 aa 82 be
       0.25477207 -0.69605345 -0.023773 -0.25520855
000370 7c ca 3e bf 80 5d d3 be 4f af bd 3e d1 84 fe be
       -0.74527717 -0.41282272 0.37047812 -0.49710706
000380 de b1 7a be 96 67 e6 3d e1 4c 99 3c 82 ab 46 3d
       -0.24481913 0.11250226 0.018713417 0.048503406
000390 84 7e b9 3e 96 74 c1 3e 57 c7 9b 3e e4 8d 01 be
       0.36229336 0.3778426 0.30425522 -0.12651783
0003a0 53 ab 53 bc 74 d5 23 bf 1e 6e d6 bd dd 0d 72 bf
       -0.012919265 -0.6399758 -0.10470222 -0.94552404
0003b0 93 78 8f bd b2 35 2b be a8 34 21 3b 6c 3b d7 bc
       -0.070054196 -0.16719702 0.0024598036 -0.026273452
0003c0 ee fc 93 3e 2e f4 b3 3e fd 25 60 3e 11 b0 98 3e
       0.28903908 0.35147232 0.21889491 0.29821828
0003d0 20 30 19 be bd 32 9f be 33 8e 85 3d 8a 8d 12 3d
       -0.14959764 -0.31093398 0.06521263 0.035779513
0003e0 d0 40 14 3e 9a 4c 48 3f 8b c1 21 be 31 a0 0c 3e
       0.14477849 0.78241885 -0.15796487 0.13732983
0003f0 6e 71 46 be 5e 18 1b bf 3a 9d 30 be 13 d3 a0 be
       -0.19379207 -0.60584056 -0.17247477 -0.31411037

rnn.bias_ih_l0_reverse f4 [32]
000000 32 d5 5e be 03 94 56 3e 15 58 8f bc 3e 2b 65 be
       -0.21761015 0.209549 -0.017498055 -0.22379777
000010 c7 4a a3 3d 4a 0f 84 3b 97 2a f7 bc ef 9d 49 3e
       0.07973247 0.004030143 -0.030171676 0.19689153
000020 d8 ba 24 3e 6a b6 4b 3e 47 e0 29 3e f0 4a d1 3d
       0.160869 0.19893804 0.16589461 0.10219371
000030 4b 35 98 3d 72 bc e1 bd 33 4f 5a be 09 f2 a1 bd
       0.0743204 -0.11022271 -0.21319275 -0.07907493
000040 35 5f f2 3c 0f 2c 21 be e8 63 97 3d 2a 16 28 be
       0.029586414 -0.15739463 0.073921025 -0.16414705
000050 99 ab 6e be f0 cb 66 bd 2a 23 1e 3d 02 0e 08 3e
       -0.23307647 -0.056346834 0.038607754 0.13286594
000060 44 53 08 be cb 83 78 3c 28 bc 4e 3d d0 8f aa 3d
       -0.13313013 0.015168141 0.05047241 0.08328211
000070 67 2f 5a 3e da 29 e0 bd d0 22 ee 3c aa e9 da 3d
       0.21307145 -0.109454826 0.029069334 0.10689099

rnn.bias_hh_l0_reverse f4 [32]
000000 3d 1c 55 be d4 26 e2 3b 45 52 e2 3c 21 ac 9c 3d
       -0.20811553 0.0069016013 0.02762712 0.076500185
000010 2a ad 6d bd 7c b1 93 bd 0a 12 bc bb 1c 47 3a 3d
       -0.05802647 -0.07211587 -0.005739455 0.04547797
000020 0d 79 27 bc 15 f4 1d 3d ff 63 ed bd b0 ff 4c bd
       -0.010221732 0.038562853 -0.11591338 -0.05004853
000030 18 a0 25 3e ce 90 0a be 76 9f 06 bd 72 e3 44 3e
       0.16174352 -0.13531801 -0.032866918 0.19227389
000040 c4 0e f0 bd 4b cd e5 3d eb bb 14 3e 3c cd 18 be
       -0.11721566 0.11220797 0.1452481 -0.1492204
000050 2a 2d 39 be a9 03 0b 3d 7c 68 ce 3d a8 49 0e 3e
       -0.18083635 0.033939037 0.100785226 0.13895285
000060 e4 55 d7 3d 47 3f ce bc bc 48 ce 3d 40 40 32 bd
       0.10514429 -0.025176657 0.10072467 -0.043518305
000070 1c 5a 09 3e 83 25 9d 3c a7 31 f4 3d 60 7f 7a 3d
       0.1341328 0.019182926 0.11923533 0.06115663

fc1.weight f4 [11, 64]
000000 7e 98 a8 be 2d 7b 73 3e f2 bd 30 3f 05 9e 63 3e
       -0.32928842 0.23777457 0.69039834 0.22228248
000010 95 63 e9 3e 54 9b 59 3d 1f 82 32 bf 5a 3f 80 bf
       0.45583788 0.053126648 -0.697298 -1.0019333
000020 c3 3b 86 be fc 86 8f be 53 64 d0 3e 45 d1 1f 3f
       -0.2621747 -0.28032672 0.4070154 0.62428695
000030 7f 1e 44 bf 0e 1f 9d be ea 0c da be e3 97 ea 3e
       -0.76609033 -0.30687755 -0.42587978 0.45819005
000040 70 58 0d 3f 46 a6 c2 3e 4d 81 7d be 44 87 6d be
       0.5521307 0.38017482 -0.24756356 -0.23196131
000050 d7 1d 44 be 3f 33 d5 be 1e 8d 42 bf f9 56 f0 be
       -0.19152008 -0.4164066 -0.7599658 -0.46941355
000060 60 4a 74 be 9f f3 f5 be 31 88 a8 3e 20 0c aa 3e
       -0.23856497 -0.4803743 0.32916406 0.33212376
000070 80 40 33 3f 20 b9 ce 3d cb b5 1a 3f db be e9 3e
       0.70020294 0.100939035 0.60433644 0.45653424
000080 44 2a c3 be a6 e9 85 3e 98 fa 9d be 9a de ae be
       -0.38118184 0.26154822 -0.3085525 -0.34154207
000090 aa 7c ae 3e 82 23 95 3e ec 47 a0 3e c3 37 65 be
       0.34079486 0.29128653 0.31304872 -0.22384553
0000a0 e3 29 2f 3f 1c 46 98 3e 5e c3 f0 3e 2f 9f 1a 3e
       0.6842329 0.2974099 0.47024053 0.15099786
0000b0 e3 6f dd 3c bf a2 8a be f1 69 8c 3e 7d 5e c1 3e
       0.02703089 -0.2707729 0.27424577 0.377674
0000c0 f0 be 82 be 74 78 a4 3e 7a 56 57 3e 1f d0 4d 3e
       -0.255363 0.32123148 0.21029082 0.20098923
0000d0 66 49 c5 be 7d 30 05 bf 29 15 9f 3d f8 38 93 3e
       -0.3853256 -0.5202711 0.07767708 0.287544
0000e0 a9 d9 29 be 67 0b 82 be ae 5e f3 3e 31 fc 30 be
       -0.16586937 -0.25399324 0.47533172 -0.17283703
0000f0 c7 8b 59 3d d4 41 c9 be e3 ce 01 3f e4 d6 d2 be
       0.053111818 -0.39308035 0.5070631 -0.41179574
000100 f2 cc 31 3e 6a 11 9d 3c f8 00 0e 3f 3d f3 02 3d
       0.17363337 0.019173343 0.5547023 0.03197025
000110 e0 58 10 3e 2c 8c 08 3f 49 50 91 bd 4c 5c bc be
       0.14096403 0.53338885 -0.07095391 -0.36789167
000120 35 30 ad bd a4 91 ac 3e 43 90 54 3d 72 8d 9d 3e
       -0.084564604 0.33704865 0.05189539 0.30771977
000130 c9 4d 22 bf fb dd f4 3e 3c b8 89 3f 99 85 a4 bf
       -0.6339994 0.47825608 1.0759349 -1.2853271
000140 ff 8e b2 3d ef 54 23 bf 1c 92 11 be 80 71 1f be
       0.087186806 -0.63801473 -0.14215893 -0.1557064
000150 88 b4 c1 be 7f 6d c9 be 80 91 e7 3e 28 74 67 3e
       -0.37833047 -0.3934135 0.45228195 0.22602904
000160 b3 47 21 3d ba a9 f6 bb 42 ff bd 3d 07 ac 9f be
       0.03937502 -0.007527557 0.09277202 -0.31185934
000170 ca a8 a0 be 38 36 04 3f 53 e3 57 3e 61 fd 9d 3e
       -0.31378776 0.5164523 0.21082811 0.30857375
000180 82 d4 16 3f 52 4f 17 bf de 78 b5 bc 81 3b 0b bf
       0.5891801 -0.5910541 -0.02215236 -0.5438767
000190 04 5d 26 bf 80 65 ff be c7 84 5a bf 3e af 5e 3f
       -0.6498568 -0.49882126 -0.8535885 0.8698615
0001a0 83 6a e8 be af 68 79 bf 2f e4 d7 3d 65 33 ef be
       -0.45393762 -0.9742536 0.105415694 -0.46718898
0001b0 5a cd 2b bf 6f 9d 07 3f f5 4a 7c 3e e1 2b 11 bf
       -0.67110217 0.529746 0.24637969 -0.5670758
0001c0 9a 9e 1e 3f 54 22 9e bd 8b 69 30 3e 0d 7a 16 3f
       0.61960757 -0.07721391 0.17227761 0.58779985
0001d0 e8 81 b8 3e ec 93 25 bd 61 25 1f bc a8 5c 6a be
       0.3603661 -0.040424272 -0.009713502 -0.22886908
0001e0 05 80 ef 3e 35 0f 2a bf f9 7b 7b be 7f d5 8e be
       0.4677736 -0.66429454 -0.2455901 -0.2789726
0001f0 b8 39 c6 be 57 d9 6b bf ba cf 0c bf 58 ff 12 3f
       -0.3871591 -0.9212851 -0.55004466 0.57420874
000200 20 4d 12 3f 3a 60 d0 be 41 73 80 bf 3d 48 58 3e
       0.57148933 -0.40698415 -1.0035173 0.21121307
000210 3e 0a 73 3e 7c 19 03 bf f3 7a 9f 3e 72 7f ae 3e
       0.23734376 -0.5121076 0.3114849 0.34081608
000220 28 ce 32 3f e7 54 3f be ff 1c d5 be da c4 3d bf
       0.6984582 -0.18684731 -0.41623685 -0.74128497
000230 ea c4 fb 3e 58 e1 e5 be 68 e9 a7 bb 71 d7 93 bf
       0.4917367 -0.44898486 -0.0051242597 -1.1550122
000240 d2 89 6e 3e 3e e3 d6 bd 1c 5f 6c 3e 84 5c 4f 3f
       0.23294762 -0.10492562 0.23083156 0.8100054
000250 90 49 17 bf 28 f1 3b bf 34 a2 4f 3e 84 b5 42 3f
       -0.5909662 -0.7341485 0.2027672 0.7605822
000260 12 c9 38 3f e4 12 b5 3e 24 6b 2c 3e 37 36 89 3e
       0.7218181 0.35365975 0.16837746 0.26799175
000270 8c b7 4b 3e aa 4b 68 bf e8 82 9c be 11 38 79 bc
       0.19894236 -0.90740454 -0.30568624 -0.015211121
000280 4c 4e 43 bd 6f 19 fe be fc ad 22 3e 76 04 99 3e
       -0.04768209 -0.4962878 0.15886682 0.29886216
000290 e9 c9 f6 be b7 1d 4f be 98 1e 45 bf 37 e9 de 3d
       -0.4820092 -0.20226179 -0.7699981 0.10884326
0002a0 73 28 52 3f 65 61 cc 3d 81 93 33 bf ad b9 fd be
       0.8209297 0.09979514 -0.7014695 -0.49555722
0002b0 cc 48 be be 35 dd 1b bf 07 d3 ab be a9 44 92 3d
       -0.37164915 -0.6088441 -0.3355944 0.07142002
0002c0 92 47 17 3f fc e4 4b bf 9b 14 1b bf 9e 1f b5 be
       0.5909358 -0.7964628 -0.60578316 -0.35375684
0002d0 88 46 fb be aa 59 15 3f 1d 3a c5 be c3 c8 b1 3d
       -0.4907725 0.5833994 -0.385209 0.086808704
0002e0 ea f3 3a 3f af 87 57 be 45 f9 46 3f 5b 46 12 3f
       0.73028433 -0.21047853 0.77724105 0.57138604
0002f0 d4 eb 45 bf 89 d5 15 3f 0a c3 26 bf ce 55 81 3d
       -0.7731297 0.58528954 -0.65141356 0.06315194
000300 7f db 26 bf c3 57 a8 bb 08 e9 53 bf 7e 67 53 bf
       -0.65178674 -0.005137415 -0.8277745 -0.8257979
000310 76 56 83 be 6e 16 14 3f a6 43 b8 3e 1e eb 85 3e
       -0.25651902 0.57846725 0.35989112 0.26155943
000320 cb 89 18 3f 38 37 9f be e8 67 06 bf 2f a0 55 be
       0.59585255 -0.31096816 -0.525023 -0.20861886
000330 78 2f dc 3e cf 55 19 3f 0b 27 41 3f f0 a1 92 3e
       0.43004966 0.5989656 0.754502 0.28639174
000340 fb 17 61 bc e2 33 95 be e0 9d 0b 3f d6 d2 2e 3e
       -0.013738628 -0.29141146 0.54537773 0.17072615
000350 74 77 e1 be 24 d0 17 3e 09 8c 05 be 44 d7 86 3f
       -0.44036448 0.14825493 -0.130417 1.0534444
000360 e3 32 81 be 6f d6 2c 3f a9 3a de be 74 12 0b bf
       -0.25234136 0.675147 -0.4340413 -0.5432503
000370 64 28 39 3e bb 84 07 bf 3f 34 04 bf 31 46 5a 3e
       0.18081814 -0.52936906 -0.5164222 0.21315838
000380 30 24 90 be e8 4e d3 be 87 6c 5a 3d 07 ae eb 3e
       -0.2815261 -0.41271138 0.053326156 0.4603121
000390 c7 9d 92 3e de 90 b7 be 69 d4 e2 3e 39 a0 2a 3e
       0.28636 -0.35852712 0.4430268 0.16662683
0003a0 be c7 54 bf d9 21 75 be 23 4b 94 3e 22 19 b3 be
       -0.8311728 -0.23938693 0.28963575 -0.34980112
0003b0 44 a6 e2 be 2d 8f 8b be 67 94 07 bf 07 0a 90 be
       -0.44267476 -0.27257672 -0.5296082 -0.2813265
0003c0 e5 40 32 be 3c ec 36 bf fd b5 35 bf 5f 52 3f 3f
       -0.17407568 -0.71454215 -0.7098082 0.74735063
0003d0 a3 c1 dc be ae 4c 34 3f 68 0a ba 3e 3f 96 2d bf
       -0.43116483 0.70429504 0.36336064 -0.6780738
0003e0 5d f3 f4 be 76 a5 45 3f c1 fc f2 be c7 e3 72 3e
       -0.4784192 0.772056 -0.4745846 0.23719703
0003f0 76 ee 56 be 95 af 06 bf 63 be 6a 3e 1d 6f ae be
       -0.20989403 -0.52611667 0.2292419 -0.34069148

fc1.bias f4 [11]
000000 a5 96 8d 3e a5 e7 38 3c 13 0d 00 bf be 50 bc 3c
       0.27653995 0.011285697 -0.5001995 0.02298772
000010 13 c1 54 bf b0 0d 3a bd 03 07 cd bc ca b5 a0 be
       -0.8310711 -0.04542321 -0.025027758 -0.31388694
000020 82 d0 3e bd 74 cb 08 be 88 05 94 be
       -0.046585567 -0.13358861 -0.2891047
