src/main/python/saved_models/kotlin_1_28_RNNClassifier1_128embs_178id_32hd_1hl_Truebid_2.pt (torch, 136735 bytes, 11 tensors)

word_embeddings.weight f4 [178, 128]
000000 b4 ea b7 bf 89 03 0e c0 21 e8 67 bf 32 99 f1 3f
       -1.4368501 -2.2189658 -0.90588576 1.8874876
000010 8d af fa bf 13 4f ad 3f 2d c6 88 bf 5a 63 8b 3f
       -1.9584824 1.3539757 -1.0685478 1.0889695
000020 6d c7 98 bc 05 f3 fc be 46 96 4f bc 5f b8 3c bf
       -0.018649781 -0.4940416 -0.012670105 -0.7371883
000030 f1 56 1f 3f 6b cb 1f bf f4 45 6f 3e ef d2 99 be
       0.6224204 -0.62419766 0.23366529 -0.30043742
000040 de 57 f7 be 48 f2 46 bd 45 54 0a bf 0f 5b ca be
       -0.48309225 -0.0485709 -0.54034835 -0.39522597
000050 f1 24 53 3e 08 bd c7 be 98 65 8b 3e ca 41 0f bf
       0.20619561 -0.39011407 0.27225947 -0.5595976
000060 d4 1e 2a 3d 97 e4 34 3e 7e f6 03 3f 4e b2 ce be
       0.041533306 0.17665325 0.5154799 -0.4037041
000070 14 e3 6f be 3f 2d b4 be ac ed a9 3f 49 11 ba 3f
       -0.23426467 -0.3519077 1.3275657 1.4536525
000080 ef 8d 23 3f e3 4f 07 3f b7 6c 6f 3f 69 ec 14 bf
       0.6388845 0.5285627 0.9352526 -0.58173233
000090 55 99 ec be 26 2f 88 bf 5d 9f 8b 3d 1e 3d 10 3f
       -0.46210733 -1.0639389 0.068175055 0.5634326
0000a0 c2 67 41 40 75 8a b5 3f d4 a8 ba bf cd 0b 8c 3f
       3.0219579 1.4182879 -1.4582772 1.0941101
0000b0 b6 46 e0 be 89 d2 12 bf 0c 0d 0a 3f 88 ee 29 bf
       -0.43803948 -0.573525 0.5392616 -0.66379595
0000c0 a5 75 4f 3f eb c2 d1 3e 2a 0b 8c 3f 3b 1b 2e 3f
       0.81038886 0.40969023 1.0940907 0.680103
0000d0 28 d3 5b 3f 80 87 97 3f 1b 28 1d bf 38 c1 34 be
       0.85869074 1.1838226 -0.6138932 -0.17651832
0000e0 ce cb b7 3e 3f ba 2b 3f df 57 dc be 1e 47 b6 3f
       0.35897678 0.67081064 -0.4303579 1.4240453
0000f0 fe 66 95 bf 34 00 08 3f 44 db 3d 3f 0a 09 85 bf
       -1.1672056 0.5312531 0.741627 -1.0393384
000100 6d a7 b7 3f 37 e5 0b be ed 2f 1f 3e c9 93 ad bf
       1.4347969 -0.13661657 0.15545626 -1.3560725
000110 3a 5c 47 3f 81 04 be be 8b 28 2d 40 2d 20 a2 3f
       0.778751 -0.3711281 2.7055995 1.2666069
000120 05 c4 b7 be a6 42 00 3f f3 4d b8 bf 3e e2 06 bf
       -0.3589174 0.501017 -1.4398788 -0.5268897
000130 07 a9 b9 3f ac 38 8b 3f 8c 09 e0 3e ab 66 91 3f
       1.4504708 1.087667 0.43757284 1.1359457
000140 24 98 89 3f 64 35 1e 3f b3 7e c5 3e 36 7d 17 bf
       1.0749555 0.6180022 0.38573226 -0.5917543
000150 a0 34 0d 40 d9 d0 c8 3f 81 5c 47 be 71 2a 12 3f
       2.206337 1.5688735 -0.19468881 0.5709601
000160 4b 5e 72 3f 75 b8 e0 bf cb fc ea 3e 3f bf c7 be
       0.9467513 -1.7556292 0.4589599 -0.39013097
000170 d0 87 5f be f7 8a 2e 3f 08 c9 1f 3f 64 3c 09 3f
       -0.21829152 0.68180794 0.62416124 0.53607774
000180 34 75 8c be 89 40 22 bf f0 1e 85 bf ef 98 67 bf
       -0.2743317 -0.6337972 -1.0400066 -0.90467733
000190 d8 7e 1c 3f 27 d8 11 c0 95 a1 02 bf b0 cb 76 3e
       0.6113105 -2.278818 -0.51027805 0.24101138
0001a0 73 2e 0b c0 e1 f8 53 bf 38 2b ee bf f8 fd b9 3f
       -2.17471 -0.82801634 -1.8606939 1.453063
0001b0 0a 5f d0 3f 6e d2 a1 bf 46 14 9a bf 28 67 44 be
       1.6279004 -1.2642343 -1.2037437 -0.19179976
0001c0 9c 6f 26 3f 3f 7a ba bf 4c 53 a5 be 50 f3 7f bd
       0.6501405 -1.4568557 -0.32290113 -0.0624879
0001d0 19 b2 03 bf e0 b1 9d bf 1d 25 06 c0 ab 5d 4c be
       -0.5144363 -1.2319908 -2.0960152 -0.19957606
0001e0 62 5f b2 bf 0c 9f 3f bf ed 36 17 3e 0f 19 b4 3f
       -1.3935359 -0.7485206 0.14767046 1.4070147
0001f0 62 7a af bf b2 35 16 3f 25 05 01 3f b6 e6 d0 3e
       -1.3709223 0.5867568 0.50398475 0.40801018
000200 68 17 a8 bf 49 e1 cd be ea 9c c1 bf 28 99 cc be
       -1.3132143 -0.4021094 -1.5126011 -0.399606
000210 59 41 82 bf 24 0f 4b 3f 76 f9 e3 be 19 5b ce 3e
       -1.0176193 0.7931998 -0.4452626 0.40303877
000220 2b dc b2 be 2f e2 c7 3d f7 b0 cc be 78 bb c3 be
       -0.349336 0.09759938 -0.39978763 -0.38228965
000230 c8 09 20 3e 93 b4 06 3f 99 48 44 bf df ea 02 bf
       0.15628731 0.52619284 -0.76673275 -0.51139635
000240 7c 38 3c bf 3f b0 1c bc 7b 81 cb bf 12 ca 87 3f
       -0.7352369 -0.009563505 -1.5898889 1.0608542
000250 62 d8 b4 3e 15 eb db be 2f d3 d7 3e 1f b5 8c bf
       0.35321337 -0.4295279 0.42153308 -1.0992774
000260 82 9d 5e bf 42 46 10 3f 29 86 cb 3e b0 1d cd 3f
       -0.8695909 0.56357205 0.39750794 1.6024685
000270 67 69 14 bf a9 ee 1f bf 8c 92 f2 be ae f7 73 bf
       -0.5797333 -0.6247354 -0.4737743 -0.95299804
000280 6d 63 8f bf 64 da 7a 3f 3d 3b c2 3e aa cb 58 3e
       -1.1202217 0.9798949 0.3793582 0.21171442
000290 cf 27 cd 3f 65 8c 9a bd 33 9b d3 bc 49 26 83 bf
       1.6027774 -0.075463094 -0.02583084 -1.0246059
0002a0 6e 07 c1 bc 64 ba 77 3f 6e af a7 3f c3 96 82 be
       -0.023563113 0.96768785 1.3100412 -0.25505647
0002b0 30 b3 2f 3f 2a ab 43 bf e1 ec 90 3e fa a9 84 3f
       0.68632793 -0.7643305 0.28305724 1.0364373
0002c0 15 19 34 bf b5 7d 9b be df 54 3c bf 87 8c 10 bd
       -0.7035077 -0.30369344 -0.73567003 -0.035290267
0002d0 4b 9d ab 3e 30 df 18 3f 5a 9c 96 3f 0f bd 43 3e
       0.33518443 0.5971556 1.1766465 0.19115089
0002e0 11 b6 c5 be 16 f5 7d bf 9d 76 fc be 95 07 a6 bf
       -0.38615468 -0.99202096 -0.49309245 -1.2971064
0002f0 12 5e 46 be b8 d2 2c bf 09 48 78 bf 99 6f 4f be
       -0.19371822 -0.6750903 -0.96984917 -0.20257415
000300 f7 5b 97 3e 41 6b 33 3f 9a 3e e7 3d 4e c8 be 3e
       0.2956235 0.7008553 0.11291237 0.37262195
000310 0c 59 26 bf d0 cd e9 3d bd 85 a9 be 70 2a 5c bf
       -0.64979625 0.11416209 -0.33109847 -0.86002254
000320 48 0f 19 be 80 3b f7 3d 6e f5 d9 3e a0 e3 3e 3f
       -0.14947236 0.120718956 0.4257006 0.7456608
000330 11 cc bc bf 59 75 eb 3e d1 03 49 40 c3 ea 2f 3d
       -1.4749776 0.45987967 3.140858 0.042948496
000340 12 a5 85 bf 17 89 81 bf 35 21 8f 3f 24 1f 49 3d
       -1.0441 -1.0119962 1.1182009 0.049101964
000350 cd 3c aa bf 11 ee cd 3f 69 bb ec bd 26 57 a0 bf
       -1.3299805 1.6088277 -0.11559183 -1.2526596
000360 84 5f 40 be 22 09 aa bf 01 be 0d 3f af 17 5d be
       -0.18786436 -1.3284037 0.5536805 -0.21591066
000370 8d c6 c9 3e c8 5e 76 bf 90 f5 9e 3f 7d 8b 61 bf
       0.39409295 -0.96238375 1.241869 -0.8810347
000380 f3 83 af 3f 4c 39 6c 3e 68 ba f5 be f7 10 ed bd
       1.3712143 0.23068732 -0.4799378 -0.115755014
000390 99 aa 9f be 4a 5b 47 bf 95 6d 8a 3e 51 db 60 3e
       -0.31184843 -0.7787367 0.2703673 0.21958663
0003a0 1a 75 ec bf 74 e9 09 bf 8d 1b d0 3e 8f a7 13 be
       -1.8473237 -0.53871846 0.4064602 -0.14419387
0003b0 49 60 9a bf 81 29 50 be 0a 97 73 bf 88 6a a4 3e
       -1.2060634 -0.20328332 -0.9515234 0.32112527
0003c0 d5 ed 8c 3f 70 f6 2d 3f bc bb 9f bf f9 98 ae 3e
       1.101008 0.6795416 -1.2479167 0.34101084
0003d0 cc a2 c0 bf 69 3a 49 3e 14 0e 07 3e 1c 8c 8c be
       -1.5049682 0.19651188 0.13188964 -0.27450645
0003e0 84 f1 71 be b4 ca 00 3f 43 65 38 3f db aa 75 3f
       -0.23627287 0.503093 0.72029513 0.9596383
0003f0 f2 09 0b bf 53 8a 25 3f 11 8b 89 3f 92 38 c7 3f
       -0.5431205 0.6466419 1.0745565 1.5564139

rnn.weight_ih_l0 f4 [32, 128]
000000 a6 df 07 3e 23 14 84 3b a7 3d f1 3c e5 95 f7 3d
       0.13268909 0.004030721 0.029448343 0.12089137
000010 2f 7c a6 3d 86 d2 aa bd 92 a8 80 be 7c 63 a9 bd
       0.08129155 -0.083409354 -0.2512861 -0.08270928
000020 e0 fb 49 3e 54 75 1e be 4f 27 1c bd ef 1c 43 3e
       0.19724989 -0.15474445 -0.038123425 0.19054006
000030 19 25 df 3d b6 35 88 3d 67 dd 8d 3d df 2a 6f 3e
       0.10895748 0.066508695 0.06926995 0.23356198
000040 a1 ba a3 bd cf 1b d1 bd b5 56 8a 3b c9 41 a4 bb
       -0.07994581 -0.10210382 0.004221762 -0.005012725
000050 a9 23 29 3e e9 77 bc 3d b8 80 09 be a7 6c 4d bd
       0.1651751 0.092025585 -0.13428009 -0.050152447
000060 60 9d 50 3d a4 a4 0f be 53 d6 da bd d7 dc 20 3d
       0.050931334 -0.14027649 -0.1068541 0.03927311
000070 50 54 04 3d ef 83 b3 bd e8 5b 50 3e 7e 3a d9 bd
       0.03230697 -0.08765399 0.2034756 -0.106068596
000080 f7 c3 2d be 8a 9c 92 3c c0 98 7d ba 75 8b 01 be
       -0.16969286 0.01789691 -0.00096739456 -0.12650855
000090 9d 1b d3 3d 68 e5 94 3d a1 86 3c 3e 1b c6 d5 bc
       0.10308001 0.07270318 0.18410732 -0.02609544
0000a0 b3 6e 67 bd f8 82 d0 3c e3 24 0c 3e 96 8d 52 bd
       -0.056502055 0.025453076 0.13685946 -0.051404558
0000b0 ea fb 04 3e 88 a6 9c be 02 d2 d3 3d 30 bc 0b 3d
       0.12986723 -0.30595803 0.1034279 0.034115016
0000c0 91 43 9d bd 06 f3 da bc 3a f8 c5 3d f7 1a d1 be
       -0.07678903 -0.02672721 0.09666486 -0.40840885
0000d0 cb 41 46 3e fd 0b c6 bd 4e 0b 04 be 6f 7f d4 3d
       0.19361036 -0.09670255 -0.12894937 0.103758685
0000e0 e4 e4 46 3c 61 30 6f 3e f9 e0 c5 bd e0 99 3a bc
       0.012139533 0.23358299 -0.09662051 -0.011389226
0000f0 8d 05 8c bd 8c 20 6a be bb ed e6 3c 3c c5 d7 bd
       -0.06836996 -0.22863978 0.02818953 -0.10535666
000100 98 56 46 3e 31 6d c6 bc 68 ef 3d 3e 0a 37 b4 bd
       0.1936897 -0.024221988 0.18548357 -0.0879956
000110 7e ac b2 3d a1 43 92 3e 3d 6e 86 bd ee f4 28 3e
       0.087243065 0.28567222 -0.06563995 0.16499683
000120 ab f3 a1 3d d0 b0 e9 bd 5c 0a 24 3e 66 82 e3 3b
       0.07907804 -0.114106774 0.16019577 0.006943035
000130 fa 02 3e bd 4e 71 48 3e 9f 32 49 3e c3 f4 a1 3e
       -0.046389557 0.19574472 0.19648217 0.3163205
000140 35 e5 fb 3d 13 7f 56 bb 42 0a 70 bd 4b ff 39 3e
       0.12299577 -0.003272955 -0.058603533 0.18163793
000150 5a 4a 85 3d 1f 70 2a 3e 28 ca a7 bc 8c 73 9f 3d
       0.06508322 0.16644333 -0.020482138 0.07785711
000160 b5 ec 1d be aa f2 fd bd 7a 0b 0a 3e 5a 63 36 3e
       -0.15422328 -0.123998 0.1348094 0.17811337
000170 f0 fb 56 3e a7 19 65 3d 04 f8 c5 3d dc 73 4c 3d
       0.20994544 0.055932667 0.09666446 0.04991518
000180 a8 0d 50 3e ff c3 92 3d fb 40 76 be ee 51 d6 be
       0.2031771 0.071662895 -0.24048226 -0.41859382
000190 32 c2 3e 3b 7e d2 91 bc cb 69 f0 3c a1 02 9a bd
       0.0029107449 -0.017800566 0.029347321 -0.07520033
0001a0 d7 6d 3a be bd ef db bd f4 56 6a 3e 94 51 2a bc
       -0.18205963 -0.10739086 0.22884732 -0.010395426
0001b0 1f 02 32 3e d1 c9 47 3e f6 7a 51 3d 17 e8 29 be
       0.17383622 0.1951058 0.051142655 -0.16592441
0001c0 a7 fc 18 bd 24 ba 50 3d f7 4e 06 3e cb e8 2b 3d
       -0.037350323 0.050958768 0.1311606 0.041970056
0001d0 1d eb c9 bc 88 0c 29 be 41 02 4b 3e 88 c1 1a be
       -0.024648244 -0.16508687 0.19825079 -0.15112889
0001e0 e6 db 74 3c d9 66 16 3e 6a 29 5a bb 2a 27 89 3d
       0.014945006 0.14687671 -0.0033288845 0.06696923
0001f0 b4 0a 64 3c bb 19 a9 3d 91 7a 71 3d 09 91 bf bd
       0.013918567 0.08256861 0.05895478 -0.09353835
000200 63 d1 b6 3e fd 64 dd bb 5e 71 18 be 3f 1a 36 3d
       0.35706624 -0.0067564235 -0.14886996 0.044458624
000210 95 38 64 3d 76 7a ae bb 90 4a e2 3c 4e dc 8c 3d
       0.055718023 -0.005324657 0.027623445 0.06877957
000220 75 86 98 bd 73 d9 42 be bb ee 01 3e 94 2a e1 3d
       -0.07447521 -0.19028263 0.12688725 0.10994449
000230 60 9a 05 be 44 80 85 be 95 ba 95 3d 30 7e aa 3e
       -0.1304717 -0.2607442 0.07310978 0.33299398
000240 b0 1a 45 be ac cd 2f 3d c0 c2 1c 3e bd b0 f9 bb
       -0.19248462 0.042920753 0.15308666 -0.007619946
000250 a0 a2 99 bd da 4b f4 bc 86 f9 30 be 54 65 6a 3e
       -0.075017214 -0.029821325 -0.17282686 0.22890216
000260 8b 39 b1 be e0 87 68 be 6d b9 10 be cc 1c 81 3d
       -0.34614214 -0.22708082 -0.14133234 0.06304321
000270 ff 49 bb bd af d1 e6 bd 11 e1 0f 3d 22 4f fc 3d
       -0.09144973 -0.11270463 0.03512675 0.12319781
000280 40 1c 41 be c7 78 a3 bc 7e e7 47 bd 39 29 2f bd
       -0.18858433 -0.019955052 -0.048804753 -0.042763922
000290 0e 96 9f ba c5 29 27 be 7c 9d 69 3c 01 57 5a 3d
       -0.0012175457 -0.16324528 0.014258739 0.05330563
0002a0 07 87 bf 3d 39 1c 8f bd 01 97 38 bd 1e 67 79 3e
       0.09351926 -0.06987805 -0.045065884 0.24355742
0002b0 5a 9d 37 be d1 0e 59 3e 15 df 89 bd bb d8 aa 3d
       -0.17931119 0.21197058 -0.06732003 0.08342119
0002c0 f3 28 0e be 31 56 22 be f0 9f 1a 3e 94 0d 8a be
       -0.13882808 -0.15853192 0.15100074 -0.26963484
0002d0 c6 f4 e1 3d 61 fb 3e 3e e7 42 3d be 92 d6 3f be
       0.11033015 0.18650581 -0.18482552 -0.18734196
0002e0 17 df a1 3c ca 2c 9f 3c ca c6 cc 3d 1b aa 4c 3e
       0.019759698 0.019430537 0.099988535 0.19986765
0002f0 37 4d 62 bd 72 6b 63 be 38 66 42 3e da 23 25 be
       -0.05524942 -0.22208956 0.18984306 -0.16126958
000300 43 7d 13 3e 04 fd 9b 3d e2 29 c5 bc 95 bb 83 bd
       0.14403252 0.07616618 -0.024067823 -0.06432263
000310 e6 e2 d8 bd be 54 5d bd 09 08 7e 3d 56 ea 8f 3c
       -0.105901524 -0.054035895 0.06201938 0.017567795
000320 71 b3 27 bd 22 a9 9c bd 82 99 9b 3e 76 ff 1d 3d
       -0.040942613 -0.07649447 0.30390555 0.038573705
000330 57 4f 70 3d ec 4b 47 3d fe e4 83 3d 20 09 38 3d
       0.058669414 0.04865639 0.06440161 0.044930577
000340 3f c6 c4 3d a9 29 53 3e cf d4 da bd 1c 74 84 bc
       0.09608125 0.20621361 -0.10685121 -0.016168647
000350 6a b7 5d 3b ca fa 59 3e 72 7a 0d 3e f5 b9 0f be
       0.0033831247 0.21287075 0.1381624 -0.1403578
000360 82 b4 1b 3d f8 81 67 be 50 2a 66 3d 78 91 0f 3e
       0.038013943 -0.22608173 0.056192696 0.14020336
000370 e9 96 d9 bd 88 d6 79 3d b2 91 68 be 10 94 c3 bd
       -0.10624487 0.06099561 -0.22711828 -0.09549725
000380 a0 21 16 bc 03 fe 21 3e 6c a9 f7 be 94 4f e6 3c
       -0.00916329 0.15819554 -0.48371446 0.028114118
000390 d0 f2 93 3c 3f 2a cf 3d 28 4d 27 bd 4e 20 6e 3e
       0.018060118 0.1011548 -0.040845066 0.23254511
0003a0 00 2b 70 bd d7 f6 27 be 8f 46 c5 bc c7 7c 74 bd
       -0.058634758 -0.16402756 -0.024081497 -0.05968931
0003b0 ca b2 50 be 1d 7c b1 3e 1b 57 16 3e 5b d6 7c 3e
       -0.20380703 0.34665003 0.14681666 0.24691145
0003c0 e9 4a d8 bd d8 45 10 3f e5 cd 6c bd 99 72 d2 3d
       -0.10561163 0.56356573 -0.057813544 0.10275764
0003d0 c8 5e fc 3d 0e 61 58 3d 60 d5 e3 3d a4 74 42 bc
       0.123227656 0.052826934 0.111246824 -0.01186863
0003e0 26 b7 9d be 06 2a 4d 3e 9c 7a 93 3e 8e da b1 bd
       -0.30803794 0.20035562 0.2880448 -0.08684264
0003f0 37 d3 de bb 1f 43 17 3e f9 cb 39 3e 7d 38 d7 bd
       -0.006800081 0.14771698 0.18144216 -0.10508821

rnn.weight_hh_l0 f4 [32, 32]
000000 43 54 a8 3e 19 6c bc 3e 26 a7 bc be 63 90 92 3e
       0.32876787 0.36801222 -0.36846274 0.28625783
000010 1a 2d a5 3e fe f3 05 3e 5b 02 d0 3b 28 ad a7 bd
       0.32260972 0.13081357 0.006347937 -0.08187324
000020 d0 fd da 3d 30 35 c6 be 61 cb 9a 3d 58 f7 f6 be
       0.10692942 -0.38712454 0.07558323 -0.48235583
000030 80 59 9b 3d 8d 97 2d bd dc 57 e3 3e 36 5f 8d be
       0.0758543 -0.04238086 0.4440297 -0.27611703
000040 48 05 17 bf 64 73 34 3e db b2 c1 3e 99 a2 a3 be
       -0.58992434 0.17622143 0.37831768 -0.3195999
000050 48 aa 34 3e ca 47 42 3f 3b c2 1f bc 9e 5c 30 3e
       0.17643082 0.7589079 -0.009750898 0.1722283
000060 b8 45 07 3f 56 7d c6 3d ea d8 0d 3f 75 0c 23 be
       0.5284076 0.09691875 0.5540911 -0.1592272
000070 32 86 ab 3d 57 cd 40 be 42 ca 20 3e 4c 2a 86 3e
       0.08375205 -0.18828331 0.15702155 0.26204145
000080 29 6b 84 3f 81 58 dd 3d db b6 a7 be 21 e5 c5 3e
       1.0345203 0.108078964 -0.32756695 0.38651374
000090 72 2e 66 3e 91 e5 02 bd 7c 28 b1 be 60 dd ce 3d
       0.22478655 -0.031957213 -0.346012 0.10100818
0000a0 75 21 45 3e 02 a7 df 3d f8 05 4a be ed a0 30 be
       0.19251044 0.10920526 -0.1972884 -0.17248888
0000b0 c2 a3 0b bf a7 e7 af be 35 54 17 3e cf 00 54 be
       -0.5454675 -0.34356424 0.14778216 -0.20703433
0000c0 06 6f e1 bd a0 a9 f3 3e f7 be a4 bc 0b f2 d9 bd
       -0.11007504 0.4759035 -0.02011059 -0.10641869
0000d0 91 94 25 3f eb d0 03 be 58 c1 11 be 8d 26 21 3e
       0.6467982 -0.12872665 -0.14233911 0.15737362
0000e0 98 1d d6 3e a7 32 d1 3e 08 b9 8e 3e c4 2a 6d be
       0.41819453 0.40858957 0.27875543 -0.23160845
0000f0 d8 a9 5e 3e 11 a6 bd be f3 c8 b3 3c e6 4e 2e 3e
       0.21744478 -0.3704076 0.021946406 0.17022285
000100 b5 3a f3 be 2f b7 c9 3d 7a 80 87 3d be 02 95 3e
       -0.47505727 0.098493926 0.06616302 0.29103655
000110 01 a7 c3 3e cd 93 b9 3e 09 3f 4e be 35 02 d5 3e
       0.3821335 0.36245576 -0.20141234 0.41603246
000120 0c cd da be 60 7c 99 be b9 76 a2 be 55 97 5a be
       -0.42734563 -0.29977703 -0.31731203 -0.21346791
000130 61 df 07 3f d6 5e 01 bf e0 97 72 bd 9f 49 10 be
       0.53075224 -0.50535333 -0.05922687 -0.14090584
000140 97 b1 04 be f0 62 21 bf a0 2d a8 3e dc 29 f8 bd
       -0.1295837 -0.6304159 0.3284731 -0.12117359
000150 ea cc 01 bf ad fd 41 3e 02 d1 0e 3d 9d 17 4e 3d
       -0.507033 0.18944426 0.034867294 0.050315488
000160 ea 90 fd be 15 0d 0f bf 23 79 60 bc b5 dc b2 3e
       -0.49524623 -0.55879337 -0.013700756 0.3493401
000170 2c 57 ad 3e 9c e2 37 be dc e7 7a 3e cb c7 f5 bd
       0.3385557 -0.17957538 0.2450251 -0.12000998
000180 46 7c 1d 3e 0b 8c 4c be d7 ce 76 bb 05 09 d3 39
       0.15379438 -0.19975297 -0.0037659907 0.00040251776
000190 d7 6f 02 3f 76 8d 08 be 3b c8 5f be a0 2d 90 be
       0.50951904 -0.13335213 -0.21853726 -0.2815981
0001a0 c0 6b 0d 3e 83 84 ca 3e 26 23 27 3e 7d 7a 09 bf
       0.13810635 0.39554223 0.16322002 -0.5370253
0001b0 26 60 bf be bb 54 c0 be 03 26 5c bc 0a 71 75 be
       -0.37378043 -0.37564644 -0.013436797 -0.23968902
0001c0 f0 94 37 bc 92 b5 ba 3e d1 95 54 3d ce d0 ec be
       -0.011204943 0.36466652 0.05190069 -0.46253055
0001d0 81 ce 04 3f 53 00 bb 3e 23 f4 10 3e a0 d2 5d be
       0.518776 0.36523685 0.14155631 -0.21662378
0001e0 0f c2 16 3f fc a6 8e 3e dc 2d 57 3e 8a e3 b2 bd
       0.5888986 0.27861774 0.21013588 -0.08734806
0001f0 43 cd 1d 3e 67 f6 3d bf 57 6b 7a 3d 85 09 7b bd
       0.15410332 -0.74204105 0.061137524 -0.061288375
000200 b6 63 e2 be b4 c0 fc bc 94 11 f2 bd 59 6e dd be
       -0.44216698 -0.030853607 -0.11819759 -0.4324825
000210 b3 04 bf 3e 3d e8 82 3e 36 d7 c5 3e 2b 71 40 bf
       0.37308273 0.2556781 0.38640755 -0.7517268
000220 f6 4b c9 3e 54 be 37 3f fe 03 dd 3d f3 99 73 be
       0.39315766 0.7177479 0.10791777 -0.23789196
000230 17 79 2e 3e 62 f3 21 3e 76 2f 2f bd 46 ed c5 3e
       0.1703838 0.158155 -0.04276987 0.38657588
000240 9b 8f 5e be 10 17 2e be a6 70 0a be 5d dd 12 bf
       -0.21734469 -0.17000985 -0.13519534 -0.57369024
000250 00 04 88 be 03 a5 2c 3f 67 09 ed bc 19 58 cc 3c
       -0.26565552 0.6743929 -0.028935147 0.024944352
000260 c5 30 5e be 83 a9 cc bd 51 01 c4 3c 87 c9 80 3e
       -0.21698292 -0.09993269 0.023926409 0.25153753
000270 3d 8b 94 bc 12 11 11 be 08 cb 33 bf 86 dd 93 3e
       -0.0181328 -0.14166668 -0.70231676 0.28879946
000280 e8 44 a7 be 29 2c 17 be 57 ad 6e 3e ca 4a 3e be
       -0.3266976 -0.1476294 0.23308311 -0.18583217
000290 04 7a 16 3f 19 02 46 3f 17 8c 06 3f 64 01 ea 3d
       0.5877993 0.7734695 0.5255751 0.114260465
0002a0 e6 d2 88 3e 91 77 1f be 81 03 17 bf cf bd f2 3e
       0.26723403 -0.15572955 -0.5898972 0.47410437
0002b0 79 c5 2c 3b 36 08 2f 3e 3a a6 f1 3c 0e 7f 04 3f
       0.002636282 0.17092976 0.029498208 0.5175637
0002c0 55 30 65 bd 4e bc 8a be 01 96 68 3e 29 24 20 be
       -0.055954296 -0.2709679 0.22713472 -0.15638794
0002d0 9d 61 97 be 38 db b4 3e 97 91 97 3e b7 c7 c7 bd
       -0.2956666 0.353235 0.29603264 -0.097548895
0002e0 43 da 62 be 2f 21 c5 be 3a 61 ac be 0b 9d 80 3e
       -0.22153573 -0.3850188 -0.33667928 0.25119814
0002f0 85 5e 35 be b6 84 29 bf 29 c7 c2 3e b7 82 b7 3e
       -0.17711838 -0.66218126 0.38042572 0.35841915
000300 b4 07 45 3d 51 1f 87 3e c9 3e 2a 3e 82 1d 39 be
       0.04810305 0.2639108 0.16625513 -0.18077663
000310 e8 c4 80 3c 7a e4 78 3f d6 22 34 3e c8 fb 7d 3e
       0.015718892 0.9722363 0.17591414 0.24803078
000320 a8 a8 5e bf 89 95 91 be b3 bd 23 bf 9f 07 d6 3e
       -0.869761 -0.284344 -0.63961333 0.4180269
000330 0b d9 1e 3d b1 fe 68 be a9 4e 6f be 32 53 8d 3e
       0.038781207 -0.22753407 -0.2336985 0.27602535
000340 48 5c 2f 3d c6 6d 4c be 77 18 5f 3d 26 d9 7d bd
       0.042812616 -0.1996375 0.05446669 -0.061974667
000350 9c 10 63 bf d7 ad bd 3d 01 5a 8a 3d 45 3f 37 3e
       -0.8869722 0.09261673 0.06755448 0.17895229
000360 54 6b dc be 40 c9 f9 bd d8 14 37 be 2d 3f 73 3e
       -0.43050635 -0.121965885 -0.17879045 0.23754568
000370 d6 34 23 be f6 8d 0c 3e ba 32 4a be cd 96 55 3e
       -0.15938124 0.13726029 -0.19745913 0.20858307
000380 c7 6d f1 bd f6 b2 3f be 9c a7 6b 3e b1 a8 60 be
       -0.117885165 -0.18720612 0.23013157 -0.2193935
000390 f6 26 22 bf c7 30 59 bf 2f d4 08 3e 2e 05 ce be
       -0.633407 -0.84840053 0.13362192 -0.40238327
0003a0 29 e9 47 3f d1 e2 8b 3e f7 4e 0d 3f 2f 7c 2f 3e
       0.7809015 0.27321485 0.55198616 0.17137216
0003b0 f5 fa 1d bf ab 8b d1 3e 02 e5 4a 3b 5a c7 6c 3c
       -0.61711055 0.4092687 0.0030959253 0.014451826
0003c0 bf 73 10 3d ed 7b 68 bd e5 52 50 be 4c 90 8e bd
       0.035266634 -0.05675881 -0.20344122 -0.06961116
0003d0 91 2a 1b 3e 00 32 eb 3d 3d 6c bd bd ea 46 b4 bd
       0.15152957 0.11484146 -0.092491604 -0.08802588
0003e0 14 24 bf 3e 22 07 ea 3e 98 7e db be c5 38 2e be
       0.37332213 0.45708567 -0.4287002 -0.17013843
0003f0 60 7f ce 3c 34 82 34 be 14 0d 3b 3e 0c 51 bd 3d
       0.025207222 -0.17627794 0.18266708 0.09243974

rnn.bias_ih_l0 f4 [32]
000000 18 34 c7 bd 9a f2 fb bc 5a c5 00 bd fa 12 df 3d
       -0.09726733 -0.03075533 -0.03143821 0.10892291
000010 81 2f 8b 3c 3a fa 0d 3e c7 aa f0 bd 4d 2f 3d 3e
       0.016990425 0.13864985 -0.11751323 0.18475075
000020 32 a8 47 bd 47 a4 35 be 3d 30 12 bd 5a 5f 66 be
       -0.048744388 -0.17738448 -0.035690535 -0.22497311
000030 47 de 9a bd 1b 4a 8b 3b 25 a0 4b 3e e0 a5 b1 3c
       -0.07561927 0.0042507774 0.19885309 0.02168554
000040 50 8c 00 3d 99 84 7d bd b5 c1 c6 3e 17 64 75 be
       0.031383812 -0.061894033 0.38819662 -0.23963962
000050 e6 bc 7a bd ec 4a 59 3e a5 20 34 bc 46 95 f0 3d
       -0.061215304 0.21219987 -0.010994111 0.11747222
000060 d4 4a ed 3d 81 b9 31 bd 4c c2 fb 3d 5f a8 f8 bd
       0.11586538 -0.0433898 0.122929186 -0.12141489
000070 37 70 51 3d cd f6 59 bd 0e e7 40 3e b1 c1 6d 3e
       0.051132407 -0.053213883 0.1883814 0.23218419

rnn.bias_hh_l0 f4 [32]
000000 1b 9e 8d bd 80 75 9e bc 6f f6 8f 3c a9 cc bd bd
       -0.06914922 -0.019343138 0.017573563 -0.092675515
000010 19 60 60 3d 5d 43 be bc 0d 09 85 3d 87 af a5 3d
       0.054779146 -0.02322548 0.06495867 0.0809012
000020 87 25 08 3e ff b2 62 be 24 ae 38 bd bb 37 07 3d
       0.13295566 -0.22138594 -0.04508795 0.033012133
000030 d4 56 33 bd 51 06 f6 3d b5 ab 44 3e 66 83 c9 3d
       -0.043783978 0.120129235 0.19206126 0.098395154
000040 4d a1 6e be fa 27 d6 3d 00 56 bf 3d fa 11 28 be
       -0.23303719 0.10456844 0.09342575 -0.16413108
000050 ed 7e 3b be a6 bd 42 3e 8d f8 1d 3e b8 95 d5 3c
       -0.18310137 0.19017658 0.15426846 0.026072368
000060 31 52 1e 3e 31 c9 59 3d d1 20 9f bc 9a e6 f3 3d
       0.15461041 0.053170387 -0.019424828 0.11909218
000070 ff bf 4a 3d f1 d1 0b 3e df c8 dd 3d 96 32 ad bb
       0.049499508 0.13654305 0.10829329 -0.0052855713

rnn.weight_ih_l0_reverse f4 [32, 128]
000000 78 1b 99 be 01 4f ce 3d 54 39 00 3e af e7 49 bd
       -0.2990377 0.100736625 0.12521869 -0.049293216
000010 bd 3f ac 3e a8 f7 8b bd 10 34 1b 3e a8 fc 80 be
       0.33642378 -0.06834346 0.15156579 -0.2519276
000020 5e 7a 28 be 01 8d 8c 3d 99 ad ce bc 54 d6 1e 3c
       -0.1645293 0.06862832 -0.025229262 0.0096946545
000030 97 df b7 be 92 64 8b be f9 7d d4 bd a9 c8 f1 bd
       -0.35912773 -0.27225167 -0.1037559 -0.11805851
000040 ad d9 16 bd 9b 86 dc 3d 29 11 af bd 28 bb 20 be
       -0.036828686 0.107678615 -0.08548195 -0.15696394
000050 ae 25 71 3d 8c 6a ca 3d 70 61 ac 3d ac a7 66 be
       0.058873825 0.098836035 0.08417022 -0.22524899
000060 d0 b3 44 3e ff e9 14 be 89 b0 ea 3d 12 5f c2 be
       0.19209218 -0.14542387 0.11459453 -0.37963158
000070 0d 6c 81 be 5a d2 20 be fd 17 19 be ca 62 e9 bd
       -0.2527775 -0.15705243 -0.14950557 -0.11395796
000080 35 bf 43 be 43 f6 10 3e 4a fe ac be bb ea 3a be
       -0.19115908 0.14156441 -0.33787757 -0.18253605
000090 3f 2c 90 be 65 fa 81 3e 9c e2 72 bc 69 6b 7e 3c
       -0.28158757 0.25386348 -0.014824536 0.015528538
0000a0 c7 66 4a be 3d 6d 1e be 66 ab 42 bd 48 38 d0 3c
       -0.19765769 -0.15471359 -0.04752674 0.025417462
0000b0 64 c3 b8 bd 01 27 b1 be 65 fb a8 3e 62 ed 8d 3e
       -0.09021643 -0.3460007 0.330043 0.2772017
0000c0 e0 56 46 3c 7f ad f7 3d 6a 11 90 bb da a1 82 3e
       0.012105674 0.12093639 -0.004396607 0.25514108
0000d0 69 42 6e 3d 79 83 aa 3d d0 9e d9 bd 18 df 26 be
       0.058168802 0.08325858 -0.10625994 -0.16296041
0000e0 c3 4e a5 bd d8 7d b2 be c4 52 c7 bc 31 8c 52 3d
       -0.08071663 -0.34861636 -0.024331458 0.05140323
0000f0 94 99 10 be e1 af b8 bc 4d 37 59 bd d6 71 b6 bb
       -0.14121085 -0.022544803 -0.053031255 -0.0055677695
000100 ca bc 4b be 13 e0 9b be d4 12 52 be 80 67 9b be
       -0.19896236 -0.30444393 -0.20514995 -0.30352402
000110 80 f6 08 3e 41 d1 57 bd a2 58 7c 3c 31 57 10 bd
       0.13375282 -0.052689794 0.015401991 -0.035239402
000120 f3 76 03 bd 81 07 6e be 1b 14 2d 3d 72 2d b5 be
       -0.03209586 -0.2324505 0.042255502 -0.35386235
000130 ec e4 05 bd 4a c1 d8 3c bb 25 e0 3d 2f c2 da bd
       -0.03268902 0.026459355 0.109446965 -0.10681569
000140 c9 4e 28 be 77 89 07 be ab 8d b2 bd a5 3d b0 3d
       -0.16436304 -0.13236032 -0.08718427 0.08605508
000150 79 2f 67 be f5 cd c7 3d 43 8b 8e 3e 1c 84 c6 bd
       -0.22576703 0.0975608 0.27840623 -0.096931666
000160 f3 41 d5 bd a2 39 4a 3c 52 47 74 3e a6 7e 02 be
       -0.104129694 0.012342842 0.23855332 -0.12743625
000170 7e ee 19 ba 26 02 10 be 93 27 99 bb 2e 07 a0 3d
       -0.0005872025 -0.1406332 -0.004673907 0.078138694
000180 ba bb 3a be 4b 15 d2 bb 47 fc 8b 3d 6c ed 34 3e
       -0.18235675 -0.0064112297 0.068352275 0.17668694
000190 12 cc 82 bd 89 ac c4 bd e0 b3 ec 3d 83 fb 82 bc
       -0.063865796 -0.09603221 0.11557746 -0.01598907
0001a0 36 e7 8a bb d6 f6 55 3e 76 6f ea 3d 15 c5 b3 bd
       -0.0042389883 0.20894942 0.11447041 -0.08777825
0001b0 38 71 78 bc 21 72 fc 3c d5 61 ba bd d9 d8 38 3d
       -0.015163712 0.03081614 -0.09100691 0.045128677
0001c0 27 30 b9 3b 62 54 07 3e 78 9a 1f 3e cb 09 f9 3d
       0.005651492 0.13215783 0.15586269 0.12160071
0001d0 c4 6f 16 3e d6 14 d0 bd a7 73 70 3e 8c 7a 0f 3d
       0.14691073 -0.10160224 0.23481618 0.03502898
0001e0 48 18 90 bd fb 6b 71 3e a9 3a a6 3d 34 d2 16 bd
       -0.07035881 0.23576348 0.08116657 -0.03682156
0001f0 ed 34 d0 3d cc bf 49 be b4 b6 a1 be 53 5c 91 bd
       0.10166345 -0.19702071 -0.31584704 -0.070976876
000200 5d 37 5a be 2f 92 91 be 62 4f c8 bd 5f 9d 30 3b
       -0.21310182 -0.28431842 -0.09780766 0.002694927
000210 f1 8b a5 3e f3 79 17 be b3 39 f0 3d 39 79 13 be
       0.3233333 -0.14792614 0.11729755 -0.14401712
000220 0c 60 8d 3d ac 42 07 be b3 3e 9b 3e 77 03 b4 bd
       0.06903085 -0.13209027 0.30321273 -0.08789723
000230 08 d9 08 3e 14 d1 b3 3d 6f 87 25 be f9 e2 1e be
       0.13364041 0.08780113 -0.16164945 -0.1551627
000240 72 1d 65 be 4f 04 d6 3d 0e 54 27 bc a8 97 1e 3e
       -0.22374514 0.104500405 -0.010212911 0.1548754
000250 ac 43 90 be 41 bc 6a bd 39 87 91 3d db dd 66 3d
       -0.2817663 -0.05730844 0.0710587 0.05636392
000260 8f a7 79 bd e5 c2 0a 3d 13 c9 22 be 7e b9 00 be
       -0.060950812 0.033877272 -0.15897016 -0.1257076
000270 7c 69 27 be 6a 32 c9 bb 47 73 f6 bd f2 e9 52 3d
       -0.16348833 -0.006140043 -0.12033706 0.05149264
000280 4d e6 8f be e8 cc 0e 3e e4 b8 c0 3b 76 72 92 be
       -0.28105393 0.13945353 0.0058814157 -0.28602952
000290 c6 9a 29 bd 76 c3 f6 3d 80 70 a4 3d 01 5b fb 3c
       -0.04140737 0.12049 0.0802927 0.030683042
0002a0 2b 11 5e bd 9d 71 c5 bd b3 44 8a be 77 4f 28 3b
       -0.05421559 -0.09640811 -0.27005538 0.002568213
0002b0 54 b1 c5 bd 9c bc 5b be a7 8c f1 3d 87 f1 20 3e
       -0.09652963 -0.21458668 0.117944054 0.15717135
0002c0 9c 4a ba bd 44 78 be bd f4 ab a1 be 5e c8 22 3d
       -0.09096262 -0.093002826 -0.31576502 0.039741866
0002d0 67 97 21 3e 8d 2b ba 3d 25 32 10 bd 8b cf 0b be
       0.15780412 0.09090338 -0.03520407 -0.1365339
0002e0 e7 e1 df bd 7b ec 1f be 5d 51 83 3d e2 be 8b bc
       -0.10931759 -0.15617554 0.06412003 -0.017058793
0002f0 9f 22 90 be 43 96 90 3d 7c 28 d2 bd de b9 0f 3d
       -0.28151414 0.0705991 -0.10261628 0.035089366
000300 13 e3 1d be e6 92 42 be e0 48 6b 3e 1e 4e 2d be
       -0.15418653 -0.1900135 0.22977018 -0.1692433
000310 e3 04 16 3e 66 ea 1f bd 8c fa d0 3d 9f 32 de 3d
       0.14650302 -0.0390419 0.10204038 0.10849499
000320 5a 7b f6 3d e9 09 82 be ea 9d 0a 3e a6 a9 a8 be
       0.12035246 -0.25398186 0.13536802 -0.3294193
000330 57 d6 84 bd 63 43 fc 3d c1 85 f0 bc 4e e0 d7 be
       -0.064861946 0.123175405 -0.029360654 -0.42163318
000340 67 f4 2f bc 00 cf b7 bd d4 86 ee bd 43 d5 e5 3d
       -0.010739422 -0.08975029 -0.1164681 0.11222317
000350 30 f4 19 3e 09 f9 18 3e 0e 5c 5f 3e 83 e1 8f bd
       0.15034556 0.1493875 0.2181246 -0.07025435
000360 48 8c c9 bd 18 b3 de be d6 cb 6a 3d 4f 85 40 be
       -0.0984121 -0.43496013 0.0573233 -0.18800853
000370 4d 89 d1 3c 22 32 f4 3d 80 20 b7 bd 31 79 ea 3c
       0.025578165 0.119236246 -0.08941746 0.028622242
000380 06 fe 88 3e f1 b5 64 be 03 3b d8 3c 57 39 3c be
       0.26756305 -0.2233503 0.026395326 -0.18381248
000390 95 49 2c 3e 7e 82 12 3e cf 4d 67 3d 79 cb 16 3e
       0.16824944 0.14307591 0.05647069 0.14726056
0003a0 6d a3 e6 bd 36 64 da 3d 19 7d 84 3e fc 23 f4 3c
       -0.1126164 0.10663645 0.25876692 0.029802315
0003b0 87 41 01 be b2 7c 83 3d 93 71 1c be 08 e4 6b bd
       -0.12622653 0.06420268 -0.152777 -0.057590514
0003c0 e5 12 9a 3e 2d 3c 52 3e ef 8a b4 3d 08 05 cd 3d
       0.3009254 0.20530768 0.08815562 0.10010725
0003d0 d4 45 aa bd 9e 59 b0 3e 29 9a 38 bd 4e d4 8d bd
       -0.083141 0.34443372 -0.045068894 -0.069252595
0003e0 bc 3e 96 3c 75 27 37 3e c2 60 21 3e 74 7d 5f 3d
       0.018340461 0.17886145 0.15759566 0.054563
0003f0 d9 fd eb 3d af e1 8b bb f0 64 1b bd 5e 9a 78 be
       0.11523027 -0.004268847 -0.03793806 -0.24277636

rnn.weight_hh_l0_reverse f4 [32, 32]
000000 31 d7 18 bd 72 b5 05 be d9 9b 93 bd 32 c7 f5 be
       -0.037314598 -0.13057497 -0.0720746 -0.48003536
000010 05 72 2a 3f 1d 01 35 be 62 9a 16 3e 77 d4 68 3e
       0.6658023 -0.17676206 0.1470733 0.22737299
000020 0d 49 80 be be cc 58 be 13 92 30 3f d2 44 e5 3e
       -0.25055733 -0.21171853 0.6897289 0.44779068
000030 f6 73 60 bd a5 a3 b8 3d e8 26 f7 3e c2 96 5b be
       -0.05479809 0.09015588 0.4827187 -0.21444228
000040 eb 47 95 be 54 b3 09 bc 8b f5 cb be 01 06 d9 bc
       -0.29156432 -0.008404572 -0.39835772 -0.02649212
000050 d9 0b 31 3d 86 0b a9 3e 59 2c bf be c8 2a 9d bc
       0.04322419 0.33016604 -0.37338522 -0.019185439
000060 b7 80 34 be 03 f1 10 3f 25 e5 1f 3f e7 af cc 3d
       -0.17627226 0.56617755 0.6245902 0.09994488
000070 0a 5e 35 bf f4 28 e2 bd ea ce 33 3e 97 2c 9e 3c
       -0.7084662 -0.110429674 0.175594 0.019308371
000080 46 c7 4a 3d 73 9c 8a 3e ef 9a a2 be cf e9 21 3f
       0.04950645 0.27072486 -0.3175883 0.6324739
000090 eb ce a7 be f3 5e 07 3f 32 c9 bc 3e 1d 17 68 bc
       -0.32775053 0.52879256 0.3687225 -0.014165667
0000a0 c7 8d 49 be 4d cf 07 3d cd 02 b6 be 97 01 fe bd
       -0.1968299 0.03315668 -0.35549012 -0.12402647
0000b0 1c 76 5a be e1 13 e3 be 4f ab 1d be 56 35 46 be
       -0.21334118 -0.44351104 -0.1539738 -0.19356284
0000c0 05 0d 7e be 7c 82 1f 3e b1 2f 7a 3d fe 12 50 3f
       -0.24809654 0.1557712 0.06108064 0.8127898
0000d0 9d b2 53 bd b6 dd 07 bf 7d fc 0c bd 1e d9 a2 be
       -0.05168401 -0.5307268 -0.03442048 -0.31806272
0000e0 7a dd a3 3d ee b3 36 3e ff d5 d7 3d 1f 01 3b 3e
       0.08001228 0.17842075 0.105388634 0.18262146
0000f0 02 b3 97 3e f4 f0 b4 be 04 0a e0 be e9 1d 88 be
       0.2962876 -0.35340083 -0.4375764 -0.2658532
000100 57 71 29 3d 84 9a 18 3e a5 57 c1 be d0 40 0d 3f
       0.041367855 0.14902693 -0.3776218 0.5517702
000110 d4 d0 95 3e e5 8b 8d bd 73 a8 2a 3d 36 d4 1b 3d
       0.29260886 -0.069114484 0.041664552 0.038044177
000120 15 73 c0 3e 4d 95 9a bd 6a 99 05 3e 79 6a 59 3e
       0.375878 -0.07548008 0.13046804 0.21232022
000130 e8 f0 81 be 5b a3 85 bd 28 21 40 3d 59 30 bf 3e
       -0.2537911 -0.06525298 0.04690662 0.37341574
000140 66 d7 9e be 54 0d 86 be a5 2a cc 3e 41 3c 29 3c
       -0.3102371 -0.26182044 0.39876285 0.010329307
000150 44 5c 84 3e 68 fb 09 bf 6c e1 af 3e 81 a3 69 be
       0.25851643 -0.5389924 0.3435167 -0.22816278
000160 81 f6 a3 be d2 35 29 3e ce 8d c3 bd 19 2d dd 3e
       -0.32024005 0.16524437 -0.095485315 0.4319847
000170 da 25 ee be 43 28 ea 3d fd 44 20 bf a0 ca ea 3e
       -0.46513253 0.114334606 -0.6260527 0.45857716
000180 70 91 d7 3d 9d b1 1b 3e 0d 98 db ba ca a7 eb 3e
       0.10525787 0.15204473 -0.0016753689 0.4602645
000190 d4 62 2e be 11 e9 7f 3e 25 c9 d9 3e 89 a1 50 bd
       -0.17029887 0.24991252 0.42536274 -0.050935302
0001a0 c7 35 89 be eb 6a e0 bd 0c ee c7 3c 1c 23 94 bf
       -0.2679884 -0.10957893 0.024405502 -1.1573215
0001b0 df 5e 09 3f 32 b9 8b be 51 e0 80 3e eb 3f 8e be
       0.53660387 -0.2728973 0.2517114 -0.2778314
0001c0 93 fc 48 3e 7e 25 64 3e c0 84 22 3f ec a0 13 3e
       0.196276 0.22279927 0.6348381 0.14416856
0001d0 c1 25 f0 be 61 50 49 bd 8a ae 3f 3c 06 20 cf be
       -0.46903804 -0.04914892 0.011699328 -0.4045412
0001e0 fb f9 ad 3e 68 e2 0a be fd e0 14 bf 58 3e 8c be
       0.33979782 -0.1356293 -0.58155805 -0.27391315
0001f0 fb 4a 12 3e 6b ba 88 3c 14 d1 ac be 7b 8e 0c 3e
       0.14286415 0.016690454 -0.33753264 0.13726227
000200 9f 74 81 3c e1 53 58 3e 7d 69 02 bf ac 81 9f 3d
       0.01580268 0.21125747 -0.5094221 0.07788405
000210 49 42 12 3e 19 8c 83 be a8 4d 32 bf bc 6a 92 3e
       0.14283098 -0.25692824 -0.69649744 0.28597057
000220 80 98 13 3e 71 50 06 be e9 a6 03 3e 64 a2 11 3f
       0.14413643 -0.13116623 0.1285664 0.56888413
000230 b6 00 f6 3e c8 21 bc be e9 d5 ca 3e 64 e0 55 3c
       0.48047417 -0.36744523 0.39616325 0.013053987
000240 02 bc 01 be 68 56 f0 3d 68 29 32 3e 58 79 97 be
       -0.12669376 0.11735231 0.17398608 -0.29584765
000250 25 30 32 3f 27 72 8a be fa b5 68 bd bd 97 9d 3c
       0.6960471 -0.27040216 -0.05681417 0.019237394
000260 e0 9e d8 be 60 ec 61 3e 52 fb d0 3e b1 99 57 3f
       -0.42308712 0.22062826 0.40816742 0.8421889
000270 3d cf 44 be 57 88 15 3f 80 7a d1 3d 5c 75 31 3d
       -0.1921968 0.58411163 0.10228443 0.043324813
000280 46 2d f9 be d6 ea fd 3e da 28 0a be bd 1c 89 3e
       -0.48667353 0.49593228 -0.13492146 0.26779738
000290 24 83 58 bc a3 30 0d 3f e9 aa 2d 3e a4 85 d5 3d
       -0.01321486 0.5515234 0.16959728 0.104258806
0002a0 e1 4f b2 be f6 3a a1 3e 69 d5 05 3f b4 04 07 bf
       -0.34826568 0.31490296 0.52278763 -0.5274155
0002b0 9a 26 cd 3e 44 6a b7 be 65 69 e9 3e 7a a5 30 be
       0.40068513 -0.35823262 0.45588222 -0.17250624
0002c0 4e 9a 00 bd 78 04 09 3e 06 3d e8 3e 7e b0 82 3e
       -0.031397156 0.13380611 0.45359057 0.25525278
0002d0 19 d1 b9 be 19 e1 e1 be 98 9c c4 be 1b 08 09 bf
       -0.3629234 -0.44117048 -0.38400722 -0.5352799
0002e0 bb db de bc ca e9 da 3d 85 7f c1 be 80 d0 ae be
       -0.027204385 0.10689123 -0.37792602 -0.34143448
0002f0 59 b8 83 3e e8 d4 e5 3d 32 c8 69 be b5 06 25 be
       0.25726584 0.11222249 -0.22830275 -0.1611584
000300 07 bd 2a bd c7 f0 86 3e a8 14 12 be 8c 01 b5 3e
       -0.041684177 0.26355574 -0.14265692 0.35352743
000310 c0 4f d3 be bf 9c ad 3c 28 64 29 3f ef db f9 3b
       -0.41271782 0.021192906 0.6616845 0.007625095
000320 a4 15 0c bd ec 40 ee 3c 65 2f 0b 3e 89 d6 ea be
       -0.034200326 0.029083692 0.13592298 -0.45866802
000330 21 c7 0e 3f 2b 2f 33 bf 66 8c e0 bd 8d 68 9e be
       0.55772597 -0.6999385 -0.10964279 -0.3093914
000340 4d d8 72 bd 2f 96 6f 3e c1 58 1d 3e 89 7b 02 3e
       -0.05928831 0.23397134 0.15365888 0.12742437
000350 5b 8d 53 bf bd e0 0b be 04 71 f3 bd 62 d7 8e be
       -0.82637566 -0.1365995 -0.118867904 -0.278987
000360 0b 8c e6 bc 0c 3f 52 3e d4 3e 81 be 61 29 70 be
       -0.02814295 0.20531863 -0.25243247 -0.23453285
000370 d2 9f a0 bd 00 76 a3 3e 01 83 95 3e dd e8 c0 bd
       -0.07842983 0.31925964 0.2920151 -0.09419415
000380 60 ef 3d bf 94 8d 04 bd f5 7b e7 bd 0f 9f 6b 3e
       -0.7419338 -0.032361582 -0.1130294 0.23009895
000390 72 e8 f7 bd db c4 6c bd 8d e2 ac be ad 05 82 3e
       -0.12104882 -0.057804924 -0.33766595 0.25394955
0003a0 6f ee 4b be e0 3a f4 bd b7 ca 49 3e 27 be 66 3d
       -0.19915174 -0.11925292 0.19706236 0.056333687
0003b0 db db 11 be 13 09 be 3e 01 54 19 be 85 dc fe be
       -0.14244024 0.37116298 -0.14973451 -0.49777618
0003c0 20 39 00 be f4 d8 e2 3e 11 47 ad bd 12 2b 61 bd
       -0.12521791 0.44306147 -0.084608205 -0.054972716
0003d0 b5 25 7b 3e d6 7a f6 bd 1f 8c a6 be 69 90 90 bd
       0.24526103 -0.12035148 -0.3252878 -0.07058794
0003e0 70 e1 9c 3c 5a ca 3e be a6 8e 0e be c8 f1 97 3d
       0.019150466 -0.18631878 -0.13921604 0.07419163
0003f0 19 db 8b 3e dd 72 91 3d 3d 1b 1e 3d 02 88 e6 be
       0.27315596 0.071019866 0.038600195 -0.4502564

rnn.bias_ih_l0_reverse f4 [32]
000000 34 b3 21 3e 67 94 70 be 1c f3 71 be 06 48 51 3d
       0.15791017 -0.23494111 -0.23627895 0.051094078
000010 73 d1 8b be ab 46 86 3c 8c 5a 49 bd 64 4e 28 3c
       -0.27308235 0.016391119 -0.049158618 0.010272596
000020 13 d6 1a 3c 68 52 18 3e a6 20 80 be 4f 9c f7 3d
       0.009450453 0.14875185 -0.2502491 0.120903604
000030 34 6d 66 3d f5 ad 1f bd 0d 9c 25 be eb cc 11 bd
       0.056256488 -0.038984258 -0.1617281 -0.035595816
000040 4a 8c 24 3d dd 81 42 3e 5b ed d3 3d 1d 81 fa 3d
       0.040172853 0.18994851 0.10348006 0.12231658
000050 16 56 31 3d 9b 7f 24 be ad 8c e0 bd b7 8c 54 3c
       0.04329499 -0.16064303 -0.10964332 0.012973002
000060 29 3d 11 3e 62 56 22 3e ce 2f 35 bd 36 a8 29 be
       0.14183487 0.15853265 -0.044235043 -0.16568074
000070 61 a1 07 bd ad c8 82 bd 21 c4 3e bd 1a 26 8c 3a
       -0.033112887 -0.06385932 -0.04657376 0.0010692507

rnn.bias_hh_l0_reverse f4 [32]
000000 b7 0b 47 3d 95 08 70 be b4 68 4b be cd e0 04 3d
       0.048595157 -0.23440774 -0.1986416 0.03244095
000010 2c a8 87 be 16 1f 63 bc e6 77 ce 3d 59 83 4b 3e
       -0.26495492 -0.013862392 0.100814626 0.19874324
000020 00 95 f3 bd b4 54 13 3e 5d 1a b9 3c d8 eb 36 3e
       -0.11893654 0.1438778 0.022595579 0.17863405
000030 17 12 04 be 47 4d 26 3d 87 fe 3f 3c f9 ac e8 bd
       -0.12897526 0.04060104 0.011718399 -0.11361117
000040 8d 7d 57 3d 65 a3 3c 3e 87 43 4a 3c 82 d4 fd 3c
       0.05260997 0.18421705 0.012345201 0.03098512
000050 20 f3 66 be 71 0b eb 3c 2a a8 bc 3c 8d 19 21 3e
       -0.22553682 0.02869198 0.023029406 0.15732403
000060 72 e9 31 be cf bb b1 bd a9 65 b5 3d 3f 31 11 be
       -0.17374209 -0.086784 0.08857281 -0.14178942
000070 51 69 11 be 33 e2 78 3d fe 12 50 3b c9 eb da 3d
       -0.14200331 0.060762595 0.0031749601 0.10689504

fc1.weight f4 [8, 64]
000000 d2 8f aa 3e 84 f3 bd 3e 11 63 92 be 7f eb f7 3e
       0.3331285 0.3709985 -0.28591207 0.48421857
000010 9e 39 8e 3e 60 43 d8 bd 93 15 f9 be 03 d0 47 3e
       0.27778333 -0.10559726 -0.48649272 0.19512944
000020 cb 52 aa 3e 54 5e 1a be 5f 28 09 bf d9 c5 26 3e
       0.3326629 -0.15075046 -0.53577226 0.1628641
000030 20 66 6f be 0a 44 f6 be 52 8a 1b 3f 76 7a a4 be
       -0.23378801 -0.48098785 0.60757935 -0.3212468
000040 ec 15 c7 be 6e c5 34 3e 5f 78 43 3f f6 f1 52 bd
       -0.38883913 0.17653438 0.76355547 -0.051500283
000050 8e 82 b5 3e 61 69 71 be 40 b4 5e 3f b1 18 3a 3f
       0.35451168 -0.23575355 0.8699379 0.72693926
000060 46 32 42 3e 38 09 a1 3e 49 cd a2 3d 2d 4c 27 be
       0.1896449 0.31452346 0.07949311 -0.16337653
000070 7f ee cd 3e 94 6d 96 3d e6 54 11 3e 9b af 9a 3e
       0.4022102 0.07345119 0.14192542 0.302121
000080 a4 a5 a8 be a9 66 43 be 49 6c 1e bf c0 b5 d0 be
       -0.32938874 -0.1908213 -0.6188398 -0.40763664
000090 2a e3 f0 be 3e 5b ca be 0f 6f 5b be 7c 2d 3d 3e
       -0.47048312 -0.39522737 -0.21429084 0.18474382
0000a0 13 0a b5 3e ef 00 2d be 13 6a a6 3d 6f fe 21 3e
       0.3535925 -0.16894887 0.08125701 0.15819715
0000b0 88 45 bc 3e e5 2a 48 3e 32 f1 72 3c 0e 1b 9d be
       0.36771798 0.19547613 0.014828013 -0.30684704
0000c0 ca 11 ac be c1 ff dd 3e 71 0c 9f be 0c 5b ca be
       -0.33607322 0.43359187 -0.3106418 -0.39522588
0000d0 96 b5 35 3e 58 a4 17 3e b9 f5 98 3e 09 b1 1b 3e
       0.17745051 0.14808786 0.29874972 0.15204252
0000e0 11 f8 53 3e 14 72 c5 be 99 b1 fa bd 42 86 fa bd
       0.20700099 -0.38563597 -0.12240905 -0.12232639
0000f0 45 0d 9c 3d 97 c2 83 3e 93 9f f1 3e e4 f6 87 be
       0.076197185 0.25734398 0.47192058 -0.2655555
000100 b0 58 dc bd b4 63 ef bd b1 44 67 3e ee 16 a8 be
       -0.10759103 -0.11688939 0.22584797 -0.32829994
000110 98 87 35 bf c7 ba 91 be d1 4e bc be 86 be c0 be
       -0.70910025 -0.28462812 -0.36778882 -0.37645358
000120 3c 6c a7 39 6d b6 e5 3e 1b 3e 22 be 27 69 ab 3e
       0.00031933363 0.44865742 -0.15844004 0.33478662
000130 93 ad 80 3e d1 40 e6 3d 5a 4a 8f 3d 0b 7b c2 be
       0.25132427 0.112428315 0.06996603 -0.379845
000140 b4 1f e7 3e ec 3c 17 3d f2 24 ca be e3 78 f0 3e
       0.45141375 0.036923334 -0.39481312 0.4696723
000150 5a b9 23 bf 55 a2 3f bf df eb 09 bf ec 37 a7 3e
       -0.639547 -0.74857074 -0.53875536 0.32659853
000160 bd 42 39 bf 6d c8 d5 3c 01 b6 9b bc 53 c6 53 3f
       -0.7236746 0.026096547 -0.019007685 0.82724494
000170 c1 93 57 3e a1 31 27 3f 3a a7 1a be 39 ba bf bd
       0.21052457 0.653101 -0.15102854 -0.09361691
000180 8e 36 00 3f ce 71 07 be c2 ac 49 3e 8b f7 20 3f
       0.50083244 -0.13227007 0.19694808 0.6287772
000190 25 cb bb 3e 4e 6c e2 3e 18 4d e6 3d 5e 09 ae 3e
       0.36678424 0.44223255 0.11245173 0.33991522
0001a0 56 ca 3d be 62 6b 07 3f b7 65 d0 be 2a 51 be 3e
       -0.18534216 0.5289823 -0.40702602 0.37171298
0001b0 8e 06 d7 3e 37 4f c1 3e 09 79 30 3e ee cd cb bd
       0.41997188 0.3775575 0.17233671 -0.09951387
0001c0 2a 99 1e 3f 73 ac 0f bf 6c 03 38 3f 28 0c 45 3e
       0.6195246 -0.5612251 0.7188022 0.19242918
0001d0 4e 58 0d bf 49 e3 0f bf 1a c9 9c 3e 47 e2 65 3e
       -0.5521287 -0.56206185 0.30622178 0.22449599
0001e0 3c 3c de be cb 47 ea 3e b4 23 09 bd 79 78 f7 3e
       -0.4340533 0.457579 -0.033481315 0.483341
0001f0 9f 33 fe 3c 2f 5e 1d 3f 84 00 09 be a8 22 43 3f
       0.031030474 0.6147184 -0.13379103 0.76224756
000200 d4 c2 33 be c2 80 81 3e be 57 16 bf 92 a2 90 bf
       -0.1755479 0.25293547 -0.58727634 -1.1299613
000210 23 9f 1c b8 f6 6c 53 bf 38 88 12 be 43 0a 17 bf
       -3.7341506e-05 -0.82588136 -0.14309776 -0.59000033
000220 fd 49 a0 bf 46 17 29 3f 79 6a e3 bd 5c 03 0e bf
       -1.252258 0.6605114 -0.111042924 -0.55473876
000230 66 a4 11 bf eb db 84 3f dd 57 a3 be 4c fb 1a be
       -0.5689148 1.0379614 -0.31902972 -0.15134925
000240 ec e2 93 3f fd 9a 96 bf 38 6e 1e be fe ae 30 bf
       1.1553626 -1.1766049 -0.15471733 -0.69017017
000250 a2 ea 7e bf 91 19 17 3e 22 15 30 bf be 7b 70 be
       -0.9957677 0.14755847 -0.68782246 -0.23484704
000260 0f ea 82 3e 82 86 7f be e5 65 10 bf 82 d5 95 bd
       0.25569198 -0.24953654 -0.5640548 -0.07316114
000270 69 fc 63 3d b8 63 72 be 53 b3 9b be 01 94 ef bf
       0.05566064 -0.23670852 -0.3041025 -1.8717042
000280 aa 98 4f 3f b6 b9 cc bc 61 e4 b9 be 3b ee 70 3e
       0.8109232 -0.024990898 -0.36307052 0.23528378
000290 8c 53 1e 3f 9b dd 12 3f 2e 4a b2 be 72 9b 0d 3d
       0.6184623 0.57369393 -0.3482222 0.034572072
0002a0 8c cc 40 3f b4 9c 87 be be 2c 83 3f c2 ab 58 bf
       0.75312114 -0.26486742 1.0248029 -0.8463708
0002b0 40 5c 09 bf 03 f1 4d be a7 d8 8a be c7 78 4d 3f
       -0.5365639 -0.2011147 -0.27118418 0.80262417
0002c0 dc 50 1d be df 4f 49 3e 4a af d9 be 44 ce 3d 3e
       -0.15362877 0.19659375 -0.42516547 0.18535715
0002d0 22 74 58 bf 9e d5 16 bf 27 60 75 3e ae 11 e6 be
       -0.84552205 -0.58919704 0.2396246 -0.44935364
0002e0 de e0 91 3d 96 af 4c 3f 8a da 87 bd d2 37 90 be
       0.07122968 0.7995542 -0.0663348 -0.28167588
0002f0 e7 93 34 bf 0c 1d 3d bf 06 e2 91 3e 9b 93 8b 3c
       -0.7053818 -0.73872447 0.28492755 0.017038157
000300 9f 44 37 3e bf 70 6c be 5b 88 32 3f a9 f1 3a bf
       0.1789727 -0.23089884 0.6973931 -0.73024994
000310 22 e6 3d bf f6 5f 69 be 7a dd 98 3e 1b 67 cf be
       -0.7417928 -0.22790512 0.29856473 -0.4050835
000320 d4 40 04 bf 1d 0c 04 bf b3 86 07 bf 0a 63 57 bf
       -0.5166142 -0.51580983 -0.5293991 -0.84135497
000330 ab 1d 42 3f 8e 8e d5 3e 81 70 c6 3d ab b9 74 be
       0.7582652 0.41710323 0.09689427 -0.23898952
000340 a1 63 a1 bd f3 a0 63 3d 20 58 da bb 47 44 99 be
       -0.07880331 0.055573415 -0.0066633373 -0.29934904
000350 61 de 2b bf c0 ee 3e 3e 68 ac b0 be 4d f0 41 bd
       -0.671362 0.18645763 -0.34506536 -0.04734831
000360 7f e8 f7 be e6 3c b0 3b 23 a4 8e 3b a8 7f 1b 3e
       -0.48419568 0.0053783534 0.0043530627 0.15185416
000370 eb 30 5d be a1 e9 c3 3e d7 73 5d 3f b3 e8 23 be
       -0.21600692 0.38264182 0.8650488 -0.16006736
000380 53 4a 0f 3f c5 dc 3b 3f be 61 75 be 3a 18 d2 be
       0.55972785 0.7338374 -0.23963067 -0.41034108
000390 0b 52 d5 be c3 08 5e 3e 98 93 b4 3e ab d0 67 bf
       -0.41664156 0.2168303 0.35268855 -0.9055278
0003a0 9a c7 c6 be e5 b0 08 3f 63 97 3c 3e fd a0 14 3e
       -0.3882416 0.5339492 0.18417124 0.14514537
0003b0 a4 df 15 bf 8a fd ec be 85 ab 90 3b 86 f8 44 3f
       -0.58544374 -0.46287185 0.004414978 0.76941717
0003c0 be 60 1e 3e 84 e5 60 be 12 37 57 3f be 21 1d 3f
       0.15466592 -0.21962553 0.84068406 0.6137961
0003d0 d6 5d 0b bf 01 44 fb 3c d9 0e 24 bf d2 0a 11 be
       -0.5444006 0.030672075 -0.64085156 -0.14164284
0003e0 e8 5c 96 be 4a b6 13 bd 35 17 42 3f 29 55 0a bf
       -0.29367757 -0.036062516 0.7581666 -0.54036194
0003f0 5b b4 f4 be 39 d1 03 bf 3c fa 70 3d b1 a5 97 be
       -0.4779385 -0.51491123 0.058832392 -0.296186

fc1.bias f4 [8]
000000 b8 6b 6b 3e 8b 1f 83 be 60 85 05 bf 65 07 81 be
       0.2299031 -0.25610003 -0.5215664 -0.25200954
000010 50 40 20 bf 39 71 6c bd 76 04 74 bd 9c 6d 6a be
       -0.62598133 -0.057725165 -0.059574567 -0.22893375
