src/main/python/saved_models/kotlin_1_66_RNNClassifier1_128embs_178id_32hd_1hl_Truebid_0.pt (torch, 137759 bytes, 11 tensors)

word_embeddings.weight f4 [178, 128]
00000000: d83e b1bf 04da f8be c47f 51bf 22ee e1bf
00000010: a74a 453e 5aed 12bf a97a b4bf 4d47 b5bf
00000020: 1c19 30bf a6e7 1dbc ccba 17bf eb28 98be
00000030: b8e5 b7be 6b05 0d40 53ae 473f 611f 203f
00000040: a494 5bbe f45a 94bf 5fcc 433f 9753 1d3e
00000050: 130b b03f e79d 7a3e 3eff 0dbf 06dc 023f
00000060: 5f94 c13e 2ef2 973e 91ae 17c0 83e8 8fbf
00000070: e2ed ab3d 3622 cbbe 95d4 3ebf 2d9a 9c3d
00000080: 0a31 da3f 58bb 16bf ba54 f9be e2a4 06bf
00000090: f292 0c3f 39e1 06bd fc27 c4bd 8821 4fbf
000000a0: 577b 833d 1e92 423f 092b 2c3e 5928 993d
000000b0: 2a28 fe3f cced aebf c73f e53f a000 79bf
000000c0: bfac 2ebf 68fc 373f c924 89be fa78 30bf
000000d0: 461c 823f 62e5 b33e da99 883f 24cc 1d40
000000e0: 3d7b 433e 8bc7 963f b335 9dbe 956b f4be
000000f0: 4205 d23f d636 aebe 5cb8 3fc0 770f 71bf
00000100: abf6 643e c90c 7dbf e815 30be 3225 71bf
00000110: 5485 febe d068 5fbd ce7c bd3f c48e b1be
00000120: 02b8 82bf f4fb 6fbd 4073 5bbf 47d6 22bf
00000130: 1282 2f3d 08bf 0fbf c7c1 033f 679c 16bf
00000140: 8c94 1ebf 189a 0dbf bf33 22bf 35af ec3e
00000150: bb4d d1bf 6e54 703d e390 903e 71e8 1ebd
00000160: 690b a93e 4e6f 0dbf ccc2 5ebf 156c 973f
00000170: dcaf 80bf 9dc2 ffbe 7d69 673d 8e58 da3f
00000180: 8006 313f 0757 823f b210 753f 38da 95bf
00000190: 3297 d93f 8888 8dbf 1904 52bf 9518 d13f
000001a0: 2b85 e03f 0bc5 ff3e 23cf 4d3e c475 dfbe
000001b0: 3a4d 16c0 9959 b9be f11c d2bf 6842 1dbf
000001c0: 57f9 613f 8887 7cbf f61b bc3f e934 873f
000001d0: e9a7 babe 10ad b53e 3a6b 133f 7386 05bf
000001e0: 5f58 0e40 2122 cc3d 8b35 adbd cd66 0340
000001f0: a786 02c0 7c5d f83f 5937 1d3f a571 793d
00000200: 865d 363f 9764 e3bf bd2d b53e ed8c 993f
00000210: 7a22 9bbe 0784 e1bf 2d85 223f 7aea 4dbf
00000220: e938 cebf 0391 efbf 8707 0b3f 3c22 293f
00000230: bfe4 1240 a3c6 2c3f 1f4e db3f c0aa e5bf
00000240: 8a7f aebf 48b4 7bbf 3071 c13f a451 243f
00000250: 5028 f23e 2970 dbbe a226 0d3f 4010 c6bf
00000260: ffa2 043f 352f da3d edd9 893e ff91 a93f
00000270: 8e7d df3f a06f ed3f 9bd4 34bf 4da7 2340
00000280: 0ec7 d53e e8d2 59be 7d07 57bf 950c d7be
00000290: d8c0 1fbf 1430 7abf b3f5 5f3f 79be 7c3f
000002a0: ca80 9e3e f8a5 c23f 1b45 9a3f 4965 e8bf
000002b0: 8392 cebe 8a8a 75bf 63a5 aabb ff82 a1bd
000002c0: baf9 573f b335 953f 07e5 063f b143 cf3f
000002d0: 26c7 76bf b8ea 103e bd96 27be f368 b7be
000002e0: a673 dc3f 436e 9bbe 709b 743e 3b08 ac3f
000002f0: fe67 d33d 68d8 8c3f b5f0 aebe cd84 723f
00000300: 438a 11bf b46c 563f fe4e e43f 671d 48be
00000310: 8bd1 033f 257a ecbf e9ab 3ac0 883c 11bf
00000320: 5791 0abf 202a 653f fbeb 61bf c824 083f
00000330: 07dc c5bf 8275 31be 5a6e 3a3f d1b8 693d
00000340: facf 673f fdec 853f d845 05bf 8e69 ad3f
00000350: 78d6 703e ed05 f53f 850f eb3f 478a a93f
00000360: fc10 78bf 9f35 a03f e7eb 9a3f ce25 07bf
00000370: cecf 5f3e cd05 13bf 1383 ba3f adae e23f
00000380: 6030 d33f b42f ddbe 0ac4 8abe 7b36 b8bf
00000390: 059f 9f3f 8e0d a33f 802a c83e 7440 c63e
000003a0: 3d7d a3bd 7df6 ae3e 59e6 723f d024 b1bf
000003b0: dcae dc3f 5058 17c0 1ef3 6dbf 0e56 963e
000003c0: 924b 5c3e 283f 703f 4f9c bb3f 1b75 0ebf
000003d0: e3ad 3ebf 4d02 4fbe 102e 6bbe 3e80 ae3a
000003e0: 2a24 c03e dec0 14bf d582 12bf 6c3e 813f
000003f0: b55e d8bd 4700 97bf a7ea b9bd 4328 103f
-1.3847303 -0.48603833 -0.8183558 -1.7650797 0.19266759 -0.5739342 -1.4099933 -1.4162384
-0.68788314 -0.009637749 -0.59269404 -0.29718718 -0.3591745 2.2034557 0.7800037 0.6254788
-0.2144342 -1.1590257 0.7648372 0.15363918 1.375338 0.24474297 -0.55467594 0.5111698
0.3780851 0.29676956 -2.3700297 -1.1242832 0.08394982 -0.39674538 -0.74543124 0.07646594
1.7046216 -0.58879614 -0.48697454 -0.5259534 0.5491172 -0.032929633 -0.09577939 -0.8091054
0.064200096 0.7600421 0.16813292 0.07478399 1.9856007 -1.366632 1.7910088 -0.9726658
-0.6823234 0.71869516 -0.26785877 -0.68934596 1.0164878 0.35135943 1.0671952 2.4655848
0.1908998 1.1779646 -0.30705032 -0.4773833 1.6407855 -0.34026212 -2.9956274 -0.9416422
0.22359721 -0.98847634 -0.17195857 -0.9419738 -0.49711096 -0.054543316 1.4803712 -0.34679234
-1.0212405 -0.05858989 -0.8572273 -0.6360821 0.042848654 -0.56150866 0.51467556 -0.588324
-0.61945415 -0.55313253 -0.6336021 0.46227422 -1.6351846 0.05867427 0.2823554 -0.038795892
0.33016518 -0.5524796 -0.87015986 1.1829859 -1.0053668 -0.49953166 0.056497086 1.7058275
0.69150543 1.0182809 0.957286 -1.170722 1.6999266 -1.1057291 -0.820375 1.6335627
1.754064 0.4995502 0.20098548 -0.43644536 -2.3484635 -0.3620117 -1.6415082 -0.6142945
0.8827109 -0.98644304 1.4696033 1.0563022 -0.3645623 0.354836 0.5758549 -0.5215828
2.2241437 0.09967447 -0.08457478 2.0531495 -2.0394685 1.9403529 0.6141258 0.060899395
0.71236455 -1.7765073 0.35386458 1.1996132 -0.3029974 -1.7618417 0.6348446 -0.8043591
-1.6111118 -1.8716129 0.5430836 0.6606786 2.2952116 0.67490596 1.7133216 -1.7942734
-1.3632672 -0.9832196 1.5112667 0.64187074 0.4729638 -0.4285901 0.55137074 -1.5473709
0.5181121 0.10653535 0.26924077 1.324768 1.7460191 1.854969 -0.7063691 2.5570862
0.4175343 -0.2127186 -0.839958 -0.42001787 -0.6240363 -0.9772961 0.8748428 0.9872814
0.30957633 1.52069 1.2052339 -1.815591 -0.40346155 -0.9591452 -0.005207704 -0.07886314
0.8436543 1.1657013 0.5269322 1.6192533 -0.96397626 0.14152038 -0.16366096 -0.35822257
1.7222793 -0.3035756 0.2388742 1.3440012 0.10322569 1.1003542 -0.3416802 0.9473389
-0.56851596 0.8375962 1.7836607 -0.19542466 0.5149161 -1.8474776 -2.9167426 -0.5673299
-0.5412802 0.895174 -0.882507 0.53181124 -1.5457772 -0.17329982 0.72824633 0.05706102
0.9055172 1.0462948 -0.520597 1.3547838 0.23519313 1.9142433 1.8364111 1.3245324
-0.96900916 1.2516364 1.2103242 -0.5279206 0.21856615 -0.57430726 1.4571251 1.7709557
1.6499138 -0.43200457 -0.2710269 -1.4391626 1.2470404 1.2738512 0.39094925 0.3872105
-0.07982872 0.3417243 0.9488273 -1.3839359 1.7240863 -2.3647652 -0.9294909 0.2936253
0.21513203 0.9384637 1.4657077 -0.5564744 -0.7448408 -0.20215721 -0.2296679 0.0013313366
0.3752759 -0.5810679 -0.57230884 1.0097175 -0.10564939 -1.179696 -0.090779595 0.56311435

rnn.weight_ih_l0 f4 [32, 128]
00000000: 1640 37bd bfbd f5bd 8833 bfbd 87db 53be
00000010: 4d1c 22be 59c8 8d3d a26e 743e 6292 f03d
00000020: 7f82 013e e121 a03e 8509 5b3c 8467 a83d
00000030: 93b3 113c 055f 9bbc 4393 13be c0bb 12b9
00000040: 4731 c5bd b1ea ac3c 63a5 d4be 7d28 8cbd
00000050: d645 90be 3732 c93c 7401 0ebe e444 b63a
00000060: a7e8 4d3e 4897 e3bc 774a e63d 5677 e6bd
00000070: 46d2 f03d 58e2 69be e1e8 3b3c abe1 c4bc
00000080: 4b57 f03d d9e0 5a3e f6ef 813d b263 25be
00000090: 5b3e 4d3e fddd 3a3e ce49 93bb 3462 e53c
000000a0: e9bd 813d 5fdf 86be 1e0d 5a3e 13cd b2be
000000b0: 9a81 a9bb a4ed dfbd ba3a 333d 9e1e d6bd
000000c0: 7550 853d dc9f 47bc c6a6 4dbe ba61 6fbd
000000d0: 252b 47be 10f4 8e3d 4191 64be a30a 80bd
000000e0: 8c49 72bd 0434 e63d 3fb1 b7bb f4bd ecbc
000000f0: f305 14be 0999 083e f50c 90be 2eac 913d
00000100: 7eb2 97bd 098b 1c3d 273f 62bc d2fb 573e
00000110: 9322 67be 2edb 7bbd 8440 65be 8dd5 ac3c
00000120: 02f0 803c 32bf 043e 527c 1e3c 1ed3 ccbd
00000130: cc86 91bd 768d a4bd d60b f33d 46e1 a0be
00000140: 12c8 3bbe 8f5d e93d a5eb c73d 4f22 943d
00000150: 03f9 7abe 2ca6 453e ff52 4abd fb93 b33d
00000160: 4ae8 e4bd 8afd 3a3e 7af1 673d 4f24 57be
00000170: 6612 cbbe 6020 87be 28e0 30be 6c6c 89bd
00000180: 97eb 8fbe 9b1c 533e 627b 9f3e 3402 123e
00000190: 1849 0fbe 1881 513e e2bd 523d 9cef 703d
000001a0: 39a9 4cbd 6fec 243e bbfe 8f3d b8e4 ab3e
000001b0: 4f25 163e d467 1cbb 8e92 00be d676 de3d
000001c0: 2377 cbbd 699c b93e 04b1 38bd 527a 8c3c
000001d0: 6bd3 913e 983e d4bd 1c8f 0abe 6f43 583e
000001e0: c9e9 e33d a8d4 97bd e350 073c 0bfb 733d
000001f0: 0b8f 40be fa19 55be fe41 d9bd 8bd1 023e
00000200: 342a a53d 9c8b 1e3e 092f 82bd 991c 2fbe
00000210: 4a5f ae3d 1014 2b3d a7fa a23d 8621 703d
00000220: dcc3 73bc 5da4 0c3e 648d 4fbe 5748 4dbd
00000230: 355c 0abe 8250 c73d 657d b33d cddd e0bd
00000240: 1f41 ffbc dda5 fd3c 81d6 74be b396 f33d
00000250: 5432 d43c 74a4 24bd e53c 8cbd d07a d83d
00000260: 7113 13be 9ec4 52be 1c42 873e 7f92 d9bd
00000270: 2fa3 6dbe 5122 15bd f755 e83b b5c2 aabe
00000280: 6270 72bd 4323 0a3e ec71 3a3c 5211 883e
00000290: 0686 26be 96fe 8b3e b13c c4bd 1dec 86be
000002a0: 9496 5ebe 801d de3d 7472 543e 5b3b 2d3e
000002b0: 62d5 37bc 273f debe 52a0 0e3e bbaa 743d
000002c0: b9a1 a9be 6dd7 b13d dc4a 93bd 83c6 f9be
000002d0: 24a6 3e3d 1b58 4dbd a6e9 2b3e b31c c03e
000002e0: fac2 553e c65c 46be a281 52be ebbd 05be
000002f0: c395 953e 76f9 e9bd 5c9b 7bbc 3e92 6fbe
00000300: 3027 fbbd 0eff 473e 47a9 b43d fe56 52be
00000310: bfa5 cabd 6410 683d d54f f2bd 5b4e 03bd
00000320: 400f 0fbe ffc7 52bd a28e 16be 73a1 f43d
00000330: e7ff 013d 4afc 003d a1f1 55be fb91 23be
00000340: 6e72 4c3e 673f 3f3c 8505 443d 9f7e 0c3d
00000350: 42d8 0e3e 376b 1abe 21c3 18bd 1580 923c
00000360: 0eb2 cfbc b2dc b03e e477 533d dcd6 ab3c
00000370: 2920 bfbd 297e aa3b 5e04 e639 400c d23d
00000380: 5b60 073e 2d5d 4fbd a377 de3d b591 4c3e
00000390: 7af0 53be b1a1 c4be 9a58 4c3c 2989 303d
000003a0: ae41 fcbd 55b8 373e fe45 cdbd b0d5 673d
000003b0: 94db d9bd 4f22 ab3e 7b0c 5d3e 9235 8f3e
000003c0: 8e87 e5bd edca d73d ca10 093e e246 b13d
000003d0: 20b6 8e3d 3256 273e 10c4 db3d 3ecd 663e
000003e0: e97e 47be 6375 023e fde9 843d 9287 1a3e
000003f0: 1e4c 61be 7496 30be 0938 043e e1da dc3e
-0.04473885 -0.11999082 -0.09336001 -0.20689212 -0.15831108 0.06922979 0.23870328 0.1174667
0.12647437 0.31275848 0.013368969 0.08222869 0.0088929115 -0.018966207 -0.14411645 -0.00013993587
-0.096285395 0.021108003 -0.4153243 -0.0684366 -0.2817828 0.024560077 -0.13867742 0.0013906029
0.20108281 -0.027782097 0.11244672 -0.1125323 0.117588565 -0.2284025 0.011469097 -0.024033388
0.117354 0.21374835 0.06344597 -0.16151312 0.20043318 0.18248744 -0.004494882 0.028000928
0.063350506 -0.26342294 0.21294066 -0.34922084 -0.0051729204 -0.10933998 0.043757178 -0.104550585
0.065094866 -0.01218411 -0.2008315 -0.05844281 -0.19450052 0.06980145 -0.22321035 -0.06252029
-0.05915217 0.1124039 -0.005605846 -0.02889917 -0.14455394 0.13339628 -0.28134885 0.07112919
-0.074070916 0.03821853 -0.013809002 0.21092156 -0.22571783 -0.061488323 -0.22387892 0.021097923
0.015739445 0.1296356 0.009673195 -0.10001205 -0.071057886 -0.08034794 0.11867492 -0.3142187
-0.1833804 0.11394798 0.097617425 0.07233106 -0.24509053 0.19301671 -0.049395557 0.087684594
-0.11177118 0.1826078 0.056626774 -0.21009944 -0.39662474 -0.26391888 -0.17273009 -0.06710133
-0.28109428 0.20616381 0.3114882 0.14258653 -0.13992727 0.20459402 0.051450618 0.05882226
-0.04996607 0.16105817 0.07031008 0.33572936 0.1466267 -0.0023865597 -0.12555906 0.1086251
-0.09934833 0.36252144 -0.04509069 0.01714817 0.28481612 -0.10363501 -0.13531154 0.21119474
0.11128575 -0.07413608 0.008259031 0.059565585 -0.18804567 -0.2081069 -0.1060829 0.12775247
0.0806469 0.15482944 -0.063566275 -0.17100753 0.08514269 0.04176718 0.079579644 0.05862572
-0.0148782395 0.13734575 -0.2026878 -0.050117817 -0.13511737 0.097321525 0.087641515 -0.10979805
-0.031158982 0.030962879 -0.23909952 0.11893978 0.025902905 -0.040195897 -0.06847552 0.105702996
-0.14362885 -0.20582816 0.26417625 -0.10623645 -0.23206781 -0.03640968 0.007090326 -0.33351675
-0.059189208 0.13490014 0.0113797 0.26575714 -0.16262063 0.2734267 -0.095818885 -0.26352015
-0.21737128 0.108454704 0.20746785 0.16917174 -0.011220308 -0.43407556 0.13928345 0.059733134
-0.33131197 0.08683667 -0.07192013 -0.48784265 0.046545163 -0.050132852 0.16788349 0.37521896
0.20875159 -0.19371328 -0.20557263 -0.13060729 0.29215822 -0.11424534 -0.015356865 -0.2339563
-0.12263334 0.1953089 0.088213496 -0.20540997 -0.09894895 0.056656256 -0.11831633 -0.032057147
-0.13970661 -0.051460262 -0.14702848 0.119448565 0.031738188 0.0314906 -0.20892955 -0.15973656
0.19965526 0.011672831 0.047856826 0.034300443 0.13949683 -0.15079962 -0.037295464 0.01788334
-0.025353458 0.34543377 0.05162801 0.020976476 -0.09332306 0.0052030277 0.00043872272 0.10256243
0.1322035 -0.05062597 0.10862663 0.19977458 -0.20697203 -0.3840461 0.012472296 0.043099556
-0.12317215 0.17941411 -0.100231156 0.056600273 -0.10637584 0.33424613 0.21586792 0.27970558
-0.11207496 0.10536752 0.13385311 0.08656098 0.06968331 0.16341475 0.10730755 0.22539231
-0.19482006 0.12740092 0.06489942 0.15090778 -0.22001693 -0.17244893 0.12912 0.4313574

rnn.weight_hh_l0 f4 [32, 32]
00000000: 0631 e63e 70ec d0be 64fe 263e 3580 47bd
00000010: 8502 b3be ec06 8dbc 3e3d 1cbf 9308 b93c
00000020: ba6b ad3e 5ea6 973e 0397 42be 3a01 443d
00000030: 6376 a03e 056f 9cbe 59b0 55be b3ae 9ebe
00000040: 3841 093e 0baf 49bf 268a 963e 2d72 c23e
00000050: cf35 0f3d 3d5c 15bf fbf5 b33e 22e5 44bd
00000060: 1788 f9bd 0b31 873e 8b6e fcbe 3ecf 8d3e
00000070: d6c5 1fbe 606e 763e 1c56 f0be 5f4d a0be
00000080: 587d 80be a198 33bc 5097 c53d b5e9 46be
00000090: 43a0 0cbf f096 10bf 2cd0 6dbe fe88 a7be
000000a0: 047e fa3d 9d15 92be a710 1bbe 7f46 91be
000000b0: 6ae1 c33e 2ced 433f 5884 cfbe 819d 823e
000000c0: d6a8 173d c1d6 0f3f 5fe4 f33d 9e23 b63e
000000d0: 1106 90be 7638 133e 4031 24bc 5a39 b93e
000000e0: ea26 273e a28f 93be d66b dd3d 4471 193e
000000f0: 3ff5 f1be 6153 3b3f b670 71bf 5b4e ce3d
00000100: 563a ac3e 4467 813f 00ba 863e 04ed febd
00000110: edeb b13e db6d 89be 9358 523f 4a76 90be
00000120: 1e4b b33e 7f50 3b3d b6d0 0a3f 7adb f33c
00000130: f8e4 f53e 57e9 08be d3bb 803d 474b c53c
00000140: 8b68 593e 4988 133e fa00 cf3e 4946 dabe
00000150: b59e 603e 8f90 c4be b040 833e 23c8 67bd
00000160: 3a77 733e da97 3abd 3d53 5c3e c1d1 e9bb
00000170: 4dae f7bb fbe4 02be 6e07 a53e 643a 283f
00000180: c851 f3be e6c7 d73e 8161 37be cd40 a6bd
00000190: 46c9 7bbe 013b cbbd fa3f 28bd 70d4 3cbe
000001a0: 280f 8cbf f93f edbd 2ca7 9cbe 2afa 33be
000001b0: 58da 3bbd c61b 34be 42ce 523e c6a3 953e
000001c0: 1490 053e e85d 83be 2a25 6f3f 81b0 293e
000001d0: 1652 0bbd ed60 ac3d c143 3f3e 049b b9bd
000001e0: ca11 463e af14 c8be 14d5 ddbe 5fbf f4bc
000001f0: 8f8a c7bd 9763 aebd bbe2 5bbd 5c5d 9dbe
00000200: a773 5fbe b1e8 b53e 3e8d b43e 329e 07bf
00000210: 7c7f b8bd b70a 2bbe 6b8f a0be 1b9d 0f3f
00000220: 4895 613e 1de8 edbd d8ae 6b3d f46c b1be
00000230: e695 edba 2452 d83e b670 b4be 57a4 75be
00000240: dfc3 89bb 477e 61be a9d1 ac3e e6dc 80be
00000250: 6076 12bf 0622 8bbe dd15 743e 3898 453d
00000260: addb fbbe 6019 433e ec55 8dbc 2d8f 18be
00000270: 8798 d6bd cbc6 eb3d 7cf6 273e 2796 17be
00000280: 080e 5f3c be78 07bf 40f4 563e 6e86 bc3e
00000290: b6ba b23a 2a19 013f 3a1d 13bf cb23 a93d
000002a0: 16d5 ac3e 8770 d3bd e2c6 783d 22dc 2e3e
000002b0: 08d4 8b3e a896 0ebe 8613 e13e 4600 f63d
000002c0: ef8d 163e 50be d4be c7e5 1bbe a889 08be
000002d0: e0c6 7bbe a9ed 32bf 54e1 9dbd 3294 1dbf
000002e0: bc8e f8bb 344c e7bd f3ad 2ebd af69 933e
000002f0: 72e7 b93e 5e44 b13d c528 e5be f092 b7be
00000300: 0d64 0fbf 07f8 e43e 1829 d9be 0899 b3be
00000310: b7e7 a83d ef8a 30be 2979 c23e 3c0d f23d
00000320: 552a 36bf e1e3 57be eacd 0cbf a96e b1be
00000330: 409b acbc 1a16 1c3f fa2e 143e a62f 773e
00000340: 8a73 aebe bb4d 043d 8b3a 323e c4ab 1c3e
00000350: 9c19 3a3c e376 1bbe 0cec 5fbd 678a c03d
00000360: e132 5bbe 1b09 693e b20d 6e3e be03 f0be
00000370: d8f9 0abf 19de 633e a89e d73c e9c5 783e
00000380: 3a8e 8bbd bb95 593d 5810 7e3d 8b9c 9f3e
00000390: b1c6 0f3e cc08 a9bd 5170 f73e 3da5 da3e
000003a0: 2f85 e5be 59b0 a13e 1017 8dbe 2b05 43bd
000003b0: 1158 e8be 224b 163f 5287 bbbe 8fe9 05be
000003c0: edde 95bd 785b 013e 9ece 973d 0af6 583e
000003d0: e15e fe3e 58e5 2d3f 29a7 41be b2f1 033f
000003e0: b0c9 543d 140c 06be 91f3 a53e b5d0 e03d
000003f0: 025d afbe a46e 4c3e 9959 a4bb bdd6 a73e
0.44959277 -0.40805387 0.1630798 -0.048706252 -0.3496286 -0.017215215 -0.6103095 0.022587096
0.3387125 0.29619116 -0.19002919 0.047852732 0.31340322 -0.3055345 -0.20868053 -0.3099266
0.13403785 -0.7878272 0.29402274 0.37977734 0.034963425 -0.5834387 0.35148606 -0.04807008
-0.1218416 0.26404604 -0.49303088 0.27697176 -0.15602812 0.24065542 -0.46940696 -0.3130903
-0.2509563 -0.010961683 0.09648001 -0.1942509 -0.5493204 -0.5648031 -0.23223943 -0.32721704
0.12231067 -0.28532115 -0.15143071 -0.28374097 0.38257915 0.7653377 -0.40530658 0.2551079
0.03702625 0.56187063 0.11908793 0.3557405 -0.28129628 0.14377007 -0.010021508 0.36176568
0.16323438 -0.2882052 0.10811584 0.14984614 -0.4725742 0.731741 -0.9431261 0.10073539
0.33638257 1.0109639 0.26313782 -0.12447551 0.3475031 -0.26841626 0.82166404 -0.28215247
0.35018247 0.045731064 0.5422472 0.02976774 0.48026252 -0.13370262 0.062858246 0.024083747
0.21231286 0.14407457 0.40430433 -0.42631748 0.21935542 -0.3839154 0.2563529 -0.05658735
0.2377595 -0.045554973 0.21516128 -0.0071356003 -0.00755862 -0.12782662 0.3223223 0.657141
-0.47523332 0.42144698 -0.17908289 -0.081178285 -0.24588498 -0.099233635 -0.041076638 -0.18440413
-1.0942125 -0.115844674 -0.30596292 -0.17575899 -0.045862526 -0.1758872 0.20586494 0.29226512
0.13043243 -0.25657582 0.9341608 0.16571237 -0.03401383 0.084169246 0.1867819 -0.0906277
0.19342723 -0.3907828 -0.43326628 -0.02987641 -0.09743225 -0.08515089 -0.053683024 -0.3073529
-0.21821462 0.35529092 0.3526401 -0.5297576 -0.09008691 -0.16703306 -0.3135942 0.560991
0.22029603 -0.11616538 0.05753979 -0.34653437 -0.0018126338 0.42250168 -0.35242242 -0.23988472
-0.004204258 -0.22020827 0.33753708 -0.25168532 -0.57211876 -0.27174395 0.23836465 0.04824087
-0.49191037 0.19052649 -0.017252885 -0.14898367 -0.10478311 0.11512526 0.1640262 -0.14803372
0.013614185 -0.5291861 0.20991611 0.36821312 0.0013635966 0.5042902 -0.5746647 0.0825878
0.33756322 -0.10324197 0.060736544 0.17076162 0.27310205 -0.13924658 0.43960208 0.12011771
0.14702581 -0.41551447 -0.15224372 -0.13333762 -0.24587584 -0.6989389 -0.077089936 -0.61554253
-0.0075853746 -0.112938315 -0.04264636 0.28791568 0.3630939 0.08655618 -0.44757667 -0.35854292
-0.5601204 0.4472048 -0.42414165 -0.3507769 0.08247321 -0.17240499 0.37983063 0.118189305
-0.71158344 -0.21083023 -0.550017 -0.3465474 -0.021070123 0.60971224 0.14471045 0.2413927
-0.34072524 0.032300692 0.17405145 0.15299898 0.011358645 -0.1518207 -0.05466847 0.09401398
-0.21406128 0.2275738 0.23247412 -0.46877855 -0.5428748 0.22252692 0.02632077 0.24294247
-0.06814237 0.05312131 0.062027305 0.3117412 0.14040639 -0.08253631 0.48327878 0.42704192
-0.44828174 0.31579855 -0.27556658 -0.04761235 -0.4537969 0.58708394 -0.3662668 -0.13077377
-0.0731791 0.12632549 0.07412456 0.21187606 0.49681762 0.67928076 -0.18911423 0.5154067
0.051950157 -0.13090545 0.3241239 0.10977308 -0.34250647 0.19964081 -0.0050155637 0.3278102

rnn.bias_ih_l0 f4 [32]
00000000: aa80 12bd 9102 0b3e 4b16 813e 0537 253e
00000010: 1636 573e fb29 aabd 0452 f73d 5ecc e6bd
00000020: 99c5 853d e8a7 2a3e 2ac8 20be b60b 1ebe
00000030: 08c4 0b3e 1f55 06be b8fd 14be 7244 f6bc
00000040: 92bb a03a 6dd8 b9bc 6a86 3c3e 22e7 d23d
00000050: 8dce d73d 9d94 5fbe c615 b23e 894d ab3d
00000060: c5cc 7c3c 17bf 19be 0472 06bd 7aa3 db3d
00000070: 040a 09be 7f84 8dbd 8a7d 18be f8e0 583d
-0.035767235 0.13575198 0.2521232 0.1613427 0.21016726 -0.083087884 0.1207619 -0.11269449
0.065318294 0.16665614 -0.15701357 -0.15434155 0.13648999 -0.13118409 -0.14549911 -0.030061934
0.0012262932 -0.022686208 0.1841065 0.10297991 0.10537443 -0.21834035 0.34782237 0.08364398
0.01542968 -0.15014301 -0.032823578 0.1072454 -0.13382727 -0.06910037 -0.1489164 0.052948922

rnn.bias_hh_l0 f4 [32]
00000000: 36f6 12be d8c7 0f3e 2b9e 6d3e dc67 973e
00000010: 14e3 223e 5030 6cbc 24e5 253e a91a 95bd
00000020: 34a5 1cbe f98e 8dbd 369b f03d f2dd 81bd
00000030: 7cab 653c 06aa 25b9 122d 40be 8080 303e
00000040: b6c0 7d3b 5765 003d 2878 8b3e 264a 403e
00000050: b4f5 87bc c0c0 81bd aa0b 183e 8b77 26be
00000060: bd1a 903d 444f 5dbd 387d 82bc c793 503e
00000070: fb8c 23bd ebcf 633e 1cf5 79be 97d2 673d
-0.14351735 0.14041078 0.23204868 0.29571426 0.15906936 -0.0144158155 0.16200691 -0.07280476
-0.15297395 -0.069120355 0.11748354 -0.06341161 0.014017936 -0.00015798965 -0.18767193 0.17236519
0.00387196 0.031346645 0.2724011 0.18778285 -0.016596653 -0.06335592 0.148482 -0.1625654
0.0703635 -0.05403067 -0.01592885 0.20368873 -0.03992937 0.22247283 -0.24409908 0.05659732

rnn.weight_ih_l0_reverse f4 [32, 128]
00000000: bd94 533e 660d 8abe d356 03be dbf6 073e
00000010: 0e07 243d ad9f 053c 6059 d03d e88a 63be
00000020: b153 7abd 5fe1 95bd bd7b ebbd 21a5 cfbd
00000030: af05 7e3e 8317 c3bd c4de b0bc cb7e a2be
00000040: d94f 763c 5c16 d0bd ce4e 1e3c 4baa 3f3e
00000050: d1b3 483e 34d6 84be c0eb 9e3d 7ba5 843e
00000060: b8ff 31bd 3878 ea3d 4a0f ee3d d3c0 89bd
00000070: 6aaf 00bd cd91 4fbd 099e 983d f500 243e
00000080: 9a8b 06bd 9baf 4abe fee0 2abe 27ca 8e3e
00000090: 2b5b 2dbd 0a06 5fbd 4761 49be 8508 d9bd
000000a0: 1fc5 843e 316b 6c3e eb6a 2a3d 483c bebd
000000b0: e33a e8bd 0413 97bc c732 803e a957 86be
000000c0: 6240 e33d 2f1f 8cbe 509d 07be fb36 28be
000000d0: 9fe4 7a3e 2e89 60be 11f0 dbbc e6e9 8a3c
000000e0: f438 993e 52cd df3c 7949 07be 1b87 b1bd
000000f0: 9a8e a73d 3334 bdbe 3d44 48bc aa4b 253e
00000100: 85e2 08be 5319 993c 993d 12be 7677 96bd
00000110: 5383 8dbc 98c4 90bd 5fa3 9f3d b9ce 8abd
00000120: aa3b c5bd a812 753c 250a 64be 28b1 2f3e
00000130: 68d2 343e 4d8b 503d c84b cb3d 3f06 063d
00000140: c9a6 4e3c 1715 1dbc 34f7 8cbe 69bb 4dbe
00000150: f32f 8c3c b293 20bd b29d b73d f394 19be
00000160: 3e4b 8b3d 824f acbe 6542 3c3c a639 543d
00000170: 4afa f03d c985 81bd 5518 dbbd 4018 843e
00000180: 6ee8 3d3e 35f8 4abd 4d18 3f3e 6e2c eabd
00000190: efd3 4dbe adb9 283e aa7e 1abe 304e 71bd
000001a0: df92 06be 2fb2 863e 5912 373e 101b a53a
000001b0: 1f76 cc3d bb1c c23b d434 123e 8bd9 debd
000001c0: 5e8a d93d e9fa f3bd 49ee d43d c93c 97bd
000001d0: 1a10 b63d a637 64bc 8952 2a3e 5756 88bb
000001e0: 5cbc f7bc efa6 bdbd ec0b 44be 9b56 823d
000001f0: ffe9 3bbd 0d0b 623e 44e1 f7bd 0306 6c3c
00000200: 0be5 cbbd 45f7 7e3e e1d0 b43e a8f5 dfba
00000210: 0adb 8c3d 7c56 9a3e b338 10be 8c15 91bd
00000220: a404 37be 0dcf b53d 52f1 62bc 8b84 183d
00000230: 4b7b 1dbe 2636 f8bd ea16 0fbd 002e 4ebd
00000240: c931 d03d 4b40 bdbd 8f63 81bd 2daf 873e
00000250: fbad 46bd a23e 4d3d 84eb 8b3d d8fa 6a3d
00000260: bec0 303d 9016 a13c e36d 44bc 72f7 4a3e
00000270: ccd1 1f3e 36fc 00be bc55 283c b17f 913d
00000280: 3ece 773d 1375 a13d ac17 1b3d 7da8 e93d
00000290: ed2d df3b caf4 d0bd b982 b9bc 16d3 973e
000002a0: 1dbe 03bf c59c a4bd 3cc1 8cbd 9d74 a63d
000002b0: 1a0e 283d 7aca 713e 1a7a 7f3e 348f 26be
000002c0: 767c 9ebe 5fab 8e3b fef1 adbe 9b51 00be
000002d0: 3bdc 323e 20cd d0be e880 58bd 25d3 083e
000002e0: 83f4 94bc b7cb fd3d 8078 293e d351 3f3e
000002f0: 31fb edbd 663a 283e 4d8e 33be f293 1a3e
00000300: 6563 c2ba e961 213e 61df a0bd 3016 193e
00000310: 5116 3fbe bec1 8fbd a642 553e 4674 3cbd
00000320: acec 253d 67ec 4bbc 9232 c83c 82fd d6be
00000330: 9d05 b7bd beff 31be 85f3 a53b 0cbd 903c
00000340: 8018 b83d 0b7d 5c3d 7a21 0cbc 2998 973e
00000350: aeec 2d3e d222 753d a4cc 98be 41ab 7abe
00000360: 3a74 f53d 95cf 27be f45d e03d a3a8 d43d
00000370: 42fd a9be 113b 2dbe 7cd0 6cbd eee6 ff3d
00000380: abd1 963d c53d b03e a8e8 9ebe 4403 0a3e
00000390: d55a 0fbe 4936 18bb b013 c8bd b196 b03d
000003a0: 5173 38be bce6 0c3e 2495 273e 5042 063e
000003b0: 5b35 9a3e 08c5 343e 3332 33be c532 60bd
000003c0: 5be4 ccbd 08c3 a6bc 15ad ae3e d266 09be
000003d0: 4363 8cbe 877a 80be 4b6a 023d 0253 7d3e
000003e0: 78bc 873e e318 ccbe d8d8 12be 0d1f 0bbd
000003f0: c488 27be 8935 163e 4dd2 9ebc c295 663e
0.20662208 -0.26963347 -0.1282609 0.13277762 0.04004579 0.008155745 0.10173297 -0.22220957
-0.06111497 -0.07318377 -0.114982106 -0.10138918 0.24806856 -0.09525969 -0.021590598 -0.3173736
0.015033686 -0.10160515 0.009662343 0.18717305 0.19599845 -0.25944674 0.077598095 0.25907502
-0.043456763 0.11448711 0.1162401 -0.067262314 -0.031417288 -0.050676156 0.07452018 0.1601599
-0.03284798 -0.1979355 -0.1668739 0.27888605 -0.042323273 -0.05444912 -0.19666015 -0.10597328
0.2593164 0.23087765 0.04160587 -0.092888415 -0.11339357 -0.018441685 0.2503874 -0.26238754
0.110962644 -0.2736754 -0.13243604 -0.16427223 0.24501275 -0.2192733 -0.026847871 0.016957235
0.29926264 0.027319584 -0.13211621 -0.086683474 0.08181496 -0.36953887 -0.0122233005 0.16142145
-0.1336766 0.018688833 -0.1428131 -0.07347004 -0.017274534 -0.07068747 0.077948324 -0.067777105
-0.09630521 0.014958061 -0.22269495 0.17157423 0.17658389 0.050914098 0.099265635 0.0327208
0.012613007 -0.009587548 -0.2753235 -0.20091023 0.017112708 -0.039203353 0.08965625 -0.14998226
0.06801461 -0.3365441 0.011490439 0.05181279 0.11766489 -0.063243456 -0.10698 0.2579975
0.18545696 -0.049553115 0.18661614 -0.114342555 -0.20100378 0.1647708 -0.15087381 -0.058912456
-0.13141964 0.26307818 0.17878093 0.0012596566 0.09983467 0.005923835 0.14277965 -0.10881337
0.106220946 -0.11913092 0.10397012 -0.07384641 0.0888979 -0.013929283 0.16633047 -0.004160683
-0.030241184 -0.09260356 -0.19145173 0.06364175 -0.045877453 0.22074528 -0.12103513 0.01440573
-0.09955796 0.24899013 0.35315612 -0.0017086761 0.06877716 0.30144107 -0.14084129 -0.07084188
-0.17872864 0.088773824 -0.013851481 0.037235778 -0.15379064 -0.12119703 -0.034933962 -0.050336838
0.10165746 -0.092407785 -0.063178174 0.26500836 -0.048505764 0.05010856 0.068320304 0.05736813
0.043152563 0.019664079 -0.01198909 0.19820955 0.15607375 -0.12596211 0.010274347 0.07104433
0.060499422 0.07883658 0.037864372 0.1140909 0.0068108947 -0.1020294 -0.022645341 0.29653233
-0.51461965 -0.08037714 -0.06872794 0.08127711 0.041029073 0.23612395 0.24948922 -0.16265565
-0.3095433 0.004353925 -0.33973688 -0.1253113 0.17466824 -0.40781498 -0.05285731 0.13361795
-0.018182999 0.12392371 0.16549873 0.18683557 -0.116201766 0.16428527 -0.17534752 0.15095499
-0.0014830647 0.15760006 -0.07855106 0.1494987 -0.18660857 -0.07019375 0.20826206 -0.046009324
0.04050891 -0.012446499 0.024438176 -0.41990286 -0.089366175 -0.17382714 0.00506443 0.01766827
0.08989048 0.053830188 -0.008552903 0.29608276 0.16984817 0.05984766 -0.29843628 -0.2447939
0.11985059 -0.1638778 0.1095542 0.103837274 -0.33201033 -0.16917063 -0.057816014 0.12495218
0.0736421 0.34422126 -0.31036878 0.13477808 -0.13999493 -0.0023225716 -0.0976938 0.08622492
-0.1801274 0.13759893 0.16365486 0.13111234 0.30118832 0.17653286 -0.17499618 -0.054735918
-0.10004493 -0.02035667 0.34116426 -0.13418129 -0.2741948 -0.2509348 0.03183965 0.24738696
0.26510978 -0.39862737 -0.14340532 -0.03396516 -0.16360766 0.1466886 -0.019387389 0.22518066

rnn.weight_hh_l0_reverse f4 [32, 32]
00000000: f8f5 5b3f 4344 de3e aff1 e33d f89b 1dbb
00000010: ff1f cfbc d3ea bcbc fb6e bf3d 9875 803e
00000020: 6211 283e 5e91 c8be 90c4 64be 19f7 833d
00000030: 7b47 10bf e2d8 723a 15cc 853e cbc2 a33e
00000040: bed7 d23d aeae c83c 4f4b cfbd e169 13bf
00000050: 75a6 cbbe 9b86 38bf a230 5d3e 1418 293e
00000060: 1400 713e cd88 cfbe 1572 9bbe 93df d73d
00000070: c333 2dbe 4f46 4a3f 31ce 96bd 0702 9d3e
00000080: 12f7 7cbe a04f c73e 9e56 ebbd 3d27 c3bd
00000090: e8ef d03e cd76 12be 7b34 b23e d79a f7bd
000000a0: 84d8 b2bd 01a1 6fbe 5781 40bf bd8e ebbb
000000b0: a4c6 ae3c c574 bb3e 03f8 51be f5ff 3b3f
000000c0: 2ad3 643e 8e75 ab3c a926 be3d ffad f5bd
000000d0: 687f 3dbe 6045 e6ba 17c6 9dbe d57f 693e
000000e0: 7c3d f83c 4018 75be 1fe7 d93e 5ae8 c1bd
000000f0: cb07 82be 5258 5ebf 1cdd 50be 84f0 d6be
00000100: 7762 d23e 3ebd debe c21d f93e 18e4 02bc
00000110: 4918 1dbe 11a6 f8bd 9b45 35be b214 47be
00000120: 6f47 9d3d 4a28 8b3d e020 b13e f62c ebbc
00000130: 711d 073f 9282 133e 0d6b 0d3f 3a97 883d
00000140: c6e3 a03e 8158 5abe 5274 363f 2b74 2fbe
00000150: b232 2ebe 780e 9b3e 7c69 82be fe8d ccbe
00000160: 3a1b 42be f201 ea3e 3220 85be 823d 5c3e
00000170: e9cd 273f b006 743d 36cc 60bd 030e cf3e
00000180: c50b 6ebe 56ef a03d f83e 35bc 1310 25be
00000190: 964d 893e 8bc8 913c 44f8 4e3d d9c1 df3c
000001a0: ba37 09be c1e8 cabe a46e be3d cc10 d93e
000001b0: 01d2 99bd c68e b5be 9b85 94be 7498 aabd
000001c0: 4300 d13e cece 86bd d56a b53e e17b 00be
000001d0: 267e eb3d 2c11 7b3e db18 773e 5a0d 60bc
000001e0: 0333 72be 06e6 543e 3f67 9f3e c89f ab3d
000001f0: ed96 1c3e 4874 923c 3616 553e 7bf5 adbd
00000200: 126f c1be b411 c5bd 9cef 33be d60d df3e
00000210: 0df1 cf3e 5d60 96be 552f 383c 68ae e1be
00000220: f8c0 8abe d4ce 963d 90ae adbe 6885 ffbe
00000230: e8fb c73e 23f6 de3d 3eb0 253f 8299 1b3e
00000240: 7959 03bd d5cc fcbe 0a07 d13e 4f95 663f
00000250: 7a30 923e 516a db3e 721f 93be 0d4a 903e
00000260: 6f3b f93d c46d 523e 5d52 143e 9381 73be
00000270: d073 123f 9ae6 adbe 3908 21be 576d b8be
00000280: 9abe df3e 2581 f13e d6bf adbe 5321 99be
00000290: 21dc 963e 6f48 ed3e bc64 023e 6d14 983d
000002a0: 7edd 793e f27d 1abf fe6f 43be dc90 703d
000002b0: 37d4 1f3e f892 97be 6830 3bbd f3ce 923d
000002c0: 56f0 23be b29f cb3e 9fa5 cebd 5fb9 ecbe
000002d0: 0615 c1bd de66 0abf e4c1 08bc e336 803e
000002e0: 39db 0c3f aba3 c2bd 654b c0bd 170f 15be
000002f0: a47b 78bd f08d 1dbf 2028 1dbe 442c 093e
00000300: a4a8 e4bd 89e9 5ebe f039 5dbe 558e 8f3e
00000310: cecf 8cbd 9333 a1be 4f1a d6be 1435 153d
00000320: 2257 de3d f176 45be 3a66 113f ee5b 3fbe
00000330: eeef 80bf 3bfd d8be 6a65 c03e f9b4 143e
00000340: 0b73 873e 7714 a4be 608c 1abe 57cd 763e
00000350: 03b1 52bc 77d3 003e ec2d 343c a365 a7be
00000360: bb43 63bd c776 e23d 6e3e 023f bbf8 0c3d
00000370: 4bc3 0bbf f7f3 2e3e 705b 073d 789f 3abe
00000380: f2cc 3cbc 4f8a e63e 2ac9 f5be d9b0 1ebe
00000390: 7c2c ab3e 1e84 aa3e b789 ee3e a060 0c3e
000003a0: 2ddc 923e 68b5 1ebe 243d f1be 24e1 cabd
000003b0: 900e 06bf 139c 15bf fad8 093c 6370 e1be
000003c0: adb8 0cbe afe2 ae3e 1472 b1bd 0fa6 1e3e
000003d0: 6851 c7bd 1823 d3be 8cda db3e 3f7d 473d
000003e0: 76be 063f 9353 a7be c783 5e3e 4bcd 25be
000003f0: 7efd 7ebe ca0f f3bd 80dc 9abe 3ef2 a9be
0.85922194 0.43411455 0.11130082 -0.0024049263 -0.025283812 -0.023061192 0.0934734 0.25089717
0.16412881 -0.39173406 -0.22340608 0.064436145 -0.5635907 0.00092638854 0.26132265 0.31984553
0.10295056 0.024497356 -0.10121786 -0.57583433 -0.39775434 -0.7208039 0.21600583 0.16513091
0.23535186 -0.40534058 -0.30360475 0.1054069 -0.16914277 0.7901353 -0.07363547 0.3066561
-0.24703625 0.38927937 -0.1149113 -0.095289685 0.40808034 -0.14303131 0.34805664 -0.1209008
-0.08732703 -0.23401262 -0.75197357 -0.0071886466 0.021334954 0.36612526 -0.20504765 0.73437434
0.22346178 0.020930078 0.092847176 -0.11996078 -0.18505633 -0.0017568283 -0.30815193 0.2280267
0.030302756 -0.23935032 0.42559144 -0.09468146 -0.2539657 -0.86853516 -0.20396847 -0.41980374
0.41090748 -0.43503755 0.48655516 -0.007988952 -0.15341295 -0.1214105 -0.17702334 -0.19441488
0.076796405 0.06794794 0.34595394 -0.028707962 0.527793 0.14405277 0.5524147 0.06669469
0.31423777 -0.21322824 0.7127124 -0.17134158 -0.17011526 0.30284476 -0.25471103 -0.3995208
-0.18955699 0.4570461 -0.26001126 0.21507838 0.6554857 0.05957669 -0.05488225 0.40440378
-0.23246677 0.0785815 -0.011062376 -0.16119413 0.26817006 0.017795822 0.050529733 0.027314113
-0.13400164 -0.39630702 0.09298447 0.42395627 -0.07510758 -0.3546049 -0.29008183 -0.083298594
0.40820512 -0.065824136 0.3543307 -0.12547256 0.1149867 0.2451827 0.24130575 -0.013675058
-0.23652272 0.20790872 0.31133458 0.08380085 0.15291949 0.017877713 0.20809254 -0.08494087
-0.37780052 -0.09622517 -0.17571872 0.43565243 0.40613595 -0.29370394 0.011241754 -0.44078374
-0.27100348 0.07363668 -0.33922243 -0.49906468 0.39059377 0.108867906 0.6472205 0.15195277
-0.03206775 -0.49375024 0.40825683 0.90071577 0.2855261 0.4285455 -0.28734928 0.28181496
0.12169539 0.20549685 0.14484544 -0.23779897 0.57207966 -0.33964998 -0.15725793 -0.3602092
0.43700105 0.47168842 -0.33935422 -0.29908237 0.2946482 0.46344325 0.1273374 0.07425771
0.24400899 -0.6034843 -0.1908569 0.0587319 0.15608297 -0.29604316 -0.04570046 0.07168379
-0.1600965 0.39770275 -0.100901835 -0.46235177 -0.09427838 -0.5406321 -0.008347008 0.25041875
0.5502201 -0.095038734 -0.0938938 -0.14556538 -0.060664788 -0.61544704 -0.15347338 0.13395792
-0.11164978 -0.21768774 -0.21604133 0.28038278 -0.06875573 -0.3148466 -0.41816947 0.036427572
0.10856463 -0.19283654 0.5679661 -0.18687412 -1.0073221 -0.423807 0.37577373 0.1452216
0.26454958 -0.32046863 -0.15092611 0.24101768 -0.012859586 0.12580667 0.010997277 -0.3269473
-0.055484515 0.11057811 0.5087651 0.034416895 -0.5459487 0.17085253 0.033046186 -0.18224895
-0.011523472 0.45027396 -0.48005038 -0.1549715 0.33432376 0.33303922 0.46589443 0.13708735
0.28683606 -0.15498888 -0.4711696 -0.099062234 -0.5236597 -0.58441275 0.008413548 -0.44031057
-0.13742323 0.3415732 -0.08664337 0.15493034 -0.09732324 -0.41237712 0.42940176 0.04870343
0.5263437 -0.3268095 0.21729957 -0.16191594 -0.24901387 -0.11868246 -0.30246353 -0.3319263

rnn.bias_ih_l0_reverse f4 [32]
00000000: 8c8b cb3d 4d4c e03d 4c58 9a3c 46f0 80be
00000010: aa51 7fbd 9d58 5cbe e908 89be f2fc 65bd
00000020: 60cb 5abe cee7 93be 1fa3 1abe 920d 4c3e
00000030: 214f aa3d 06c2 21be 8a73 7b3b d9d8 ee3d
00000040: 9cab d53d fdbe 2bbd 5c20 6cbd cf7b 5abe
00000050: 8cfa 733d 73b0 e73d 379b 913d 0e7d bebc
00000060: d4c5 8b3c 3f4f 633e 715c febc bb66 83bd
00000070: 0286 febd 89de 353e 62d5 e43d 82d3 f53d
0.09938726 0.10952053 0.018840931 -0.25183314 -0.06233374 -0.21518178 -0.2676461 -0.05614943
-0.21366644 -0.2888779 -0.15101288 0.19927052 0.08315874 -0.1579667 0.0038368427 0.11662454
0.104331225 -0.041930187 -0.057648048 -0.21336292 0.059565112 0.11312952 0.07109683 -0.02325299
0.017062105 0.22198199 -0.031049939 -0.06416079 -0.12427904 0.17760672 0.11173512 0.120032325

rnn.bias_hh_l0_reverse f4 [32]
00000000: 3c5a 673e b94b 883c 93d7 143e 6033 6cbc
00000010: 1b97 3ebe b6b7 6e3d 717e d5bd 7ff2 cf3d
00000020: 3a06 05bd e2c7 53be dd50 ffbd 227f ac3d
00000030: 7cc8 3c3c 9da3 ab3d 4630 bcbd 2979 503e
00000040: 6ac9 643e bbf4 703d ec65 223e d798 5dbe
00000050: 1c4a 67be 11ca b13d 63f9 83be 80f1 0ebd
00000060: 6147 873d 0942 a83e 893e 41be ce64 a6bc
00000070: e56d 483e cddc 4e3e 03f4 9c3e 8d8e 1a3d
0.22593015 0.01663767 0.1453536 -0.014416546 -0.1861233 0.05828067 -0.104245074 0.10153674
-0.03247664 -0.20681718 -0.12466595 0.08422686 0.011522409 0.08380816 -0.09188895 0.20358719
0.22342458 0.058827143 0.15859193 -0.21640335 -0.22586864 0.08681119 -0.25776204 -0.03489828
0.06605411 0.3286288 -0.18871512 -0.02031174 0.19573171 0.20201416 0.30654916 0.037733603

fc1.weight f4 [12, 64]
00000000: 0f88 84be c5b9 d3be 44ce 293f ba32 093f
00000010: b115 373e a126 efbd 9af8 b23e fbd4 aabe
00000020: f420 a6bd 5e72 483f 6e92 3fbc 0db2 023f
00000030: ef5b d13e 5e1b aabe 99ac b2be 3d6c 86be
00000040: 9f43 883d b5de 783e ce67 853e c1ae 0a3f
00000050: f5bc 1a3f 8356 5dbe b434 783e 6246 d13e
00000060: 7b99 9f3e 6ba9 a9bc 8e3b 7bbe a169 033f
00000070: 5e97 d7bd 3350 3d3f c1fa 95be 037c 19bf
00000080: 3497 193d a34b 25bf bae7 b33e c241 83be
00000090: 832d a03e c8ce d8be 9678 f6be 3dcd 26bf
000000a0: 6b3f b4be cf9e debe 5185 af3e 1202 d03e
000000b0: d619 8a3d 1758 8fbd 33dc 5a3e 1f88 c5be
000000c0: c235 c23e 00b5 cfbe d109 5a3e 097b 7a3e
000000d0: d70e fabe 689d 63be e82d a8be aa7c dcbd
000000e0: 6663 84be 8e60 833e b53a b0be 5bd1 393e
000000f0: 0a5c 563e f8e1 cb3e 44c3 dc3e 7fe1 babe
00000100: b213 0e3f b363 9abd 6acf a93d ce0b babe
00000110: 3fc2 cbbd c30c 043e d849 ecbe 7e87 933e
00000120: 2fb9 10be 0ff6 31bf 851f 3e3f 2325 81be
00000130: 4e0b f8be 473f 40bf 6743 d73d ba30 343d
00000140: 519b 02bf 9228 a83e 8007 733e 00a5 1bbe
00000150: 4dd7 42be 8cd7 6b3e 24c1 10bf 8bf5 7cbe
00000160: 6c7d 1d3f a6ef f8be a425 16bf a73e 683e
00000170: 514b 113f a00d b0be 3590 3dbe c7a0 003d
00000180: 693f 5abf becf b23d 48a4 923e f3ad 683f
00000190: c586 0ebe fcc5 2cbf 37d9 0d3f 838f ca3e
000001a0: ccb9 22be bcb3 f83e 80a4 1bbf 5e28 ccbe
000001b0: 8c60 6fbf bb80 343f 238a 373f 04d2 123f
000001c0: 5eed 5bbf 968d 8e3d f95b f9be ffa7 a73e
000001d0: cb5c 0c3e 75f0 9f3e 10fe 90be 6dc8 4a3f
000001e0: 1070 403f 3c09 2abf af72 8ebe 88fb 4abf
000001f0: 5875 a7be e2a3 31be b512 353e f4aa 9b3d
00000200: 360b 523f 64e9 9bbe 7a9e f8be 15fa f4bd
00000210: ae66 d8be 39cf 12be eaba 3ebf be28 f6bd
00000220: 2f34 5a3f 67ad dc3e dea9 10bf 1946 1dbf
00000230: e24c 02bf 9f9d 6e3f 6f99 dfbd 2b9b c43e
00000240: 9790 113f ba4e 1e3d 0852 5ebf 3638 0bbe
00000250: d43c 8ebf 8bb8 9d3e de50 aabe 0c77 51bc
00000260: ebf8 543e a55a bf3e 96db 77be 9c0a 9e3d
00000270: b45d c5be a23b d6be f6c9 033f 6ba8 f0be
00000280: 49c9 8fbd f45b bd3e c1ea f33d bf8c 733f
00000290: ff6b 99be 196c a33f 9564 233f 60ec c2bd
000002a0: 99e7 433e ae79 07bb 9ec5 adbe 43f8 04be
000002b0: eeac bf3e 9144 b4bd 4a3f d2be abde dc3e
000002c0: d884 3f3f d476 cd3d f099 07bf bd3f 883e
000002d0: 8098 aebd 5269 693f bee9 173e 13f6 ccbe
000002e0: b736 1ebf c2a4 9dbf 9366 e13b ea2a a33d
000002f0: 08dd 9ebf 48e2 4abf c222 fdbd 845a 1f3f
00000300: 6604 7bbe 9f5b 91be 3636 07bf caa9 213e
00000310: 2fd6 06bf ee3b d1bd f424 bb3e be65 f4be
00000320: a7f7 b3bd 0d60 52bf 760f 3ebe edfb fbbe
00000330: cb9a d1be b824 853c 3cb3 163f 1513 e13e
00000340: ec86 bcbe 9ce0 b5be 4b7e f9be 737c f53d
00000350: 5b33 4c3e d303 7d3d ab52 7abd 2ce2 43bf
00000360: bf82 1dbf b19c 073f ee51 3a3f 45c0 403e
00000370: 1085 42be bbf6 acbe 139c 0f3e f4b2 49be
00000380: 7e8d b83e 6cbd 833e af03 afbe 8033 ae3e
00000390: 9477 cbbe c17b aebe 7110 d33c b0b0 60be
000003a0: 4bf8 acbe ad0e 53be c94d cfbe c6dc c7bc
000003b0: 9304 10bf b541 123f 212a 0a3e e77f 053e
000003c0: c21a 2c3f 1fc9 343e 5b21 b93d 5b67 ac3d
000003d0: 2d3e 4dbe 36db 183f 2eef b53e 70e8 c13e
000003e0: fad9 dabe ea5a dcbe f392 253f 0e5c 12bf
000003f0: 99bb 2d3e 47a5 cd3e d527 a93e f7b0 1a3f
-0.25885054 -0.41352668 0.6633036 0.5359303 0.17879368 -0.1167729 0.34955293 -0.33365616
-0.08111754 0.7829951 -0.011692626 0.51052934 0.40890452 -0.33224005 -0.34897307 -0.26254454
0.06653523 0.24303706 0.2605576 0.54172903 0.60444576 -0.21615033 0.24238855 0.4087401
0.31171784 -0.020710668 -0.24534437 0.5133305 -0.10526918 0.739505 -0.29292873 -0.5995485
0.037497714 -0.6456854 0.3513773 -0.25636107 0.31284723 -0.42345262 -0.48138875 -0.6515692
-0.35204634 -0.43480536 0.342814 0.4062658 0.06743209 -0.06999224 0.21373062 -0.38580415
0.3793164 -0.4056778 0.21292807 0.24460997 -0.48839447 -0.22228014 -0.32847524 -0.10765965
-0.25857085 0.25659603 -0.3441979 0.18146269 0.20933548 0.39820838 0.43117726 -0.36500165
0.554988 -0.07538547 0.08291514 -0.3633713 -0.09949159 0.12895493 -0.46150088 0.2881431
-0.14133142 -0.6951608 0.74266845 -0.25223646 -0.48446125 -0.75096554 0.10510903 0.04399178
-0.51018244 0.32843453 0.2373333 -0.15199661 -0.19027443 0.23031443 -0.5654471 -0.24703042
0.61519504 -0.48620337 -0.58651185 0.2268015 0.5675555 -0.34385395 -0.18512042 0.03140333
-0.85253006 0.0873103 0.28640962 0.90890425 -0.13918598 -0.674896 0.5540957 0.39562616
-0.15891188 0.48574626 -0.6079788 -0.39874548 -0.93506694 0.7050893 0.71695155 0.5735171
-0.8590907 0.06960599 -0.48702982 0.32745358 0.13707273 0.31238142 -0.28318834 0.79212075
0.75170994 -0.6642034 -0.27821872 -0.79290056 -0.32706714 -0.17347673 0.17682917 0.07600966
0.82048357 -0.304515 -0.48558408 -0.11961762 -0.42265838 -0.14336862 -0.7450396 -0.1201949
0.85235876 0.43101045 -0.56509197 -0.61435086 -0.50898564 0.9320926 -0.10917937 0.38399634
0.5686125 0.0386493 -0.8684392 -0.13595662 -1.1112313 0.30804858 -0.33264822 -0.012784731
0.2079808 0.37373844 -0.24204859 0.07716867 -0.38548052 -0.4184237 0.5148004 -0.47003493
-0.07020814 0.36984217 0.1191001 0.95136636 -0.29965207 1.2767364 0.6382535 -0.09517741
0.19131316 -0.0020671892 -0.33939832 -0.1298533 0.37436622 -0.088021405 -0.4106391 0.43138632
0.7481208 0.1003243 -0.52969265 0.26611128 -0.08525181 0.9117633 0.1483526 -0.4003149
-0.6180224 -1.2315905 0.006878683 0.079671696 -1.2411203 -0.7925153 -0.12360145 0.6224749
-0.24513397 -0.28390214 -0.52817094 0.15787426 -0.5267057 -0.10216509 0.3655163 -0.47733873
-0.0878747 -0.8217781 -0.18560585 -0.49215642 -0.4093841 0.01625286 0.5886724 0.4395987
-0.36821687 -0.35522926 -0.48729166 0.119866274 0.19941466 0.061771225 -0.061113995 -0.76516986
-0.6152763 0.5297347 0.72781265 0.18823345 -0.18996072 -0.3378199 0.14024381 -0.19697171
0.3604545 0.25730455 -0.34182498 0.34023666 -0.39739668 -0.34078792 0.025764676 -0.21942401
-0.33783183 -0.20611067 -0.40489033 -0.024397265 -0.5625698 0.5713151 0.13492633 0.13037072
0.6722833 0.17654847 0.09039565 0.08418151 -0.2004325 0.5970949 0.35534042 0.37872648
-0.42744428 -0.43038112 0.6467735 -0.57171714 0.16966094 0.4016516 0.33038202 0.60426277

fc1.bias f4 [12]
00000000: 8356 fe3d 5ee2 d2bd bd02 39bf c705 87be
00000010: 5181 b7be 7822 10be c323 07be 24de ecbd
00000020: 7e92 78bd ae2e 7fbd 5080 aebe 23c4 86be
0.124188446 -0.10297082 -0.72269803 -0.26371595 -0.35840848 -0.14075649 -0.13197236 -0.115658075
-0.06068658 -0.062300377 -0.3408227 -0.26321515
