src/main/python/saved_models/kotlin_1_66_RNNClassifier1_128embs_178id_32hd_1hl_Falsebid_1.pt (torch, 115167 bytes, 7 tensors)

word_embeddings.weight f4 [178, 128]
000000 6a 12 a9 3e 83 17 bb bf 78 e0 fb 3e 5d 08 b2 bf
       0.3302186 -1.461655 0.49194694 -1.3908802
000010 66 c3 33 3f bb 07 8c 3f 52 04 9f be 85 67 24 bf
       0.7022003 1.0939859 -0.31057984 -0.6422046
000020 c0 7f 5f 3f e4 ac f4 3f fa 09 fa 3d 80 aa 85 be
       0.87304306 1.9115262 0.12208934 -0.26106644
000030 3a f6 4d bf 37 d8 03 40 46 44 8d bf 97 92 72 3f
       -0.80453837 2.0600717 -1.103646 0.9475493
000040 b8 86 a5 3f 0e 58 7b 3e bd 9a 93 bf 02 ca 99 3f
       1.2931738 0.24545309 -1.1531597 1.2014773
000050 84 f2 a8 bf cf f4 c8 3e 61 23 03 bf ac cc 8d be
       -1.319901 0.39249274 -0.5122586 -0.27695215
000060 70 2f 47 3e 81 af 30 3f 16 6d 32 bf a7 27 a5 3f
       0.1945169 0.690178 -0.696977 1.2902726
000070 44 83 97 3f 2c 80 8c 3f ca 7a 86 3f 44 ff 73 be
       1.1836934 1.0976615 1.0506222 -0.23827845
000080 3e e5 fc be 32 c4 f9 3f a8 da 1f c0 79 e8 24 bf
       -0.49393648 1.9512999 -2.4977207 -0.64417225
000090 ff 85 dc 3f 17 d5 67 bf 6c c9 91 bd d6 67 4d bd
       1.7228392 -0.90559524 -0.07118496 -0.050147854
0000a0 7c 23 1d 3f a1 35 87 bf 8d d3 0c bd 6c bc 58 3f
       0.6138227 -1.0563241 -0.034381438 0.8466251
0000b0 4d 59 aa bf 88 b9 0e 40 1a 92 a3 3f 4f 2b 6b 3f
       -1.3308502 2.230074 1.2778962 0.9186296
0000c0 fa 58 3f 3f 33 4a ba bf 83 d8 b6 3f 5f c4 80 be
       0.7474514 -1.4553894 1.4284824 -0.2514982
0000d0 fc 3a ba be 5b e1 c1 be 02 74 25 3f 0d 7a 35 3e
       -0.36373127 -0.37867245 0.6463014 0.1772234
0000e0 45 9a c3 3e 01 d5 18 3e 61 ac 13 be e7 03 3c 3f
       0.38203636 0.14925005 -0.14421226 0.73443455
0000f0 c1 cb 60 3f b0 6e 0b 3f 2a 01 0f c0 b0 e9 05 bf
       0.87810904 0.5446577 -2.234446 -0.52309704
000100 63 a8 da 3f d9 a9 57 be 33 b7 85 be 3b 5d af 3f
       1.7082638 -0.21060885 -0.26116332 1.3700327
000110 8b bc d5 3d b2 eb 27 40 28 88 44 bf a1 ba 9e 3e
       0.10436352 2.6237607 -0.7677026 0.31001762
000120 a3 66 a6 3d 3b 04 9e be 6a 62 40 bd 89 84 21 3f
       0.08125045 -0.30862603 -0.046968855 0.6309286
000130 5a 91 c8 bc e3 8d 08 bf 18 01 8d be 24 36 b3 3e
       -0.024483372 -0.533415 -0.27539897 0.35002244
000140 45 bb 67 bf 49 67 be be e7 b7 07 be cd f2 92 3f
       -0.90520126 -0.37188175 -0.13253747 1.1480347
000150 c5 87 c3 3f 7e 8f 07 c0 75 c1 18 40 6b a9 f9 3f
       1.5275809 -2.118133 2.3868077 1.9504827
000160 a5 b9 ed 3f 7a aa b1 3f ae 8d 96 3d 11 86 4b 3f
       1.8572279 1.388015 0.07351242 0.79501444
000170 2c b6 d8 3f 4c 64 29 40 f1 85 47 3f 4a d8 a3 be
       1.6930594 2.6467466 0.77938753 -0.32000953
000180 06 cd 03 3f 1f ea 3b bf a7 c2 36 3f 0f 76 f7 3e
       0.51484716 -0.73404115 0.71390766 0.4833226
000190 91 bc bb 3e b0 39 d5 bf 3a 2d 91 bf 5b 9c 92 3d
       0.36667302 -1.665823 -1.1341927 0.07158729
0001a0 81 e5 7d be 94 71 53 bf 95 c6 41 3f 6e 20 87 be
       -0.2479458 -0.8259518 0.7569364 -0.2639193
0001b0 4d bd 4f c0 a8 18 b8 3f 80 86 61 be d4 c7 ad be
       -3.245929 1.4382524 -0.22023964 -0.3394152
0001c0 7d 67 f8 3e 10 1b 1e c0 24 8e 2c bf a4 3b 8f bf
       0.48516455 -2.4704018 -0.6740439 -1.1190076
0001d0 c8 3b 49 3f db 91 12 bf ff 4c d6 be 46 42 e1 3d
       0.78606844 -0.5725381 -0.41855618 0.10998969
0001e0 f1 be 60 bd c4 62 8d be 51 51 2e bf e3 79 ed bf
       -0.054869596 -0.27614415 -0.6809283 -1.8552822
0001f0 7e cb a7 3e 09 65 2b bf b3 b1 c8 be 4a 28 a9 be
       0.3277244 -0.6695104 -0.39198074 -0.3303855
000200 89 b3 fc bd dd 2b bf 3f d3 7c a4 3f 0f 46 6d 3f
       -0.12338931 1.4935261 1.2850593 0.92685026
000210 7a 10 20 c0 62 f7 d8 3e df f2 77 be 98 b3 27 3f
       -2.5010056 0.42376238 -0.24213742 0.65508413
000220 ab 11 a2 3f 53 a1 97 3f b1 e5 53 bd 2e 25 43 3e
       1.2661642 1.1846107 -0.051732723 0.19057152
000230 c0 41 c9 be 93 18 24 40 e5 1b ff be 22 83 7e be
       -0.39307976 2.564 -0.4982597 -0.2485471
000240 48 af 61 3e a0 24 d0 bf 32 9c 98 3f c0 5a 8c bf
       0.2203952 -1.6261177 1.1922667 -1.0965195
000250 c7 3d 4a 3e f0 c0 f9 bd 5c b0 e4 3f 79 eb 9b bf
       0.19750129 -0.12195003 1.7866321 -1.2181236
000260 5d a6 98 bf 2a 61 be 3f bf 43 94 bf 61 93 b6 bd
       -1.192577 1.4873402 -1.1583174 -0.08914829
000270 99 6a 42 3f df db 61 bd 0b 4b 0c be 6e 49 26 3f
       0.75943905 -0.055141326 -0.13700502 0.64955795
000280 20 28 7c 3f 5e d0 96 bf 21 c6 9f bf 4f de 9f bf
       0.98498726 -1.1782339 -1.2482339 -1.2489718
000290 dd 88 52 bf 12 fa 21 bf 31 6a 95 3f 62 9a 83 3f
       -0.82240087 -0.632722 1.1673032 1.0281489
0002a0 86 cc 01 be 9a 5c 99 3f 5d 93 af 3f e3 7d 90 bf
       -0.12675676 1.1981385 1.3716847 -1.1288418
0002b0 97 67 c6 bf a7 41 e6 3e e7 21 17 3f 6b b8 80 bf
       -1.5500363 0.44971964 0.59036106 -1.005628
0002c0 5c a9 4f 3f 31 24 9b 3f e0 64 89 bf aa 01 3c be
       0.81117797 1.212042 -1.073391 -0.1836001
0002d0 99 1e 7b be a8 e9 63 40 1d 1b 96 be df 6d dd 3d
       -0.24523391 3.5611362 -0.2931756 0.10811972
0002e0 37 8f 35 3e bc e8 5b 3e d9 f8 b1 be e3 aa 6f bd
       0.17730413 0.214755 -0.34760168 -0.05851258
0002f0 9a 90 0d 3f b1 27 b7 be ff ff f1 be 1e 21 ae be
       0.5529877 -0.3577247 -0.47265622 -0.3400964
000300 c2 6f ea bf 64 f8 72 bf 5f 51 c2 3f e0 c9 c6 3d
       -1.8315356 -0.94910264 1.5181082 0.09706473
000310 b9 f8 e7 bc 9d e4 53 be e4 09 e8 3e ac e9 46 3d
       -0.028316842 -0.20692678 0.45320046 0.04856269
000320 0b 87 77 be ae dd ab 3e 4a 7d 11 3f 55 f6 77 3f
       -0.24172609 0.33567566 0.568318 0.9686025
000330 a3 33 b6 3f d1 b7 8b bf 43 2a 51 3f d0 0a fb be
       1.4234508 -1.0915471 0.8170511 -0.49031687
000340 6f 53 93 3e 70 96 33 bf 0d f5 62 be 2f 40 35 3e
       0.28774592 -0.70151424 -0.22163792 0.17700265
000350 e3 38 dd 3e ea 5c 52 be b1 07 9d bf aa 8c 9d 3e
       0.43207464 -0.20543256 -1.2267972 0.3077138
000360 a9 46 aa bf 83 db 08 be 4b 8f 8a be a8 93 25 be
       -1.3302814 -0.13364987 -0.2706245 -0.16169608
000370 dd 92 a0 be 8b ad ad bf 08 84 df 3e f8 1b d9 bc
       -0.31362048 -1.3568586 0.4365542 -0.026502594
000380 a2 10 2d 40 a8 5c e2 3f 73 68 13 40 e9 78 a3 bf
       2.7041402 1.7684526 2.30325 -1.2771274
000390 bb a5 a8 be bf 0d 43 be c0 b1 8b 3e aa c9 4c 3e
       -0.32938942 -0.19048212 0.2728405 0.19998804
0003a0 f5 ff d5 be 70 73 57 bf cf e5 94 3f bf f6 4e be
       -0.41796842 -0.8416052 1.1632632 -0.20211314
0003b0 5e 12 80 bf 2b 69 4a bf 1c bf e5 3e 09 89 d6 3d
       -1.0005605 -0.79066724 0.44872367 0.10475356
0003c0 eb 50 1a 3f 88 86 47 bc 58 6f 45 bf f9 70 00 3f
       0.6027972 -0.012178071 -0.7712302 0.5017238
0003d0 05 47 ad bf f2 02 aa be 37 8a 55 bf ed 71 13 bf
       -1.3537298 -0.33205372 -0.83414024 -0.5759571
0003e0 7b 71 6a be 5c 3c b5 bf e7 38 9c 3f 98 38 25 bf
       -0.22894852 -1.4159045 1.2204865 -0.6453948
0003f0 1e 6e 8a bf 2b e2 2e 3f 50 f2 e4 be 28 81 6d bf
       -1.0814855 0.68313855 -0.4471612 -0.927752

rnn.weight_ih_l0 f4 [32, 128]
000000 2d 2c 32 3e 50 f1 95 bd 81 f2 90 3c 44 b1 17 be
       0.17399664 -0.07321417 0.01769376 -0.14813715
000010 a6 bf 41 be b8 d4 12 3e f1 2a cb 3e cd 6a 51 be
       -0.18920764 0.14338958 0.396812 -0.20450898
000020 30 5b 0b 3e 99 03 0c be 69 e5 96 3e 06 00 a7 bd
       0.13609004 -0.13673247 0.294719 -0.08154301
000030 85 3d 2f 3d 75 b0 9b bd 51 cc c2 be 94 b5 93 bc
       0.04278328 -0.07602016 -0.38046506 -0.01803092
000040 29 e8 13 bd cc 9b ab 3e 65 7f fe 3c c0 d6 0b 3e
       -0.036110077 0.335173 0.031066606 0.1365614
000050 d0 6b 75 3d a6 fa 1d 3e 0e 1d 6b bc 41 3c a8 be
       0.05991727 0.15427646 -0.014350189 -0.3285847
000060 a0 24 88 3e 5f 13 da bd c2 39 f8 3b a1 9a 0d 3d
       0.26590443 -0.10648226 0.0075752446 0.034571294
000070 d7 13 84 3c 33 c8 44 3d c2 75 8d 3a 35 91 84 3e
       0.016122742 0.048042487 0.0010792541 0.25892034
000080 76 aa 6a be be d8 09 3e 0b 4e 3f 3d a0 61 69 be
       -0.22916588 0.13461587 0.046705287 -0.22791147
000090 ae c8 27 3e e4 40 94 bd e8 c4 1c bc a1 3c 74 bd
       0.16385147 -0.072389394 -0.0095684305 -0.059628133
0000a0 72 76 93 be 8c 2c b4 bd c7 bd ba 3d c1 dd 39 3e
       -0.28801304 -0.08797559 0.091182284 0.18150999
0000b0 93 b6 8b bd bf ae 8f bd 5d 02 4b 3d e9 28 47 be
       -0.06821933 -0.07015752 0.0495628 -0.194492
0000c0 75 0a 6e 3e fe ed d9 bd 9c 1b e0 3b 6b 1a aa 3e
       0.23246177 -0.106410965 0.006839229 0.3322328
0000d0 26 fa 9d 3e 47 87 1f 3e 9f 9e 23 3e 51 14 4c 3d
       0.3085491 0.15578948 0.15978478 0.049824063
0000e0 31 62 a5 3a 9a f3 fb 3c 32 2e 78 be 93 8d 59 bd
       0.0012617764 0.030755807 -0.24236372 -0.05311353
0000f0 e2 a4 63 3e b2 55 22 bd a6 21 bb 3e b5 71 28 be
       0.22230867 -0.039632507 0.3654911 -0.16449626
000100 b4 5e 25 be 14 8f e6 bd 08 07 91 3b 65 7e 5d 3d
       -0.16149408 -0.11257759 0.004425887 0.054075617
000110 ba 4c 61 bd a1 da bc 3d 0c 2b 94 be 95 ff 29 3e
       -0.055004813 0.09221388 -0.28939092 0.16601403
000120 a0 9b b1 be 95 ee 14 be 69 33 bc 3e 36 36 e6 3d
       -0.34689045 -0.14544137 0.36757973 0.11240809
000130 bf 36 39 3c c6 3c c5 be 96 2e ec 3c 40 cc ed 3b
       0.011304556 -0.3852293 0.028830808 0.0072570145
000140 0d b9 48 3e 4e 0e 40 bd 91 46 23 3d 36 3e 61 bc
       0.19601841 -0.046888642 0.03986222 -0.013747742
000150 ca 00 a3 3d 2c 60 28 be c9 43 9c bd eb 4e fd bd
       0.07959135 -0.16442937 -0.076301165 -0.12368568
000160 f7 00 27 3d ea cf 63 3e a9 8e 90 3d 89 41 95 3d
       0.040772405 0.22247282 0.0705846 0.072878905
000170 81 c9 bc 3d 0f 8f e5 3d 66 72 cd 3c 96 c9 02 3b
       0.09218121 0.11208927 0.025078963 0.001995658
000180 61 78 3e 3d f4 52 20 bd 4e 1e 36 be bd 27 11 3d
       0.04650152 -0.03914161 -0.17784998 0.035438288
000190 2c c0 b3 bc db 53 cc 3c 66 f0 7d 3c 43 27 70 be
       -0.02194222 0.02494233 0.01549921 -0.23452477
0001a0 a1 d6 0a 3e 6f 67 0b bd 5f b9 63 3d 96 9e 87 bd
       0.13558437 -0.03403419 0.055596706 -0.06622045
0001b0 eb 25 8f bd d4 0d 8a be ad 64 50 be 9f 65 29 bd
       -0.06989654 -0.26963675 -0.20350905 -0.04135668
0001c0 9e 14 29 be 3b 72 04 bf 96 37 07 3d 7f 2f 68 bc
       -0.16511771 -0.517368 0.033011995 -0.01417148
0001d0 e3 d8 fc be dd 38 66 3e 84 fa 45 be 89 4a 83 be
       -0.4938422 0.22482629 -0.19333845 -0.25642803
0001e0 ab c3 61 be 7d dc a8 3d da 35 0a 3e 61 9d 6a bc
       -0.22047298 0.0824518 0.13497105 -0.014319749
0001f0 5f a4 68 3d 34 f0 15 3d 7f f7 5a 3e e9 64 36 3e
       0.05679738 0.03660603 0.21383475 0.17811932
000200 47 07 a3 3d da b7 79 bd df e5 14 3d e7 57 fb bd
       0.079603724 -0.06096635 0.036352035 -0.122726254
000210 ba 95 86 3d 4e b2 1b 3e c1 f1 14 3e 5b 97 94 be
       0.06571527 0.15204737 0.14545347 -0.29021725
000220 32 1c cc bd 0c 6e 26 3e 02 1c 09 3e eb e0 a9 bd
       -0.09966315 0.16252917 0.1338959 -0.08294853
000230 de b8 38 3c 07 52 25 3e 25 40 c1 be f0 e2 97 3e
       0.0112745445 0.16144572 -0.3774425 0.29665327
000240 c5 62 d0 3e b5 df 59 3d 1a 60 00 be d9 48 81 3b
       0.40700355 0.05319186 -0.1253666 0.0039454517
000250 d6 0c 77 bd 96 c0 12 3e 0d 68 47 be c4 60 9f 3d
       -0.060314976 0.14331278 -0.19473286 0.077821285
000260 66 80 81 bd 21 75 b1 bb 68 d0 f8 3c 85 51 a2 bd
       -0.06323318 -0.005415574 0.030372813 -0.07925705
000270 1a cc 99 3d b2 7b 27 3d 5c 4e f0 bd ac db f0 bd
       0.075096324 0.04088945 -0.11733696 -0.11760649
000280 1c 4f 5f bc de 92 7a bd 0f eb 1d bd ab 73 8d 3d
       -0.013629701 -0.06117522 -0.038554247 0.069068275
000290 db 74 07 be de 44 82 3b 1c cf 1e bd 4a a1 86 bc
       -0.1322817 0.0039754948 -0.038771734 -0.01643433
0002a0 8e cb 68 3b c4 3f 59 3e d1 33 38 bd 0c d5 17 3e
       0.0035521719 0.21215731 -0.04497129 0.14827365
0002b0 bb dc 3f 3e 10 18 c9 3d 62 4b 4f 3e fd a6 85 3d
       0.18736546 0.09819043 0.202436 0.06525991
0002c0 44 e3 e1 bc b8 c0 68 3e 22 92 8f 3d 8f c7 21 be
       -0.027574189 0.22729766 0.070102945 -0.15798782
0002d0 a0 81 b4 3d 16 fc b1 bd f6 65 55 bd aa 73 ef bd
       0.088137865 -0.0869066 -0.05209919 -0.11691983
0002e0 48 47 02 be 74 e6 90 3d b3 89 95 bd 18 71 11 be
       -0.12722504 0.070752054 -0.07301655 -0.14203298
0002f0 60 a8 0f 3e ee 16 4b 3e 50 be 90 be b1 e5 f9 bd
       0.14029074 0.19832966 -0.28270197 -0.12202013
000300 96 8d 12 3e a7 b4 1d 3d 73 4e 1d be bb 5f ff 3d
       0.14311823 0.03850236 -0.15361957 0.12469431
000310 2e f0 37 3d 33 79 87 3d f3 7b 1c be 74 dc 71 3e
       0.044906788 0.06614914 -0.15281658 0.23619252
000320 ba ca 1a be cf 94 44 3e b0 c7 a7 3b bc 84 b1 bd
       -0.15116397 0.19197391 0.00512024 -0.08667895
000330 95 29 23 bd a0 3d 88 be 54 7e a2 3c c1 bc 8c 3d
       -0.039834578 -0.26609516 0.019835629 0.068719395
000340 42 2e 15 3d 9e 00 2b 3e 6d 39 e6 3c 03 34 9a bd
       0.036421068 0.16699454 0.028103555 -0.07529452
000350 34 11 13 be 07 9b 44 3e 41 b9 8e 3d 6e f7 8e bd
       -0.14362031 0.19199763 0.06968928 -0.06980787
000360 cf 79 0a 3e a4 12 20 3e 41 8b d9 3e 81 a2 85 3c
       0.13523029 0.15632111 0.42489055 0.01631284
000370 69 8d 00 3e 1d e1 6b 3e 5a 8e c3 3d 87 55 5e be
       0.12553944 0.23035093 0.09548636 -0.21712314
000380 da 03 e7 3d 45 18 a8 3e 24 33 f2 bd 76 65 9e bc
       0.112800315 0.32831016 -0.118261606 -0.01933549
000390 67 df 7a bd c1 43 c8 3c bf 3e 26 3e 1e 9e f4 3d
       -0.06124821 0.02444637 0.16234873 0.11944221
0003a0 bf 60 97 bd 0f 53 ff bd 38 75 55 bd 0e f6 7a 3d
       -0.073915 -0.12467014 -0.05211374 0.061269812
0003b0 07 b1 2d be b6 29 e2 bc a5 b8 02 be f4 d0 54 3e
       -0.16962062 -0.02760778 -0.12765749 0.20782834
0003c0 ed fe 6d 3e 03 af 28 be 81 29 29 be 00 d9 3f be
       0.23241778 -0.16473012 -0.16519739 -0.18735123
0003d0 55 86 f5 bc 12 29 62 be a2 79 98 3d 18 6f e8 3d
       -0.029971281 -0.2208598 0.074450746 0.113493145
0003e0 b5 b3 a3 bd 2d 38 d3 3c 41 58 6e 3d 4e f3 90 3c
       -0.07993261 0.025783623 0.058189634 0.017694142
0003f0 08 ab 4b be 4b aa a7 bd 04 1c 3f bd 97 cf ca 3d
       -0.19889462 -0.08186778 -0.046657577 0.09902876

rnn.weight_hh_l0 f4 [32, 32]
000000 d6 51 a5 3e 2c 9c 92 3c 8c 06 c9 be f6 f0 a7 be
       0.32288998 0.017896734 -0.39262807 -0.32801026
000010 68 01 13 3f dd b9 0c 3e f6 c7 0f be be b5 93 3e
       0.5742402 0.13742776 -0.14041123 0.28849596
000020 39 6d f7 3e c2 57 12 3f b4 1c d5 be 60 81 e4 3d
       0.48325518 0.5716516 -0.4162346 0.11157489
000030 ec 84 93 be cc 52 47 bb 17 f2 79 3e 71 70 85 bd
       -0.2881235 -0.003041434 0.24408756 -0.06515587
000040 8c dd 0d bd b6 32 68 be b2 22 8d 3e fb 33 a5 be
       -0.03463511 -0.22675595 0.27565533 -0.3226622
000050 65 8b 7c 3f b2 08 0b be f6 6d 51 bf 7b 91 60 3e
       0.986502 -0.13577536 -0.8180841 0.21930496
000060 d9 3d 39 3e e3 59 38 3f b5 d8 b9 3d de 52 a8 3e
       0.1809 0.72012156 0.09074537 0.32875723
000070 d9 2a 48 bd af 07 11 3f a3 6d ae be 75 b5 6e 3d
       -0.048868988 0.5665235 -0.3406802 0.05827852
000080 ed bc c8 be 4f 74 bf 3e 0c 5a 04 bf 6e c7 22 bf
       -0.3920664 0.37393424 -0.516999 -0.63585556
000090 aa fc fd 3e 7c d0 37 3e dd 75 16 3f 55 fd 58 be
       0.4960683 0.17950624 0.58773595 -0.21190389
0000a0 86 f3 58 3e fc b5 88 3e 92 c8 77 bd 79 49 b3 3e
       0.21186647 0.26701343 -0.060494013 0.35016993
0000b0 b1 c7 d1 3e 01 6f 78 3e 5d a6 ea 3e 3b 8b 1d 3f
       0.40972665 0.24261095 0.4583005 0.61540574
0000c0 ed ec 85 3e e4 1c e1 3e 57 41 99 3e fa 83 16 3f
       0.26157323 0.43967354 0.29932663 0.5879513
0000d0 c1 5d 62 3e a6 96 81 3e 14 d2 b0 be 93 d5 fd 3c
       0.22106077 0.25310248 -0.34535277 0.03098563
0000e0 fe 26 f4 bc 51 1f 76 bd cc d2 f8 bd de fb 55 3b
       -0.02980375 -0.06008846 -0.12149581 0.0032651345
0000f0 9a 5c 71 3e 0a f8 c1 3e be 29 0d 3e 85 df 43 be
       0.23570481 0.3788455 0.13785455 -0.19128235
000100 d6 9f 8a 3e a2 b3 da 3e 95 70 93 3f 15 90 34 bf
       0.2707507 0.42715174 1.1518732 -0.7053235
000110 f9 c6 67 3e f2 bb d1 bc ec 13 a3 3d 98 46 e2 bd
       0.22634496 -0.025602315 0.07962784 -0.11048621
000120 98 51 e5 bc 04 91 92 3f 3f be 0e bf e0 5b 93 be
       -0.027993008 1.1450505 -0.5575904 -0.28781033
000130 8e 53 c8 3d d3 b3 a3 3d 7a b7 a0 be c9 35 77 bd
       0.09781562 0.07993283 -0.31389982 -0.060354028
000140 b4 1d 04 3f 16 d1 1d 3f c0 ed 04 3d 53 aa e0 3e
       0.51607823 0.61647165 0.0324533 0.43879947
000150 53 c0 18 3d 1f c2 0a be e8 5d 1e bf a2 c1 c7 3d
       0.03729279 -0.13550614 -0.6186204 0.097537294
000160 5a 25 61 bd 59 5c 55 3e 7e 29 92 3c 2e d4 aa be
       -0.05496726 0.20836009 0.01784205 -0.33365005
000170 93 5c 85 3e 7f 4f ab be 8a 40 9a be ef 52 5f be
       0.2604719 -0.33459088 -0.30127364 -0.2180898
000180 d6 39 c8 3e 15 2c fa be 17 bd c4 bc 01 0b 27 3f
       0.39106625 -0.48861757 -0.024015946 0.65251166
000190 53 75 04 3f 47 c3 c6 bd 44 64 ba be 76 64 f8 3e
       0.5174152 -0.09705215 -0.36404622 0.48514146
0001a0 f8 04 02 bf 41 50 bb be 33 6f df bd 77 f9 c6 bc
       -0.5078883 -0.36584666 -0.109098814 -0.024288876
0001b0 02 f6 b3 be 48 66 d8 3c 64 c0 84 3e 02 b4 42 be
       -0.35148627 0.026415959 0.25928032 -0.1901398
0001c0 45 9c 1a 3d ee 3b f6 bd 06 31 f2 bd 85 7f 79 bf
       0.037746686 -0.120231494 -0.11825757 -0.97460204
0001d0 54 a0 65 3d b5 09 dd be bf 66 2f bd bd 55 57 3e
       0.056061104 -0.43171468 -0.042822596 0.210288
0001e0 1e 62 9b bd 22 d7 44 3d 64 d4 ad be 2b 60 07 bd
       -0.07587074 0.04805673 -0.33951104 -0.033050697
0001f0 69 dc aa bd ae 49 9e be fe 3c 4b 3e 32 75 a6 3e
       -0.08342821 -0.30915588 0.19847485 0.32511288
000200 0e 61 ba 3e b9 db 46 3f d6 86 59 3f 93 72 0c bf
       0.36402172 0.7767902 0.8497137 -0.54862326
000210 04 0b d6 3d 30 5a d7 3e 12 77 14 bf 28 2b 21 3f
       0.1045132 0.42060995 -0.57994187 0.62956476
000220 15 3c 14 bf 6c 9b 28 3e 39 0f f2 bd 51 32 86 bd
       -0.5790418 0.16465539 -0.1181931 -0.06552566
000230 be a5 c8 be 8c 8d 34 be 71 38 6c be d2 45 d2 3d
       -0.3918895 -0.17632121 -0.23068406 0.102672234
000240 15 58 a8 bd 7e 80 f2 3b e9 e0 55 be 8d 28 13 be
       -0.08219925 0.0074005714 -0.20886578 -0.14370938
000250 a3 e2 96 bd 6c 60 04 3e db ca b3 3e df 84 28 be
       -0.07367446 0.12927407 0.35115704 -0.16456936
000260 e6 35 11 3d 3c 53 85 be 24 c5 2e 3f 2a 32 85 3e
       0.035451792 -0.26040065 0.6826956 0.26014835
000270 13 03 bd be c7 43 94 bd 7e 00 6a bd 9d 69 ab bd
       -0.36916408 -0.0723949 -0.057129376 -0.083697535
000280 e3 e8 51 bd ba 75 99 3f 34 23 08 3f 22 fd 77 be
       -0.05124749 1.1989052 0.53178716 -0.24217656
000290 ae ae 9c 3e 6b c4 c3 3d 7d 07 c5 3e 68 cc 1f be
       0.3060202 0.09558948 0.38482276 -0.15605319
0002a0 b9 e1 34 bc 68 74 c7 be 91 70 50 3b 12 62 c6 be
       -0.011040145 -0.38955998 0.0031805376 -0.38746697
0002b0 62 c9 39 3e f0 8a 4b 3e dd 83 62 3d d8 47 a4 3e
       0.18143228 0.19877219 0.055301536 0.32086062
0002c0 75 9c 44 3e 9a bc c0 3d 7c 3d 9b 3e 37 3b 0a 3e
       0.19200309 0.09410973 0.30320346 0.13499151
0002d0 08 91 34 bf eb 09 84 3d cd 7d eb be 92 88 6a bd
       -0.705338 0.06447204 -0.45994416 -0.05725915
0002e0 dc e7 00 3b 66 14 f1 be 6b a9 50 be 0b 4e 79 be
       0.001966945 -0.47085875 -0.20377128 -0.24346177
0002f0 1c d4 80 3d 36 8d 90 be ad e3 93 3e 77 73 96 be
       0.06290457 -0.28232735 0.2888464 -0.29384968
000300 15 52 c0 be 8f 0e 28 3f 42 44 a8 bd d9 8f 3c be
       -0.37562624 0.65647215 -0.08216144 -0.18414249
000310 37 94 da 3d 6b b0 69 3e 1d 7a 49 be e1 8f cf 3d
       0.10672801 0.22821204 -0.19675489 0.101348646
000320 22 a7 2e 3f 7b bd e4 3d 26 9a 75 be f4 09 0a be
       0.68223774 0.11168953 -0.23984584 -0.1348036
000330 ce 96 a4 be fa 0f c5 be 8c 0e 11 bf f4 e9 a6 3e
       -0.32146305 -0.38488752 -0.5666282 0.32600367
000340 4b 75 88 be 58 81 12 be d9 aa 10 bf b2 08 25 3e
       -0.26651987 -0.14307153 -0.5651069 0.16116598
000350 3d 10 aa 3e 3a 96 30 3e b9 aa cc 3f f4 39 69 be
       0.33215514 0.17244807 1.59896 -0.22776014
000360 65 2b f2 3e 39 14 13 bf 30 5c 8f 3c ef de c4 3e
       0.47298732 -0.5745273 0.017500013 0.38451335
000370 55 06 85 bd 81 55 03 3f 6a 4c c2 3e b7 b1 04 be
       -0.06495348 0.51302344 0.37948924 -0.12958418
000380 c9 ee 6b 3e b8 94 12 bf 21 36 6d 3e 32 9d eb 3e
       0.23040308 -0.57258177 0.2316518 0.46018368
000390 65 5a 84 3c a3 a0 b3 be 88 76 9e 3e 40 be a9 3e
       0.016156385 -0.35083494 0.30949807 0.33152962
0003a0 9a 1c 7f be e2 c9 68 3e 8d 86 5b be f3 ab 46 bf
       -0.24913254 0.22733262 -0.21438046 -0.77606124
0003b0 36 9c 0c 3f 73 c2 25 3e e8 58 bc 3d 3e ae 5e be
       0.5492586 0.16187458 0.09196645 -0.21746156
0003c0 54 d4 64 3c 5e 40 6b 3e ff cb 78 3e ac e5 83 3c
       0.013966639 0.22973773 0.24296568 0.016100727
0003d0 b3 80 c9 3a b5 a2 86 3d 19 fb a6 be 28 a0 68 3e
       0.0015373438 0.06574003 -0.32613447 0.22717345
0003e0 fa 7e 13 3f f1 aa 62 bd 72 b3 17 be 80 24 44 bf
       0.57615626 -0.055338804 -0.14814547 -0.76618195
0003f0 8c f8 96 3e 40 94 50 bf 16 0d 83 bb cd 6a 9b 3c
       0.294865 -0.8147621 -0.0039993627 0.018971825

rnn.bias_ih_l0 f4 [32]
000000 57 9e 28 3d 7c bd 98 3d 14 f2 6a be b1 76 2d be
       0.04116663 0.07458016 -0.22943908 -0.16939808
000010 f0 de b4 bd 48 62 c0 3c 17 1f e3 3d db 62 51 bb
       -0.088315845 0.023484364 0.11089914 -0.0031949792
000020 fa f9 08 3d bd 89 1d bd dd 39 84 bd b1 bf 41 be
       0.03344152 -0.038461436 -0.06456349 -0.1892078
000030 75 d7 b5 3c 38 5f 43 be b6 6a 78 3e ba 87 ba bc
       0.022197464 -0.19079292 0.24259457 -0.022769798
000040 35 1b 06 be 18 48 e7 bd 9f 4f 13 3e 60 19 6f 3b
       -0.13096316 -0.11293048 0.14385842 0.003648363
000050 cc 14 42 3e 51 96 aa 3d 1c 52 6f 3d 81 c5 85 be
       0.18953246 0.08329452 0.058427915 -0.26127246
000060 ae 14 2a 3e 2e 26 94 bb b2 bc 42 be 28 90 57 be
       0.16609451 -0.004521153 -0.19017294 -0.21051085
000070 4c 7e 3b 3e 68 92 e1 3d 56 32 d4 bb 87 00 88 3e
       0.18309897 0.11014253 -0.006475727 0.26562902

rnn.bias_hh_l0 f4 [32]
000000 09 69 90 bc d7 ad 37 3c e7 00 3e bd 97 22 ed bd
       -0.01762821 0.01121088 -0.04638758 -0.11578863
000010 df 69 8b be 73 05 59 bd 0e 57 0d 3e 46 a1 d2 bd
       -0.2722921 -0.052983712 0.1380274 -0.10284667
000020 2e e4 84 bc be 3d 7f 3d 5b 68 98 3d f8 5a 98 bd
       -0.016222086 0.06231474 0.07441779 -0.07439226
000030 bc 4e 80 3d da 82 e6 bd 78 db 67 3e 86 c5 73 3d
       0.062650174 -0.11255427 0.22642314 0.059514545
000040 42 7c 0d bd 25 d2 f4 bd 08 9e 37 3b 7c 61 35 be
       -0.03454233 -0.119541444 0.0028017778 -0.17712969
000050 a9 cf 0a bc d2 a9 81 3e 6f d5 0e 3d cd 87 ea bd
       -0.008472362 0.25324875 0.034871515 -0.11451683
000060 19 68 6c 3e 55 de 5f bc de d2 14 3e 64 88 85 be
       0.23086585 -0.013663848 0.14533564 -0.2608062
000070 79 7a cc 3e 51 fa 86 3d cd a1 8b bd 3d c1 97 3d
       0.3993719 0.06590713 -0.068179704 0.07409904

fc1.weight f4 [12, 32]
000000 4c bc 3d 3f 63 c0 0a 3f fd 8e 9e bb 6d be 18 bf
       0.74115443 0.5419981 -0.004838823 -0.59665567
000010 e0 64 0f bf bb fe 0c bf 39 5b 89 be 4e 72 28 3f
       -0.560133 -0.5507619 -0.2682741 0.65799415
000020 07 de e1 3e f3 ed d9 3e 95 0f b2 bd 56 80 15 bf
       0.44114706 0.42564353 -0.08694378 -0.5839895
000030 de f2 04 bf ae fc 27 bf 3f fb d7 3e 20 a8 57 bf
       -0.51933086 -0.65619934 0.42183873 -0.84240913
000040 72 a9 e7 be 14 05 0b 3f 50 05 01 3f 90 b3 9d be
       -0.45246464 0.54304624 0.5039873 -0.30801058
000050 45 33 b0 3e 4f f4 65 3f ec 80 4f be 65 7e 32 bf
       0.34414116 0.8982591 -0.20264024 -0.6972411
000060 22 33 23 3f 5e 39 a3 3e 95 29 1b 3f 8f 4b 3c bf
       0.637499 0.31879705 0.60610324 -0.73552793
000070 ed c3 d4 3e 4d d2 07 bf ca 73 3d 3f e0 4c 17 3f
       0.4155573 -0.5305527 0.74004805 0.59101677
000080 53 25 b8 3e 8e 35 0d 3f 62 d8 c3 3e 8d 7e fd be
       0.35965976 0.5515984 0.38251024 -0.49510613
000090 12 3c 5a 3f d3 07 86 be 0b c8 ac 3e 7a b7 92 3d
       0.8524791 -0.26177844 0.3374637 0.071639016
0000a0 b0 a4 92 bf d7 86 90 bf 22 a3 56 bd 6f 28 3a bf
       -1.1456509 -1.129115 -0.05240167 -0.72717947
0000b0 82 77 0d 3d 91 21 40 bf 88 61 75 bf 53 dd 62 3e
       0.0345378 -0.7505122 -0.95851946 0.22154741
0000c0 c2 2f 2b 3f 95 5d d3 bf b6 f9 d7 be 4a af 68 3d
       0.6686975 -1.6512934 -0.42182702 0.056807794
0000d0 e9 83 2e 3e b9 d8 ba be b2 d9 b2 3e 97 ea 6b bf
       0.17042507 -0.3649347 0.34931713 -0.9215483
0000e0 89 f8 15 3f 91 96 85 bf 72 ff 63 3f 14 81 ab 3f
       0.5858236 -1.0436574 0.89061654 1.3398767
0000f0 a9 64 cc bf ec 4d 52 3f 0a a5 ae bf 29 bb 0e 3f
       -1.5968219 0.8215015 -1.3644116 0.55754334
000100 d2 a3 16 3f c7 74 f4 bd 6f d9 be be 9d 73 05 be
       0.5884372 -0.11936336 -0.37275264 -0.13032384
000110 3a 54 5b bf 75 8c 8d 3f 1e 4a ef 3e b0 a4 1d 3f
       -0.85675395 1.1058489 0.46736234 0.6157942
000120 9b 56 87 bf 98 6d e9 3e fb af 54 3f 75 d3 81 3f
       -1.0573305 0.45591426 0.83081025 1.0142657
000130 18 1a 39 3f 4c f0 73 3f c3 fa af bf 0d e8 26 bf
       0.7230544 0.9528854 -1.3748401 -0.6519783
000140 c5 c2 e7 3e 83 e7 70 bf 2a ce a8 3d 0e 80 8e be
       0.45265785 -0.9410326 0.08242448 -0.27832073
000150 2c 03 8a be 5a da 20 bf 29 5b c4 be 2d 7a 38 bf
       -0.26955545 -0.6283318 -0.383508 -0.72061425
000160 d1 93 98 be ce 3b 46 bf 96 f9 85 bf b8 d1 c2 3e
       -0.29800275 -0.77435005 -1.0466793 0.38050628
000170 1d 77 d0 bd 6c 74 e6 3e e9 d9 07 bf 19 5c 87 bf
       -0.10178969 0.45010698 -0.5306688 -1.0574981
000180 8f af db 3d 0d de e8 be 01 59 72 3e 12 07 14 bf
       0.107268445 -0.4548191 0.23666765 -0.5782329
000190 09 3f ed be ef 9e 7e be f0 7c d6 be 5c 56 a9 bf
       -0.46337155 -0.24865316 -0.41892195 -1.322948
0001a0 d0 f0 aa 3e b4 3b 27 3f 95 99 55 3e 06 e2 63 3f
       0.3338685 0.65325475 0.20859368 0.8901676
0001b0 2b a8 2d be 7a aa ec bc 13 85 40 bf a8 43 ff 3e
       -0.16958682 -0.028889883 -0.75203055 0.49856305
0001c0 6b a2 e9 3e eb 70 64 bf 6e d4 97 bf ed 61 bc be
       0.45631728 -0.892348 -1.1861703 -0.3679346
0001d0 c9 02 80 bf 1f 1f d9 bf 2f 06 8b be ca c8 05 3f
       -1.000085 -1.6962622 -0.27153155 0.52259505
0001e0 a8 29 46 bf 32 f8 a2 be 50 11 4f bf 5e dc 2c 3f
       -0.7740731 -0.31829983 -0.8088579 0.67523754
0001f0 86 eb 9c 3e 76 99 c7 3e 64 0e bc be 23 8c 6b 3e
       0.3064844 0.3898427 -0.3672973 0.23002677
000200 21 a9 53 bf 4c 59 06 bf 25 ce 3d 3f 79 5c cc bd
       -0.82679945 -0.52480006 0.74142677 -0.09978575
000210 58 27 69 3f 22 a7 9c 3f f2 7a b9 bf f1 50 b7 bf
       0.9107566 1.2238505 -1.4490645 -1.4321576
000220 0f 48 75 bf f6 b9 e9 3f 99 49 84 be fd 71 83 3f
       -0.9581308 1.8259876 -0.258374 1.0269161
000230 fd 10 c6 3f 15 ef 8e 3e 92 24 9b bd 48 16 ec 3e
       1.5473934 0.2791678 -0.075753346 0.4611075
000240 c5 7c e4 be 7d 58 20 bf 45 43 30 bf cf af 59 3f
       -0.44626442 -0.6263502 -0.68852645 0.8503389
000250 75 74 9a bf 1c 1f b3 bf 21 f2 83 3f 03 ba 84 bf
       -1.206679 -1.3993869 1.0308267 -1.0369266
000260 d4 ae 0b bd 14 2b c6 3c f8 9e 8a 3e 2b 7c f1 be
       -0.034102276 0.024190463 0.2707441 -0.47165045
000270 cd 93 fa bf f8 38 18 3e f3 56 59 3f 02 e4 10 c0
       -1.9576355 0.14865482 0.848983 -2.2639165
000280 2e 10 e1 be 2c a3 7b 3e e2 77 6b 3e 0b ad d3 3d
       -0.43957657 0.24573964 0.2299495 0.1033574
000290 3f cf e0 3e b7 ce 3c 3f 1b 9b 43 bf 91 72 e7 bd
       0.43908116 0.7375292 -0.7640855 -0.11301149
0002a0 be e4 83 3d 11 d3 dd be ea 67 14 bf 2b 02 01 bd
       0.064401135 -0.43325093 -0.5797106 -0.03149621
0002b0 0d b8 26 3f 92 4f a8 bd a1 1c 3c 3c 2c 07 6f 3e
       0.6512459 -0.08218302 0.011481435 0.2334258
0002c0 fd 43 a0 be f6 24 ba 3c cc a1 07 bf 42 e9 20 3e
       -0.3130187 0.022722702 -0.5298126 0.15713981
0002d0 ce bd 07 3e 9c 7f 90 be a4 a0 d1 3d f2 24 f6 be
       0.13255998 -0.28222358 0.10235718 -0.48075062
0002e0 8b 70 84 3e d1 e4 79 bf e8 61 d2 be a9 e4 3b 3f
       0.25867113 -0.9761477 -0.41090322 0.7339578
0002f0 4c 34 23 3d e0 0c 63 bf 8c 4c a1 bf cb e4 a2 be
       0.039844796 -0.8869152 -1.2601485 -0.3181518
000300 72 17 1b 3d 6c 36 73 bf db 11 97 bf af 27 96 3f
       0.037864156 -0.95004916 -1.1802324 1.173086
000310 7b 84 d6 3d ad 9b b6 be 34 46 82 3f f8 2e 3a 3e
       0.104744874 -0.35665646 1.0177674 0.1818198
000320 12 67 c6 3e 16 eb d6 3e b9 48 5e be 9a 2a 25 3f
       0.3875051 0.4197623 -0.21707429 0.6451813
000330 c9 19 79 bb 05 a2 38 be 48 76 55 be bf 95 79 bd
       -0.0038009754 -0.18030556 -0.20845902 -0.060933825
000340 5e cf d6 be 21 b9 50 be 77 50 05 be 7c 81 5b 3f
       -0.41955084 -0.20383121 -0.13018976 0.8574445
000350 6a 61 48 3d 51 de 1d bf 05 10 15 3f f5 02 56 3f
       0.048921026 -0.6166735 0.5822757 0.8359826
000360 58 1c b3 3d ff 1e ae 3e ae 5a ee 3d 12 67 aa 3e
       0.087456405 0.34008023 0.116383895 0.3328176
000370 4f f8 4d bd c3 a2 d7 3d 28 78 46 bf 08 88 8f bf
       -0.050285634 0.10529091 -0.77527094 -1.1213388
000380 2f e6 05 bf 6f 3b 22 3e 8b ef b5 3f 37 b1 fd 3c
       -0.5230436 0.15842985 1.4213728 0.030968292
000390 b4 ac 00 3f 5c 51 d6 3e 0b a0 f1 3f 25 70 27 3f
       0.50263524 0.41858947 1.8876966 0.65405494
0003a0 ff 4b ac 3d c7 6c 95 be c9 70 3a 3f 6a 4d 8c be
       0.084129326 -0.29184553 0.72828346 -0.27402812
0003b0 4d 6f f5 3e 04 f1 2d 3f 8e c2 5f bb 51 6a 6e 3e
       0.47936478 0.67945886 -0.0034143063 0.23282744
0003c0 73 d6 5a 3f 86 d8 f3 3d 49 90 9a 3e c5 ce 71 3e
       0.85483474 0.11906533 0.30188206 0.23614033
0003d0 87 b6 81 be f7 a0 33 be 1f cf 6f bd 99 1a f0 3e
       -0.2533457 -0.17541872 -0.058547135 0.46895292
0003e0 38 b1 8e be d0 c3 65 bf f8 e6 27 be 1e bd 52 3f
       -0.27869582 -0.8975191 -0.16396701 0.8231982
0003f0 4b 0d 35 3d 95 c0 08 3f 21 c4 45 be a6 8d 9b be
       0.04420213 0.53418857 -0.19313098 -0.30381507

fc1.bias f4 [12]
000000 2f 77 bb 3e 73 e6 90 bd 69 4c 36 bf 18 ae 27 be
       0.36614367 -0.07075205 -0.7121034 -0.16375005
000010 ae c1 de bf d5 01 27 be 4a 31 1a bd 2d 10 19 be
       -1.7402856 -0.16309293 -0.037644662 -0.14947577
000020 d9 e9 27 3e 38 39 f5 bd 0d 8f 09 be e0 f7 df be
       0.163978 -0.11973804 -0.13433476 -0.437438
