src/main/python/saved_models/kotlin_1_66_RNNClassifier1_128embs_178id_16hd_1hl_Truebid_0.pt (torch, 113439 bytes, 11 tensors)

word_embeddings.weight f4 [178, 128]
-1.7991422 -0.17604916 -0.15368494 -1.0576068 -0.1473588 -1.0551174 -1.3295213 -1.7104648
-0.28151605 0.2544349 -0.8484116 -0.59609926 0.05167842 2.1458802 0.7363276 0.43144965
-0.57738346 -1.0462135 0.80943507 0.791654 1.0748324 0.28996474 -0.59657145 0.796046
0.57458705 0.13477613 -2.6940567 -1.1914006 -0.46498352 0.4421571 -1.0860461 -0.8302857
2.2596815 -0.46106288 0.08631689 -0.7330662 -0.011207616 0.06556108 -0.1346216 -0.38803026
0.041561473 0.061893262 -0.42451397 0.03955367 2.0586386 -1.0683473 1.7515768 -0.18165553
-0.6341975 0.9107094 -0.09671818 -1.0738541 0.879125 -0.23652393 0.9596958 1.9477599
0.37264958 1.041342 -0.46447378 -1.1519434 1.5687037 -0.73382175 -2.9005878 -1.2060666
-0.23879838 -0.56922555 -0.025921714 -1.1370126 -0.073246695 -0.03312582 1.6656572 0.06575157
-0.58730745 -0.2656577 -0.92526525 -0.7099136 -0.43610713 -0.60116416 0.33960956 -0.5197994
0.15924962 0.35823235 -0.41977632 0.5750106 -2.0647604 -0.39115968 0.26441678 0.37026408
0.53959894 -0.9427387 -1.1369833 0.89473164 -0.9969674 -0.824587 0.0251629 2.1275012
1.7424836 1.0932842 1.004269 -0.95330024 1.4549688 -0.62500614 -0.9862144 1.3230463
1.266544 0.4363964 -0.359027 -0.378919 -2.23667 -0.31027684 -1.1275407 -0.29932338
0.9556227 -0.16312103 1.3137857 0.8889366 0.02303582 0.32434556 0.5462927 -0.62595785
2.124495 0.33659297 -0.51701236 2.297875 -1.7153828 1.6891465 -0.07666961 0.16780995
0.71236455 -1.7765073 0.35386458 1.1996132 -0.3029974 -1.7618417 0.6348446 -0.8043591
-1.6111118 -1.8716129 0.5430836 0.6606786 2.2952116 0.67490596 1.7133216 -1.7942734
-1.3632672 -0.9832196 1.5112667 0.64187074 0.4729638 -0.4285901 0.55137074 -1.5473709
0.5181121 0.10653535 0.26924077 1.324768 1.7460191 1.854969 -0.7063691 2.5570862
0.4175343 -0.2127186 -0.839958 -0.42001787 -0.6240363 -0.9772961 0.8748428 0.9872814
0.30957633 1.52069 1.2052339 -1.815591 -0.40346155 -0.9591452 -0.005207704 -0.07886314
0.8436543 1.1657013 0.5269322 1.6192533 -0.96397626 0.14152038 -0.16366096 -0.35822257
1.7222793 -0.3035756 0.2388742 1.3440012 0.10322569 1.1003542 -0.3416802 0.9473389
-0.56851596 0.8375962 1.7836607 -0.19542466 0.5149161 -1.8474776 -2.9167426 -0.5673299
-0.5412802 0.895174 -0.882507 0.53181124 -1.5457772 -0.17329982 0.72824633 0.05706102
0.9055172 1.0462948 -0.520597 1.3547838 0.23519313 1.9142433 1.8364111 1.3245324
-0.96900916 1.2516364 1.2103242 -0.5279206 0.21856615 -0.57430726 1.4571251 1.7709557
1.6499138 -0.43200457 -0.2710269 -1.4391626 1.2470404 1.2738512 0.39094925 0.3872105
-0.07982872 0.3417243 0.9488273 -1.3839359 1.7240863 -2.3647652 -0.9294909 0.2936253
0.21513203 0.9384637 1.4657077 -0.5564744 -0.7448408 -0.20215721 -0.2296679 0.0013313366
0.3752759 -0.5810679 -0.57230884 1.0097175 -0.10564939 -1.179696 -0.090779595 0.56311435
00000000: 4b4a e6bf 3b46 34be 965f 1dbe a95f 87bf
00000010: 3ae5 16be 160e 87bf c12d aabf 83f0 dabf
00000020: df22 90be 4b45 823e 8131 59bf f699 18bf
00000030: c0ac 533d 1a56 0940 f77f 3c3f f8e6 dc3e
00000040: 67cf 13bf 53ea 85bf 2337 4f3f d6a9 4a3f
00000050: 1c94 893f 4276 943e e8b8 18bf acc9 4b3f
00000060: 2318 133f c102 0a3e 6d6b 2cc0 d17f 98bf
00000070: 5212 eebe 6a62 e23e 8f03 8bbf 9b8d 54bf
00000080: 9f9e 1040 6f10 ecbe e9c6 b03d 3aaa 3bbf
00000090: 26a0 37bc e344 863d 3fda 09be e7ab c6be
000000a0: 5d3c 2a3d ca83 7d3d e559 d9be 0703 223d
000000b0: bcc0 0340 9bbf 88bf ab33 e03f e803 3abe
000000c0: c45a 22bf 4024 693f 2e14 c6bd 0d74 89bf
000000d0: 560e 613f 5433 72be a0ae 753f 3250 f93f
000000e0: edcb be3e b24a 853f 82cf edbe e272 93bf
000000f0: 48cb c83f bedb 3bbf 3ba3 39c0 6460 9abf
00000100: 9087 74be c4b8 11bf c659 d4bc a189 91bf
00000110: 5d02 96bd f1ae 07bd 4134 d53f c2a8 863d
00000120: c859 16bf 4904 88be 2fde 6cbf e6bc 35bf
00000130: 6f49 dfbe e5e5 19bf 4ee1 ad3e 9311 05bf
00000140: 5512 233e 3b6a b73e ecec d6be e533 133f
00000150: 0925 04c0 1546 c8be a361 873e 4193 bd3e
00000160: 2823 0a3f 5357 71bf ab88 91bf 220d 653f
00000170: 4139 7fbf 2218 53bf 6d22 ce3c fb28 0840
00000180: b409 df3f bdf0 8b3f e38b 803f 7c0b 74bf
00000190: 6b3c ba3f 6700 20bf 8c78 7cbf 9559 a93f
000001a0: 1d1e a23f 596f df3e 63d2 b7be ac01 c2be
000001b0: 9a25 0fc0 9bdc 9ebe 4153 90bf ea40 99be
000001c0: b0a3 743f 3309 27be 212a a83f 5991 633f
000001d0: 9eb5 bc3c 9f10 a63e d7d9 0b3f c63e 20bf
000001e0: baf7 0740 ea55 ac3e ec5a 04bf 6210 1340
000001f0: aa91 dbbf f435 d83f f504 9dbd 5fd6 2b3e
00000200: 865d 363f 9764 e3bf bd2d b53e ed8c 993f
00000210: 7a22 9bbe 0784 e1bf 2d85 223f 7aea 4dbf
00000220: e938 cebf 0391 efbf 8707 0b3f 3c22 293f
00000230: bfe4 1240 a3c6 2c3f 1f4e db3f c0aa e5bf
00000240: 8a7f aebf 48b4 7bbf 3071 c13f a451 243f
00000250: 5028 f23e 2970 dbbe a226 0d3f 4010 c6bf
00000260: ffa2 043f 352f da3d edd9 893e ff91 a93f
00000270: 8e7d df3f a06f ed3f 9bd4 34bf 4da7 2340
00000280: 0ec7 d53e e8d2 59be 7d07 57bf 950c d7be
00000290: d8c0 1fbf 1430 7abf b3f5 5f3f 79be 7c3f
000002a0: ca80 9e3e f8a5 c23f 1b45 9a3f 4965 e8bf
000002b0: 8392 cebe 8a8a 75bf 63a5 aabb ff82 a1bd
000002c0: baf9 573f b335 953f 07e5 063f b143 cf3f
000002d0: 26c7 76bf b8ea 103e bd96 27be f368 b7be
000002e0: a673 dc3f 436e 9bbe 709b 743e 3b08 ac3f
000002f0: fe67 d33d 68d8 8c3f b5f0 aebe cd84 723f
00000300: 438a 11bf b46c 563f fe4e e43f 671d 48be
00000310: 8bd1 033f 257a ecbf e9ab 3ac0 883c 11bf
00000320: 5791 0abf 202a 653f fbeb 61bf c824 083f
00000330: 07dc c5bf 8275 31be 5a6e 3a3f d1b8 693d
00000340: facf 673f fdec 853f d845 05bf 8e69 ad3f
00000350: 78d6 703e ed05 f53f 850f eb3f 478a a93f
00000360: fc10 78bf 9f35 a03f e7eb 9a3f ce25 07bf
00000370: cecf 5f3e cd05 13bf 1383 ba3f adae e23f
00000380: 6030 d33f b42f ddbe 0ac4 8abe 7b36 b8bf
00000390: 059f 9f3f 8e0d a33f 802a c83e 7440 c63e
000003a0: 3d7d a3bd 7df6 ae3e 59e6 723f d024 b1bf
000003b0: dcae dc3f 5058 17c0 1ef3 6dbf 0e56 963e
000003c0: 924b 5c3e 283f 703f 4f9c bb3f 1b75 0ebf
000003d0: e3ad 3ebf 4d02 4fbe 102e 6bbe 3e80 ae3a
000003e0: 2a24 c03e dec0 14bf d582 12bf 6c3e 813f
000003f0: b55e d8bd 4700 97bf a7ea b9bd 4328 103f

rnn.weight_ih_l0 f4 [16, 128]
0.0028011163 -0.26801947 -0.2188761 -0.0907424 -0.1269716 -0.035283726 0.42370793 -0.042393122
-0.1863074 0.19300456 -0.011151008 0.26274458 0.027555622 0.10904012 -0.194023 -0.055232257
0.0044012205 -0.043333974 -0.33798066 -0.016794043 -0.35305193 -0.0798748 -0.0699832 -0.058413617
0.16936032 -0.23423728 0.2774306 0.18696839 0.20355652 -0.27100468 -0.20240088 -0.044449255
0.19388789 0.31745404 0.12865809 -0.37608066 0.099699154 -0.20842116 -0.039298512 -0.013462071
-0.06306244 -0.35902426 0.057363965 -0.2815876 -0.029689083 0.012708903 0.12136406 0.20913073
0.15226744 -0.29554442 -0.031472757 -0.044938132 -0.00080393435 0.07244001 -0.104181975 0.114580154
0.05402833 0.059790533 0.03485687 0.04397463 0.062457617 0.014419975 -0.1872131 0.040861618
0.025739413 -0.014625838 -0.2876147 0.3366053 -0.21834682 0.0024857905 0.27403623 -0.08935974
-0.019167075 0.1455051 0.04039512 -0.07057676 -0.04503291 -0.08029226 0.15514573 -0.18138064
-0.27547923 0.064250775 -0.088839 -0.1156931 0.012542706 0.10117081 -0.083861284 -0.22192554
-0.17293121 0.2717499 -0.021589676 -0.24538241 -0.21181765 -0.16079299 -0.335267 -0.20440799
-0.08398964 0.22182807 0.17232628 0.11625366 0.30216396 0.053516418 -0.025948469 -0.11865536
-0.051347047 -0.05734045 0.058432717 0.388535 0.036215533 0.06958875 -0.13196626 0.1762716
-0.34323743 -0.06341765 -0.25908464 -0.13654052 0.23952015 -0.13060431 0.041607715 0.19222175
0.19219643 -0.16095996 -0.011204297 -0.055447716 -0.11721444 -0.2909591 -0.11888561 -0.17375985
0.1565813 -0.0018441349 -0.38687387 0.30557597 0.26028845 -0.5600554 0.007630363 -0.22795857
-0.062488265 -0.08489878 -0.06786181 -0.39338022 -0.070590675 0.25216427 -0.13176343 -0.110097
0.30173722 -0.09313088 0.020223388 0.20272724 0.3311898 0.07317441 -0.18467462 0.03841561
0.022137513 0.010873299 0.099098034 -0.15738147 -0.27845845 -0.0325767 0.32013372 0.013296634
-0.243423 0.14553939 0.17307463 0.21357706 -0.07532217 0.13218908 -0.23056445 -0.3371391
0.07953558 0.3216283 0.13060904 0.23876424 0.027877264 -0.111778304 0.1844263 0.20087074
-0.31269577 -0.008697661 -0.122185804 -0.2390554 -0.027928982 -0.020958927 0.06609017 -0.03689597
0.18465997 -0.07204105 -0.21692549 -0.28862604 -0.13181749 -0.02138951 -0.0013584311 -0.160571
-0.045326613 0.22993392 0.08618526 -0.2846554 -0.038900647 0.38463584 0.110994734 -0.07254569
0.17920929 0.03881384 -0.31058717 0.468394 0.044223692 0.1816624 0.05862808 0.12512344
0.14826131 0.10911538 -0.09223177 -0.008161897 0.19118299 0.015864948 0.090682715 -0.18830766
-0.1578111 0.19583365 0.34077457 0.19467175 -0.09280002 0.03459358 -0.0021142832 0.15625906
0.1690692 0.241578 0.2320118 0.1727526 0.03723159 -0.35231528 0.15496945 0.11664244
0.08618261 0.093522035 -0.2794025 0.07214712 0.17955734 -0.07912892 0.08637155 0.12334538
-0.043912273 0.01663496 0.09481095 0.31814894 -0.33337826 0.089278094 0.034223884 0.03478993
-0.13650563 -0.0037170295 -0.040666524 0.04091408 -0.1582687 -0.32220486 0.055749416 0.36739156
00000000: ef92 373b d939 89be 0e21 60be 27d7 b9bd
00000010: d804 02be ab85 10bd 3ff0 d83e 69a4 2dbd
00000020: 5ec7 3ebe fda2 453e b8b2 36bc 7586 863e
00000030: 54bc e13c 6d50 df3d f7ad 46be 383b 62bd
00000040: 1d38 903b f77e 31bd cd0b adbe a993 89bc
00000050: 39c3 b4be 6695 a3bd 5a53 8fbd 1e43 6fbd
00000060: cb6c 2d3e e6db 6fbe 620b 8e3e a474 3f3e
00000070: 1f71 503e 20c1 8abe 2d42 4fbe 6c10 36bd
00000080: 8c8a 463e 5689 a23e f2be 033e a58d c0be
00000090: 122f cc3d 5b6c 55be 7af7 20bd 0590 5cbc
000000a0: e126 81bd 07d2 b7be 7af6 6a3d 402c 90be
000000b0: 8536 f3bc 0139 503c b88d f83d 5e26 563e
000000c0: ffeb 1b3e 9951 97be 94e9 00bd 0c11 38bd
000000d0: 1fbf 52ba 6e5b 943d 5c5d d5bd 00a9 ea3d
000000e0: cf4c 5d3d ebe6 743d 14c6 0e3d be1e 343d
000000f0: 8fd3 7f3d c241 6c3c cab4 3fbe 835e 273d
00000100: 76db d23c 36a1 6fbc 3c42 93be 8857 ac3e
00000110: 4f96 5fbe a5e8 223b 7a4e 8c3e 3d02 b7bd
00000120: 4504 9dbc 4aff 143e 5a75 253d 8c8a 90bd
00000130: 6e74 38bd 4570 a4bd 86de 1e3e d9bb 39be
00000140: 9d0b 8dbe e995 833d 39f1 b5bd 81f0 ecbd
00000150: ec7f 4d3c a432 cf3d 77bf abbd 7340 63be
00000160: e114 31be ce22 8b3e d5dc b0bc 8745 7bbe
00000170: bae6 58be eba6 24be 1ea8 abbe 5450 51be
00000180: c302 acbd e626 633e 4d76 303e 6616 ee3d
00000190: 3cb5 9a3e 0834 5b3d e291 d4bc 9501 f3bd
000001a0: 4851 52bd d2dd 6abd 2557 6f3d 0fee c63e
000001b0: bd56 143d 8c84 8e3d 2a22 07be 8b80 343e
000001c0: d1bc afbe 1de1 81bd bea6 84be 47d1 0bbe
000001d0: c544 753e 23bd 05be da6c 2a3d c7d5 443e
000001e0: 24cf 443e b0d2 24be 3a92 37bc 251d 63bd
000001f0: 200e f0bd 97f8 94be 4c7a f3bd 1aee 31be
00000200: d956 203e e6b6 f1ba 5514 c6be 7474 9c3e
00000210: 8744 853e ca5f 0fbf 2008 fa3b f96d 69be
00000220: b2f3 7fbd 69df adbd 22fb 8abd 2269 c9be
00000230: d891 90bd ad1b 813e feec 06be 897a e1bd
00000240: 4d7d 9a3e 67bb bebd 85ab a53c bb97 4f3e
00000250: b691 a93e 77dc 953d 581b 3dbe b059 1d3d
00000260: bb59 b53c ec25 323c e9f3 ca3d 9c28 21be
00000270: 1b92 8ebe 256f 05bd 91e8 a33e 20da 593c
00000280: e143 79be 4708 153e 7a3a 313e f2b3 5a3e
00000290: 8342 9abd 935c 073e 1619 6cbe 7f9d acbe
000002a0: 8de3 a23d 77ac a43e 60be 053e 9d7e 743e
000002b0: dc5e e43c 06ec e4bd 3fda 3c3e 0fb1 4d3e
000002c0: a919 a0be a280 0ebc 8d3c fabd f0ca 74be
000002d0: 52cb e4bc 0eb2 abbc 485a 873d 3b20 17bd
000002e0: 8117 3d3e 428a 93bd b721 5ebe cbc6 93be
000002f0: 2afb 06be 0e39 afbc 620d b2ba b96c 24be
00000300: 66a8 39bd cc73 6b3e e681 b03d 5abe 91be
00000310: 4956 1fbd fdee c43e 3551 e33d d692 94bd
00000320: a482 373e 43fb 1e3d 4805 9fbe 57d1 ef3e
00000330: e723 353d b505 3a3e ff23 703d 5c20 003e
00000340: d0d1 173e e277 df3d 03e4 bcbd 7ab9 05bc
00000350: 79c5 433e 35f7 813c dcb7 b93d b9d3 40be
00000360: 3c99 21be 9e88 483e 017a ae3e 0858 473e
00000370: f00d bebd ffb1 0d3d c98f 0abb 6002 203e
00000380: 7a20 2d3e 3960 773e 8094 6d3e 0fe6 303e
00000390: 2780 183d ab62 b4be 50b0 1e3e 3be2 ee3d
000003a0: 8280 b03d 7b88 bf3d d80d 8fbe dfc1 933d
000003b0: e1dd 373e 580e a2bd 91e3 b03d 819c fc3d
000003c0: 5bdd 33bd 0a46 883c 3e2c c23d 6be4 a23e
000003d0: 8eb0 aabe 6fd7 b63d 582e 0c3d e37f 0e3d
000003e0: 22c8 0bbe 6899 73bb f191 26bd 8695 273d
000003f0: 3111 22be 09f8 a4be 8059 643d bf1a bc3e

rnn.weight_hh_l0 f4 [16, 16]
0.52481264 -0.10842718 -0.39037406 -0.07831502 -0.7101925 0.8671254 -1.3832469 0.20516986
0.8435608 0.60113317 -0.42541915 -1.2361004 -0.4332123 -0.30887398 0.002254126 -0.24444884
-0.7819937 1.6275902 -0.046621572 -0.6023681 0.26306564 0.0018831455 -0.87858725 -0.5877565
-0.33219248 -0.092765614 0.60893834 0.36085427 0.8420023 -0.09030656 -0.021979107 0.38287416
-0.012887651 0.0548034 0.34108913 0.67500544 0.28775957 0.49457693 -0.14988665 0.58246815
-0.64254236 0.29458755 1.0217044 -0.021075752 -0.71953565 -0.34339154 -0.21049462 0.08166174
0.3457977 -0.7078812 0.17208104 0.266814 -0.077123016 0.27942923 -0.86028254 0.29669312
0.21350135 0.18276048 0.54583406 0.4809358 -0.5170954 -0.094713554 -0.78201705 -1.6925672
-0.15115862 0.29828146 0.13407053 -0.5670784 -0.71828115 0.5361677 -0.3352679 0.4560266
-1.2773718 0.31456718 -1.2540323 -0.7178677 0.58723074 -0.13034908 0.29530838 -0.25661728
0.65003586 -0.0831258 -0.47608548 0.21345747 -0.25184208 0.6775196 -0.72956824 -0.032932285
0.32547152 1.007389 1.2187241 -0.4349038 0.020918978 -0.03813943 -0.13612422 -0.6673553
-0.36932054 0.22308116 0.38566214 -0.3738657 -0.6718134 -0.063147135 0.066085406 0.43266636
0.3271064 -0.66944563 -1.2288468 -0.18520467 -0.34542426 0.007396678 1.1324264 -0.24754813
0.3706239 -0.53639174 -0.26142228 0.522362 0.2251583 -0.22564255 0.7818702 0.2722649
0.61719114 1.0074414 0.008046624 -0.28568575 -0.9813627 0.021881538 -0.6443352 0.4821054
0.43011197 -0.25088927 0.30464745 0.22228663 -0.4674316 -0.30933553 0.5096972 -0.4480054
1.4731834 -0.36976334 -0.8218822 -0.40808204 -0.529164 0.5695113 0.6277461 0.28528187
0.016970456 0.6508635 -0.13254437 -0.7036337 -0.8013434 0.76334393 -0.8379277 -0.09677383
-0.46038687 -0.74484605 0.19065714 -1.0944065 0.18049239 -0.65124893 -0.6948675 0.13892122
0.24862437 0.22613128 0.2151339 -0.11484161 -1.1868906 0.6250681 -1.2858251 0.5180135
-1.1185322 -0.15144654 -0.39685 -0.34151158 0.19482891 -0.498772 -0.47422153 0.03133519
0.6821468 -0.038728956 0.109717526 1.6200048 -0.43298244 0.87447935 0.13060172 0.18809783
0.050162103 0.07553642 0.6113811 0.07795619 -0.48114422 -0.50472075 0.3717394 0.07623531
-1.0774792 0.2016725 0.06558478 -0.92363244 0.28812405 -0.31572244 -0.2537649 -0.80237734
-0.59014946 -0.5258552 -0.41130176 0.30586195 1.0540209 -0.06514131 0.2922871 -0.41687766
0.31938413 -0.1872095 0.23384799 0.3716338 -0.18089922 0.57076555 0.65898204 0.15309429
0.5865362 -0.30705667 -0.40536702 0.1568392 -0.5773761 0.033502575 -0.2302872 0.6557066
0.3280301 -0.3031155 -0.012934301 -0.15208612 -0.58377475 -0.22055727 0.092338845 -0.32012412
0.95579964 -0.89975274 -0.06142015 -0.85232604 -1.0721765 0.22576128 -0.7304921 -0.8144868
0.29177472 -0.14981315 -0.66637254 -0.37470812 -0.34249225 -0.25353485 0.032998983 0.35186982
1.5601213 0.08460649 -1.1379699 -0.3755395 -0.35561237 0.6627007 0.47998297 -0.9362563
00000000: 1f5a 063f 120f debd 1cdf c7be a063 a0bd
00000010: 2dcf 35bf eefb 5d3f 3c0e b1bf 0c18 523e
00000020: 9af3 573f dde3 193f 8ad0 d9be 8a38 9ebf
00000030: 01ce ddbe bb24 9ebe f5b9 133b cc50 7abe
00000040: bd30 48bf e054 d03f 43f6 3ebd cc34 1abf
00000050: 8ab0 863e e1d3 f63a 18eb 60bf 3677 16bf
00000060: 2215 aabe e6fb bdbd 62e3 1b3f e4c1 b83e
00000070: 768d 573f a5f2 b8bd 870d b4bc 1508 c43e
00000080: ba26 53bc 8879 603d 3ca3 ae3e 28cd 2c3f
00000090: 3955 933e 3039 fd3e e37b 19be a21c 153f
000000a0: a87d 24bf 2ed4 963e 36c7 823f 0ea7 acbc
000000b0: 7d33 38bf 04d1 afbe e78b 57be 453e a73d
000000c0: 650c b13e b437 35bf 0336 303e d89b 883e
000000d0: acf2 9dbd 5911 8f3e 7a3b 5cbf 29e8 973e
000000e0: 19a0 5a3e 9025 3b3e c8bb 0b3f 383d f63e
000000f0: 5d60 04bf 2ef9 c1bd 4532 48bf 0ba6 d8bf
00000100: 53c9 1abe 59b8 983e c949 093e 0d2c 11bf
00000110: 46e1 37bf 4942 093f 3ca8 abbe 527c e93e
00000120: eb80 a3bf f30e a13e 2184 a0bf 2dc6 37bf
00000130: c154 163f 3b7a 05be a932 973e 5763 83be
00000140: c068 263f dc3d aabd 7ac1 f3be 9894 5a3e
00000150: 72f1 80be ed71 2d3f fcc4 3abf 01e4 06bd
00000160: 34a4 a63e 1ff2 803f 27ff 9b3f b6ab debe
00000170: 475e ab3c 1738 1cbd 2664 0bbe ccd7 2abf
00000180: 9517 bdbe 636f 643e 8275 c53e 536b bfbe
00000190: f7fb 2bbf 4953 81bd c957 873d 7286 dd3e
000001a0: 7d7a a73e ca60 2bbf da4a 9dbf 4ba6 3dbe
000001b0: 73db b0be d55f f23b 59f3 903f 427d 7dbe
000001c0: 6ac2 bd3e f850 09bf 24d9 85be 84b9 053f
000001d0: e68f 663e d70e 67be a528 483f 4e66 8b3e
000001e0: 3d00 1e3f d7f3 803f fdd5 033c 6745 92be
000001f0: 963a 7bbf e940 b33c 27f3 24bf 85d6 f63e
00000200: a337 dc3e 8f74 80be c0fa 9b3e 1b9f 633e
00000210: 3253 efbe 3a61 9ebe 847b 023f f760 e5be
00000220: 4691 bc3f 9f51 bdbe df66 52bf 21f0 d0be
00000230: 4b77 07bf 7ecb 113f f8b3 203f 7710 923e
00000240: a005 8b3c fe9e 263f b6b9 07be 5721 34bf
00000250: d724 4dbf 826a 433f 6e82 56bf 5c31 c6bd
00000260: d4b7 ebbe 3bae 3ebf a03b 433e 8315 8cbf
00000270: ffd2 383e 40b8 26bf d6e2 31bf 5d41 0e3e
00000280: 6397 7e3e f58e 673e 104c 5c3e 1432 ebbd
00000290: 08ec 97bf 7704 203f eb95 a4bf 889c 043f
000002a0: 102c 8fbf cd14 1bbe ec2f cbbe 9bda aebe
000002b0: 3b81 473e 0b5f ffbe 2acd f2be 5459 003d
000002c0: 2ca1 2e3f 41a2 1ebd 95b3 e03d 515c cf3f
000002d0: e0af ddbe e1dd 5f3f 75bc 053e b89c 403e
000002e0: c776 4d3d d7b2 9a3d 7983 1c3f 7fa7 9f3d
000002f0: 8958 f6be 6135 01bf a054 be3e 4221 9c3d
00000300: d7ea 89bf 3c83 4e3e 5051 863d 2d73 6cbf
00000310: ff84 933e 5fa6 a1be 79ed 81be 9a68 4dbf
00000320: 0914 17bf 729e 06bf 2596 d2be f099 9c3e
00000330: 28ea 863f cf68 85bd a8a6 953e fd70 d5be
00000340: 5186 a33e d9b3 3fbe d975 6f3e c946 be3e
00000350: a53d 39be b11d 123f 0cb3 283f c0c4 1c3e
00000360: 3d27 163f 8836 9dbe 448c cfbe 759a 203e
00000370: ecce 13bf ff39 093d 68d0 6bbe 63dc 273f
00000380: 90f3 a73e f431 9bbe 64ea 53bc 77bc 1bbe
00000390: 4372 15bf c4d9 61be 261c bd3d 4fe7 a3be
000003a0: 49af 743f 3256 66bf b293 7bbd 0a32 5abf
000003b0: 143d 89bf f72d 673e 8801 3bbf 3582 50bf
000003c0: 7f63 953e 9e68 19be 6497 2abf bed9 bfbe
000003d0: 255b afbe 52cf 81be f129 073d 4828 b43e
000003e0: 0eb2 c73f 2b46 ad3d ffa8 91bf b746 c0be
000003f0: d312 b6be c1a6 293f 54c0 f53e 7eae 6fbf

rnn.bias_ih_l0 f4 [16]
-0.29822603 -0.16553351 -0.20369497 -0.20993558 -0.20658612 -0.23385356 0.1399803 -0.14662306
0.24065141 -0.29342458 0.15174784 0.13255367 0.12706012 0.23001616 0.09227392 -0.16861513
00000000: 15b1 98be 9e81 29be 6a95 50be 5af9 56be
00000010: 508b 53be 4f77 6fbe ff56 0f3e 5b24 16be
00000020: 536d 763e bf3b 96be c963 1b3e 26bc 073e
00000030: 0c1c 023e 5b89 6b3e 1cfa bc3d 72a9 2cbe

rnn.bias_hh_l0 f4 [16]
-0.026795464 0.14431196 -0.18001054 -0.10216345 0.21349719 -0.30352312 -0.08558577 0.028677627
-0.0800541 -0.17744455 -0.15987489 -0.28151336 -0.08970937 0.20883512 0.15878552 0.10271177
00000000: 2982 dbbc 84c6 133e af54 38be 123b d1bd
00000010: 029f 5a3e 6267 9bbe 9847 afbd 58ed ea3c
00000020: 67f3 a3bd 06b4 35be 3eb6 23be 8522 90be
00000030: 8cb9 b7bd e0d8 553e ac98 223e 8c5a d23d

rnn.weight_ih_l0_reverse f4 [16, 128]
-0.13989744 -0.3441297 0.2514831 -0.05451801 0.02235198 -0.057032585 -0.10466221 0.057715517
-0.06607859 -0.097145475 0.100552075 -0.10962152 -0.06755371 -0.05365084 -0.1559847 0.035954356
-0.05804533 0.06721187 0.030433415 0.10735117 0.049630687 -0.12098542 -0.14966828 -0.42955208
-0.16282131 -0.23738714 0.5785917 0.05928161 0.04781916 -0.08030081 0.5241036 -0.013239447
-0.26316106 -0.09614976 0.27131858 0.32108817 -0.029818652 -0.11749235 -0.13710025 0.031395786
0.1421144 0.007236643 0.3745911 0.19502641 0.18855521 0.17625193 -0.100735635 0.021589665
0.3075883 -0.15941997 0.280066 0.0056737526 -0.045181733 -0.12849006 -0.091485575 0.06825578
-0.058742993 0.017675798 -0.20233119 0.04531732 0.17913558 0.020224016 0.1541443 -0.05179969
-0.061292917 -0.23394033 0.14165331 -0.266906 0.064793944 0.408365 -0.04691707 -0.025150795
-0.26025206 -0.19477008 -0.020589856 -0.22164385 -0.06061147 0.028403264 0.13027638 -0.17111717
0.12289326 -0.3071516 0.092019014 0.10018526 0.043336373 0.015724918 0.03729433 -0.06468096
-0.19152011 0.19333948 0.45416477 0.29828882 0.09294031 0.17869239 -0.02560205 -0.16936955
-0.076807365 -0.23903199 0.15361096 -0.028927784 0.28547442 0.19818665 -0.0886132 0.14069659
0.28981215 -0.34484616 0.116275996 -0.28777096 0.04361741 0.27386916 0.08346137 -0.2127876
-0.13287152 -0.07104723 0.015161553 0.13222529 0.007530963 0.20159209 0.14384454 0.2959317
0.33456436 0.33166742 0.117747806 0.0162894 -0.20824948 0.102724984 -0.08542511 0.041366734
-0.17459641 0.10406892 0.12392409 0.14238049 0.04317358 -0.11153948 -0.22956158 -0.06323631
0.0675093 -0.093710035 0.06303382 -0.065434754 -0.002761527 0.022160698 0.010634631 -0.26354232
-0.124702424 -0.21842416 0.019001864 0.05508681 0.039034255 0.15343569 0.040704932 0.11087724
-0.20522748 0.13611916 0.20341107 0.12612943 -0.029323507 0.19571266 0.05956546 -0.2916168
0.18214259 -0.13134374 0.006901825 0.37511715 0.12798624 -0.32886285 -0.29086077 0.1423774
0.15891896 -0.13496342 -0.06718572 0.018540937 0.15382467 -0.15432778 -0.00090603804 0.16959119
0.24033248 -0.15386234 -0.041890707 -0.22451426 -0.0551115 0.09928393 -0.0061379704 -0.009442092
0.10645573 -0.05040297 -0.12044388 -0.050872978 -0.17795768 -0.034222677 -0.066757955 -0.02779963
-0.13017985 0.13428369 -0.16607894 0.044763852 0.16236165 0.01528222 0.26044217 0.30213353
0.006235827 -0.058673944 0.15900703 -0.13812476 0.012831287 0.11203557 0.07344244 0.12056924
0.0021271259 0.10397176 -0.10268508 -0.018683903 -0.02529645 0.00088349835 0.042021066 -0.2034219
-0.057479713 -0.011420914 -0.09055415 0.01713899 -0.010794009 -0.30133176 -0.00942648 -0.04995134
0.23528014 0.15489754 -0.28089345 -0.18883699 -0.0475003 0.31819472 -0.34147003 0.004774142
-0.056835722 -0.17407201 -0.31867304 0.2486094 -0.0054016784 0.123557135 0.31352705 0.16802263
-0.058508776 0.118578 0.007568327 -0.034185085 0.19916402 0.049904775 -0.0365159 -0.08736693
-0.13740684 -0.09250415 -0.09810517 0.22315463 0.1180424 0.27406892 -0.1833027 0.010218121
00000000: 4641 0fbe c531 b0be 65c2 803e 474e 5fbd
00000010: 801b b73c 009b 69bd 2459 d6bd 1b67 6c3d
00000020: 3654 87bd 35f4 c6bd 3fee cd3d 3f81 e0bd
00000030: 9959 8abd fcc0 5bbd 74ba 1fbe e044 133d
00000040: f1c0 6dbd 60a6 893d 7f4f f93c eeda db3d
00000050: 8c49 4b3d 34c7 f7bd a442 19be 40ee dbbe
00000060: a1ba 26be 9d15 73be 961e 143f 46d1 723d
00000070: 06de 433d c074 a4bd a72b 063f 44ea 58bc
00000080: 0cbd 86be 2aea c4bd 45ea 8a3e ab65 a43e
00000090: 3f46 f4bc d49f f0bd 0264 0cbe de98 003d
000000a0: 7086 113e 5d21 ed3b 68ca bf3e 01b5 473e
000000b0: 9e14 413e 637b 343e 7c4e cebd cfdc b03c
000000c0: 377c 9d3e fd3e 23be d064 8f3e e3ea b93b
000000d0: 7b10 39bd e692 03be ca5c bbbd b0c9 8b3d
000000e0: 7e9c 70bd d6cc 903c e82f 4fbe a79e 393d
000000f0: 516f 373e d6ac a53c 01d8 1d3e e92b 54bd
00000100: 480e 7bbd 0e8e 6fbe 910d 113e e7a7 88be
00000110: b0b2 843d 3815 d13e 1d2c 40bd 0a09 cebc
00000120: c23f 85be cf71 47be 0fac a8bc 9bf6 62be
00000130: bc43 78bd f6ad e83c 2c67 053e 5739 2fbe
00000140: 76af fb3d f942 9dbe 7774 bc3d ee2d cd3d
00000150: 7b81 313d 8bd1 803c f0c1 183d 7377 84bd
00000160: d91d 44be c9fa 453e 4988 e83e 50b9 983e
00000170: 7d57 be3d 23fb 363e 64bb d1bc 366f 2dbe
00000180: 2e4d 9dbd cdc4 74be 314c 1d3e f6f9 ecbc
00000190: b429 923e 71f1 4a3e d67a b5bd c412 103e
000001a0: 4262 943e ad8f b0be 1c22 ee3d b756 93be
000001b0: 2ba8 323d 9438 8c3e cbed aa3d fee4 59be
000001c0: 790f 08be 3681 91bd 2a68 783c 1166 073e
000001d0: 4cc6 f63b 286e 4e3e fc4b 133e 5c84 973e
000001e0: 054c ab3e 50d0 a93e c325 f13d 5971 853c
000001f0: 5a3f 55be 7a61 d23d 5cf3 aebd 2a70 293d
00000200: 67c9 32be 1622 d53d eacb fd3d 31cc 113e
00000210: c8d6 303d d06e e4bd 3112 6bbe 0a82 81bd
00000220: 5142 8a3d 0ceb bfbd e017 813d a802 86bd
00000230: bcfa 34bb 5a8a b53c e03c 2e3c 05ef 86be
00000240: fc63 ffbd 95aa 5fbe cca9 9b3c b5a2 613d
00000250: 62e2 1f3d 3f1e 1d3e 37ba 263d 9b13 e33d
00000260: 2727 52be d262 0b3e fe4a 503e 1328 013e
00000270: da37 f0bc e668 483e e9fa 733d cc4e 95be
00000280: 9683 3a3e f97e 06be b428 e23b 5b0f c03e
00000290: d30e 033e b660 a8be b4eb 94be 62cb 113e
000002a0: a7bb 223e da33 0abe ab98 89bd 2ae3 973c
000002b0: 3784 1d3e 1a08 1ebe 2f83 6dba 50a9 2d3e
000002c0: b819 763e 178e 1dbe 9795 2bbd 11e7 65be
000002d0: 99bc 61bd 6055 cb3d 0721 c9bb 01b3 1abc
000002e0: 7605 da3d 5873 4ebd 48ab f6bd 2f60 50bd
000002f0: 8a3a 36be 142d 0cbd 65b8 88bd 0dbc e3bc
00000300: de4d 05be aa81 093e 9910 2abe 4d5a 373d
00000310: 2242 263e 4762 7a3c ad58 853e 3fb1 9a3e
00000320: e955 cc3b 1754 70bd bdd2 223e 9470 0dbe
00000330: 523a 523c e872 e53d fd68 963d 01ed f63d
00000340: 4067 0b3b 25ef d43d 8e4c d2bd fc0e 99bc
00000350: 803a cfbc 929a 673a 481e 2c3d d54d 50be
00000360: d96f 6bbd c91e 3bbc 7474 b9bd 1167 8c3c
00000370: 5bd9 30bc 2848 9abe 8671 1abc c799 4cbd
00000380: 47ed 703e 769d 1e3e 44d1 8fbe 7c5e 41be
00000390: ad8f 42bd 6bea a23e 29d5 aebe 6870 9c3b
000003a0: 93cc 68bd ef3f 32be 1d29 a3be 7693 7e3e
000003b0: 9000 b1bb 860b fd3d 9e86 a03e 200e 2c3e
000003c0: e6a6 6fbd 06d9 f23d baff f73b a905 0cbd
000003d0: a7f1 4b3e f368 4c3d b291 15bd 6fed b2bd
000003e0: 61b4 0cbe d172 bdbd 5deb c8bd a682 643e
000003f0: 37c0 f13d c352 8c3e b4b3 3bbe e869 273c

rnn.weight_hh_l0_reverse f4 [16, 16]
0.11866133 -0.3385064 0.29261962 -0.48629716 -0.55130386 -0.7990298 0.0828039 1.3346782
-0.6480613 -0.7295763 -0.62708604 0.34880924 0.011402216 -0.44240203 -0.37422657 0.086605914
-0.84815854 0.7690302 -0.19774652 -0.45064893 0.3698796 0.5912252 0.61117613 0.49461818
-0.83617413 0.09064252 -0.7265673 0.066687204 -0.6754868 0.7914448 0.1492972 0.29206577
1.2666023 1.2487487 0.12865299 0.05893904 0.027361047 -0.15180907 0.104944445 -0.25550723
-0.9007919 0.060002778 0.3775542 -0.18333411 0.83834285 0.4861063 -0.19718874 -0.33630857
0.85636216 -1.3147988 0.3547111 0.17526628 0.33891332 -0.7731991 0.15144135 0.18912913
0.24329983 -0.26920938 -0.13998844 0.6591677 0.017128078 -0.7566163 0.1587828 -0.116213754
-0.62611187 -1.1992911 -0.5323967 0.037061784 0.055120576 -0.09397055 -0.18312855 0.5505856
0.3616553 -0.48698696 -0.3645892 0.86190015 0.0014163473 0.2913944 0.2623927 -0.15048155
-0.7089816 0.57161486 -0.39801472 0.06225338 -0.0070065903 0.9467296 0.2906333 -0.5240474
0.2696031 0.19958627 -0.36963966 -0.8867105 -0.14623025 0.5554114 0.71057725 -0.08008566
-0.058075786 0.63170934 -0.5392346 -0.0005076307 0.16717778 -0.47758698 0.09045702 0.5518341
0.38335904 -0.13028932 0.17462859 0.05449806 -0.5057091 0.18975435 -0.07950981 0.49143034
0.8499716 -0.1329842 0.51331663 0.348777 -0.21151297 0.35953635 0.110260315 0.31614918
0.3919947 0.043020926 0.17408851 0.91612005 1.2309456 -0.14444324 0.074312285 -0.084824346
0.18680145 -0.26877198 -0.7656415 -0.32097206 0.32642087 -0.23435405 -0.19593064 0.72422624
0.7819089 -0.025869798 0.2475448 0.8832025 0.16079712 0.12315321 0.46494773 -0.60716546
-0.1521106 -0.5973025 -0.47669482 0.3054237 0.29891732 -0.13330516 0.022138702 0.8009145
0.36575285 0.5669658 0.55183935 0.38035515 0.47621837 0.32628858 0.9750662 -0.72095424
0.5059462 -1.2294586 -0.70135206 -0.045774966 -0.015084003 -1.0252366 0.19626461 0.40919802
0.41624665 0.10760201 -0.10578943 -0.27199936 -0.39027432 -0.36842576 0.53158915 0.16908231
1.054342 0.4044272 0.034043986 -0.2557234 0.32002273 -1.029858 -0.07993651 -0.9223436
-0.6540486 -0.46306938 0.09853356 -0.6761007 0.03675698 -0.5224589 -0.8088312 -0.1383998
-0.5330192 -0.8400015 -0.1945795 0.15106194 -0.43259627 0.7080333 -0.13737103 1.4564213
0.33172587 0.3467379 -0.34666848 0.27098915 0.02497735 0.20131025 0.61569977 0.18573228
0.18275544 1.1268644 0.77673644 -0.15859643 -0.041365374 0.07776599 0.07012507 -0.79959637
-0.8963694 -0.49418655 -0.027909303 -0.45156652 0.20114796 0.14290236 -0.4987556 -0.14434232
0.26170966 0.7171969 -1.1077287 -0.2578584 -0.11237091 0.56559724 -0.041065555 1.1773796
0.41022035 0.07764892 0.1886376 0.65427476 0.28653127 0.57319343 0.8945504 -0.17175642
0.86355436 -0.16418941 -0.27049822 -0.038941596 0.32898065 -0.07944253 -0.4221894 -0.76165205
0.40637928 0.19996402 0.24596179 -0.5481752 -0.7965909 0.42850658 -0.4986369 -0.054214317
00000000: b604 f33d b650 adbe 3dd2 953e f1fb f8be
00000010: 4022 0dbf 388d 4cbf 1795 a93d bcd6 aa3f
00000020: 58e7 25bf 83c5 3abf b688 20bf 2097 b23e
00000030: 5cd0 3a3c 8582 e2be a09a bfbe 715e b13d
00000040: eb20 59bf 2adf 443f 107e 4abe 75bb e6be
00000050: dc60 bd3e 895a 173f 0a76 1c3f 983e fd3e
00000060: 820f 56bf c9a2 b93d 5100 3abf 4d93 883d
00000070: b4ec 2cbf 209c 4a3f 5de1 183e a589 953e
00000080: 0620 a23f ffd6 9f3f 9cbd 033e 106a 713d
00000090: 4624 e03c d673 1bbe 1ded d63d d8d1 82be
000000a0: 4c9a 66bf 79c5 753d c94e c13e f0bb 3bbe
000000b0: a39d 563f ede2 f83e d8eb 49be a330 acbe
000000c0: 8d3a 5b3f 544b a8bf b19c b53e 0179 333e
000000d0: 0c86 ad3e 60f0 45bf 7113 1b3e 11ab 413e
000000e0: 9723 793e d0d5 89be 2159 0fbe 37bf 283f
000000f0: 2f50 8c3c 9bb1 41bf f597 223e 7a01 eebd
00000100: de48 20bf 5f82 99bf 264b 08bf 19ce 173d
00000110: 1dc6 613d a273 c0bd 0d86 3bbe 2ef3 0c3f
00000120: e22a b93e 5b56 f9be 70ab babe 7da5 5c3f
00000130: bba4 b93a a631 953e 5658 863e d617 1abe
00000140: d17f 35bf 5a55 123f 96c8 cbbe 66fd 7e3d
00000150: 8a97 e5bb df5c 723f e3cd 943e f827 06bf
00000160: 6b09 8a3e 5860 4c3e 6941 bdbe 76ff 62bf
00000170: 62bd 15be 712f 0e3f 64e8 353f f303 a4bd
00000180: e0e0 6dbd b4b7 213f 470b 0abf 8512 05ba
00000190: a730 2b3e 4886 f4be 8841 b93d 0045 0d3f
000001a0: a347 c43e 906a 05be d6d1 323e 5c39 5f3d
000001b0: 2776 01bf f74e 423e 0ad6 a2bd c29c fb3e
000001c0: bd97 593f 032d 08be b868 033f e692 b23e
000001d0: db96 58be 2615 b83e 29d0 e13d 4ede a13e
000001e0: 88b3 c83e b636 303d 4244 323e d886 6a3f
000001f0: a08f 9d3f eee8 13be 0a31 983d 63b8 adbd
00000200: e148 3f3e 7b9c 89be 1501 44bf 7356 a4be
00000210: a320 a73e 82fa 6fbe 0ba2 48be e466 393f
00000220: 2f2b 483f e6ec d3bc 627c 7d3e 8f19 623f
00000230: 00a8 243e c037 fc3d a10d ee3e 326f 1bbf
00000240: e2c2 1bbe d1e8 18bf 5811 f4be 7f60 9c3e
00000250: b10b 993e 2681 08be 395c b53c bc08 4d3f
00000260: f543 bb3e ac24 113f 5845 0d3f e9bd c23e
00000270: e5d2 f33e 4c0f a73e f09d 793f 7590 38bf
00000280: b185 013f e65e 9dbf cf8b 33bf 887e 3bbd
00000290: e522 77bc f43a 83bf 97f9 483e 6782 d13e
000002a0: 481e d53e 715e dc3d 21a8 d8bd 8043 8bbe
000002b0: 09d2 c7be 4da2 bcbe 3a16 083f ea23 2d3e
000002c0: aef4 863f 1511 cf3e b571 0b3d 2dee 82be
000002d0: 05da a33e 63d2 83bf c1b5 a3bd b61e 6cbf
000002e0: bb6f 27bf 6e17 edbe f7cb c93d ef14 2dbf
000002f0: 7d8e 163d debf 05bf 900f 4fbf adb8 0dbe
00000300: f273 08bf 570a 57bf d93f 47be fbaf 1a3e
00000310: 427d ddbe ac41 353f feaa 0cbe 036c ba3f
00000320: f9d7 a93e a187 b13e 887e b1be 17bf 8a3e
00000330: 4d9d cc3c 4624 4e3e 809e 1d3f 9a30 3e3e
00000340: 3e24 3b3e 183d 903f 33d8 463f 1a67 22be
00000350: bd6e 29bd c643 9f3d bc9d 8f3d 59b2 4cbf
00000360: 7778 65bf 0506 fdbe 0da2 e4bc ba33 e7be
00000370: bbf9 4d3e ff54 123e e55c ffbe 79ce 13be
00000380: cffe 853e 379a 373f 0eca 8dbf 0406 84be
00000390: b822 e6bd fbca 103f 5b34 28bd 60b4 963f
000003a0: 6708 d23e 6606 9f3d 372a 413e 8d7e 273f
000003b0: 3ab4 923e cebc 123f 4101 653f eae0 2fbe
000003c0: e611 5d3f 4521 28be be7e 8abe 3981 1fbd
000003d0: 2770 a83e c4b2 a2bd 3629 d8be a1fb 42bf
000003e0: f210 d03e 5ec3 4c3e 68dd 7b3e 3655 0cbf
000003f0: 62ed 4bbf 3765 db3e 564d ffbe d50f 5ebd

rnn.bias_ih_l0_reverse f4 [16]
0.23419517 -0.1517422 0.058063377 0.3109661 -0.22923705 -0.1231695 0.021833267 0.21046524
-0.11430231 -0.052721236 0.27264747 -0.35899362 0.38917595 -0.08702745 0.08262601 -0.1756029
00000000: dcd0 6f3e 4f62 1bbe ddd3 6d3d f336 9f3e
00000010: 1ebd 6abe 4a40 fcbd aedb b23c 3384 573e
00000020: 5417 eabd 39f2 57bd 7398 8b3e 03ce b7be
00000030: 1242 c73e 733b b2bd d337 a93d 3fd1 33be

rnn.bias_hh_l0_reverse f4 [16]
0.07189075 -0.16379347 0.014263 0.10399574 0.0969093 -0.17498085 -0.12471322 -0.17524064
0.2357928 0.049698003 0.03857495 0.029263591 0.30504584 0.023933107 0.04555623 -0.21268578
00000000: 753b 933d 7ab9 27be 5caf 693c b8fb d43d
00000010: 6278 c63d 2e2e 33be a569 ffbd 4872 33be
00000020: ab73 713e 2290 4b3d c400 1e3d 33ba ef3c
00000030: f82e 9c3e 5d0f c43c 2b99 3a3d 4dca 59be

fc1.weight f4 [12, 32]
-0.5072384 0.8146141 -0.681917 -0.69871664 0.11932875 -0.75105095 1.0064712 -0.7120859
0.25520894 -1.0036222 -0.45075884 -0.21185935 0.5843361 0.43960184 -0.90687346 0.038230773
0.4348463 -0.33432603 -0.45190328 0.62759614 0.7046633 -0.4691155 0.809089 -0.08907999
0.67092913 0.86708647 0.7643963 -0.62554365 0.6001093 -0.8802071 0.74171424 -0.64625525
0.71714747 0.21627067 -0.39605105 -0.7423993 0.27418244 -0.3623659 -0.81763244 1.1130191
-0.21385516 1.4383965 -0.21808647 -0.53655726 -0.45221937 -0.11145359 0.70353997 -1.6042736
-0.9462037 -0.38290843 1.0747987 0.40141273 -1.1243275 0.20440096 -0.57742554 0.6587222
-0.5921517 0.7147141 0.45558164 1.1827937 0.42629173 -1.0906525 -1.3718671 1.3230096
0.9288089 -1.3732469 0.83739245 -0.92363733 -0.63670087 0.8180463 -0.6143464 0.01794181
-0.22623415 1.2747837 0.84980917 0.6206682 0.25364682 -0.30274618 0.8455403 0.60318834
-1.1742865 0.93698114 0.6990316 0.26389498 -0.77456254 0.7986976 1.2732124 -0.3042273
0.33123508 -0.7710164 0.11648198 0.5936259 0.3705383 1.1956501 0.4216624 0.15573761
-0.2872865 -0.103861675 0.8777642 0.7299081 0.76841325 -0.31859303 0.56528956 0.61296433
-0.63527954 0.367263 -0.3010671 -0.58102906 -0.9687109 -0.881307 0.90396214 -0.5226493
-0.89498967 1.1210008 0.28446797 -0.8506452 -0.5352989 -0.442326 0.51179266 -0.7926689
0.58460706 -0.87944144 0.07880025 -0.52574676 -0.5960172 0.6274613 0.6210262 0.81373405
1.7032428 -1.4727122 -0.28783432 -0.1552919 -0.8977714 -0.050530948 -1.5504993 -0.11101679
0.57980585 1.7067559 -0.33787644 0.75587094 0.2649535 -0.49636754 -0.7596822 -0.82910466
-0.24930204 0.42221957 -0.18404867 -1.078847 -1.2029709 -0.55103844 -0.22522436 -1.9211873
-0.232122 -1.0682666 -1.2873023 0.19482851 0.78793347 1.594124 0.22003621 1.8292391
0.36749563 1.3286316 0.62536097 -0.63788426 -0.77714795 0.50802124 -0.7826128 1.3985265
0.6522816 -0.23263639 -0.18028033 0.3474624 -1.3646251 -0.3442061 -1.1494347 -0.88205636
0.26965293 0.032347336 -0.28142607 -0.2857389 0.03322285 0.2818298 -0.16504282 0.18700351
-0.7199398 -0.33962053 -0.52030355 0.4340095 -0.1120865 -0.027763199 -0.87998295 0.24618256
-0.6595827 -1.5091743 0.18204923 1.5684024 -1.1331863 0.39735705 -0.20852868 0.7248736
-0.30227056 0.022728587 0.8040237 -0.48408145 -0.34566534 0.20567435 0.96014655 1.0195693
-0.37796417 -0.36229035 0.44018582 0.40969732 0.04027886 -0.5519491 -0.45603883 0.597451
-0.60508597 -0.5751205 -0.66568446 1.630866 -1.1545267 1.1393553 -0.24019134 -0.26710027
0.11901225 -1.1238319 0.25115064 0.10229728 -0.46996647 -0.22629459 -0.35213584 0.7550208
-0.048766624 -0.16144131 -0.2843148 0.20304859 -0.8736426 -0.07433703 0.9698839 0.8406885
-0.7463441 0.5583939 -1.1693254 -0.66097087 -0.56638384 1.2000841 -0.16182657 -0.9310219
-1.2575064 -0.9391735 0.50042444 -0.3298615 0.36924684 -0.5463659 -1.1077528 0.2256259
00000000: 60da 01bf 8d8a 503f 1d92 2ebf 18df 32bf
00000010: a262 f43d e044 40bf 0cd4 803f 434b 36bf
00000020: bfaa 823e b176 80bf ddc9 e6be a8f1 58be
00000030: 0d97 153f 7e13 e13e dc28 68bf df97 1c3d
00000040: 2da4 de3e c82c abbe de5f e7be 24aa 203f
00000050: d064 343f e82f f0be 7520 4f3f 926f b6bd
00000060: 03c2 2b3f 61f9 5d3f 7aaf 433f a123 20bf
00000070: c3a0 193f 4155 61bf fce0 3d3f fc70 25bf
00000080: fa96 373f 0f76 5d3e 34c7 cabe e10d 3ebf
00000090: a461 8c3e 0688 b9be 5c50 51bf 6977 8e3f
000000a0: d9fc 5abe 601d b83f 0f52 5fbe d15b 09bf
000000b0: 4c89 e7be c841 e4bd 321b 343f d658 cdbf
000000c0: 683a 72bf 930c c4be 0193 893f f885 cd3e
000000d0: f7e9 8fbf 7c4e 513e 29d2 13bf 05a2 283f
000000e0: 4197 17bf 81f7 363f ff41 e93e c965 973f
000000f0: e942 da3e 809a 8bbf 5799 afbf 6158 a93f
00000100: 6cc6 6d3f 8ec6 afbf 5a5f 563f 7f73 6cbf
00000110: d4fe 22bf 7b6b 513f ce45 1dbf b4fa 923c
00000120: eda9 67be 1d2c a33f 188d 593f 1ce4 1e3f
00000130: ffdd 813e 8c01 9bbe 5475 583f 8d6a 1a3f
00000140: 054f 96bf ffdd 6f3f bcf3 323f 3e1d 873e
00000150: bb49 46bf 7277 4c3f a0f8 a23f aec3 9bbe
00000160: a597 a93e 5561 45bf 1b8e ee3d def7 173f
00000170: 32b7 bd3e 100b 993f 22e4 d73e ae79 1f3e
00000180: 3717 93be 6eb5 d4bd 28b5 603f 42db 3a3f
00000190: bbb6 443f a01e a3be d1b6 103f 3beb 1c3f
000001a0: aea1 22bf e509 bc3e 7825 9abe 52be 14bf
000001b0: 70fd 77bf 569d 61bf 106a 673f 58cc 05bf
000001c0: 0b1e 65bf f47c 8f3f c9a5 913e e2c3 59bf
000001d0: 5909 09bf 8e78 e2be d804 033f 59ec 4abf
000001e0: cfa8 153f 1323 61bf 0762 a13d 5797 06bf
000001f0: 9594 18bf 4ea1 203f 93fb 1e3f e050 503f
00000200: dc03 da3f d581 bcbf 055f 93be d704 1fbe
00000210: 59d4 65bf 8af9 4ebd c376 c6bf c55c e3bd
00000220: 286e 143f fa76 da3f 24fe acbe c280 413f
00000230: fca7 873e e323 febe 887a 42bf 3440 54bf
00000240: 0949 7fbe 2a2d d83e 4177 3cbe a917 8abf
00000250: f3fa 99bf db10 0dbf 37a1 66be 77e9 f5bf
00000260: 64b1 6dbe f6bc 88bf 52c6 a4bf 2081 473e
00000270: 02b6 493f 410c cc3f 2c51 613e 8224 ea3f
00000280: 6328 bc3e 9a10 aa3f a817 203f 624c 23bf
00000290: 2bf3 46bf ae0d 023f 5059 48bf eb02 b33f
000002a0: edfb 263f 3c38 6ebe 689b 38be 97e6 b13e
000002b0: 09ac aebf c83b b0be ad20 93bf 72ce 61bf
000002c0: f30f 8a3e a47e 043d 1417 90be 5e4c 92be
000002d0: af14 083d ff4b 903e fc00 29be d97d 3f3e
000002e0: fa4d 38bf bee2 adbe 9d32 05bf 7e36 de3e
000002f0: 9b8d e5bd a66f e3bc 9046 61bf 4817 7c3e
00000300: 69da 28bf a02c c1bf 1d6b 3a3e 69c1 c83f
00000310: 400c 91bf 6272 cb3e 8b88 55be 5191 393f
00000320: 35c3 9abe 4d31 ba3c 7fd4 4d3f 86d9 f7be
00000330: 0cfb b0be 4c9c 523e 2acc 753f 3f81 823f
00000340: 8584 c1be 1f7e b9be 0960 e13e d9c3 d13e
00000350: 72fb 243d 894c 0dbf ec7d e9be 8cf2 183f
00000360: eae6 1abf 193b 13bf 4c6a 2abf 38c0 d03f
00000370: 88c7 93bf 65d6 913f b8f4 75be 5ec1 88be
00000380: b2bc f33d b9d9 8fbf d196 803e 3d81 d13d
00000390: 729f f0be c5b9 67be 264b b4be 0b49 413f
000003a0: 83bf 47bd df50 25be b691 91be f8eb 4f3e
000003b0: 0ba7 5fbf 033e 98bd 504a 783f 5d37 573f
000003c0: 6810 3fbf e7f2 0e3f 74ac 95bf 6335 29bf
000003d0: 88fe 10bf 5b9c 993f ddb5 25be 7457 6ebf
000003e0: f8f5 a0bf ad6d 70bf d11b 003f 9be3 a8be
000003f0: ec0d bd3e a3de 0bbf d8ca 8dbf 7a0a 673e

fc1.bias f4 [12]
0.21157004 -0.17105176 -0.6351124 0.048597496 -1.9731586 -0.2995411 -0.12521355 -0.3919279
0.22140968 -0.23038203 -0.63547033 -0.13165678
00000000: d1a5 583e 3128 2fbe ba96 22bf 2b0e 473d
00000010: 7690 fcbf 735d 99be fb37 00be c6aa c8be
00000020: 38b9 623e 44e9 6bbe 2fae 22bf 09d1 06be
