src/main/python/saved_models/kotlin_1_55_RNNClassifier1_128embs_178id_16hd_1hl_Truebid_2.pt (torch, 113311 bytes, 11 tensors)

word_embeddings.weight f4 [178, 128]
00000000: 32ce f0be 600f d3bf 856f 32bf 2ead 773f
00000010: 0c78 ed3e 150c 5b3d 5172 903f 2722 44bf
00000020: 4513 ab3f 288b 0fc0 4181 d2bf 2740 d93f
00000030: 166b d2bf 9b2b 613e 2c7c efbe 9979 ab3d
00000040: 7a4f 1bc0 8937 c2bf 03c6 d83e 3c37 ca3f
00000050: 0476 633f 5244 0a40 568e 0abf a805 fabd
00000060: 69c0 0cc0 9d51 f6be 4736 9cbe 617d 42bf
00000070: 371f 92bf 07b9 b6bf d296 663f 57c7 83be
00000080: f7ee 84bf 65ad 963e c5dc ff3e b7a8 aebf
00000090: 09ae f43f be1b 983f da82 a5bf 6f12 7abf
000000a0: 8a95 9b3f 2267 34bf 5424 413f ff72 69bf
000000b0: a904 1abf 46ef c13e 076f febf 3bd4 1040
000000c0: dbf0 eabe c94a 15bf 8aa6 a53e e33b a3bf
000000d0: 1051 78bf b07f 4bbf 02d9 1ebf c709 723f
000000e0: fa62 513e 8dde 2a40 9cb0 5f3e cf80 acbf
000000f0: 441a 1dbe 584e ff3e acbb d5be c0b6 2abf
00000100: 6c49 f83d a8f7 ea3d 459f 14bf 48f1 223f
00000110: 6a9a a93f 6442 39bc a939 923e 52e5 a3bf
00000120: 7290 5cbe 7929 6b3f f6d2 7abf 7984 28bf
00000130: e2fc c5bd ce52 dfbe 6dd6 0cbf 89b1 6cbd
00000140: 2252 4bbe d947 6b3e e81e 0940 6add fe3e
00000150: e0e1 97bf 6c7b 44bf a37b 6ebf 473d 8c3e
00000160: 7019 3c3e 0fdf 8bbf 8915 b8bf 0f4f 0040
00000170: cd96 7bbe 9b2a 903f 4e0c ed3d 541d 7cbe
00000180: d857 0ebe 5c42 95be 28fd d23e 5c62 8d3e
00000190: 6e0b a6bf c1ff 62be 1ad6 b53e 5f5d 4dbe
000001a0: 82d0 f23d 44cc 8dbf 5d5e 0f3f 8af5 ecbd
000001b0: 2ff8 09bf c3ab 1d3f c272 6cbe 68c2 e3bf
000001c0: 9ebe f3bf bacf b23f b355 11bf 6041 0fbf
000001d0: 74d1 48bf 6256 b83e 3bde 293e 004c 5bbd
000001e0: 7cd0 9a3f 2a2f 0fc0 c3e4 72bf f47f a03d
000001f0: 0517 4f3c 2efc 893e 0b55 edbe 34fb 9e3f
00000200: 4bf9 033f 6f87 07c0 994d 303f 6013 7cbe
00000210: 8880 0940 929d 163e c969 a8bd de19 443f
00000220: 7c82 3c40 97fe 76bf f643 38bf 7063 323f
00000230: 0be4 823e 75b4 9e3f 66d2 203f 9937 a1bf
00000240: 3c56 fcbe 08ef 823f b387 cf3e 6f9b 3c3c
00000250: c5f4 84bf a902 c2be 6692 84bf 81e8 ca3d
00000260: 321d 0bbe 20aa 95bf 068a 8abf ab23 0dc0
00000270: 9ed4 a7bf 0773 10bd c327 ebbe 06d5 8e3e
00000280: f789 6a3f 900e 0bbf 6057 efbf 97fe 233e
00000290: 0a65 2140 e8c0 a13e e65b 973f 5ec5 66bf
000002a0: 8020 46bf 6be1 78c0 fab1 323f 163b d7be
000002b0: 2b3a d4bd a931 92bf dbb7 8dbe ec6f d23e
000002c0: 7437 033e aa2f 92bf 760c 5cbe f331 fabd
000002d0: 6aec 9bbe acec b6be d162 313f 647c 89be
000002e0: be55 4abf 7bb4 433f aa81 023d 4c38 1cbf
000002f0: 15a6 22bf 38aa ca3e e1f5 c13e b017 7b3f
00000300: c430 dcbf c25c 943f 6450 f03d 31ba 693f
00000310: 87d1 b9bf e1c9 ff3e 3a20 3a3f 4f6f 293f
00000320: 4028 453e 2a53 39bf f2bf 823f 46b2 e4be
00000330: 79ea 31be ec2c c83e 99a6 b5be 0c15 ee3e
00000340: 302a 5a3f beca 823f c45a cfbe 858c 153e
00000350: f4fd 883f ce59 22bf 4f7c 223e b881 463f
00000360: e9bd c53f 3a94 0840 cc06 10c0 00ab 84bf
00000370: 4c6b 42bf f105 1240 1d15 5abe 19db fb3f
00000380: 16a7 523d 5976 423f 7ee9 64be 9b0d f03f
00000390: 243f 84bf bde3 72bf 26f0 e73f 9f69 f03f
000003a0: 5f4e 1e3f 94e9 9d3f d0bf 24bf be9d 41be
000003b0: 8a5c af3e 3c60 4fbe 66a8 903e de30 743f
000003c0: 89e9 8f3e eff2 403f 5600 3ebe 2430 bebf
000003d0: 417a ad3d f66a 8f3e cc0d 1abf bb17 ccbf
000003e0: e7d5 6ebf 5493 a3be 4c95 21bf 2cf6 0e40
000003f0: 7809 083f 2c8d b6bf 728c 9dbe 445f de3e
-0.47032315 -1.6489067 -0.69701415 0.96748626 0.4638065 0.05347832 1.1284887 -0.7661461
1.3365256 -2.2428684 -1.6445695 1.6972703 -1.643893 0.2198929 -0.46774423 0.08372802
-2.4267259 -1.5173198 0.4233857 1.5798106 0.8885195 2.16042 -0.5412344 -0.1220811
-2.1992438 -0.4810914 -0.3051016 -0.75972563 -1.1415776 -1.4275216 0.90073884 -0.25738022
-1.0385426 0.29429165 0.4997312 -1.3645238 1.9115611 1.1883466 -1.2930558 -0.9768438
1.2155011 -0.7046987 0.7544606 -0.91191095 -0.6016336 0.37877864 -1.9877633 2.2629535
-0.45886883 -0.5831724 0.32353622 -1.2752651 -0.9699869 -0.7949171 -0.6204988 0.9454617
0.20447913 2.6698334 0.21844715 -1.3476809 -0.15342051 0.4986446 -0.41744745 -0.66685104
0.12123379 0.11473018 -0.58055526 0.63649416 1.3250248 -0.011307333 0.28559616 -1.2804358
-0.21539477 0.9186016 -0.9797815 -0.6582714 -0.09667374 -0.43617862 -0.5501469 -0.0577865
-0.1985555 0.22976626 2.1425114 0.497783 -1.1865807 -0.76750827 -0.93157405 0.273905
0.18369079 -1.0927447 -1.4381572 2.0048254 -0.24569245 1.1263002 0.115746126 -0.24620563
-0.13900697 -0.2915219 0.41208768 0.27614105 -1.2972238 -0.22167875 0.3551491 -0.2005515
0.11856176 -1.1077962 0.5600336 -0.1157027 -0.53894323 0.6159021 -0.23090652 -1.7793703
-1.9042547 1.3969643 -0.5677139 -0.5595913 -0.784446 0.36003405 0.1658868 -0.053539276
1.2094874 -2.2372537 -0.9488031 0.07836905 0.012639766 0.2695021 -0.46353945 1.2420411
0.51552266 -2.1176412 0.68868405 -0.24616766 2.14847 0.14708546 -0.08223302 0.7660197
2.9454641 -0.96482223 -0.719787 0.6968298 0.25564608 1.2398821 0.6282104 -1.2595092
-0.49284542 1.0229197 0.40533218 0.011511668 -1.0387198 -0.37892655 -1.0357177 0.09907628
-0.13585356 -1.1692543 -1.0823371 -2.205302 -1.3111761 -0.03526595 -0.45928773 0.278969
0.9161677 -0.54319096 -1.869854 0.16015087 2.521792 0.31592488 1.182492 -0.9014491
-0.7739334 -3.8887584 0.6980282 -0.42037266 -0.10362657 -1.1421405 -0.27679333 0.41101015
0.12814122 -1.1420796 -0.21489128 -0.12216558 -0.30453807 -0.3572744 0.69291407 -0.26852715
-0.7903708 0.76447266 0.03186194 -0.610234 -0.6353467 0.39582992 0.37882903 0.9808302
-1.7202382 1.1590807 0.11734083 0.9129973 -1.4517068 0.4995871 0.72705424 0.6618547
0.19253635 -0.72392523 1.0214827 -0.44667262 -0.173746 0.39096773 -0.35478666 0.46500432
0.85220623 1.0218122 -0.40498936 0.14604385 1.07025 -0.6341828 0.15867732 0.77541685
1.5448581 2.134047 -2.2504148 -1.0364685 -0.7594497 2.2816126 -0.21297117 1.9676238
0.051428877 0.75961834 -0.22354695 1.8754152 -1.0331769 -0.9487875 1.8120162 1.8782233
0.61838335 1.2336907 -0.6435518 -0.1890783 0.3425029 -0.20251554 0.28253478 0.95387065
0.2810786 0.7537069 -0.18554816 -1.4858441 0.08470584 0.28011292 -0.601773 -1.5944742
-0.9329514 -0.3194834 -0.63118434 2.2337751 0.5313945 -1.4261832 -0.30771214 0.43432057

rnn.weight_ih_l0 f4 [16, 128]
00000000: 1e3f 20be 7cd9 763d 4729 42be de04 21be
00000010: ea9a ce3b c84b 0c3e be07 293e 7c17 25be
00000020: ebe9 3e3e e224 593e c484 bd3e 9c58 e4bd
00000030: 2158 b53c ce33 73be 6ad9 b3be afda 403e
00000040: 5a6b 253e 02b6 283e 0cc4 733e 0e3e 323e
00000050: 3898 b93e 0553 db3d 452c ce3d 2aaa e2bb
00000060: e1c5 7f3e 4fff 693b 96ed 1dbe e41d 853d
00000070: c3a3 5ebd d1be 713e 82fa ebbd 6326 e53d
00000080: 774b 043e ee5c babd 23e8 ab3d d634 6abe
00000090: 2dcd a3be b6c7 6c3e 0a94 e73d 718e d6be
000000a0: 1da7 7fbe 295e c8bd c3d4 0e3e 6715 f03d
000000b0: 46dc 60bd f07a 523e 5a96 35bc 3520 203c
000000c0: 1454 623e 09e4 25be e797 f23d 9c66 db3e
000000d0: d9e7 293d 778d 35be c443 bd3d 402a b13d
000000e0: 0717 bb3d 8980 aebe 359a 25be 77a4 e5bd
000000f0: 5e3b c0bd 077f 4ebe d6c0 28be 039a 8c3e
00000100: baeb bb3d e169 693c 55a1 243e 2488 8c3e
00000110: a42b aa3d c2fd 263e 7a80 333e 0b1b bb3e
00000120: 1f6e d2bd bfb8 2f3e 1644 0f3e 0e28 e43e
00000130: d3a0 54be 99a3 97be 7e72 e5bd fb23 5e3e
00000140: 7eba 4dbe c6e9 743d 72c6 1abc 58b8 95be
00000150: 4465 ed3d e8c0 c3be 3dc4 2c3e f01e f53d
00000160: 2995 943d 1cce 253d a068 823e 545f bc3e
00000170: e2c5 9bbd 0dc6 0ebe 1af8 113b 5718 9ebe
00000180: ae19 a4be 4136 2ebe ab5e 513c a4fa 0bbd
00000190: ee53 8f3e d161 c0bd b553 5d3c 3d05 273e
000001a0: 8313 703e c238 a43e be9b 143c ada4 063e
000001b0: 4160 8a3e 14bf 5cbd 69eb 003e 610b 223d
000001c0: b2df 103e 2f1b 073e 310e 9c3e 0849 f33e
000001d0: 8ea6 4c3d 3df3 dbbe 6305 583e 588f 3fbd
000001e0: 140f 52be 62de 483e 5cfe 79be e275 c5ba
000001f0: 336d 163d 9239 1f3e 142a bebc 0bd2 333e
00000200: 414e 5c3e f8c5 95be 3d7f 55bc d4a8 36be
00000210: aa53 23be 225d 993d 4dd7 15be f182 87be
00000220: be5b d5bd 9e53 21be f31a 933e cd11 59be
00000230: 84c7 213e 4e99 adbd 631c 3f3e c8cb 9cbc
00000240: 78e9 4fbd 9710 813e 82cb 4e3e 4513 dd3d
00000250: 9e1f 45be 9fa8 293d 02c9 343e 1828 a53e
00000260: f170 d1bb 8a0d 1ebf c52f d23c e10e f53a
00000270: fb04 463d aa78 0fbd 4dc9 25bd c968 8e3e
00000280: 4cb4 3a3c e10d ea3d 35ee 973e a455 b33d
00000290: 2173 2c3e e8bb 9d3d e68d bd3d 30df 903e
000002a0: baeb 373e 2c3d 5a3e 5e3d 863d 1dbf d33d
000002b0: c147 9cbd 40fc 2dbb 4d54 b5be d792 c93d
000002c0: f21e 0f3c d248 f1bd 2855 31be 565b bf3c
000002d0: deba afbd 12f5 533e 394c 4dbe 94bd 043e
000002e0: b7e5 4bbe d6c5 98be ce27 1e3e 3b79 013e
000002f0: c982 833d 3c37 3ebe 9f95 363e bfc9 a83d
00000300: 11aa c7bc d643 773c 0e1d e5bd b1fc 22be
00000310: 03d2 6c3e 4104 14bd 8da1 ddbd 8d7f 9c3d
00000320: ea7d 6abc 9a44 1bbe 9564 5dbd 0d20 dd3d
00000330: eaf3 803d 90f4 33be 3010 4bbd dc8a 37be
00000340: 0601 a03d 2e66 60be 207c 663e 0409 5d3c
00000350: 2a66 1dbe c414 a3bd 051e f6bd e140 a53e
00000360: 8219 08be c577 153c 1371 95be 88bd babd
00000370: 2001 063e e78e 603e 72c0 30be dcd1 34bc
00000380: 67a2 81ba 2746 0d3e f784 853c d425 1c3e
00000390: 2a7d 8abe 2276 21be edcf babd 5c13 13be
000003a0: 3b02 843d 0113 afbd f61a 5c3d 25b4 b43d
000003b0: e0c0 613c d9ea 423e 0489 23bd 94e9 f9be
000003c0: 8bcd 65be 2a33 5b3e 6a59 80be ed56 80be
000003d0: a4e9 96bc 0eae 4dbe d897 823e 33b7 5b3e
000003e0: 53f1 3ebe cca3 80be aa6c c53d b481 91bd
000003f0: 9e54 0dbd de70 153e 10ff 6abe 55f5 09be
-0.15649077 0.060266003 -0.18961059 -0.15724513 0.0063050883 0.13700783 0.1650686 -0.1612224
0.1864392 0.21205476 0.37015355 -0.111497134 0.02213675 -0.2375023 -0.3512681 0.18833421
0.16154233 0.1647568 0.23805255 0.17406484 0.36248946 0.10709194 0.100670375 -0.006917258
0.24977829 0.0035705154 -0.15422663 0.06499842 -0.054355394 0.23607947 -0.1152239 0.11188962
0.12919413 -0.09099756 0.08393886 -0.22871718 -0.31992474 0.23123059 0.11307533 -0.4190555
-0.24966092 -0.097835846 0.1394835 0.11722832 -0.05489757 0.2055471 -0.01108321 0.009773304
0.22102386 -0.1620027 0.11845379 0.42851722 0.041480873 -0.17729746 0.09241441 0.08650637
0.091352515 -0.3408244 -0.16172107 -0.1121301 -0.093863234 -0.20165645 -0.16479811 0.27461252
0.09175821 0.014246435 0.16077168 0.27447617 0.08309105 0.16307738 0.17529479 0.3654407
-0.1027491 0.17160319 0.13990816 0.4456181 -0.20764475 -0.29617003 -0.11203478 0.21693413
-0.20090672 0.059793256 -0.009446727 -0.29242206 0.115915805 -0.38233113 0.16871734 0.119687915
0.072550125 0.040479764 0.25470448 0.3679148 -0.076061025 -0.13942738 0.0022273124 -0.30877945
-0.32050842 -0.17012884 0.012778918 -0.034174576 0.2799372 -0.09393657 0.013508727 0.16310592
0.23444943 0.32074553 0.009070335 0.13148756 0.2702656 -0.053893164 0.12589802 0.039561633
0.14147833 0.13193963 0.30479577 0.47516656 0.049963526 -0.42959014 0.21095805 -0.046767563
-0.20513564 0.19616082 -0.24413437 -0.0015065039 0.036725234 0.15549305 -0.023213424 0.17560594
0.21514226 -0.292526 -0.013030824 -0.1783784 -0.15949884 0.07488467 -0.14632912 -0.26467088
-0.10417889 -0.15754554 0.28731498 -0.21198197 0.15798765 -0.08476506 0.18663172 -0.01914014
-0.050759763 0.2520797 0.2019482 0.10794691 -0.19250342 0.041420575 0.17654803 0.32257152
-0.0063916375 -0.6173941 0.025657544 0.0018696451 0.048344593 -0.035027184 -0.04047518 0.2781432
0.011395525 0.114284284 0.29673925 0.08756569 0.16840793 0.07701856 0.092555806 0.2829528
0.17961016 0.21312398 0.065546736 0.10339186 -0.076308735 -0.0026548058 -0.3541588 0.098424606
0.008735405 -0.117814675 -0.17317641 0.023358982 -0.08580564 0.20698956 -0.20048608 0.12962943
-0.19911848 -0.29838437 0.15444872 0.12643902 0.0642143 -0.18575758 0.17830513 0.08241605
-0.024373086 0.015091857 -0.11187182 -0.15916707 0.23126988 -0.03613687 -0.10821829 0.07641516
-0.014312247 -0.15162888 -0.054051 0.10797129 0.06296523 -0.17573762 -0.049575984 -0.17924064
0.07812695 -0.21913978 0.22508287 0.013490919 -0.15371004 -0.07962945 -0.120174445 0.3227606
-0.1329098 0.009122794 -0.2918783 -0.091181815 0.13086367 0.21929513 -0.17260912 -0.0110363625
-0.0009890319 0.13796292 0.016298754 0.15248805 -0.27048618 -0.1576772 -0.0912169 -0.14362854
0.06445738 -0.085485466 0.05373665 0.08823422 0.013778895 0.190349 -0.03992559 -0.48811018
-0.2244169 0.21406236 -0.25068218 -0.2506632 -0.018421955 -0.20085928 0.25506473 0.21456604
-0.18646745 -0.25124967 0.09639867 -0.07104817 -0.034504525 0.14593837 -0.22948861 -0.13472493

rnn.weight_hh_l0 f4 [16, 16]
00000000: cda0 fdbd c2cf a43f ef9a e1be 9308 5bbe
00000010: 1a7f 74bf 9e68 3e3e 5051 9e3e 1393 5a3e
00000020: 0070 68be 50bd 90bd a062 ab3d 58f7 b53e
00000030: 780d d13e b4ad a1bf 28fb 28bd 91fa 2b3f
00000040: 518b 863f cadc 503f 5067 8a3e f433 7ebf
00000050: b2dd 5e3d 2027 833f 1e48 1dbf aad8 063e
00000060: fa58 143f d93c bf3e 381d 29be 100f dfbe
00000070: 5abb bdbe fad0 1cbf 9664 12bf 81c4 04be
00000080: 071c 6dbe f39a ca3e 0a89 b33e 6878 41be
00000090: 3688 d2bc dc41 2c3f f6b3 16be b63e 243d
000000a0: 2b96 95be 2f09 12bc 8473 08bf d2a9 07be
000000b0: 9c51 a83e e1dc 563e 85c2 0e3d c340 c4be
000000c0: 7031 54be f847 a7bf 67cf 9a3e 1746 89be
000000d0: 514a 15bd 5420 a7be 42d8 c5bd 7691 81bf
000000e0: 4c1b b43e 3ff4 673d 9048 0f3c a985 b73e
000000f0: d324 c13e fa16 b53e ca3f 76be ea37 94bf
00000100: ecb4 5b3f e827 0bbe 600b 4bbb ed0a 983e
00000110: 04a5 303e 2261 b1be 1463 19bf 9e83 fb3e
00000120: b20b 57bf 9b51 253f b151 203d ef0c 82bf
00000130: 53f5 cdbe d2ab 943d 78dc 10be 2198 bdbe
00000140: 08da 88bf 487c 13bf 5d3a 06be 1464 913c
00000150: 63f4 a4bf 4411 973f 4391 88bd 6924 8abd
00000160: 1053 d6bb 6b39 3c3e 6c55 c93e 850a ed3e
00000170: e5a0 653f 9970 a13c b811 5a3d fe4f 0e3f
00000180: f198 3ebe d8ab 82bf 101b 003e e14a aebe
00000190: f3d0 0ebf 07c6 a63e 6226 8a3e 99de 393e
000001a0: 8360 053f de28 b53e 2c8c 693e 8378 b23f
000001b0: 6107 b13f 0292 00bf 208a 41bc 6ea8 0fbe
000001c0: 452b 483e ab85 453f 4db5 cdbe ae25 54bf
000001d0: b86f d53d 17ea d13e 3a4f 613d 8d10 32bf
000001e0: 52eb 213f 27b7 503d 94b6 893e b79d 02be
000001f0: 0a34 3fbe 7e19 163f 879d 2abf c940 933f
00000200: 1320 7e3e 286c 313f bab1 babe 5bf3 173b
00000210: 1db0 6cbf 6020 3f3c 5727 0abe 82bf 493f
00000220: 5f39 85bf f64d 273f b315 3dbe aed2 063f
00000230: 1dd1 d23f f149 533e 1b13 acbe 9f46 7bbe
00000240: 09db ec3c 328c 0bbf 525b 2ebe 1a24 9d3e
00000250: 928b 8b3e cfee 353e b291 573e 0af0 843e
00000260: 8fe7 0b3f 0666 bfbf 4644 9abe 6475 8ebd
00000270: 9102 a5be 20e1 b8be 389e 2c3d 8fdb 413f
00000280: 8f08 7d3f 7637 113f e9ef a83b e808 7f3e
00000290: 18cf 0e3f da3c 6ebf 499d 433d ae12 343f
000002a0: 12c7 3b3e fe90 f8be 3e98 4ebc 4b13 0dbf
000002b0: ee13 90bf 15ae ccbe 6485 e23d a1b1 eabf
000002c0: 1754 d3bd 1619 1abf 3bed 1bbe 66d5 283f
000002d0: f303 d5be c9ba 19bf 504f dd3e 4759 1abf
000002e0: 3e32 3bbf 171b 80be 4c21 2f3e 8caa 6a3f
000002f0: 54e7 963f 879c febc ad32 bf3c edad a6bf
00000300: d224 f6bd 1286 e73e fe7c 8f3e 70d6 593e
00000310: 1da6 32be 7ae8 acbe 0750 253f b6cb 14bf
00000320: 8755 023f 9aa6 88bf 556e 69bd d888 403f
00000330: d40f 393e 0b4c e0be 48e3 533f a7a0 5e3d
00000340: 869c 773d 53f8 18bf fb4a 0dbf 1a0c 403f
00000350: c0b9 c5bc e234 b3bf 5fa1 c1bd ffdd 233f
00000360: bf97 403d cdb1 183f 2c27 223f 2870 f7bd
00000370: e626 cb3d 814b 763f ae00 a0be 88c4 b3be
00000380: 2a79 33bf c960 d0bf 6485 b33e b8e2 a43d
00000390: 2455 603e d5d7 f93c 1414 a2be 06ee efbe
000003a0: a08e 0d3f 47ea 5c3e 2d68 8d3e e6f3 6f3f
000003b0: 2a50 133f 72de 643f f3e2 dd3c db5b e3be
000003c0: 488d b93d 3e89 8b3f d24e f23e c2d3 0bbd
000003d0: 6c6f 1abf d73c c13e 5203 f4be 4d90 5b3f
000003e0: 9c84 6a3f e34c 10bf d11d 5f3e 5421 893f
000003f0: f58f 293f 46bc 6abf c8d8 893e d115 eabe
-0.12384186 1.2875903 -0.44063517 -0.2138999 -0.9550644 0.18594596 0.30921412 0.21345167
-0.22698975 -0.070673585 0.083684206 0.3554027 0.40830588 -1.2631135 -0.041255146 0.6717921
1.0511266 0.815869 0.27031946 -0.99298024 0.054410644 1.0246315 -0.6143817 0.13168588
0.5794827 0.3735111 -0.16515052 -0.4356618 -0.37057 -0.6125637 -0.5718473 -0.12965585
-0.23155223 0.39571342 0.3506549 -0.18893588 -0.025699716 0.67287993 -0.14717087 0.04009887
-0.29216132 -0.008913322 -0.5330126 -0.13248375 0.32874763 0.20982696 0.034853477 -0.3833066
-0.20721984 -1.3068838 0.3023636 -0.26811287 -0.036447827 -0.32641852 -0.096603885 -1.0122516
0.35177076 0.056629416 0.008745328 0.35844162 0.37723407 0.35369092 -0.24047771 -1.1579564
0.8582294 -0.13589442 -0.0030982122 0.29695836 0.17250448 -0.3464442 -0.59916806 0.49123853
-0.8400222 0.64577645 0.039140407 -1.0160197 -0.4022623 0.072593346 -0.14146602 -0.37030128
-1.0691538 -0.57611513 -0.13108201 0.017747916 -1.2887081 1.1802144 -0.066683315 -0.06745226
-0.0065406635 0.18381278 0.39322984 0.46297088 0.8969863 0.019707011 0.053239554 0.5559081
-0.1861303 -1.0208693 0.12510324 -0.34041503 -0.5578758 0.32572958 0.2698241 0.1815132
0.5210039 0.35382742 0.22807378 1.3943027 1.3830377 -0.5022279 -0.011812717 -0.14029095
0.19547756 0.77157086 -0.40177384 -0.82869995 0.10421699 0.4099891 0.055007197 -0.69556504
0.63249695 0.050955918 0.2689711 -0.12755476 -0.18672195 0.5863265 -0.6664662 1.1504146
0.24816923 0.6930566 -0.3646372 0.0023185823 -0.9245623 0.011665434 -0.1349157 0.7880784
-1.0408133 0.65353334 -0.18465309 0.5266522 1.6470066 0.20633675 -0.33608326 -0.24538659
0.028913038 -0.54510796 -0.17027023 0.30691606 0.2725492 0.1776688 0.21051672 0.25964385
0.54650205 -1.495301 -0.30130213 -0.06955984 -0.3222852 -0.36109257 0.042143077 0.75725645
0.98841184 0.5672525 0.0051555526 0.24905741 0.5578475 -0.930616 0.04775742 0.70341
0.18337658 -0.4854812 -0.01260954 -0.55107564 -1.1256082 -0.39976564 0.110605985 -1.8335458
-0.10318773 -0.6019453 -0.15227215 0.6595062 -0.41604576 -0.60050637 0.43224573 -0.60292476
-0.7312354 -0.25020668 0.17102545 0.91666484 1.1789346 -0.031080497 0.023339594 -1.3021828
-0.12018742 0.45219475 0.2802505 0.21273208 -0.1744618 -0.33771116 0.6457524 -0.5812334
0.50911754 -1.0675843 -0.056989986 0.75208807 0.18072444 -0.43808016 0.8276868 0.05435243
0.060452007 -0.5975391 -0.55192536 0.75018466 -0.024136424 -1.4000514 -0.09454607 0.64010614
0.047019716 0.596463 0.6334102 -0.12081939 0.09919529 0.9620896 -0.3125052 -0.3511088
-0.70106757 -1.6279536 0.35062706 0.08051056 0.21907479 0.030498425 -0.31655943 -0.46861285
0.55295753 0.21573745 0.27618542 0.93731534 0.57544196 0.89401925 0.027085757 -0.44406018
0.090601504 1.0901258 0.4732576 -0.034137495 -0.60326266 0.3774173 -0.47658783 0.8576706
0.91608596 -0.5636732 0.21788718 1.0713296 0.66235286 -0.9169353 0.26923203 -0.4571977

rnn.bias_ih_l0 f4 [16]
00000000: b69d 8bbe 2562 12be 6e25 06be e499 3f3e
00000010: 2366 85be b017 163e e64e 7b3e 9f64 e93d
00000020: 8e99 cf3c aab3 24be e0c8 b0be eff9 433e
00000030: 08c9 bf3d 3abb d9bd 9852 33be 992e 0cbe
-0.2726876 -0.14295252 -0.13100216 0.18711048 -0.26054487 0.14657474 0.24541816 0.11396145
0.025341775 -0.16084161 -0.34528255 0.19138311 0.093645155 -0.10631414 -0.17511976 -0.1368965

rnn.bias_hh_l0 f4 [16]
00000000: bb96 2cbe 8654 f0bd 2e2b 11bd b0fc 4d3d
00000010: f211 a6be 3e5e e0bd f8fc 3f3e 1901 8cbe
00000020: 9cae 473e f365 f4bd ac07 01be aee0 853e
00000030: 07fd d23d adfb 603e c8d6 ae3d 9fd5 8ebe
-0.16854374 -0.117348716 -0.03544157 0.05028981 -0.32435566 -0.10955475 0.18748844 -0.27344587
0.19500202 -0.11933508 -0.12600583 0.2614798 0.103021674 0.21971007 0.0853706 -0.27897355

rnn.weight_ih_l0_reverse f4 [16, 128]
00000000: fbb4 e03d 06c5 833e eac4 bf3d c12b babe
00000010: 1031 973e 7ba4 7dbd d1c0 da3d 4409 753e
00000020: 8d2d 7cbd 5ea8 41be 254d 5cbe 15f3 50bd
00000030: ac26 8dbe 4fcb 2abe eec4 15bd 51ed 48bd
00000040: e9fc 483e 80a0 cdbd 0b84 e5bd 1063 0cbe
00000050: 5122 e53d 7bae 1c3d d4c2 53be e0b0 93be
00000060: aed0 69bc 36e0 02bf 3e8a 4a3e bccb 283e
00000070: 5eae 87be 9689 913e eebf a0bd 1906 f5bd
00000080: 027b 7fbe a0b5 9b3d 0289 073d 3b2e 51bd
00000090: 95b5 863e 655e 033e f6ec 2abe e76d 82be
000000a0: feec 1cb9 1b5f 50be 9739 f1bd 3b34 eebe
000000b0: 8c42 4bbe 1ead 6bbe aff7 2e3e b8b5 35be
000000c0: d7fc f5bd 034e 263e 5454 7ebe 4882 c63c
000000d0: 09d8 213e ce7d aabd 0557 f3bd 9bdf 863b
000000e0: aaca f9bd f874 c8bd 43a6 a53e c453 80bd
000000f0: 1f75 80bc 0cd6 79be 0c0b 92be c763 3dbe
00000100: 53fd 8abe 9e41 fa3d c752 56bd 02eb 94be
00000110: 3cbe 2ebd b0d8 12be 89cf c43d 2a9e 3fbe
00000120: 8a88 1c3d d6ad 21bd 2dc6 82be 359e 5ebe
00000130: d490 6a3d e15b 62be 57af 8d3e 8f5e 3d3b
00000140: f4be e03d 4091 cb3d 5d60 b83d 7003 823c
00000150: 60b4 483e 5b7d cf3d f857 3f3d 3beb 733d
00000160: 21f4 80bd e7d7 1cbe 0fd4 aabd ff1b 99be
00000170: c134 4ebe 2221 77bd 2874 7e3e 0422 14be
00000180: 42d4 333e bfb7 4a3d a795 5c3c 3630 82bd
00000190: 0f4c a2bd 9f8d b63e 4347 9c3e 04ba 393e
000001a0: 7e85 bebc 0e3b 8d3e e9e1 d03d 6e03 31be
000001b0: ece2 253e 2821 4bbe a974 443d 42f5 533e
000001c0: e1e2 32bd 2c1f 5e3e e47a 22be 260d c0bd
000001d0: 42e0 3cbf 71d9 fdbd e58a 83be 40c0 653d
000001e0: aaac b43e f505 96be 87c4 2f3e d82f bd3d
000001f0: c7c5 943e dfc3 30be 6958 adbe a467 70bd
00000200: 999f 4abe 83f3 65bd a3e7 aabd 24bf 4ebd
00000210: 04bd 083c 80e8 a43d ec98 4c3e 09b3 13bd
00000220: ce00 693e 9123 9dbd 93ff 573e ae99 32bd
00000230: 0a69 273e 11e5 203e ae71 6abe 28b3 81bd
00000240: d867 7e3e f733 523d e5c6 00be 8c9b 8e3e
00000250: 646c eebd 7d2b 3dbd f4d4 943e e5bd a33d
00000260: 4450 35be 4362 183e 6d7f 9a3e 4906 10be
00000270: 4948 b53d c6aa 1f3e 7e7c 68be aaa3 973e
00000280: e4c8 5d3e a935 9cbe e2cd aebd 5283 2bbe
00000290: fc54 25be b0b4 8abe ad3e b7be 8968 7c3d
000002a0: ad20 1abe 35e3 4bbe 1f5e 36be d3e9 9a3d
000002b0: 5fa5 2ebe 1542 0bbd dd83 5b3d e2bb ecbd
000002c0: 1c0c 423e 6234 773d 482c c73c 78cb 123e
000002d0: b837 3a3e 7c24 2dbe 2a5a 13be 7d91 0bbd
000002e0: a7ec 233e c9b9 1abe beed dcbc 11c2 7ebd
000002f0: 9030 4e3e cf74 a0be 9192 babe 43e2 c53d
00000300: 3e9b b33d 947a 6b3e af22 11be 1b97 173e
00000310: 01c3 96be 9859 cc3d 2717 b2bc adb6 883e
00000320: 1300 17be 657f 19be 9789 fdbd cc4c 903e
00000330: 0247 863d 35ea 2b3e e5d4 34be 17b1 3fbd
00000340: dbaa 843d 0521 a8bd 20a8 523e 7b67 19be
00000350: 1d3f 223e c033 26bd 9c5e 0cbd dccc 123c
00000360: 30ce 643e 25ba 203e 77c3 f4bd a63e f1bd
00000370: 0f71 153e 3304 013e 0c13 f73c e68e 813e
00000380: 18fa 3b3e 4e5f 55be 4bc3 563e accf 6abe
00000390: ada0 31be b71c 51bd 0b08 b63e e120 7bbd
000003a0: 63ae d0bd 3b6c b43b 5a64 e7bd 9411 823d
000003b0: c5c7 06bf cdf0 8bbe f4ec 053e 2260 a2be
000003c0: 3af6 54be f634 013e 914c 9dbd 2a2d 86be
000003d0: d13e 05be 231d 99be ef02 2dbb 6536 553b
000003e0: a435 18be 6c1f cabd 0de7 d53c 42ec 813e
000003f0: e896 11be 00ad 70be c228 9f3d ddfa 4c3e
0.10972019 0.25736254 0.0936373 -0.36361507 0.2952962 -0.06192444 0.10681308 0.23929316
-0.061566878 -0.18911883 -0.21513803 -0.05101307 -0.27568567 -0.16679119 -0.03656476 -0.049054448
0.19627728 -0.100403786 -0.11206826 -0.13709664 0.11188186 0.038252335 -0.2067979 -0.28845882
-0.0142709445 -0.5112337 0.19779298 0.16483968 -0.2650022 0.28425282 -0.07849108 -0.11964054
-0.24949268 0.076030016 0.033089645 -0.05106948 0.2631041 0.12828977 -0.16691956 -0.25474474
-0.00014965606 -0.2034878 -0.117785625 -0.46524224 -0.19849604 -0.23015258 0.17086671 -0.17745101
-0.12011116 0.16240697 -0.24836856 0.024232045 0.15805067 -0.083247766 -0.11881832 0.0041160113
-0.12196858 -0.09787935 0.3235341 -0.06265977 -0.015680848 -0.24398059 -0.28524053 -0.18495093
-0.27146396 0.12219547 -0.052325036 -0.29085547 -0.04266189 -0.14340472 0.09609897 -0.18712679
0.03821615 -0.039472423 -0.2554182 -0.21740039 0.057267025 -0.22105362 0.27672836 0.0028895473
0.109739214 0.099398136 0.09002755 0.01587078 0.19600058 0.101313315 0.046714753 0.059550505
-0.06296564 -0.15316735 -0.08341228 -0.29904172 -0.20137312 -0.060334332 0.24848998 -0.14466101
0.17561439 0.04949164 0.013463414 -0.06356852 -0.07924663 0.35654923 0.30523118 0.18137366
-0.023257013 0.27584118 0.10199339 -0.17286465 0.16199845 -0.19836867 0.04796282 0.20699027
-0.0436734 0.21691579 -0.15867192 -0.09377508 -0.7377969 -0.12394989 -0.25691906 0.056091547
0.35287982 -0.2930142 0.17164813 0.09237641 0.29057142 -0.17262219 -0.33856514 -0.05869259
-0.19787444 -0.056140434 -0.083449624 -0.050475255 0.008345846 0.08052158 0.1998021 -0.036059413
0.22754213 -0.076727994 0.21093588 -0.04360359 0.16348663 0.15712382 -0.22894928 -0.063329995
0.24844301 0.05131909 -0.12575872 0.27853048 -0.116417676 -0.04618405 0.2906872 0.07995204
-0.177064 0.14881234 0.30175343 -0.14064898 0.08851678 0.15592489 -0.2270374 0.29617053
0.21658665 -0.3050969 -0.08535363 -0.16749313 -0.161457 -0.2709098 -0.35790005 0.06162313
-0.15051527 -0.19910891 -0.17809342 0.0756413 -0.17055272 -0.033998568 0.05359255 -0.11559273
0.18949932 0.06035269 0.024313107 0.1433543 0.18185318 -0.16908449 -0.14389864 -0.034074295
0.16008244 -0.15109934 -0.026968833 -0.062196795 0.20135713 -0.31339118 -0.36439946 0.096622966
0.087698445 0.22995979 -0.14173387 0.14803736 -0.2944565 0.09978026 -0.021739556 0.2670187
-0.14746122 -0.14990003 -0.12379759 0.2818359 0.065565124 0.16788562 -0.17659338 -0.046799745
0.064779006 -0.08209423 0.20571947 -0.14980881 0.15844388 -0.040576696 -0.034269914 0.008959975
0.2234428 0.15696009 -0.119513445 -0.11779527 0.1459391 0.12599258 0.03016045 0.25304335
0.18357122 -0.20837137 0.20972936 -0.22930783 -0.17346449 -0.051052775 0.3555301 -0.061310653
-0.101895116 0.005506066 -0.112984374 0.06351009 -0.52648574 -0.27332154 0.13078672 -0.3171397
-0.20797053 0.12617859 -0.076806195 -0.26206332 -0.13012244 -0.29905042 -0.0026399454 0.0032533642
-0.14864212 -0.098692745 0.02611115 0.25375563 -0.14217722 -0.23503494 0.07771446 0.20017572

rnn.weight_hh_l0_reverse f4 [16, 16]
00000000: f436 90be a792 f9bd 9e0b 513f cd54 02be
00000010: 0845 5e3f 8a0a 10bf fb20 9a3e 89c5 69be
00000020: 3ecf 9ebe a1ac 75be f918 2bbe 139d 01bf
00000030: 9cca 61bd f7c5 683f 6e7c 013e 360a 32be
00000040: 931b 90bf f09e 993e 01f9 883f eae6 09bf
00000050: a02d 45be c72a 26bf a78b 14bd 61f3 74bf
00000060: bb3a c03e a9f7 1c3e 3afc 883d d9b4 4c3e
00000070: 99a7 943e 1607 67bd dc27 83be d9e5 ebbc
00000080: bfc5 94be 757b a23e c8ca 263f 385e 39bf
00000090: dba5 483e 832d 263e 7f96 dabe bcb4 38bf
000000a0: 514c 003f 3565 b83d 16a7 a83f fb37 63bf
000000b0: e2e4 a0bd 4720 a9bb 3d0b bd3e 3520 91bf
000000c0: 7ef5 c8be 10ec a93d a95a 28bf a378 243c
000000d0: 2ce5 163e de54 67bf 00c2 20be 46b3 123b
000000e0: 2a15 6ebf d4fa ff3d 7012 ec3e 208e 643f
000000f0: 5511 903e 7d2a 73bc efad 513e 8115 c53e
00000100: 5102 303d 824c d13d f48c f3be eb5a 2abf
00000110: 3edb 053f 509b f73e ad68 73be 91c3 c83e
00000120: 1ada 9b3e 5308 81bc d737 08bf 1f36 cbbd
00000130: 290f e73e 1b16 953f 8c47 333e 694f 023f
00000140: a35c 34bf d09a 79bf 7dd9 69be b551 bf3c
00000150: 5b20 843d 9901 2bbf 1ce8 d83d 54d2 6ebd
00000160: 173f 013e 26ff 7b3e dea1 2e3f c3a6 53bf
00000170: b1d8 9fbe b677 41be 001d 65bf 5b03 2e3d
00000180: 587a 1a3f 0365 dfbe 0dcd 30bf 2c4d 32bf
00000190: 753b 663e b551 813f ea0a 773d 599b 5abe
000001a0: 2835 273f 5049 c6be f13e 2e3e ef66 09bf
000001b0: 2aa6 dabd 72f0 ff3c 0560 303e 9c07 16bf
000001c0: 13eb 033e 2a4e 2bbf 8a46 153f 1ebc 23bf
000001d0: f5ce 893e e18e aa3d 4883 113f 3815 2c3e
000001e0: a694 2a3f 8b50 fd3c 8caf 92be a49e d2bf
000001f0: 3599 793d 398e 193f 9237 9d3e 980f 36be
00000200: 3869 833f 260a 893e dc36 683b 6e8b 94be
00000210: 2516 0dbf 541b c23e fd46 06be 624f 2c3e
00000220: d796 623f 74e6 623e da9f 24bf caa5 65ba
00000230: 8adb 173e 5bd8 04be 4641 2c3f f94c 1e3f
00000240: c9ac 65be da3f cebd bb6e 7b3f 37a5 203e
00000250: d90f 87be 240d 90bd 4355 02bf 366c e6bd
00000260: 3c5f 09bf 4f3c e7bb bba9 04bf e78f 8e3f
00000270: 15a7 323f af36 0a3f 8dff 0f3f 8fb8 483f
00000280: dff0 08bf 0906 90be f0ba b93d b5fa 40bd
00000290: 37bb c73d 4c5c 353f 578d cb3e bcb1 03bf
000002a0: ae2c d9be 4cf7 04be 7491 95bf f8df 603f
000002b0: 6ce3 313f f830 103f 6776 abbe c676 083f
000002c0: e0a4 41bf a53b c03d 4a4a a53e a4f7 5f3e
000002d0: 07b3 1e3e a7f1 80bf 83ee 543d 5151 8abf
000002e0: 1293 4cbf 776a 073f 3334 c93e 0320 a3be
000002f0: ce0b 44be dbb7 b9be dbaa 83be 8e4b 1ebf
00000300: 3501 90be 7a88 19be a055 8f3f d0a0 243f
00000310: 1585 1cbf daa6 7abe 39a0 3f3c 3606 80bd
00000320: 1464 6abf e979 5c3e dba0 22bd a7f2 523f
00000330: 2997 a13e 2f26 01bf a8f0 043e b538 923e
00000340: 31f9 5d3f 8f0f a6be 3444 a23e 7558 50bf
00000350: 437b c73e 0709 783f 8fc9 08bb b5c2 ed3c
00000360: 1150 983f 3ae8 cd3d 8b3c b53e 81dc 10bf
00000370: 15d9 d6bd d04b 5e3e 33ba b3bd 25df 9b3d
00000380: 14f8 133e b418 573e 39a4 9c3f 8570 10bf
00000390: 2ec6 98be 23c0 163f b8be a13c a6be 3abf
000003a0: 8ac9 913d e940 333e 58ca dabe d7d4 b73e
000003b0: 38d3 183f 27be 6c3e 23dd db3e bfb1 b93e
000003c0: 31bf cebe 5fd7 acbe 0a5a ac3e c0ba 9b3e
000003d0: bcb5 39bf 8cc8 253e 14e8 1f3d ab28 d43e
000003e0: f137 d3be f87f 4fbd 515c 34bf 30d4 813f
000003f0: 19bb 4cbb 3024 bc3d 7ea1 afbe 1f62 7a3f
-0.28166926 -0.12186175 0.8165835 -0.12727661 0.86824083 -0.5626608 0.30103287 -0.2282926
-0.31017488 -0.23991634 -0.16708745 -0.506303 -0.055124864 0.9092707 0.12645122 -0.17386708
-1.1258415 0.30004072 1.070099 -0.5386797 -0.19255686 -0.64909023 -0.036265995 -0.95683867
0.37544808 0.1532885 0.066887334 0.19990863 0.29034117 -0.056403242 -0.25616348 -0.028796123
-0.29057118 0.31734815 0.6515317 -0.7240939 0.19594519 0.16228299 -0.42692944 -0.7215078
0.5011645 0.09003679 1.317599 -0.88757294 -0.07856156 -0.0051613185 0.36922637 -1.1337954
-0.39249796 0.082969785 -0.65763336 0.010038528 0.1473586 -0.9036387 -0.15699005 0.0022384687
-0.93001044 0.124990135 0.46107817 0.89279366 0.28138223 -0.014841673 0.20476507 0.3849297
0.04297096 0.10219671 -0.47568476 -0.6654498 0.5228766 0.48360682 -0.237704 0.39211705
0.30439836 -0.01575104 -0.53210205 -0.09922432 0.45128754 1.1647371 0.17507762 0.5090242
-0.7045385 -0.9750185 -0.22836871 0.02335439 0.06451484 -0.6679931 0.10591146 -0.058306053
0.12621723 0.2460905 0.6821574 -0.82676333 -0.3122001 -0.18893322 -0.89497375 0.04248367
0.6034293 -0.43631753 -0.6906288 -0.69649005 0.22483619 1.010306 0.060313143 -0.21348323
0.65315485 -0.38727808 0.17016198 -0.5367269 -0.106762245 0.031242583 0.17224129 -0.5860536
0.12882642 -0.66916144 0.5831076 -0.6395892 0.26915708 0.08328033 0.56840944 0.1680497
0.6663307 0.030922195 -0.28649557 -1.6454663 0.060937125 0.5998264 0.3070646 -0.17779386
1.0266485 0.26765555 0.003543309 -0.29012626 -0.55111915 0.37911475 -0.13113017 0.16827157
0.88511413 0.22158223 -0.64306414 -0.0008760361 0.14829841 -0.12973158 0.672871 0.618362
-0.22429194 -0.100707725 0.98215836 0.15688024 -0.26379278 -0.070337564 -0.5091135 -0.11251108
-0.5366094 -0.00705675 -0.5182149 1.1137666 0.69786197 0.5398969 0.56249315 0.78406614
-0.5349254 -0.28129604 0.090688586 -0.047114093 0.09752505 0.7084396 0.3975627 -0.51443076
-0.424169 -0.12984961 -1.1685014 0.8784175 0.69487643 0.5632472 -0.3348877 0.53306234
-0.75642204 0.09386376 0.3228324 0.21871811 0.15497981 -1.0073746 0.051985275 -1.0806066
-0.7991191 0.5289683 0.39297637 -0.3186036 -0.19145128 -0.36273083 -0.2571629 -0.6183404
-0.2812592 -0.14993468 1.1198006 0.6430788 -0.6114057 -0.24477711 0.011695915 -0.06251185
-0.9155896 0.2153088 -0.039704185 0.8240151 0.3156064 -0.5044889 0.12982428 0.2855889
0.8670836 -0.32433745 0.3169266 -0.81384975 0.3896123 0.96888775 -0.0020872091 0.029023508
1.1899434 0.10054059 0.35397753 -0.5658646 -0.10490624 0.21708608 -0.08775749 0.07610921
0.14450103 0.21005517 1.2237617 -0.5642169 -0.298387 0.5888693 0.019744262 -0.72947156
0.07118519 0.1750523 -0.427325 0.3590457 0.59697294 0.23119412 0.4294215 0.36268422
-0.40380242 -0.33758065 0.33662444 0.30415916 -0.7254293 0.16189784 0.039039686 0.41437277
-0.41253617 -0.05065915 -0.70453364 1.014288 -0.0031239449 0.0918659 -0.34302896 0.9780597

rnn.bias_ih_l0_reverse f4 [16]
00000000: 7d58 b83d 84f1 903e fb6c 34bc dc72 96be
00000010: c5e4 80be d137 cabd ad03 dfbe 7f12 29bd
00000020: da24 32bb 253b 393e fa1d 973e c064 ebbc
00000030: 488a 593e d402 c33d 52f4 8437 166e 3a3e
0.09001253 0.28309262 -0.011012311 -0.29384506 -0.25174537 -0.098739274 -0.43557492 -0.041277405
-0.002718261 0.18088968 0.29515058 -0.028734565 0.21244156 0.09522024 1.5849397e-05 0.18206057

rnn.bias_hh_l0_reverse f4 [16]
00000000: 3b00 523e ed80 173d 36a0 56be fecd 6ebe
00000010: 438c 01be d7ae b13d fe16 9fbe 8726 e5bd
00000020: 9a90 363e ce2f 1d3e c680 bc3d 3972 b73e
00000030: b068 e63d 092e 6abe db68 edbd 3e52 6dbc
0.205079 0.036988188 -0.20959553 -0.23320767 -0.12651162 0.08675926 -0.3107223 -0.11188989
0.17828599 0.15350267 0.09204249 0.35829332 0.11250436 -0.22869124 -0.11592265 -0.01448494

fc1.weight f4 [11, 32]
00000000: 2aaa 5dbf 514e 8c3f 80ae e83e bb16 133f
00000010: cec1 05bf ae3b 613f 3a2a 383f d493 aabe
00000020: 44aa d13e 2352 babf 537a 90bf 3518 b33e
00000030: 55a1 e73e 139d cb3d b6fb 423f 7c25 a1be
00000040: 50ad 783e fe98 163f 4b18 043e 980d 0bbf
00000050: 3db3 15bf f3b2 eb3e 35ff 3fbf f76e a5be
00000060: c9de 013b 50bf 243f 289b 78bd 6f9d f03e
00000070: 7786 393f cdd9 4fbf 1ebf 483f fb5b 363f
00000080: 18a7 ab3f d4c0 59bf fcbe fd3e b86e 52bf
00000090: 6c4a d83e afbd 1abe e6f4 31bf a797 283f
000000a0: 452c 19bf 2d9d 2a3f 1231 9cbf b309 b73e
000000b0: 81a2 0cbf 4c14 5bbf d4bd a7be 911e 0b3f
000000c0: 117f 46bf 16ae 193f 2e65 303f 133d 243f
000000d0: bdac a23f ebaf 9bbf 3515 3d3e ee87 18bf
000000e0: 5ac4 6e3f 693e 563e 585d f9bd 2978 91bf
000000f0: 2f5b 47bf 866e 6e3f db91 2a3f b9bf 39bf
00000100: c98e 7a3f 7782 54bf 97ef b13d 185f 63bf
00000110: cf0a a33f eeca f53e b034 c9bf a9fd 9e3f
00000120: a229 d3bf 58f3 aabf 8f15 e83e 817a ca3e
00000130: 110e 1abd 65f3 25bf 3c87 d83e e7d2 f2be
00000140: 4014 2e3f e36d c8bf 33f8 59bf 1c25 0c3f
00000150: 42f5 763f 14f8 b1be fbdb 34bf 9c3d 683f
00000160: d449 85bf 28da c3be 3a91 103f 552f 173f
00000170: bdaf 0ebf ae3b 28bf 855c aabf e784 91bf
00000180: 4328 31bf 5e9b c2be 7187 4d3e ad36 e4bc
00000190: 16bd 73bb 6b5e 02bd 66e7 593d 4e55 273f
000001a0: c8c2 de3e 4aad 35bf 3fb4 9f3e 40e7 5abf
000001b0: 64f9 93be 081e a4be 690f e7bd 73c0 883f
000001c0: 2057 2e3f b797 78bf 8b86 49bf 89f0 b33f
000001d0: e833 efbc c9ed 81bf 49b7 973f 57ca 80bf
000001e0: 15d0 1b3f 00c6 84bf 3ab8 d13f fa89 9a3f
000001f0: 0d29 14bf 07d0 5d3f 852e cabf 2692 95bf
00000200: ba71 853f 55ca 70bf 4466 05bf d2f9 f0be
00000210: c770 793f 94a0 293f 5891 bfbf 5549 533f
00000220: aac6 df3c 918b 0e3f 0148 d83f 2ecf 21bf
00000230: f521 1cc0 0ad2 78bf c93e cebe 1276 973f
00000240: 1ce8 fcbe 9a4e 59bf 7d41 9a3f be33 b03f
00000250: 6fba a13f 5c93 5e3e 4a30 b03f 8199 da3f
00000260: 0b96 5cbe 8106 a53e 1956 bfbe 9639 e23c
00000270: 6104 553f cf31 95bf 1311 01c0 fe21 013f
00000280: 01ba df3f 1888 2a3e 5d69 43bf 4669 a5bf
00000290: 188f 57be 79a7 3cbe bdf9 6abf 3618 de3f
000002a0: 43a9 54bf 8153 a13e 52d4 9dbf 0c42 413e
000002b0: 470d 5a3d 4dc3 053f 99e9 373d 771a 97bf
000002c0: 376e 13bf 6c62 bf3c 07f6 d1bd a7eb c9be
000002d0: 778d 813e 55c2 0b3f 1c5c 243f 34e5 2ebd
000002e0: 4ab6 1bbf 3358 e6be 39e8 703e 335f a7be
000002f0: 501a 1abf c94e b13e 2aa1 ae3b 3347 2bbe
00000300: eb4b 0abf c2fd bcbf f959 64bd 013e fe3e
00000310: 0649 e23d beca afbf c99a 34bf 138a 1abf
00000320: 3fd1 bdbf f777 673e 35dc cf3f ae3c 67bf
00000330: 7c87 b63e 2593 50be 1999 15bf 3b79 49bf
00000340: 4390 1b3f a82e 4d3d 93d9 733f 9d82 1c3f
00000350: baad 60be f0d5 1abf 12af d03e 7e38 863f
00000360: 6076 8e3e a542 5ebf 9c3d 5ebf 2e68 383f
00000370: 26be 9bbe e41a c53e 66b0 b1be ed0f aebf
00000380: 91f6 ecbe bcc0 93bd 3503 fcbe 2a64 1f3f
00000390: 179a b93e 75a0 0ebe 6c06 84bf 3933 93be
000003a0: 07cb c1bf 7736 a33e 8d27 423f 47de 0ebf
000003b0: b1fb c0be c690 933e b4bb 933e c1d1 05bf
000003c0: 59ba 9d3e b541 8b3e aa79 04bf e55b f9bd
000003d0: fcd8 8b3f 409c 8fbe 8fed 2b3f 3d59 9a3f
000003e0: df49 babe 29f7 183f b6b2 693f 1df5 6cbf
000003f0: a6c7 79be fe55 a63f 5839 3f3f 6d22 c93e
-0.86587775 1.09614 0.45445633 0.5745656 -0.5224885 0.8798169 0.7193943 -0.3331591
0.40950215 -1.4556316 -1.128733 0.34979406 0.45240274 0.09942069 0.7616533 -0.3147391
0.24284863 0.588272 0.12899892 -0.5431762 -0.5847662 0.46034965 -0.7499879 -0.32311222
0.0019816628 0.6435442 -0.060694844 0.46995112 0.724708 -0.8119171 0.7841662 0.712341
1.3410368 -0.8505986 0.49559772 -0.82200193 0.4224428 -0.15111421 -0.6951431 0.65856403
-0.59833175 0.6664608 -1.2202475 0.35749587 -0.5493546 -0.85577846 -0.32762015 0.54343516
-0.7753764 0.6003126 0.6890439 0.6415569 1.2708966 -1.2163061 0.18465121 -0.5958241
0.9326836 0.20922245 -0.12176007 -1.1364795 -0.7787351 0.93137395 0.6662881 -0.7255817
0.9787412 -0.83011574 0.08688276 -0.88816977 1.2737674 0.48006386 -1.5719204 1.2421161
-1.649708 -1.3355513 0.45328948 0.39546588 -0.03761107 -0.64824516 0.42290676 -0.4742653
0.6799965 -1.5658535 -0.85144347 0.54744124 0.96467984 -0.3475958 -0.70648164 0.9071901
-1.0413156 -0.38252378 0.564716 0.590566 -0.55736905 -0.65716064 -1.3309485 -1.1368684
-0.6920206 -0.3800916 0.20071198 -0.027858103 -0.0037191561 -0.031828325 0.053199194 0.6536454
0.4350798 -0.70967543 0.31192204 -0.8550911 -0.28901207 -0.32054162 -0.11282236 1.0683731
0.6810169 -0.971065 -0.7872092 1.405778 -0.029199556 -1.0150691 1.1852809 -1.0061749
0.60864383 -1.0372925 1.6384346 1.2073357 -0.5787514 0.8664555 -1.5795447 -1.1685226
1.0425332 -0.94058734 -0.5210917 -0.47065598 0.9743771 0.6626065 -1.496623 0.8253377
0.02731641 0.5568171 1.6896974 -0.63206756 -2.4395726 -0.97195494 -0.40282276 1.1832907
-0.49395835 -0.8488556 1.2051235 1.376579 1.263502 0.217359 1.3764737 1.7078096
-0.21541612 0.32231525 -0.37370375 0.02761535 0.83209807 -1.1655825 -2.0166671 0.5044249
1.7478639 0.16653478 -0.76332647 -1.2922752 -0.2105068 -0.18423261 -0.9178732 1.7351139
-0.8307077 0.3150902 -1.233042 0.18872851 0.05323532 0.5225113 0.04490051 -1.1804951
-0.5759005 0.02336236 -0.10252004 -0.394376 0.25303242 0.545934 0.6420305 -0.042699054
-0.60825026 -0.44989166 0.23526086 -0.3268982 -0.601964 0.3463042 0.005329271 -0.16726379
-0.5402209 -1.4764941 -0.055749867 0.4965668 0.11049084 -1.3733747 -0.70548683 -0.60366935
-1.4829482 0.22604357 1.6239077 -0.90326965 0.3565024 -0.20368631 -0.58436733 -0.7870061
0.60767 0.050093323 0.95253867 0.611368 -0.21941271 -0.6048269 0.40758568 1.048599
0.27824688 -0.8682044 -0.8681276 0.72033966 -0.3041851 0.38497078 -0.34704894 -1.359861
-0.46281865 -0.072144955 -0.49221197 0.62262213 0.36250374 -0.13928397 -1.031446 -0.28750017
-1.5140084 0.3187749 0.758416 -0.5580792 -0.37692025 0.2882139 0.28854144 -0.52273184
0.30806234 0.27198568 -0.51748145 -0.121757306 1.0925593 -0.28048897 0.6715936 1.2058483
-0.36384484 0.59752136 0.91288316 -0.92561513 -0.24392566 1.2994993 0.74696875 0.39284077

fc1.bias f4 [11]
00000000: cc7b f23d c48e 823c 6532 1cbf d29e 03bf
00000010: 1a74 b9bf 40f2 8e3d b8df f2bd 580c f4be
00000020: cf2e 823e edb9 dfbe ccf2 03bf
0.11840019 0.015937217 -0.61014396 -0.51414216 -1.4488556 0.06979799 -0.11859077 -0.47665668
0.25426337 -0.43696538 -0.51542354
