src/main/python/saved_models/kotlin_1_55_RNNClassifier1_128embs_178id_16hd_1hl_Falsebid_0.pt (torch, 102943 bytes, 7 tensors)

word_embeddings.weight f4 [178, 128]
-1.5125955 -0.35635337 -0.31732258 -1.7225628 0.3251117 -1.2198749 -1.6491638 -1.9293524
-0.27503636 -0.47704574 -0.35114533 -0.98234624 -0.5035996 1.7734911 0.8641721 0.7827334
-0.27037197 -1.4503785 1.3768531 0.75508744 1.2668389 -0.42670044 -0.50231457 0.91914696
1.3477834 0.17789719 -2.1283743 -1.726764 -0.077477194 -0.19421405 -1.344472 -0.2764299
1.8659393 -0.6005327 -0.4209815 -0.3200303 0.3262219 0.6040132 -0.15735602 -0.51208323
0.2881642 0.21524319 0.097604364 0.7116286 1.802603 -0.8324355 1.0283022 -0.7134459
-0.20539486 1.1879127 0.5221376 -0.45576018 1.4991188 -0.19161214 1.1868489 2.1642535
0.38501388 1.4867762 -0.4643731 -0.98726994 1.5210075 -0.38618717 -2.646517 -0.94111216
0.07548067 -1.1293929 -0.5407478 -1.0893903 0.31802922 -0.072090454 1.1331853 -0.44324443
-1.1373011 -1.1062266 -1.0930115 -0.84744835 -0.72456664 -0.41957062 0.8534837 -0.6357762
0.19316685 -0.35254228 -0.10618819 1.3634865 -1.8583697 -0.1350099 -3.897061e-05 0.19667248
0.09043864 -0.6186198 -1.1396961 1.3025112 -0.43606094 0.035717994 0.3550937 1.5057701
1.0525215 0.6785462 0.84889334 -0.7366472 2.0289986 -0.7990689 -0.55129236 1.6555619
2.0169463 0.09375067 -0.45394555 -0.8899548 -2.6427064 -0.99942386 -1.5111867 -0.8756621
1.3484887 -0.34311336 1.8260573 0.9934057 -0.30362198 0.35062578 0.72427624 -1.1484742
2.0025103 0.29042178 0.32037255 1.7988988 -1.3886633 2.2295835 0.07095119 -0.11533103
0.71236455 -1.7765073 0.35386458 1.1996132 -0.3029974 -1.7618417 0.6348446 -0.8043591
-1.6111118 -1.8716129 0.5430836 0.6606786 2.2952116 0.67490596 1.7133216 -1.7942734
-1.3632672 -0.9832196 1.5112667 0.64187074 0.4729638 -0.4285901 0.55137074 -1.5473709
0.5181121 0.10653535 0.26924077 1.324768 1.7460191 1.854969 -0.7063691 2.5570862
0.4175343 -0.2127186 -0.839958 -0.42001787 -0.6240363 -0.9772961 0.8748428 0.9872814
0.30957633 1.52069 1.2052339 -1.815591 -0.40346155 -0.9591452 -0.005207704 -0.07886314
0.8436543 1.1657013 0.5269322 1.6192533 -0.96397626 0.14152038 -0.16366096 -0.35822257
1.7222793 -0.3035756 0.2388742 1.3440012 0.10322569 1.1003542 -0.3416802 0.9473389
-0.56851596 0.8375962 1.7836607 -0.19542466 0.5149161 -1.8474776 -2.9167426 -0.5673299
-0.5412802 0.895174 -0.882507 0.53181124 -1.5457772 -0.17329982 0.72824633 0.05706102
0.9055172 1.0462948 -0.520597 1.3547838 0.23519313 1.9142433 1.8364111 1.3245324
-0.96900916 1.2516364 1.2103242 -0.5279206 0.21856615 -0.57430726 1.4571251 1.7709557
1.6499138 -0.43200457 -0.2710269 -1.4391626 1.2470404 1.2738512 0.39094925 0.3872105
-0.07982872 0.3417243 0.9488273 -1.3839359 1.7240863 -2.3647652 -0.9294909 0.2936253
0.21513203 0.9384637 1.4657077 -0.5564744 -0.7448408 -0.20215721 -0.2296679 0.0013313366
0.3752759 -0.5810679 -0.57230884 1.0097175 -0.10564939 -1.179696 -0.090779595 0.56311435
00000000: bb9c c1bf f373 b6be 1b78 a2be f07c dcbf
00000010: 0a75 a63e dc24 9cbf cd17 d3bf 05f5 f6bf
00000020: 91d1 8cbe 573f f4be 52c9 b3be 0b7b 7bbf
00000030: e7eb 00bf c201 e33f 623a 5d3f 3761 483f
00000040: 326e 8abe 01a6 b9bf b93c b03f 694d 413f
00000050: c727 a23f 7b78 dabe b097 00bf 374d 6b3f
00000060: 2b84 ac3f ae2a 363e 4937 08c0 9a06 ddbf
00000070: 5dac 9ebd 0ce0 46be a917 acbf 3888 8dbe
00000080: 19d7 ee3f 83bc 19bf e38a d7be 03db a3be
00000090: 8f06 a73e 9ca0 1a3f f021 21be e317 03bf
000000a0: 428a 933e b668 5c3e cce4 c73d 4b2d 363f
000000b0: b2bb e63f 7e1a 55bf 689f 833f 64a4 36bf
000000c0: 0853 52be 860d 983f cfaa 053f 6659 e9be
000000d0: 20e3 bf3f f935 44be aaea 973f 2183 0a40
000000e0: 8a20 c53e af4e be3f 50c2 edbe b9bd 7cbf
000000f0: 60b0 c23f 53ba c5be 8960 29c0 baec 70bf
00000100: 9c95 9a3d f28f 90bf 736e 0abf 2471 8bbf
00000110: bad4 a23e 29a4 93bd 370c 913f eff0 e2be
00000120: 1593 91bf d598 8dbf cde7 8bbf 60f2 58bf
00000130: 337d 39bf f6d1 d6be e87d 5a3f 3bc2 22bf
00000140: 88cd 453e 6c80 b4be 3279 d9bd ba86 ae3f
00000150: 0fdf edbf 0940 0abe 6074 23b8 8364 493e
00000160: e537 b93d de5d 1ebf 90e1 91bf b0b8 a63f
00000170: 6143 dfbe 084d 123d d7ce b53e 13bd c03f
00000180: 06b9 863f 34b5 2d3f 1351 593f e994 3cbf
00000190: 1ddb 0140 c88f 4cbf 7f21 0dbf 74e9 d33f
000001a0: a615 0140 5a00 c03d 8d6b e8be 14d4 63bf
000001b0: 1a22 29c0 3eda 7fbf 916e c1bf 642b 60bf
000001c0: 479b ac3f 8eac afbe 3fbc e93f d64f 7e3f
000001d0: 5774 9bbe 3985 b33e 2b6a 393f 3401 93bf
000001e0: 2129 0040 2ab2 943e df07 a43e 5142 e63f
000001f0: b8bf b1bf 7fb1 0e40 dc4e 913d ad32 ecbd
00000200: 865d 363f 9764 e3bf bd2d b53e ed8c 993f
00000210: 7a22 9bbe 0784 e1bf 2d85 223f 7aea 4dbf
00000220: e938 cebf 0391 efbf 8707 0b3f 3c22 293f
00000230: bfe4 1240 a3c6 2c3f 1f4e db3f c0aa e5bf
00000240: 8a7f aebf 48b4 7bbf 3071 c13f a451 243f
00000250: 5028 f23e 2970 dbbe a226 0d3f 4010 c6bf
00000260: ffa2 043f 352f da3d edd9 893e ff91 a93f
00000270: 8e7d df3f a06f ed3f 9bd4 34bf 4da7 2340
00000280: 0ec7 d53e e8d2 59be 7d07 57bf 950c d7be
00000290: d8c0 1fbf 1430 7abf b3f5 5f3f 79be 7c3f
000002a0: ca80 9e3e f8a5 c23f 1b45 9a3f 4965 e8bf
000002b0: 8392 cebe 8a8a 75bf 63a5 aabb ff82 a1bd
000002c0: baf9 573f b335 953f 07e5 063f b143 cf3f
000002d0: 26c7 76bf b8ea 103e bd96 27be f368 b7be
000002e0: a673 dc3f 436e 9bbe 709b 743e 3b08 ac3f
000002f0: fe67 d33d 68d8 8c3f b5f0 aebe cd84 723f
00000300: 438a 11bf b46c 563f fe4e e43f 671d 48be
00000310: 8bd1 033f 257a ecbf e9ab 3ac0 883c 11bf
00000320: 5791 0abf 202a 653f fbeb 61bf c824 083f
00000330: 07dc c5bf 8275 31be 5a6e 3a3f d1b8 693d
00000340: facf 673f fdec 853f d845 05bf 8e69 ad3f
00000350: 78d6 703e ed05 f53f 850f eb3f 478a a93f
00000360: fc10 78bf 9f35 a03f e7eb 9a3f ce25 07bf
00000370: cecf 5f3e cd05 13bf 1383 ba3f adae e23f
00000380: 6030 d33f b42f ddbe 0ac4 8abe 7b36 b8bf
00000390: 059f 9f3f 8e0d a33f 802a c83e 7440 c63e
000003a0: 3d7d a3bd 7df6 ae3e 59e6 723f d024 b1bf
000003b0: dcae dc3f 5058 17c0 1ef3 6dbf 0e56 963e
000003c0: 924b 5c3e 283f 703f 4f9c bb3f 1b75 0ebf
000003d0: e3ad 3ebf 4d02 4fbe 102e 6bbe 3e80 ae3a
000003e0: 2a24 c03e dec0 14bf d582 12bf 6c3e 813f
000003f0: b55e d8bd 4700 97bf a7ea b9bd 4328 103f

rnn.weight_ih_l0 f4 [16, 128]
0.11455715 -0.23037626 0.07500202 -0.0656465 -0.11360088 0.20820281 0.2217666 0.14848037
-0.18095347 0.11045128 0.15318047 0.34971973 0.19531968 0.2525761 -0.1738867 -0.26253483
0.043453097 0.30782062 -0.4326269 -0.016205005 -0.27813792 -0.09581166 -0.3151919 0.088887475
-0.023579763 -0.3540539 0.005771608 0.26488334 0.13667344 -0.19709085 -0.1144435 -0.28330097
0.30162516 0.13590188 -0.001194671 -0.024561051 0.11582209 -0.18830371 -0.060064223 0.25024578
-0.0041814093 -0.1596602 0.075915925 -0.35866845 0.23394515 -0.12306464 0.20140716 0.038925517
-0.06591893 -0.3797933 -0.20471257 -0.10023019 0.14816098 0.20116886 0.1286048 0.11693548
0.28662816 0.1256096 0.11913884 -0.038722936 -0.010947419 0.2157969 -0.24221337 -0.06334251
0.06470259 -0.056770414 -0.1424881 0.13593462 -0.17459285 -0.004594852 0.35159183 -0.052352272
-0.10473329 0.3563679 0.36885813 -0.17494877 0.025902247 -0.19135657 0.13393883 -0.014940054
-0.23580512 0.28689855 -0.22435158 -0.12133023 0.031171981 -0.11675926 -0.10075504 -0.12384268
0.009380499 0.28960648 0.0729861 -0.051692706 -0.16860062 -0.077421986 -0.13991068 0.27410132
0.16133505 0.38352084 0.116462186 0.090458676 -0.16194059 0.11171514 -0.05281453 0.115359716
-0.11335441 0.047522824 0.1925941 0.43479654 -0.008021404 -0.025534276 -0.049739957 0.29288992
-0.2259718 -0.15211272 0.045802075 -0.19005692 0.2711023 -0.08338746 0.1316628 0.32324848
0.11147684 -0.24229112 -0.1295921 -0.0010032437 -0.21979488 -0.3163735 -0.19389942 0.095469505
-0.01853147 0.16087161 -0.436505 0.087530464 0.11902079 -0.0015359148 0.30878934 -0.38533926
-0.2079067 -0.055521667 -0.36120683 -0.085422195 -0.14239 -0.031176334 -0.29725236 -0.15640832
0.14035505 -0.1838362 -0.2129039 0.35041976 -0.055317257 -0.13992755 0.05382769 0.12032988
0.10055834 -0.5747684 0.18401814 -0.10313893 -0.14824143 -0.09644831 0.072465695 -0.07077183
0.14061156 0.061357353 0.35470697 -0.10848915 -0.14711447 0.06439561 0.03235305 -0.09422402
-0.21039948 0.030595759 0.17703724 0.13221756 -0.2667573 0.0786132 0.13313183 0.38865498
-0.063604824 -0.13935417 -0.30779648 -0.17602107 -0.03341366 -0.118175864 0.16091238 0.024442356
0.06548124 -0.15965427 -0.07023481 -0.09096514 0.1700181 -0.16345389 0.11263305 -0.16902037
-0.2130816 0.20796056 -0.26414728 -0.044795837 0.044311367 0.044909686 0.09630025 0.091684386
0.17936096 0.11444172 -0.2147941 -0.03573773 -0.12130942 0.035427067 -0.057690486 -0.01782998
0.21530554 0.08968754 -0.24525058 0.08427864 0.39183313 0.14028001 -0.40050635 -0.4230274
0.10950661 0.08520913 -0.13155651 -0.36464345 -0.08176019 -0.061995763 0.14929494 0.009818827
0.2341508 0.29001728 0.12115274 0.15173846 -0.2121939 -0.261576 0.028375214 -0.17554218
-0.21039633 0.16257913 -0.487019 0.47407672 0.2894473 0.27164754 0.05213817 0.23402047
-0.22324373 0.074080944 -0.13620238 0.088833645 -0.07424358 0.23907423 -0.06582817 0.073066816
-0.22567938 -0.09089913 0.0982589 0.03474472 -0.23976476 -0.23237865 0.10504723 0.018627116
00000000: f09c ea3d c1e7 6bbe a99a 993d ac71 86bd
00000010: 94a7 e8bd 1e33 553e c916 633e 3d0b 183e
00000020: de4b 39be 4834 e23d 57db 1c3e 770e b33e
00000030: e201 483e a851 813e 5b0f 32be f76a 86be
00000040: e0fb 313d aa9a 9d3e 4681 ddbe 5cc0 84bc
00000050: 1868 8ebe e738 c4bd d560 a1be a30a b63d
00000060: 592a c1bc 8e46 b5be c21f bd3b ca9e 873e
00000070: 1ff4 0b3e 2fd2 49be 5b61 eabd d30c 91be
00000080: 9d6e 9a3e dd29 0b3e 8296 9cba 4234 c9bc
00000090: 2234 ed3d b0d2 40be e705 76bd 3720 803e
000000a0: 3404 89bb f77d 23be cf79 9b3d 64a3 b7be
000000b0: 518f 6f3e 5009 fcbd ae3d 4e3e 5d70 1f3d
000000c0: 8100 87bd 4474 c2be 2ca0 51be 7c45 cdbd
000000d0: 83b7 173e 36ff 4d3e fab0 033e de7b ef3d
000000e0: edc0 923e ce9f 003e 10ff f33d f19b 1ebd
000000f0: ce5c 33bc ddf9 5c3e c806 78be b8b9 81bd
00000100: cb82 843d 1888 68bd 67e8 11be 7232 0b3e
00000110: 78c8 32be 6a90 96bb d803 b43e 566f 56bd
00000120: 687e d6bd da75 b63e f9da bc3e c525 33be
00000130: f330 d43c faf2 43be 4327 093e 21c7 74bc
00000140: e676 71be 5ee4 923e 6cbc 65be fc7b f8bd
00000150: 625c ff3c 7b1f efbd a958 cebd 3ba1 fdbd
00000160: aab0 193c 4d47 943e bd79 953d bbbb 53bd
00000170: a4a5 2cbe 6b8f 9ebd bf44 0fbe 0257 8c3e
00000180: 0435 253e d85c c43e ba83 ee3d 6642 b93d
00000190: c1d3 25be e8ca e43d 0c54 58bd b741 ec3d
000001a0: 5b26 e8bd 4ba7 423d 6337 453e a79d de3e
000001b0: 356c 03bc 422d d1bc 20bc 4bbd abf5 953e
000001c0: 2765 67be 70c3 1bbe f59a 3b3d 489e 42be
000001d0: eccd 8a3e 0bc7 aabd 9dd2 063e d380 a53e
000001e0: f84d e43d 2a1b 78be cbb3 04be 467f 83ba
000001f0: e911 61be b5fb a1be 928d 46be 8485 c33d
00000200: 4fcf 97bc 87bb 243e 957d dfbe 2c43 b33d
00000210: 2cc1 f33d c050 c9ba a319 9e3e 304b c5be
00000220: 7ee5 54be b06a 63bd 1af0 b8be d5f1 aebd
00000230: afce 11be 8365 ffbc 7631 98be 8129 20be
00000240: 3cb9 0f3e 8f3f 3cbe 7b03 5abe 386a b33e
00000250: 5994 62bd 2b49 0fbe 6d7a 5c3d 836f f63d
00000260: 88f1 cd3d 0624 13bf 406f 3c3e 813a d3bd
00000270: 9acc 17be b186 c5bd e568 943d d2f0 90bd
00000280: 7afc 0f3e d951 7b3d 279c b53e 8f2f debd
00000290: 2da5 16be d8e1 833d a284 043d 86f8 c0bd
000002a0: f672 57be f5a3 fa3c 4049 353e 0a64 073e
000002b0: 6a94 88be f5ff a03d b653 083e c9fd c63e
000002c0: 3f43 82bd dcb2 0ebe 8097 9dbe de3e 34be
000002d0: c3dc 08bd 3006 f2bd 37c6 243e 563b c83c
000002e0: 071b 863d 697c 23be 45d7 8fbd ee4b babd
000002f0: 3a19 2e3e 7560 27be 28ac e63d ad13 2dbe
00000300: 1032 5abe 9df3 543e 503e 87be d77b 37bd
00000310: d67f 353d 38f3 373d 1139 c53d 06c5 bb3d
00000320: 66aa 373e 6c60 ea3d fcf2 5bbe ba61 12bd
00000330: 1371 f8bd f91b 113d dc4c 6cbd 2e10 92bc
00000340: 0e79 5c3e 1aae b73d f822 7bbe 489a ac3d
00000350: 5a9e c83e 90a5 0f3e 2b0f cdbe 0c97 d8be
00000360: 0045 e03d 2082 ae3d c0b6 06be 8cb2 babe
00000370: e371 a7bd 45ef 7dbd c6e0 183e 25df 203c
00000380: 3ac5 6f3e 257d 943e ee1e f83d 5461 1b3e
00000390: 5c49 59be 4aed 85be 2373 e83c 54c1 33be
000003a0: 2372 57be 257b 263e 8e5a f9be 2fba f23e
000003b0: 7032 943e 6315 8b3e d58e 553d 10a3 6f3e
000003c0: 019a 64be c0b7 973d a378 0bbe 6aee b53d
000003d0: 050d 98bd e0cf 743e ebd0 86bd 0ea4 953d
000003e0: 7f18 67be 5329 babd f63b c93d 7b50 0e3d
000003f0: e584 75be abf4 6dbe 0123 d73d e597 983c

rnn.weight_hh_l0 f4 [16, 16]
-0.0138576515 -0.33168522 0.056149106 0.19972149 -0.90691495 0.63889724 -0.2029482 0.043836195
0.2443411 1.3052006 -0.8524026 -0.14077334 0.15139066 0.62650627 -0.31558937 0.0003180667
-0.33923814 0.14704299 -0.61388415 -0.65625435 0.19418122 0.3563369 -0.25641054 -1.1647779
-0.37703764 1.1311402 0.27454373 -0.053119507 1.9399691 -0.18923686 0.26711887 0.09584116
0.038216043 -0.44257978 0.1680134 0.28483552 0.18450095 0.8295896 0.13042091 1.5305703
0.5315899 -1.3012353 -0.12428425 0.09633514 -1.067722 -0.2915407 0.15436827 0.06821585
0.328439 0.75058764 -0.07498307 -0.92795515 0.20463212 0.89197224 -0.10224252 0.8881138
-0.20173353 -0.10564528 0.29434043 1.0114124 0.35205418 0.7274765 0.20428817 -0.8784831
0.10133591 0.78305054 -0.2884169 0.06515139 0.20387079 -0.5036606 -0.66018456 0.6515797
0.13552366 0.03646115 -0.47824267 -0.17205825 0.6435628 0.3654882 -0.0910227 -0.29988185
0.18371221 1.64972 -0.7027428 0.6729317 -1.0765246 0.36723217 0.16246247 0.5135301
-0.22237495 1.2944326 0.5122863 0.40348 0.6713031 0.7241848 -0.05380067 -0.7166853
-0.03000264 0.357732 0.41357562 0.4380582 -0.038147483 -0.1123774 -0.5176949 0.7955494
0.6515299 -1.8406979 -0.60600185 -0.079907075 -1.1148295 0.068894655 0.34895378 -0.5779499
-0.3027678 0.24098065 -0.22143836 0.26671875 -0.21765822 -0.20863493 0.15049742 0.9721576
-0.122520514 0.24596243 -0.8819186 -0.31754485 -0.15803334 0.0664812 -0.29995793 0.49769056
1.5599042 0.88390416 0.2067855 -0.71180767 -0.14403054 -0.54264915 -0.75936073 -0.14613543
0.03779401 0.052631047 -0.0086502815 -0.52749807 0.044132177 0.1589811 0.7519069 0.3210902
-0.2007434 1.6194341 0.12754288 0.378168 1.0382856 0.32457218 -0.71207106 0.621206
0.21367559 -0.5409284 -0.24681488 0.5713659 -0.3777025 0.08851421 0.16793947 0.48962292
-0.06841901 -0.1960861 -0.12052574 -0.5635471 -0.0954136 0.6549041 -0.11465899 -0.44228235
-0.6523305 -0.15561198 0.6017445 0.116318576 -0.6052215 -0.22900917 -0.055426702 -0.15259236
0.22577102 -1.1695898 -0.44651213 0.55774444 -0.3786982 0.6827973 0.5221229 -0.3252293
0.5222148 0.7966343 -0.32777694 -0.027959358 -0.41017807 1.3476988 0.82379997 -0.08904988
-0.4561304 0.26338604 -0.07718599 -0.47125936 -0.035978723 -0.28378174 -0.36797214 -1.2894651
-0.77219033 -0.70219743 -0.35293442 0.6590065 1.0407952 -0.72367823 0.74670744 0.99135965
1.0926089 -0.09623439 0.6657289 -0.20551749 -0.36107922 0.21136734 0.17801136 -0.5637319
0.32145438 0.55696607 -0.18499346 1.2031327 -1.0634584 0.1121606 0.61215115 -0.059859946
0.004066836 1.0795956 0.1215074 -0.4779881 -0.4326625 -1.5779538 0.28804383 -0.6661979
0.118836135 0.04176876 -0.046976227 -0.23687372 0.83880395 0.3247222 -0.6604226 -0.16084115
-0.08141494 1.2747071 -0.15506594 0.23769484 -0.19572797 0.19270335 -0.19550177 0.051566627
-0.40695164 -0.30837765 0.079782404 -0.71720135 0.47585267 0.124561265 -0.5544343 -0.20545489
00000000: 340b 63bc a5d2 a9be 9bfc 653d ca83 4c3e
00000010: 942b 68bf c58e 233f a7d1 4fbe 958d 333d
00000020: 8e34 7a3e d010 a73f 0f37 5abf e326 10be
00000030: 2706 1b3e b762 203f ee94 a1be 31c2 a639
00000040: 9fb0 adbe 7092 163e 8327 1dbf 4900 28bf
00000050: 71d7 463e ca71 b63e 3e48 83be 7117 95bf
00000060: 140b c1be 34c9 903f ff90 8c3e d793 59bd
00000070: e850 f83f 4fc7 41be cec3 883e 5f48 c43d
00000080: 6d88 1c3d d199 e2be b40b 2c3e f6d5 913e
00000090: d1ed 3c3e fc5f 543f 0f8d 053e bae9 c33f
000000a0: 4716 083f e18e a6bf be88 febd 5c4b c53d
000000b0: 1dab 88bf d344 95be b712 1e3e c0b4 8b3d
000000c0: 2829 a83e 8326 403f b990 99bd 788e 6dbf
000000d0: 158b 513e 4b58 643f 8764 d1bd 6d5b 633f
000000e0: 3c93 4ebe 8d5c d8bd cab3 963e f675 813f
000000f0: 7240 b43e e63b 3a3f eb30 513e 45e4 60bf
00000100: 3489 cf3d 0076 483f 61ab 93be 186e 853d
00000110: 81c3 503e e7ef 00bf db01 29bf edcd 263f
00000120: b7c6 0a3e 4958 153d 39dc f4be 0a30 30be
00000130: 88c0 243f 4521 bb3e 1c6a babd 1d8a 99be
00000140: 0e1f 3c3e 062a d33f f4e6 33bf 4045 2c3f
00000150: 8fcb 89bf db05 bc3e 905c 263e b576 033f
00000160: 42b6 63be f8af a53f 3225 033f ee94 ce3e
00000170: 85da 2b3f 2d64 393f 175e 5cbd b078 37bf
00000180: 19c8 f5bc a628 b73e 2fc0 d33e 2a49 e03e
00000190: 8940 1cbd 1f26 e6bd a787 04bf 20a9 4b3f
000001a0: aaca 263f fd9b ebbf f022 1bbf 52a6 a3bd
000001b0: bcb2 8ebf a418 8d3d 12aa b23e 86f4 13bf
000001c0: 6204 9bbe a2c3 763e bdc0 62be 5c8f 883e
000001d0: cce1 5ebe 65a4 55be ff1b 1a3e 52df 783f
000001e0: 09ec fabd 93dd 7b3e 6bc5 61bf 3d95 a2be
000001f0: 7ed3 21be 4c27 883d 1694 99be 4cd1 fe3e
00000200: f1aa c73f 8b47 623f 94bf 533e 0739 36bf
00000210: be7c 13be 0eeb 0abf 7765 42bf 87a4 15be
00000220: e4cd 1a3d a793 573d e9b9 0dbc 1d0a 07bf
00000230: f1c3 343d f1cb 223e f87c 403f ef65 a43e
00000240: ae8f 4dbe 9e49 cf3f 9a9a 023e 3c9f c13e
00000250: 8be6 843f 532e a63e 4a4a 36bf 5b07 1f3f
00000260: c6cd 5a3e 497a 0abf 0abd 7cbe 0945 123f
00000270: 3962 c1be f046 b53d 53f8 2b3e dbaf fa3e
00000280: 441f 8cbd cbca 48be 33d6 f6bd 9f44 10bf
00000290: 3568 c3bd cca7 273f 55d2 eabd d572 e2be
000002a0: 22ff 26bf bf58 1fbe ed0b 1a3f 6f38 ee3d
000002b0: ccef 1abf 6181 6abe 1c07 63bd 2c41 1cbe
000002c0: 8530 673e 1eb5 95bf 3d9d e4be 57c8 0e3f
000002d0: bbe4 c1be cecb 2e3f d9a9 053f 7484 a6be
000002e0: deaf 053f 3af0 4b3f 61d2 a7be 060b e5bc
000002f0: dc02 d2be 6581 ac3f 8ee4 523f c95f b6bd
00000300: ec89 e9be 89da 863e b013 9ebd e848 f1be
00000310: 6d5e 13bd d74b 91be d866 bcbe 310d a5bf
00000320: 44ae 45bf 36c3 33bf d2b3 b4be a6b4 283f
00000330: c738 853f fa42 39bf 3828 3f3f bfc9 7d3f
00000340: 9cda 8b3f 8916 c5bd 366d 2a3f 2d73 52be
00000350: 60df b8be ae70 583e 9c48 363e bc50 10bf
00000360: ab95 a43e 5495 0e3f ed6e 3dbe 4100 9a3f
00000370: 681f 88bf 75b4 e53d f0b5 1c3f b42f 75bd
00000380: 1843 853b 3030 8a3f dfd8 f83d dbba f4be
00000390: f085 ddbe 64fa c9bf 7b7a 933e f28b 2abf
000003a0: 5c60 f33d b815 2b3d 256a 40bd 068f 72be
000003b0: dbbb 563f fd41 a63e 7511 29bf 8bb3 24be
000003c0: e0bc a6bd 9a29 a33f 9bc9 1ebe 4766 733e
000003d0: ea6c 48be 0754 453e 9e31 48be 8737 533d
000003e0: f75b d0be ade3 9dbe f564 a33d 829a 37bf
000003f0: f6a2 f33e fa19 ff3d 68ef 0dbf c462 52be

rnn.bias_ih_l0 f4 [16]
-0.26268923 -0.42216328 -0.021578602 -0.07878813 -0.34906384 -0.11474692 0.024706353 -0.3807983
0.08448921 -0.31011754 0.18866105 0.4000225 0.11099372 0.26112527 -0.025076274 -0.17545821
00000000: 347f 86be c925 d8be 9cc5 b0bc ac5b a1bd
00000010: 7fb8 b2be 6f00 ebbd fa64 ca3c fff7 c2be
00000020: ae08 ad3d bac7 9ebe 5d30 413e c0cf cc3e
00000030: ad50 e33d 36b2 853e c26c cdbc 51ab 33be

rnn.bias_hh_l0 f4 [16]
0.008740768 -0.11231871 0.002106378 0.02898178 0.071020916 -0.18441793 -0.20085862 -0.20550062
-0.23621377 -0.19413921 -0.12296182 -0.014048372 -0.10577601 0.2399415 0.041435193 0.09586874
00000000: 7035 0f3c 5a07 e6bd 290b 0a3b 336b ed3c
00000010: 6a73 913d 0ed8 3cbe e2ad 4dbe c16e 52be
00000020: 06e2 71be 6ecc 46be 68d3 fbbd 252b 66bc
00000030: 18a1 d8bd 39b3 753e f3b7 293d d456 c43d

fc1.weight f4 [11, 16]
-0.89447075 -0.6488442 1.5604682 0.9083541 -0.780699 -0.9222598 0.6705347 -1.1606112
-0.5761034 -0.42092526 -0.3137368 1.039024 -0.32755473 0.30927205 -0.72865623 -0.58715564
0.6469833 1.1301868 -1.4745109 -1.946709 -1.8201998 -0.70323443 -1.5562172 -1.5249892
-0.91170675 0.11550756 2.454998 0.015096573 1.2893112 0.45232153 1.3413504 1.2529682
1.1019633 -0.102585234 0.7243085 0.91758126 -0.96918494 0.36737683 -1.2249599 0.8011854
1.6828153 1.7034507 2.1155872 0.82622474 0.74086726 -1.7927185 0.29410177 1.9566921
2.221584 0.50609875 -0.18862951 -1.6468863 1.3509659 -0.11567254 -1.4208177 -0.24036227
1.8801923 -0.15595828 -0.5543024 -1.8215227 0.88736165 -2.165129 -0.66555953 -0.011255468
-0.09184409 2.0071497 -1.4311076 -1.4436252 -0.3863236 1.6321778 -0.10287906 1.2345691
0.9791944 1.6884023 1.6190026 -1.64778 -1.0243154 -1.8352042 -1.5380243 1.2452334
1.3432841 0.88299114 -1.1104907 0.5004235 0.41917002 1.4881469 -0.81637406 0.31073695
0.31297287 0.42664647 0.5167524 0.6771541 2.5125394 -0.35701713 -1.1889225 0.20763399
0.9916736 0.70991796 0.0073685143 -1.9193326 -0.2264366 1.4975345 -0.88422364 1.541786
1.3428711 -0.6309437 -0.6190839 0.72247475 -1.6381477 0.6131148 2.6787515 -0.39871675
0.76179093 -0.3404718 -1.7330965 -0.07554206 0.36551812 0.34624267 -1.0127543 0.38197398
0.19988754 0.31137222 0.29102516 0.42689317 -1.8859947 0.07030416 -1.4595581 0.11474056
-0.6369619 2.0538247 -0.5382856 0.44160572 0.65098774 -0.7101829 -2.0431678 0.9406673
0.7107101 0.0707467 -0.019759977 -1.5524427 0.25440443 0.33293298 1.1096486 -0.52658284
-0.1768535 -1.0920631 -0.812017 -0.028507095 0.84438765 0.75061554 0.87149984 0.8490176
-0.58935404 0.3024888 0.095418714 -0.15615419 1.1720388 0.08278886 0.9929352 0.35726023
0.07448347 -0.48649707 0.22365566 0.4440642 0.8817429 0.54354846 1.1130968 0.7057907
-0.3667456 -0.11842998 -0.04576732 -3.040413 0.24137005 -0.3038965 -0.08228479 0.1941979
00000000: 09fc 64bf a71a 26bf 6cbd c73f e589 683f
00000010: e4db 47bf 3819 6cbf 29a8 2b3f e88e 94bf
00000020: 837b 13bf 8483 d7be 1ca2 a0be bdfe 843f
00000030: 41b5 a7be e858 9e3e 3789 3abf d54f 16bf
00000040: b3a0 253f f6a9 903f c6bc bcbf c32d f9bf
00000050: 4ffc e8bf 2c07 34bf 2032 c7bf d932 c3bf
00000060: 9d65 69bf 3a8f ec3d b01e 1d40 9e57 773c
00000070: 2608 a53f b096 e73e 5fb1 ab3f 4361 a03f
00000080: 220d 8d3f 3518 d2bd 486c 393f 9be6 6a3f
00000090: 811c 78bf d118 bc3e 7ccb 9cbf 7d1a 4d3f
000000a0: 7e66 d73f ac0a da3f c865 0740 7783 533f
000000b0: 7aa9 3d3f cd77 e5bf 8294 963e e374 fa3f
000000c0: 6f2e 0e40 b08f 013f 1828 41be 2ccd d2bf
000000d0: 73ec ac3f bae5 ecbd 5bdd b5bf 8721 76be
000000e0: 24aa f03f 87b3 1fbe c3e6 0dbf a827 e9bf
000000f0: 222a 633f 7991 0ac0 1c62 2abf db68 38bc
00000100: c118 bcbd 2475 0040 892e b7bf b6c8 b8bf
00000110: 35cc c5be 34eb d03f 42b2 d2bd 5c06 9e3f
00000120: 7cac 7a3f 911d d83f 7a3b cf3f 74ea d2bf
00000130: c41c 83bf f9e7 eabf fbdd c4bf cf63 9f3f
00000140: bcf0 ab3f b50b 623f 8f24 8ebf c11b 003f
00000150: 749d d63e 997b be3f e4fd 50bf ea18 9f3e
00000160: fb3d a03e 6871 da3e e349 043f f959 2d3f
00000170: 72cd 2040 f3ca b6be 9d2e 98bf 019e 543e
00000180: 52de 7d3f 2fbd 353f 9473 f13b b1ac f5bf
00000190: ffde 67be 36af bf3f 7b5c 62bf 3e59 c53f
000001a0: 33e3 ab3f 8785 21bf 487c 1ebf 1bf4 383f
000001b0: d3ae d1bf 17f5 1c3f aa70 2b40 9a24 ccbe
000001c0: bb04 433f 5252 aebe 1bd6 ddbf ccb5 9abd
000001d0: 3125 bb3e b846 b13e efa1 81bf 1892 c33e
000001e0: 52af 4c3e 2e6c 9f3e 4001 953e be91 da3e
000001f0: 4668 f1bf a1fb 8f3d cdd2 babf 19fd ea3d
00000200: ef0f 23bf dd71 0340 16cd 09bf 251a e23e
00000210: 22a7 263f 8cce 35bf 43c3 02c0 92cf 703f
00000220: 19f1 353f a5e3 903d addf a1bc 71b6 c6bf
00000230: 4c41 823e 3176 aa3e f708 8e3f 22ce 06bf
00000240: 1519 35be b9c8 8bbf 59e0 4fbf b687 e9bc
00000250: ca29 583f 5728 403f 9d1a 5f3f 3859 593f
00000260: e8df 16bf d0df 9a3e e36a c33d e2e6 1fbe
00000270: 5e05 963f 358d a93d 0031 7e3f d0ea b63e
00000280: ca8a 983d 2516 f9be fd05 653e 625c e33e
00000290: e7b9 613f fe25 0b3f f579 8e3f b3ae 343f
000002a0: 14c6 bbbe 6b8b f2bd 8376 3bbd 2096 42c0
000002b0: b629 773e 5298 9bbe ee84 a8bd d0db 463e

fc1.bias f4 [11]
0.72152865 0.04267114 -1.3417782 -0.46343213 -1.5387344 -0.6113019 0.013350491 -0.5949324
-0.16097687 -0.3478142 -0.5405509
00000000: 1ab6 383f efc7 2e3d 63bf abbf fa46 edbe
00000010: 40f5 c4bf 487e 1cbf 05bc 5a3c 7d4d 18bf
00000020: 1fd7 24be b414 b2be 8b61 0abf
