src/main/python/saved_models/python3_1_66_RNNClassifier1_128embs_102id_16hd_1hl_Falsebid_1.pt (torch, 64095 bytes, 7 tensors)

word_embeddings.weight f4 [102, 128]
-0.8919856 0.9157916 0.5332578 -0.07084429 0.35518256 -0.42653695 -0.16888982 0.8042685
0.9901471 1.0974911 -1.5493038 -1.2496145 0.26014116 -0.03172565 -0.21187025 -0.24323575
1.0729004 2.4751604 0.18459421 1.427883 -0.57221615 0.110293835 -2.2762933 0.5557338
-0.680768 1.2253671 2.4786792 -0.48885828 -0.7076947 0.69557387 0.35880083 -0.7187758
-1.8330061 -0.6814674 -0.16894217 -0.39215946 0.95530874 -0.6783441 0.23518313 0.25417286
1.3676615 -0.57951313 0.45861453 3.2247846 -0.058387298 -0.1586965 -2.2679217 -0.6212439
-1.3080615 -1.294246 1.4759473 0.66783243 2.4755554 -0.35062698 0.36527944 -0.5427902
-1.6670915 -0.16923404 3.129826 -0.91936934 -1.7457937 -1.8570292 -0.86615235 -1.1295147
-0.3128747 -0.66982025 0.44812036 0.7430563 0.7442386 1.0214988 -0.395783 0.47475827
-0.61346155 0.33516866 0.26940724 0.6981189 1.2416244 -0.727443 -1.3878993 -1.3631727
-0.17592841 -0.6448462 1.4459199 -0.40153533 0.24927661 0.823535 1.8998971 -0.09622375
1.2176899 1.4742997 -0.47097322 -0.26626933 0.5285195 0.27409214 -1.7178015 -0.11820117
-1.2244172 1.2121978 -0.9481111 1.4328543 -0.8915271 1.0445654 -0.16562618 -1.3923229
0.03643772 1.3626428 0.53225744 -1.9516685 -0.6455149 -0.86862236 -0.65866524 0.20551842
1.0539448 0.26183262 0.17472456 1.2399054 0.6466555 0.65405446 1.0145241 -0.96326905
-0.9586317 -0.45798543 -0.0986334 0.5551049 -1.0437616 0.9527195 -0.815147 1.8413773
0.55884975 -1.5667619 0.7648932 0.5006349 0.70798177 -0.21220529 1.0268565 1.7921609
1.1137208 -2.2006924 0.60903454 0.360005 -0.026341496 0.7588769 -1.3908153 -0.07772611
-0.13752659 1.1861701 0.74792826 1.0891956 0.97693574 -0.2517781 0.39605552 -0.115394
-0.2127411 -0.21489288 1.5196697 -0.943553 0.17689468 1.374341 1.141128 -1.007195
2.4888463 -0.5852386 -0.001108347 0.6482717 1.0320517 0.001641265 -1.0926238 -0.14056876
-1.3332006 -1.5608209 -1.0579871 -0.58164597 -0.18820733 0.48607433 0.19948795 0.7928871
0.7278966 -0.7861028 -1.0692378 0.6546636 -0.049374677 0.4967946 1.4105507 -0.09368698
0.09661065 0.85364276 0.09754749 0.788384 -0.87116843 0.5514642 -1.3627192 -0.8207331
1.311885 0.6261148 -1.4472924 -0.13840117 2.4452484 -0.22205278 0.17717613 -1.0271801
1.0912626 -0.2965239 -0.64469135 -0.5040475 -0.1632954 -1.2965436 0.81056625 -0.54291606
-0.7937064 0.7906779 0.26079345 0.36085343 1.1426895 0.18517052 -0.117948264 1.7246858
1.3098311 -0.25266472 -0.38382643 -0.6942084 -0.7388248 1.2647816 0.06194063 -0.32879668
1.5581019 0.8177294 -1.1792405 0.86195856 -0.29374632 -1.1130241 -0.27568015 0.023446681
1.2959602 -1.0888143 -0.026914475 -1.8591193 0.3027371 -1.1797824 0.100693926 -1.6279117
0.34130278 -1.1171517 0.9264189 -1.0242323 -1.1348732 -0.8955822 -1.590355 -1.8876435
-1.0932392 -1.1755074 -0.9244449 -1.0655136 -0.3885802 1.8059524 -0.23369351 -0.8786911
00000000: 2b59 64bf 5171 6a3f 9583 083f d016 91bd
00000010: 7dda b53e 0d63 dabe 74f1 2cbe 8ae4 4d3f
00000020: 487a 7d3f 977a 8c3f 964f c6bf 5ef3 9fbf
00000030: 3931 853e c1f2 01bd 84f4 58be cb12 79be
00000040: cd54 893f 0769 1e40 4406 3d3e dfc4 b63f
00000050: c27c 12bf bce1 e13d caae 11c0 9244 0e3f
00000060: d046 2ebf d4d8 9c3f aea2 1e40 a24b fabe
00000070: 7b2b 35bf 2111 323f beb4 b73e b101 38bf
00000080: f29f eabf a674 2ebf 2dff 2cbe 20c9 c8be
00000090: 1d8f 743f f5a7 2dbf d9d3 703e f222 823e
000000a0: 880f af3f f95a 14bf 86cf ea3e df62 4e40
000000b0: 8527 6fbd 5681 22be a125 11c0 d709 1fbf
000000c0: 8f6e a7bf daa9 a5bf d7eb bc3f 11f7 2a3f
000000d0: 806f 1e40 6185 b3be e805 bb3e 4cf4 0abf
000000e0: 4163 d5bf b04b 2dbe 124f 4840 ca5b 6bbf
000000f0: 2b76 dfbf 22b3 edbf 29bc 5dbf f093 90bf
00000100: 1d31 a0be 5779 2bbf 0870 e53e f038 3e3f
00000110: 6c86 3e3f 79c0 823f 12a4 cabe 8413 f33e
00000120: d10b 1dbf 3a9b ab3e bfef 893e ecb7 323f
00000130: 8ced 9e3f b439 3abf afa6 b1bf 717c aebf
00000140: 9426 34be a414 25bf e713 b93f 0a96 cdbe
00000150: 5e42 7f3e 31d3 523f d42f f33f f510 c5bd
00000160: 43dd 9b3f dab5 bc3f 6723 f1be 7454 88be
00000170: 0e4d 073f ce55 8c3e ebe0 dbbf 7413 f2bd
00000180: b4b9 9cbf 4c29 9b3f 69b7 72bf c567 b73f
00000190: 1f3b 64bf 52b4 853f e999 29be a337 b2bf
000001a0: b83f 153d 146b ae3f 0642 083f 46d0 f9bf
000001b0: 7740 25bf 095e 5ebf 499e 28bf 6c73 523e
000001c0: aae7 863f ed0e 863e ffea 323e 38b5 9e3f
000001d0: 378b 253f 1d70 273f eddb 813f cd98 76bf
000001e0: e368 75bf 117d eabe 4f00 cabd 5b1b 0e3f
000001f0: fb99 85bf 6de5 733f 79ad 50bf 40b2 eb3f
00000200: c710 0f3f a78b c8bf 0ad0 433f 9c29 003f
00000210: 4b3e 353f 584c 59be 0970 833f 8765 e53f
00000220: 678e 8e3f 25d8 0cc0 b0e9 1b3f 9352 b83e
00000230: 1fca d7bc c245 423f 3c06 b2bf de2e 9fbd
00000240: c5d3 0cbe 6cd4 973f 3a78 3f3f c36a 8b3f
00000250: 7618 7a3f 0fe9 80be cac7 ca3e b153 ecbd
00000260: ced8 59be e10c 5cbe 8984 c23f b08c 71bf
00000270: e123 353e 68ea af3f 7b10 923f c4eb 80bf
00000280: 4249 1f40 32d2 15bf f445 91ba 22f5 253f
00000290: 451a 843f b71f d73a 19db 8bbf 42f1 0fbe
000002a0: 51a6 aabf fbc8 c7bf 1f6c 87bf c0e6 14bf
000002b0: 6cb9 40be bcde f83e 9246 4c3e a6fa 4a3f
000002c0: 6e57 3a3f 083e 49bf c9dc 88bf 0998 273f
000002d0: 1a3d 4abd dd5b fe3e ed8c b43f f6de bfbd
000002e0: cedb c53d 5588 5a3f fac6 c73d 89d3 493f
000002f0: e504 5fbf c22c 0d3f 956d aebf 901b 52bf
00000300: d9eb a73f 0f49 203f e140 b9bf 09b9 0dbe
00000310: f37e 1c40 ce61 63be a96d 353e a37a 83bf
00000320: 7eae 8b3f fbd1 97be 7e0a 25bf 4209 01bf
00000330: e936 27be 24f5 a5bf 4581 4f3f 8cfc 0abf
00000340: 5830 4bbf de69 4a3f b886 853e c8c1 b83e
00000350: a643 923f 579d 3d3e dc8e f1bd 81c2 dc3f
00000360: 8ca8 a73f 455d 81be e684 c4be a4b7 31bf
00000370: 9f23 3dbf 5de4 a13f 75b5 7d3d 0a58 a8be
00000380: e26f c73f b756 513f 5af1 96bf 51a9 5c3f
00000390: eb65 96be 9377 8ebf f325 8dbe 4113 c03c
000003a0: 06e2 a53f 445e 8bbf bf7b dcbc 9ff7 edbf
000003b0: 5b00 9b3e 1c03 97bf 9e38 ce3d 695f d0bf
000003c0: 3dbf ae3e d4fe 8ebf ca29 6d3f 0b1a 83bf
000003d0: 8643 91bf e044 65bf c190 cbbf 4d9e f1bf
000003e0: 43ef 8bbf 0777 96bf 6ca8 6cbf c062 88bf
000003f0: fcf3 c6be 7329 e73f 5a4d 6fbe e6f1 60bf

rnn.weight_ih_l0 f4 [16, 128]
-0.21373324 0.003346407 -0.4700959 0.560002 0.16781439 0.0072678775 -0.2755132 0.17450573
0.2113023 -0.08441706 -0.2089726 -0.17071928 -0.19728956 0.2907581 -0.08172428 0.05238573
0.003569081 -0.40542138 0.26356283 -0.06149027 -0.15627456 0.23406595 -0.18427831 0.10148157
0.18115218 -0.1573341 0.09150397 -0.18474375 0.17442307 -0.030613333 -0.10453965 -0.21401994
-0.20527004 -0.22998804 0.1590358 0.09540743 -0.006840173 -0.32850277 0.14772557 -0.016797943
-0.08674713 -0.010766873 0.11669464 -0.31055406 -0.17196395 0.08801095 0.3112327 -0.37799335
0.19731025 0.20078172 0.1779988 0.19707331 -0.055170447 -0.02387931 -0.08360939 -0.17384347
-0.07223532 0.41019604 0.08799193 0.3485835 -0.021525426 -0.22349843 -0.25762302 -0.073481485
-0.42261004 0.3251416 -0.042085778 0.4588161 0.050404087 0.06866552 0.15534273 0.04368945
0.2201577 0.3381167 -0.065497674 0.12719631 0.39750826 0.09809566 -0.2794531 -0.20914881
0.2448909 -0.071886145 -0.10788884 -0.092731185 -0.17810915 -0.58955866 0.53189975 0.04890258
0.22195473 -0.010014623 -0.26051867 -0.16719267 0.32271746 0.18653257 -0.27361917 0.11274517
0.15937005 0.26064226 -0.14923117 -0.16275948 -0.13440053 -0.06600535 -0.11125741 0.10076587
0.030752933 -0.05945752 -0.25419176 -0.05605616 -0.051341686 0.11656651 -0.01155734 0.27459162
0.22940063 0.31605372 0.2235185 -0.15357788 -0.019277839 0.05162249 -0.30350214 0.20249146
0.18429376 0.25850728 0.046290133 0.02982198 -0.07569935 -0.20571016 -0.46543235 0.15813695
-0.09670923 0.11836027 -0.1726021 -0.43391433 -0.0340749 0.15397754 -0.24397796 0.10436826
0.31038022 -0.3996219 -0.18122712 0.113703966 0.20996909 -0.08558875 0.27249956 -0.24899623
0.32292286 -0.04726933 0.26369235 0.26499438 -0.072460115 0.28232992 -0.0917883 0.08572658
0.032497976 0.26736993 -0.12690838 0.07730193 -0.08398078 0.16918126 -0.101221524 0.088989094
-0.15987337 0.27176404 0.17043686 -0.3056388 0.34461918 0.26477677 0.26907313 0.18428382
-0.1569814 0.23419006 0.035926994 0.03297484 -0.3051268 0.0902496 -0.037223164 0.01734732
0.13356602 0.029190196 0.10562234 -0.17717005 0.023173878 0.015819686 -0.2586366 -0.03010734
-0.6170468 0.16936302 0.1473662 -0.17633225 0.12216248 0.010989484 -0.32127035 -0.039956607
0.18753168 -0.1417551 0.0153587805 -0.24087164 0.10086777 -0.02512814 0.13024963 -0.121206485
0.22890013 -0.041897006 0.08976691 -0.032117553 -0.14905415 -0.027686719 -0.19361812 -0.11603107
-0.16102542 -0.054511853 -0.07381106 -0.17904508 -0.2888278 0.0757332 0.22589569 -0.009459635
0.10636892 -0.13409705 0.15320574 0.07313902 -0.19598539 0.054642703 0.40188122 0.3994516
-0.2858634 0.25530502 -0.10891672 -0.10501001 -0.12267106 0.13731696 0.041627295 0.05138763
-0.08373291 -0.027498348 -0.14881374 -0.06701083 -0.08294538 -0.18923518 0.025741184 0.059516396
0.030270826 -0.32922277 0.20277631 0.5750181 -0.0012264036 -0.012258554 -0.12561923 -0.14776564
-0.2772995 -0.108863585 -0.15840818 -0.15915477 -0.18333608 0.18998034 -0.2987885 -0.24253137
00000000: e3dc 5abe 654f 5b3b 69b0 f0be 4b5c 0f3f
00000010: 89d7 2b3e 6027 ee3b 1110 8dbe a1b1 323e
00000020: a15f 583e dae2 acbd eafc 55be 09d1 2ebe
00000030: 4606 4abe 3fde 943e 0f5f a7bd 6b92 563d
00000040: 3ee7 693b 6493 cfbe b5f1 863e 39dd 7bbd
00000050: 7006 20be fcae 6f3e 74b3 3cbe 92d5 cf3d
00000060: f57f 393e 311c 21be 6f66 bb3d 772d 3dbe
00000070: f69b 323e d0c8 fabc e218 d6bd 0b28 5bbe
00000080: 4f32 52be fc81 6bbe 48da 223e f864 c33d
00000090: 8823 e0bb 8431 a8be 5f45 173e d79b 89bc
000000a0: 7ba8 b1bd 8a67 30bc 99fd ee3d f100 9fbe
000000b0: 5117 30be 163f b43d e459 9f3e 5888 c1be
000000c0: b30b 4a3e b999 4d3e 5145 363e 96cd 493e
000000d0: 68fa 61bd 8b9e c3bc 663b abbd 0604 32be
000000e0: 1df0 93bd 3705 d23e 1d35 b43d 8979 b23e
000000f0: 1756 b0bc c6dc 64be 2ae7 83be 767d 96bd
00000100: 5860 d8be f678 a63e 2362 2cbd f2e9 ea3e
00000110: 8474 4e3d 82a0 8c3d 2a12 1f3e b5f3 323d
00000120: 0571 613e a21d ad3e a523 86bd c03f 023e
00000130: 3486 cb3e 61e6 c83d 7a14 8fbe 1b2b 56be
00000140: aec4 7a3e 0b39 93bd d3f4 dcbd d9e9 bdbd
00000150: 3f62 36be 51ed 16bf 952a 083f 124e 483d
00000160: 1a48 633e 6014 24bc b462 85be 8e34 2bbe
00000170: 393b a53e 6502 3f3e d017 8cbe f1e6 e63d
00000180: e731 233e e772 853e 0ed0 18be 6caa 26be
00000190: 4ba0 09be d02d 87bd edda e3bd 565e ce3d
000001a0: 93ed fb3c ba89 73bd 6c25 82be 259b 65bd
000001b0: a94b 52bd 6cba ee3d ff5a 3dbc 4697 8c3e
000001c0: 00e8 6a3e cbd1 a13e 09e2 643e 8543 1dbe
000001d0: 8fec 9dbc 1b72 533d a264 9bbe ec59 4f3e
000001e0: 81b7 3c3e 115b 843e b99a 3d3d 3a4d f43c
000001f0: 4308 9bbd afa5 52be 264d eebe a7ee 213e
00000200: 7d0f c6bd df66 f23d 9bbe 30be 052a debe
00000210: 1f92 0bbd 4aac 1d3e 5cd5 79be 07bf d53d
00000220: 28ea 9e3e 3e9b ccbe 9a93 39be a0dd e83d
00000230: 2302 573e 2849 afbd 1085 8b3e def8 7ebe
00000240: 2556 a53e 7c9d 41bd af02 873e 58ad 873e
00000250: f865 94bd 8c8d 903e 81fb bbbd 6b91 af3d
00000260: 991c 053d b6e4 883e 45f4 01be 7950 9e3d
00000270: 1dfe abbd da3d 2d3e 3b4d cfbd ea3f b63d
00000280: d8b5 23be a824 8b3e 0087 2e3e b07c 9cbe
00000290: ed71 b03e d290 873e f4c3 893e e6b4 3c3e
000002a0: bbbf 20be 85cf 6f3e 2f28 133d a010 073d
000002b0: 9439 9cbe c8d4 b83d 5177 18bd f81b 8e3c
000002c0: 88c5 083e 4720 ef3c 8750 d83d 116c 35be
000002d0: 25d7 bd3c 4998 813c 046c 84be aba3 f6bc
000002e0: c7f6 1dbf 806d 2d3e 2ae7 163e 7190 34be
000002f0: 5330 fa3d 3d0d 343c 8c7d a4be 8aa9 23bd
00000300: 4e08 403e 4028 11be 65a3 7b3c 0ea7 76be
00000310: c393 ce3d 87d9 cdbc 2960 053e 1b3b f8bd
00000320: cc64 6a3e 329c 2bbd b7d7 b73d b28d 03bd
00000330: a7a1 18be 42cf e2bc d443 46be b3a1 edbd
00000340: d9e3 24be d247 5fbd 412a 97bd 9857 37be
00000350: 3de1 93be 021a 9b3d 3351 673e 96fc 1abc
00000360: f3d7 d93d bd50 09be f7e1 1c3e e9c9 953d
00000370: 65b0 48be 07d1 5f3d 60c3 cd3e ec84 cc3e
00000380: b05c 92be 57b7 823e bb0f dfbd 7d0f d7bd
00000390: f73a fbbd d19c 0c3e 6281 2a3d d67b 523d
000003a0: 297c abbd 3744 e1bc a162 18be f93c 89bd
000003b0: 44df a9bd dec6 41be 2ddf d23c 77c7 733d
000003c0: 86fa f73c e38f a8be 98a4 4f3e 6334 133f
000003d0: 47bf a0ba 1ad8 48bc 54a2 00be e04f 17be
000003e0: 33fa 8dbe dff3 debd c135 22be 78f9 22be
000003f0: 74bc 3bbe 358a 423e cefa 98be 255a 78be

rnn.weight_hh_l0 f4 [16, 16]
1.0661864 -0.32489887 0.13081121 -0.20760642 0.06150767 -0.025796458 -0.038578387 -0.38638514
0.23182851 -0.8786052 -0.0061101173 0.42629427 0.18876301 0.13413349 -0.053731486 0.0108881295
0.4736463 -0.40663055 -0.8703865 -0.46480533 0.71378225 0.31270677 0.32838032 -0.39309037
-0.030271644 1.6952642 -0.27791554 -0.58004975 0.3535524 -0.64191896 -0.54008794 -0.10823633
-0.26800644 -0.5648024 1.474443 0.35443443 -0.27261743 0.27906105 -0.6713096 -0.19616142
-0.8017411 0.0855885 -0.39951226 0.42114285 0.13694692 0.1559434 0.46937683 0.35601282
0.79283917 -0.030747006 0.25042477 0.05329264 0.039418515 -0.16227181 0.3905608 -0.915958
0.13034055 -0.70309263 0.13438627 0.23245946 0.36173263 0.0958367 0.1358032 0.138615
0.47229168 -0.6649747 -0.18618572 -0.57757634 0.50871056 0.061293725 0.14365047 0.24524279
-0.12474236 0.35303792 -0.18303585 0.30762064 0.9475641 -0.3711739 -0.47281197 0.076443404
0.6104007 -0.36681083 0.1636087 0.6720135 0.06050474 0.5300085 -0.0063861506 0.34451285
0.29140282 -0.6483558 0.4099262 -0.012559209 0.2847599 0.060508244 0.50524557 0.016600594
-0.28339097 0.1390238 -0.4420089 0.5158852 -0.22690178 -0.20290187 -0.239509 0.25139043
1.1357176 -1.4333127 -0.01876565 0.21868388 -0.51942456 -0.37181467 -0.412623 -0.11268283
0.8694723 -0.33866048 -0.15056083 -0.88524675 -0.6335772 -0.24021602 0.65208465 -0.48087898
0.41886827 0.22945525 -0.12697203 0.51008844 -0.26388708 -0.047979422 0.684443 0.82960826
0.42873618 0.14896598 -0.31753775 0.20398396 -0.12659699 -0.32178622 -0.06092559 -0.6530904
1.2220854 -1.1161563 0.7339461 -0.6001763 -0.84437835 -0.15536575 -0.053627744 0.10016886
0.33431122 -0.34541184 0.18248653 -0.11578211 -0.49849433 0.62763304 -0.38585588 0.867611
-0.20608108 1.8565323 -0.17590435 0.6575147 1.0822421 -0.33003566 -0.10450275 0.29978955
-0.52588737 -0.062401325 -0.18650122 -0.655146 0.12044759 -0.19892737 0.5185294 -0.67325205
0.8166187 -0.10411556 1.3200632 -0.8754191 -0.86461747 0.57734925 0.58555794 0.54694897
-1.186967 0.21234289 0.19048244 -0.23535527 -0.5565649 -0.003738103 0.26830098 0.6818309
-0.8424218 -0.14994676 -0.5864136 1.0078343 0.3666534 -0.20258926 -0.38118362 -0.13045356
0.3644246 0.19715847 0.04794193 -0.6656138 -0.42382416 -0.5353646 0.47944298 0.21760534
-0.19156727 0.50351554 -1.1504155 1.3960979 -0.2770068 -0.35103586 -0.051122528 0.3520333
-0.47673407 -0.025436377 -0.30810994 -0.4038578 -0.27156627 -0.6653731 -0.180657 -0.13171698
0.60867864 -0.6849028 0.21176258 0.028200628 -0.96212524 0.34924167 0.13763212 0.03063128
-0.96757555 -0.1460489 0.59280974 -0.31333187 -0.6675908 -0.042532124 -0.19288282 0.007351962
0.06959099 -1.8050308 -0.06785204 0.7775893 -0.57463986 0.17518592 0.15342379 0.16040511
0.29285017 -0.8196687 -0.034374345 -0.70679337 -0.18953386 0.13877377 0.29694796 -0.21247597
0.37929899 0.14121419 0.41918215 0.19409946 0.09628883 0.375234 0.051214695 0.25942704
00000000: cc78 883f 2559 a6be 60f3 053e c796 54be
00000010: 77ef 7b3d 1853 d3bc 5f04 1ebd 46d4 c5be
00000020: 7464 6d3e 45ec 60bf 6137 c8bb 3e43 da3e
00000030: 174b 413e 4a5a 093e 8c15 5cbd 2064 323c
00000040: c581 f23e e131 d0be a6d1 5ebf f7fa edbe
00000050: 6fba 363f 1a1b a03e 7721 a83e 2443 c9be
00000060: 3dfc f7bc 6bfe d83f f24a 8ebe 247e 14bf
00000070: d204 b53e cd54 24bf 3443 0abf 02ab ddbd
00000080: 2438 89be e496 10bf 8cba bc3f 6e78 b53e
00000090: 8394 8bbe 17e1 8e3e f2da 2bbf 8ade 48be
000000a0: e83e 4dbf 0649 af3d df8c ccbe 09a0 d73e
000000b0: d03b 0c3e a0af 1f3e 2952 f03e 5047 b63e
000000c0: 82f7 4a3f 25e1 fbbc ad37 803e 6249 5a3d
000000d0: 4f75 213d 952a 26be 96f7 c73e 397c 6abf
000000e0: fe77 053e e1fd 33bf 8e9c 093e da09 6e3e
000000f0: 0535 b93e 0846 c43d fe0f 0b3e 17f1 0d3e
00000100: 37d0 f13e c83b 2abf 78a7 3ebe 0bdc 13bf
00000110: db3a 023f 210f 7b3d 1c19 133e ed20 7b3e
00000120: ec78 ffbd 63c1 b43e c06d 3bbe 7480 9d3e
00000130: 9093 723f 810a bebe 6914 f2be 5c8e 9c3d
00000140: 3843 1c3f a1ce bbbe 0a89 273e 1409 2c3f
00000150: d1d3 773d a3ae 073f ea42 d1bb fd63 b03e
00000160: c032 953e a5fa 25bf d9e1 d13e 24c5 4dbc
00000170: 0dcc 913e 7ed7 773d c657 013f f8fd 873c
00000180: 9f18 91be 415c 0e3e fe4e e2be 0d11 043f
00000190: f158 68be 82c5 4fbe d941 75be 3fb6 803e
000001a0: 325f 913f ca76 b7bf 6cba 99bc abee 5f3e
000001b0: 02f9 04bf 7e5e bebe 5243 d3be 41c6 e6bd
000001c0: bd95 5e3f e864 adbe 9e2c 1abe 889f 62bf
000001d0: 1e32 22bf 30fb 75be 05ef 263f c535 f6be
000001e0: e775 d63e 51f6 6a3e f504 02be 2895 023f
000001f0: 351c 87be 1286 44bd a837 2f3f 3561 543f
00000200: 4f83 db3e 8a8a 183e 4f94 a2be 2ce1 503e
00000210: a4a2 01be 2ac1 a4be 1d8d 79bd ef30 27bf
00000220: 4b6d 9c3f 36de 8ebf e4e3 3b3f 27a5 19bf
00000230: 2e29 58bf 3318 1fbe c4a8 5bbd 5525 cd3d
00000240: d72a ab3e d2d9 b0be c0dd 3a3e 2c1f edbd
00000250: a63a ffbe 8fac 203f e78e c5be c11b 5e3f
00000260: eb06 53be daa2 ed3f 4520 34be e252 283f
00000270: e986 8a3f 6ffa a8be 8a05 d6bd 047e 993e
00000280: 8ea0 06bf 8898 7fbd 2dfa 3ebe a6b7 27bf
00000290: 3aad f63d 9eb3 4bbe 58be 043f 3f5a 2cbf
000002a0: ec0d 513f 8a3a d5bd d5f7 a83f 771b 60bf
000002b0: 9257 5dbf 29cd 133f 20e7 153f d904 0c3f
000002c0: 89ee 97bf 6a70 593e d40d 433e f900 71be
000002d0: 0a7b 0ebf f6fa 74bb bf5e 893e 788c 2e3f
000002e0: f5a8 57bf a58b 19be 341f 16bf b700 813f
000002f0: ffb9 bb3e 8f73 4fbe 802a c3be 9e95 05be
00000300: dc95 ba3e e9e3 493e c25e 443d aa65 2abf
00000310: 7bff d8be a80d 09bf 8d79 f53e efd3 5e3e
00000320: 362a 44be 65e6 003f d140 93bf 56b3 b23f
00000330: d6d3 8dbe f9ba b3be db65 51bd b53d b43e
00000340: 7d16 f4be f35f d0bc 96c0 9dbe 73c6 cebe
00000350: bc0a 8bbe e455 2abf 26fe 38be d1e0 06be
00000360: 5dd2 1b3f ca55 2fbf 4ad8 583e 0105 e73c
00000370: d74d 76bf cecf b23e 6fef 0c3e 73ee fa3c
00000380: 08b3 77bf d88d 15be 61c2 173f 096d a0be
00000390: 3be7 2abf 2a36 2ebd 1383 45be bae8 f03b
000003a0: b985 8e3d 400b e7bf 03f6 8abd 1810 473f
000003b0: 991b 13bf f063 333e 201b 1d3e 3d41 243e
000003c0: 75f0 953e cfd5 51bf 1dcc 0cbd 69f0 34bf
000003d0: 2a15 42be b61a 0e3e 9009 983e 4d93 59be
000003e0: 7a33 c23e 749a 103e 0b9f d63e 02c2 463e
000003f0: 1433 c53d ac1e c03e 80c6 513d 9fd3 843e

rnn.bias_ih_l0 f4 [16]
0.03024956 0.13554806 0.051240068 0.21921188 0.26836655 0.23810397 -0.046579476 0.22020921
-0.26085752 0.37399256 0.08126694 -0.10335757 -0.1623913 -0.07841608 -0.30028227 0.09424158
00000000: edcd f73c 1ccd 0a3e 1be1 513d 1479 603e
00000010: 5767 893e 87d1 733e 1fca 3ebd 867e 613e
00000020: 1e8f 85be f47b bf3e 486f a63d 22ad d3bd
00000030: e849 26be 9c98 a0bd 99be 99be bb01 c13d

rnn.bias_hh_l0 f4 [16]
-0.013821624 0.25897723 0.36585185 0.14797468 -0.0012410581 0.2181844 0.08864409 0.17085586
-0.1937835 0.022270422 -0.14835683 -0.325412 -0.088227965 -0.25904918 -0.4685558 0.15296036
00000000: 1874 62bc aa98 843e ef50 bb3e ad86 173e
00000010: 00ab a2ba bb6b 5f3e 088b b53d d7f4 2e3e
00000020: 2f6f 46be 7670 b63c daea 17be 679c a6be
00000030: ddb0 b4bd 18a2 84be 8ce6 efbe a4a1 1c3e

fc1.weight f4 [12, 16]
0.22005475 1.1806238 0.6667331 0.85466725 0.50764257 0.8423269 -1.603347 0.89084256
-0.61392796 1.1375158 -0.55940324 -0.3442262 -1.115545 -0.96421975 -1.2667012 -0.7465756
-2.2502286 -2.1452484 0.8498964 -3.200519 -3.8199437 -3.3141592 3.2660513 -1.6392304
-0.46142188 1.8827415 0.024424559 -1.6046792 2.6200352 2.0071383 -2.4427214 1.9351588
-0.7913298 -0.5341298 -3.1822736 -3.4360602 -0.74597573 -3.294072 -0.25061652 -0.5134459
0.34876072 0.60610133 3.095343 2.029758 2.588082 0.9291267 0.8208498 2.348974
-2.447524 -2.4439936 -3.0567894 -0.38604918 0.05878608 -0.05510358 -1.1246104 1.8808349
1.551409 1.9956511 0.010126065 -0.6995561 2.2279434 3.5293906 0.22168586 0.9407155
-1.6854413 1.2570585 -3.5538955 -0.672831 -1.6335447 -3.083761 3.1682193 1.6244801
0.25854373 2.2485664 0.8526724 -0.5819751 2.9264333 -0.18416588 4.2917113 -1.1522024
0.12282308 -2.911237 -0.83237374 -0.95554036 -2.3751023 -1.0547905 -2.572355 2.7728105
-0.12688601 0.18508162 3.168334 1.1467452 2.3725564 2.459755 2.2455943 0.70507896
-0.4510122 2.0149534 -0.3920943 -1.5690423 0.4821214 -1.0210297 2.8138325 3.3937652
1.4724146 0.50255144 2.9532907 0.95859605 2.1588042 3.2731419 1.6872312 0.030092936
-0.83229285 -0.930122 -1.9025899 -1.626566 -1.2888205 -1.6566072 0.94639635 1.5315243
0.14611423 1.1242621 1.2573712 0.2096936 0.9307405 2.1023047 0.84706837 0.33774483
0.19404618 0.48896572 -0.68162227 -0.1763633 0.14108962 -0.19356698 1.4096062 -0.5334998
1.5360591 -0.42441761 0.2423715 -1.3990948 -0.49969873 1.0378675 -0.59418094 0.13867705
0.54917836 -0.30497232 0.15900987 0.3764419 0.3446101 0.18280937 -0.34908345 -0.869303
-1.0812215 -0.9743381 -0.770834 0.41844818 -0.005779242 -0.114469364 0.71084607 -0.012226451
0.099235386 -1.0284954 0.06803707 0.097702116 -0.007902363 -0.25879332 1.1342936 -0.71329004
0.089374386 -0.58405876 -0.58415574 1.2135786 -0.28091717 0.26207876 1.1943474 -0.12556775
-0.70633346 -2.2740808 0.72539634 -0.5854402 -0.877273 -1.0463504 0.4925316 -0.68117493
1.3460941 0.18808208 3.3556926 -1.8962331 -1.2031372 1.7864298 2.1081789 -0.20288002
00000000: 0856 613e ae1e 973f 05af 2a3f 79cb 5a3f
00000010: ddf4 013f bca2 573f 793a cdbf 420e 643f
00000020: 622a 1dbf 1e9a 913f 0d35 0fbf 6b3e b0be
00000030: 2eca 8ebf 1bd7 76bf 4423 a2bf 941f 3fbf
00000040: bf03 10c0 c04b 09c0 cf92 593f 4ed5 4cc0
00000050: f579 74c0 2f1b 54c0 fc06 5140 4dd2 d1bf
00000060: 7d3f ecbe acfd f03f 0316 c83c 2166 cdbf
00000070: a8ae 2740 f474 0040 8c55 1cc0 49b3 f73f
00000080: 9794 4abf bbbc 08bf 5faa 4bc0 69e8 5bc0
00000090: 44f8 3ebf 13d2 52c0 cf50 80be 3171 03bf
000000a0: c490 b23e 7529 1b3f 1a1a 4640 8ee7 0140
000000b0: 23a3 2540 3fdb 6d3f 3623 523f 9755 1640
000000c0: 3ca4 1cc0 646a 1cc0 70a2 43c0 3da8 c5be
000000d0: acc9 703d 4bb4 61bd 3cf3 8fbf 33bf f03f
000000e0: 9294 c63f 7f71 ff3f cce7 253c 1c16 33bf
000000f0: a096 0e40 89e1 6140 9e01 633e bbd2 703f
00000100: 8abc d7bf 4be7 a03f 0673 63c0 a73e 2cbf
00000110: fe17 d1bf 575c 45c0 1bc4 4a40 f7ee cf3f
00000120: d85f 843e 83e8 0f40 bd48 5a3f 52fc 14bf
00000130: af4a 3b40 fb95 3cbe b355 8940 5e7b 93bf
00000140: ab8a fb3d b551 3ac0 7216 55bf 4b9e 74bf
00000150: ad01 18c0 6003 87bf 77a1 24c0 ba75 3140
00000160: 68ee 01be 0986 3d3e fcc5 4a40 8cc8 923f
00000170: f7d7 1740 a06c 1d40 d1b7 0f40 0e80 343f
00000180: 12eb e6be fff4 0040 96c0 c8be 61d6 c8bf
00000190: 9ed8 f63e 1ab1 82bf d515 3440 7333 5940
000001a0: 1578 bc3f 36a7 003f b702 3d40 8d66 753f
000001b0: d929 0a40 287b 5140 31f7 d73f 7685 f63c
000001c0: 2511 55bf 7a1c 6ebf 1188 f3bf 5133 d0bf
000001d0: 12f8 a4bf b40b d4bf 0847 723f fd08 c43f
000001e0: f89e 153e d2e7 8f3f 8af1 a03f ebb9 563e
000001f0: 0245 6e3f 298c 0640 79d9 583f e4ec ac3e
00000200: 0bb4 463e b759 fa3e cc7e 2ebf 9598 34be
00000210: cc79 103e 6c36 46be fa6d b43f 7193 08bf
00000220: 969d c43f 444d d9be 3c30 783e 8a15 b3bf
00000230: 83d8 ffbe d8d8 843f 3e1c 18bf 5b01 0e3e
00000240: f496 0c3f 5525 9cbe 7cd3 223e febc c03e
00000250: bc70 b03e 6132 3b3e 11bb b2be a48a 5ebf
00000260: 7765 8abf 396e 79bf 6155 45bf d73e d63e
00000270: cc5f bdbb ea6e eabd 02fa 353f 7451 48bc
00000280: ec3b cb3d bda5 83bf 0557 8b3d 0c18 c83d
00000290: ea78 01bc 8f80 84be 8830 913f 2d9a 36bf
000002a0: eb09 b73d e084 15bf 3b8b 15bf 8b56 9b3f
000002b0: 60d4 8fbe 302f 863e 60e0 983f d594 00be
000002c0: 45d2 34bf 8a8a 11c0 93b3 393f 69df 15bf
000002d0: f794 60bf cfee 85bf 1a2d fc3e 7b61 2ebf
000002e0: d04c ac3f 9798 403e abc3 5640 c4b7 f2bf
000002f0: 6600 9abf bba9 e43f 67ec 0640 c8bf 4fbe

fc1.bias f4 [12]
0.5254388 -0.4692808 -2.4748275 -2.0110834 -1.1286187 -1.808927 -2.072419 -3.7871194
-0.372886 -0.18866748 -0.05858344 -0.6841337
00000000: 2883 063f 9345 f0be 9363 1ec0 97b5 00c0
00000010: 9476 90bf ec8a e7bf 83a2 04c0 2a60 72c0
00000020: eaea bebe 0c32 41be 30f5 6fbd 6323 2fbf
