src/main/python/saved_models/python3_1_55_RNNClassifier1_128embs_102id_32hd_1hl_Falsebid_1.pt (torch, 76127 bytes, 7 tensors)

word_embeddings.weight f4 [102, 128]
000000 34 07 55 3e 5b 8a a5 bf 5a 74 45 bf de 3c bf 3e
       0.20803529 -1.2932848 -0.77130663 0.37351125
000010 0e 51 56 c0 6d 52 0c 3e 0d dc cb bf 9e db 38 3f
       -3.3486972 0.13703318 -1.5926529 0.7221011
000020 1d 15 0c 40 2c 2a 7d bc 1a a3 76 3f b7 69 f5 bf
       2.1887887 -0.015451949 0.96342623 -1.9172887
000030 2a cf 14 3f 17 d7 84 bf 75 60 25 3f 02 72 a6 be
       0.5812861 -1.037814 0.64600307 -0.32508856
000040 5b 5e a0 3f 53 0a 19 bf d4 f5 1c c0 63 49 c2 bf
       1.2528795 -0.5978138 -2.4525042 -1.5178646
000050 1d 93 c8 3f 22 fc 51 bd a7 f4 14 3e 5b af d1 3e
       1.5669895 -0.051265843 0.14546452 0.40954098
000060 f3 e4 9a 3f 24 79 cf be 62 30 7c be 41 97 fb 3e
       1.210112 -0.4052211 -0.24627832 0.49138835
000070 18 0a 9c bf c7 2f e8 bf 92 88 31 3e fc 57 a4 bf
       -1.219058 -1.813958 0.17337254 -1.2839351
000080 a4 f2 79 bf 62 97 b6 bf ae ca 51 bd e8 0f 11 3f
       -0.97635865 -1.4264948 -0.05121868 0.56664896
000090 fb c0 b0 be 5d 69 ca 3f 1a 2c 90 3f 2b 49 b6 3f
       -0.34522232 1.5813404 1.1263459 1.4241079
0000a0 ea 16 8d 3f ad 19 0e 3f 1d a6 87 bf 81 bf 74 be
       1.1022618 0.5550793 -1.0597569 -0.23901178
0000b0 6b ae 1f 3f 06 c1 79 3f e7 0b 86 bf 44 52 f8 bc
       0.62375516 0.97560155 -1.0472382 -0.030312665
0000c0 74 cd 51 3c 26 ce c0 be 76 63 fb 3f 17 3f 04 bf
       0.0128053315 -0.3765728 1.9639728 -0.5165877
0000d0 f2 33 67 be 82 77 36 3f df f6 b6 bd f4 38 4b 3e
       -0.2257841 0.71276104 -0.08933806 0.19845945
0000e0 50 08 f6 3c b3 ed 4d 3f 99 d4 52 bf 97 74 2b c0
       0.03003326 0.80440825 -0.8235565 -2.678991
0000f0 9f 6d 06 3f 25 21 05 3f bc 79 12 bf d7 40 bb bf
       0.5251102 0.520037 -0.57217 -1.4629163
000100 0e 99 80 3d 2d 32 b9 be 97 cf 5b 3c ac 7f 89 bf
       0.06279193 -0.36171094 0.0134161925 -1.0742087
000110 41 b8 0f 3f bd eb b4 3e 20 20 10 3f 02 97 8a bf
       0.56140524 0.35336104 0.5629902 -1.0827334
000120 1c 1f 79 3f bf 35 b7 3f 41 e0 21 bf 7b eb e5 3f
       0.97313094 1.4313277 -0.6323281 1.7962488
000130 79 49 b4 3f 64 4b 91 3f 5e 98 12 3f be 46 48 3f
       1.4084922 1.1351132 0.57263744 0.78232944
000140 7b 38 8e 3e 1a 68 be be 81 db 7c 3f 6e 19 f0 3f
       0.27777466 -0.37188798 0.98772436 1.875776
000150 7a a4 d9 3e ed 86 04 c0 7b dc be be 43 1a a9 bf
       0.42508298 -2.0707352 -0.37277588 -1.321114
000160 c2 02 80 bf a7 e1 f4 be a5 a3 48 3e 22 94 0a bf
       -1.0000842 -0.4782841 0.19593675 -0.5413228
000170 2e d8 e5 3e e7 e8 22 40 53 8d 0c 40 ac 6d 7c 3f
       0.44891495 2.5454652 2.1961257 0.98604846
000180 14 c0 04 c0 d2 63 81 bf 1a 85 5c be e6 cc 75 3f
       -2.0742235 -1.0108588 -0.21535149 0.96015775
000190 96 b8 bb be 4e 58 d8 bf ed ec 71 3d c5 ad 89 bd
       -0.36664265 -1.6901948 0.05906384 -0.06722597
0001a0 bf 2c ea 3e b4 d3 01 3f a4 19 bb be e7 07 39 bf
       0.45737264 0.5071366 -0.36543 -0.72277683
0001b0 65 84 64 bf 4b 97 48 3f 62 10 f2 bf 91 63 99 bf
       -0.8926452 0.78355855 -1.891125 -1.198351
0001c0 f9 a0 17 bf ee cd bf 3f 42 4f 88 3f 66 11 14 c0
       -0.5923 1.498472 1.0649188 -2.313562
0001d0 93 eb 85 3f 93 ee eb be 63 bf 8f bf f7 5a 38 3f
       1.0462517 -0.46080455 -1.1230282 0.720138
0001e0 42 ed 41 3f ad 4d 2f bf c1 fc 3e bf f4 cc a0 bf
       0.7575265 -0.684779 -0.7460442 -1.2562547
0001f0 b5 3e ac 3e 58 10 b6 bf a7 fc af be 9f 83 fc 3d
       0.33641592 -1.4223738 -0.34372446 0.12329792
000200 a1 a5 c7 bf ce 58 e0 bf 02 2d 2f be 5a 21 53 3f
       -1.5597421 -1.7527101 -0.17107013 0.82472765
000210 ba bc 5d 3f 11 ea 54 3f d7 37 37 bf 03 2d 46 3f
       0.866161 0.83169657 -0.7156958 0.7741243
000220 58 14 ce 3f e7 d4 14 bf ec b2 cd 3f 68 84 23 3f
       1.6099958 -0.58137363 1.6070228 0.6387391
000230 15 b5 ae be 82 90 5c bf 41 b5 8e 3f e6 5e 5d bf
       -0.3412253 -0.86158 1.1149064 -0.8647293
000240 37 77 c3 3f 40 f9 02 c0 5c 5b 10 3f 3c 2b 05 3f
       1.5270756 -2.046463 0.56389403 0.52019095
000250 a7 f5 97 3f fc 51 42 3f e0 69 d1 3e aa 71 25 bf
       1.1871842 0.7590635 0.4090109 -0.6462656
000260 da 34 b4 3f 9c b0 ca bf 4e cf 5e 3f 50 a4 79 be
       1.4078629 -1.5835147 0.8703507 -0.24379086
000270 f4 74 9d 3e 12 eb 93 be 41 23 a6 3f 1c b8 a5 3e
       0.3075329 -0.28890282 1.2979509 0.32367027
000280 ed ae 06 c0 8f 3d 77 bf e0 32 15 bf 69 03 8f bf
       -2.1044266 -0.96578306 -0.58280754 -1.1172916
000290 f5 16 32 c0 6b 52 35 3f 3f fb 4c bf fe 4f 91 be
       -2.7826512 0.70828885 -0.8007087 -0.28381342
0002a0 ed a7 35 be 92 11 b3 3f 68 f6 82 be 23 8a ec 3f
       -0.1773984 1.3989737 -0.25578618 1.8479656
0002b0 2a e1 b4 3d 70 ed ed bf ea 21 49 bf cc 02 c0 be
       0.08832009 -1.8588085 -0.78567374 -0.37502134
0002c0 48 86 42 bf 5f 54 47 3d 0d c2 72 3e b0 75 e6 bf
       -0.75986147 0.048664447 0.23706837 -1.8004665
0002d0 5a 32 21 bf 27 3a 0f 40 1e 9a 19 40 93 dc 33 bf
       -0.62967455 2.2379243 2.4000316 -0.70258445
0002e0 7b 3a 29 bf 9b 80 ec 3e d7 0c c7 3e fb 79 e1 be
       -0.6610486 0.46191868 0.38876984 -0.44038376
0002f0 ba 60 39 3e e6 7d e8 be 18 38 be 3f ef 00 a7 3f
       0.18103305 -0.45408553 1.4860868 1.304716
000300 8b fa 90 3f 8e e0 b8 bf 8e 2b 65 bf 7b b7 26 bf
       1.132646 -1.4443529 -0.89519584 -0.6512372
000310 dc d6 14 bd 32 cf a6 3e 5c a2 19 3e 8e c3 dd 3f
       -0.03633772 0.32579952 0.15003341 1.7325304
000320 6c c3 1f bf 4f 1c 29 bb 8c 88 f3 be 7e 97 e7 3e
       -0.62407565 -0.0025804227 -0.47565114 0.45232767
000330 b5 e8 60 3f b3 c0 7e bf 0a c5 18 bf 18 d4 cc bf
       0.8785508 -0.99512786 -0.5967566 -1.6002226
000340 68 b2 1f 3f d6 92 7a 3f f7 ec e8 bd 99 06 4c 3f
       0.623816 0.97880304 -0.113733225 0.7969757
000350 73 61 12 bf df 45 0a 3f 64 32 25 bf 39 90 f8 3e
       -0.57179946 0.54012865 -0.64530015 0.48547533
000360 92 ff 30 3f b3 23 a4 bf 93 31 c0 3f 23 d5 90 be
       0.6913997 -1.2823395 1.5015129 -0.2828761
000370 5a 9f 11 bf cd 3f cf bf 53 d4 8b 3f 09 00 5c 3e
       -0.56883776 -1.6191345 1.0924171 0.21484388
000380 ae ef 9a 3e 9e a4 94 be 55 bf 9c bf 3a b2 31 bf
       0.30260986 -0.29031843 -1.224589 -0.6941258
000390 09 29 77 bf 72 7e a9 3f bb d5 91 be bd 60 59 3e
       -0.9654699 1.3241713 -0.28483376 0.21228309
0003a0 c8 96 7f 3d fc 22 f3 3c 19 9f 94 3f 8c b0 9d bf
       0.062399656 0.029679768 1.1611053 -1.2319503
0003b0 6b 39 71 3e e9 01 f0 3f 06 3d a2 3e ed 5c ae 3e
       0.2355706 1.8750583 0.31687182 0.34055272
0003c0 0f fa c2 3c 85 4e a8 3f ab 0b 82 3f a1 4d 2e be
       0.023800878 1.3148962 1.0159811 -0.170218
0003d0 92 fa ed 3f 8c ce 00 c0 78 e4 66 be 90 bd 8a 3f
       1.8592093 -2.0126066 -0.22548091 1.08391
0003e0 bb 9e da be c4 0b c1 bf 3e cc ec 3e bf e7 b8 be
       -0.42699227 -1.5081716 0.46249574 -0.36114308
0003f0 e1 12 88 3f bd be 37 3e e0 19 04 c0 4e c3 24 bf
       1.0630761 0.17943855 -2.0640793 -0.6436051

rnn.weight_ih_l0 f4 [32, 128]
000000 e5 aa 23 be ce af 6b 3e 07 a9 74 3d fe 6e c4 bd
       -0.1598316 0.23016283 0.05973151 -0.095914826
000010 43 22 ff 3d fe ec 6b 3e 19 7c 82 bd ed 01 84 bb
       0.12457707 0.23039624 -0.06371326 -0.00402855
000020 b9 75 6f 3e 40 35 35 be 45 d5 9e bd cf 8e 4e bd
       0.23384751 -0.17696095 -0.07755522 -0.05042916
000030 f3 29 f8 3d 78 95 0c be f7 58 8e 3d aa b7 21 be
       0.12117376 -0.13728893 0.069505624 -0.15792719
000040 ed 16 46 3d 72 e6 88 3d 3f 94 f9 3c 4b 15 54 3e
       0.048361707 0.06684579 0.030466197 0.20711248
000050 b2 5a 43 be f7 e7 d5 bc 85 45 27 3e 3c dc 26 bd
       -0.19077566 -0.026111586 0.16335113 -0.040737376
000060 f0 33 db 3d 3c 64 9b 3d 21 d4 3a be 0c 35 26 3d
       0.10703266 0.075874776 -0.18244983 0.040577933
000070 d1 f0 a1 be f3 7b b6 bd 73 5e b9 bd df c3 c4 bc
       -0.3162904 -0.0891036 -0.09051218 -0.02401918
000080 4e 27 65 be cb e6 d5 bd a3 68 07 3e 72 58 a6 3d
       -0.22378275 -0.10444411 0.1322351 0.08122338
000090 a8 d7 ec 3d f7 42 01 be 2f 1b ac 3d ce a3 17 be
       0.11564571 -0.12623201 0.08403622 -0.1480858
0000a0 d3 ed e8 bd 70 de 5e be 37 fd 18 bc d0 d3 e1 bc
       -0.11373486 -0.2176454 -0.009337715 -0.02756682
0000b0 01 f0 60 be 04 07 3e 3c d5 5d f8 3d ad 33 00 3e
       -0.21966554 0.011598352 0.12127272 0.12519713
0000c0 ed ac 82 bd b7 64 56 3c 1c ce de bd 1d bf ec 3d
       -0.06380639 0.013085536 -0.10879156 0.115598895
0000d0 e3 75 3f 3e 71 9e 2d 3e da b2 c1 bd 69 2e ed 3c
       0.18697314 0.16954972 -0.09457941 0.028952794
0000e0 e3 ea 0a 3e 92 9b a3 bd 43 3c 2f bb 96 60 10 3d
       0.13566165 -0.07988657 -0.00267388 0.03524836
0000f0 9c 80 c5 3d 8b 22 eb bd 14 76 24 3e 5f a0 06 be
       0.09643671 -0.11481198 0.16060668 -0.13147114
000100 ce 08 e5 3c 12 d7 5d bc 15 3c 96 be b9 a7 49 3e
       0.0279583 -0.013540046 -0.29342714 0.19692887
000110 23 f0 27 bd e4 c1 86 bc 5c f2 f4 bd 46 5d 0a be
       -0.041000497 -0.016449876 -0.11960289 -0.13512143
000120 1c 08 88 be 34 3a 4e be 28 7a bb bc 7e 1f 22 bb
       -0.26568687 -0.2013939 -0.022885397 -0.002473801
000130 91 53 63 3e 9e ad 56 3e d2 86 01 3c 46 13 a1 3d
       0.22199847 0.20964667 0.007905679 0.07865004
000140 18 ad 4c 3e b0 7c 19 3e 4b 17 09 bc 7a ef 82 bd
       0.19987905 0.14988971 -0.00836737 -0.06393333
000150 c5 5a c8 3d b7 22 2c 3e 34 cf 18 3e bd 4f 6e be
       0.09782938 0.16810118 0.14922792 -0.23272605
000160 0a 9f 91 3e bc 7a 02 3c a9 4a ed 3d a5 23 04 3c
       0.2844165 0.0079638325 0.11586506 0.008065139
000170 90 a1 87 bd 71 36 e4 bd b6 1c 2d 3e 7d 2b 19 be
       -0.066226125 -0.111431964 0.16905484 -0.14957996
000180 62 d1 5c 3e 60 70 1e 3b ee 48 fe 3d f1 da d0 bd
       0.21564248 0.0024175867 0.12416254 -0.1019801
000190 a2 35 32 bd fd 37 d3 bd c0 7c 0f bd 7a 2a eb bc
       -0.04350818 -0.10313413 -0.03503108 -0.028706778
0001a0 9d 40 a2 3d 62 04 27 bd 8e e1 0d bc 09 40 28 3d
       0.0792248 -0.040775664 -0.008659733 0.041076694
0001b0 10 a0 3c 3e 76 91 14 3e 0d fd 1e bd 8a 93 ad bc
       0.18420434 0.14508614 -0.038815547 -0.021188516
0001c0 9a af db bd 83 fe df 3d 93 9c 94 3c 9f 51 10 3d
       -0.10726853 0.10937216 0.018141067 0.03523409
0001d0 2e a3 24 3e 54 f2 16 be 29 70 74 3e 21 d6 8b 3e
       0.16077873 -0.14740878 0.2387091 0.27311805
0001e0 db 04 d7 3d 53 fb e6 3d 0b 3b d2 bd 0a 3a 63 3d
       0.10498973 0.11278405 -0.10265168 0.055475272
0001f0 e3 56 df bd 2b b4 99 bd 65 d9 6d 3e cc 35 5f 3e
       -0.10905244 -0.075050674 0.2322746 0.21797866
000200 90 3b 3e 3e 7c 70 5e be 8e a5 ad 3d 26 8a cc 3d
       0.18577409 -0.21722597 0.08478843 0.09987287
000210 c0 b7 b1 3d f5 ec a5 3d 55 55 b7 bd 8d e1 9b bd
       0.08677626 0.081018366 -0.08951823 -0.0761138
000220 2c 66 b2 bd 3c 34 54 3e 99 25 0c bd 80 f9 18 3e
       -0.08710894 0.20723051 -0.034215543 0.14938927
000230 7d aa 9a 3e be 06 b7 bd d4 f5 70 3e 43 14 d7 3b
       0.30208197 -0.08936833 0.23531276 0.0065636947
000240 5f 62 1f bd 84 d1 34 bd 65 d3 a9 bd dd 85 e7 3d
       -0.038912173 -0.044145122 -0.082922734 0.11304829
000250 73 51 6b 3e 31 2c c4 3d 77 a7 0c be 8f 15 ac 3d
       0.22980289 0.09578741 -0.13735758 0.084025495
000260 13 89 83 3e 19 0f d2 3d 84 8c f5 3d 27 65 8a 3e
       0.25690517 0.10256786 0.11989692 0.27030298
000270 3f 44 05 be 76 cd f4 3c 4d 1d 3c 3e ec da f6 bd
       -0.13014315 0.029883128 0.18370552 -0.12053475
000280 11 97 b4 bd d9 bf 5a 3d e7 12 f3 3d b2 31 4d bd
       -0.08817876 0.053405616 0.1186884 -0.05009622
000290 f6 03 92 3d fb 17 2e 3e b8 c5 87 3e 2f 23 95 3e
       0.07129662 0.17001335 0.26518035 0.29128405
0002a0 2f 13 96 bd 2b 9b 20 3e c1 2b 71 3d 11 64 19 3d
       -0.07327878 0.15684192 0.058879618 0.037448946
0002b0 0f 4f 82 3e 52 24 21 3c f6 bc 33 be 77 13 e5 bc
       0.25450942 0.00983532 -0.17552552 -0.027963383
0002c0 60 7e 50 3e e9 5f 54 3d f4 0a db 3d 2f bc 11 3e
       0.20360708 0.05184928 0.106954485 0.14231943
0002d0 6f 30 cd 3c 39 fa 78 3d 4b 1b 2f 3d 77 86 8d 3e
       0.025047509 0.060785506 0.042750638 0.2764165
0002e0 70 e2 bd 3e 9e 48 1a be 38 95 c4 3c dd 0e 0f 3c
       0.3708682 -0.15066764 0.023996934 0.008731571
0002f0 2b 09 81 3c f6 79 2d be bd 5f 4c be 29 33 58 bd
       0.015751442 -0.16941056 -0.19958396 -0.052783165
000300 cb ef 10 bc 17 e2 7e be de 55 09 be 2d 21 ab be
       -0.008846234 -0.24890934 -0.13411662 -0.3342375
000310 b6 a4 8f be 64 aa ef bc cf 4b b4 be d9 d5 bc bc
       -0.28055352 -0.029256053 -0.35214087 -0.02305119
000320 e5 13 49 3d c5 6e bb 3d 96 fd a6 bd 74 41 4d 3e
       0.04909124 0.09151987 -0.081538364 0.200445
000330 6a 2e be 3d 74 f5 86 bd cc f6 04 be e3 b4 93 bd
       0.092861965 -0.06589785 -0.1298477 -0.07212236
000340 ea 4c 61 be f3 8c 78 be 63 c0 7a 3e 97 88 80 3e
       -0.22001997 -0.24272518 0.24487452 0.2510421
000350 7f 9f a5 3e 3b 5e f5 bd cb 45 1c bc 56 1f f0 3d
       0.32348248 -0.11980864 -0.009538124 0.11724727
000360 cf e4 42 3d d7 7a a2 ba 93 09 27 be ac f5 a7 bd
       0.04758149 -0.0012396228 -0.16312246 -0.08201155
000370 11 c2 15 be 27 cd 8c bd 02 0e f9 3d dd d5 cd 3d
       -0.14624812 -0.06875067 0.12160875 0.10050557
000380 d2 9a 29 be 89 24 09 3d 39 60 14 3e 4b ec 3c 3e
       -0.16562966 0.03348211 0.14489831 0.18449514
000390 83 79 ac 3e 3f 77 e8 3d c9 5e 92 3d e3 31 f0 bd
       0.33686456 0.113508694 0.07146985 -0.11728265
0003a0 a1 95 b7 bd 18 c2 8f bd f3 5c 09 3e db a8 c9 bd
       -0.08964086 -0.07019442 0.13414364 -0.0984666
0003b0 c9 4d a7 3d 59 af 81 3e d6 c8 47 be e9 47 5e 3c
       0.08169133 0.25329092 -0.19510207 0.013566949
0003c0 43 1c 72 3d d1 20 db bc 88 cb 92 3c 47 51 10 bd
       0.059108984 -0.026749047 0.017919317 -0.035233762
0003d0 15 af 34 3b f6 a8 1c 3e 96 09 85 be c2 fa 78 3e
       0.0027570177 0.15298828 -0.25983876 0.24314407
0003e0 bc 8a 5b be 65 87 46 3e 32 06 7d be b0 c1 f9 bd
       -0.21439642 0.19387586 -0.24709395 -0.12195146
0003f0 63 bc 71 3e 39 7a 19 bd f2 31 b6 bd 1f 74 16 3d
       0.2360702 -0.037470076 -0.08896245 0.036731835

rnn.weight_hh_l0 f4 [32, 32]
000000 ff 6b 28 3f 44 5e 89 bd 39 da bf be fa 64 a8 bd
       0.6578979 -0.06707433 -0.37471178 -0.08222385
000010 8d 33 2c be 44 97 06 be c3 30 2d 3c 29 45 3d bd
       -0.1681654 -0.13143641 0.010570708 -0.046208534
000020 a3 02 88 3e 0a 2f 26 bc ff 8e 1e 3f 06 c9 a2 3e
       0.26564512 -0.010143051 0.61936945 0.31793994
000030 a2 f2 34 3f b0 fd e2 3d 29 f0 f6 bd 51 89 b0 be
       0.7068273 0.11083543 -0.12057526 -0.34479764
000040 2a d1 2c bc 06 7b d0 bd 9c 16 06 bf b6 8a 27 3f
       -0.0105479155 -0.10179715 -0.5237825 0.6544603
000050 f2 2b 9a 3f 1b c2 5e 3e e3 ba 1b 3d c8 40 89 3e
       1.2044661 0.21753733 0.038020026 0.26807237
000060 df 87 8e be 04 aa e6 3d ab 5b 84 be c9 f0 ad 3e
       -0.27838036 0.11262897 -0.25851187 0.33972767
000070 15 62 2c 3e 78 c6 41 3e 46 3a ae be 44 4b 0a be
       0.1683429 0.18923366 -0.34028834 -0.13505274
000080 7c a5 fd 3e 49 c2 d1 bd 05 e1 35 be 90 a9 8a 3d
       0.49540317 -0.10242135 -0.1776162 0.06770623
000090 11 79 12 3e ac 11 a9 3e a1 5a 9c 3e cb 75 62 bf
       0.14303996 0.33021295 0.30537894 -0.8846099
0000a0 e0 33 b2 3e 41 64 a4 3b b3 45 99 3d b4 0e ab be
       0.34805202 0.005016834 0.07483997 -0.33409655
0000b0 b2 8e 46 3d b5 fd 36 3f d4 dc be 3e b7 31 15 bf
       0.04847593 0.71480876 0.37277853 -0.58278984
0000c0 45 b5 18 be a6 10 51 3d e4 a5 05 3d 89 0c 1c 3d
       -0.14912899 0.051041268 0.03262891 0.038097892
0000d0 5c 3d fb 3d cc 21 94 be b0 e7 d8 3d 01 22 98 be
       0.12267563 -0.28932035 0.10591066 -0.29713443
0000e0 33 f8 b5 bd 2e 20 2f bf df 7c 14 be ee 5c d6 be
       -0.08885231 -0.6840848 -0.1450076 -0.41867775
0000f0 fd 58 e1 be 8a 99 6b bc b0 4e 7d be f1 39 5b bd
       -0.44013205 -0.014379868 -0.24737048 -0.053522054
000100 c1 94 06 be d9 37 6e be a6 6a 3f 3c 9d 9b af 3e
       -0.13142683 -0.23263492 0.011683142 0.3429841
000110 2a 6e de bd c8 5d 16 bd ae 06 07 3e b3 ee f9 be
       -0.10860856 -0.03671053 0.13186142 -0.48814926
000120 17 4d 1a 3f 06 94 12 3e 39 ba 2f 3e 77 35 05 bf
       0.6027388 0.14314279 0.17160882 -0.52034706
000130 5a 15 0b 3e b8 3a fd 3e d8 58 68 bd 64 99 40 bf
       0.13582364 0.4945886 -0.056725353 -0.75234056
000140 e3 31 79 3e 86 f6 2f bf 2f 75 ec 3d da 0c c6 3e
       0.24335437 -0.6873554 0.115457885 0.3868168
000150 a0 d7 14 3e f1 52 9a be c2 2c 27 3e 18 65 f3 3e
       0.1453538 -0.30141404 0.16325668 0.47538066
000160 b7 a1 1b 3d 4a de 8c bf f3 18 18 bd 4a 71 70 3e
       0.03799602 -1.1005337 -0.03713317 0.23480716
000170 74 31 4a bf 30 a5 8d be e0 99 70 3e 5b de 74 be
       -0.7898171 -0.2766509 0.23496199 -0.23912947
000180 fc d0 6b 3d ca c6 1e 3e ab 6f c5 3e bc 3e 90 3e
       0.05757235 0.1550552 0.38561758 0.28172863
000190 18 3e 12 3f ca 78 9b 3e a2 a8 39 3e 24 69 d5 3d
       0.57126 0.30365592 0.18130735 0.104204446
0001a0 c6 7b bc be b7 21 23 3e 55 ad e7 3d e0 0a 34 3e
       -0.36813182 0.1593083 0.11312357 0.17582273
0001b0 0b 19 b8 be da a3 2c 3e 0b 01 02 3f db d7 8a 3d
       -0.35956606 0.1685938 0.5078284 0.067794524
0001c0 6d 39 79 3e 05 35 91 bd f6 2f 05 bf cd d3 69 bc
       0.24338312 -0.07090191 -0.5202631 -0.014271689
0001d0 07 14 d5 bd 00 15 ef 3e 4b 71 8f be a2 17 ac bd
       -0.104042105 0.4669571 -0.28016123 -0.08402945
0001e0 2c 03 b3 bd 5e dc 86 be 5d e7 c9 bd c3 03 5b 3e
       -0.08740839 -0.26340002 -0.09858582 0.21388154
0001f0 36 df 58 3d fe a6 51 be f0 12 b8 be 11 85 e8 3e
       0.052947246 -0.20473859 -0.35951948 0.45414022
000200 8c a6 bc 3d 1c 0e 8a bc ea 5b c4 3e b2 1a 83 be
       0.09211454 -0.016852431 0.38351375 -0.25606304
000210 78 ea 1f 3f 6e 55 b9 3e e1 52 33 3e 4a a1 88 be
       0.62467146 0.3619799 0.17512085 -0.26685554
000220 17 ba 0e be f4 b1 fd bd 53 69 10 be 3a fb 5b bf
       -0.13938175 -0.123874575 -0.14102678 -0.85930216
000230 4b 75 14 bc 79 ec 78 3f 05 5c 78 be fb f5 c4 be
       -0.009061168 0.9723583 -0.24253853 -0.38468918
000240 95 df 84 3e 25 de b8 be 99 63 fa 3e 26 34 31 be
       0.2595183 -0.36106983 0.48904112 -0.1730505
000250 8f ad d1 3d b3 17 e8 be 0c a4 16 3e a3 32 55 3e
       0.10238182 -0.4533058 0.14711016 0.20820098
000260 44 70 01 3e 5c 93 cb be 18 fc 20 be 93 8b f0 3e
       0.12640482 -0.39760864 -0.15721166 0.46981487
000270 31 1b 18 bf ac 0d 03 3e e7 36 88 3d 28 13 b0 bc
       -0.5941649 0.12798184 0.06651097 -0.02149351
000280 e5 42 e5 bd 82 fa 30 bf 6d e1 ee 3e fb 75 b8 be
       -0.111944 -0.69132245 0.4665636 -0.36027512
000290 b2 57 33 3f 39 b0 09 3e 0c f4 b0 be 26 4d c3 3e
       0.7005569 0.1344613 -0.34561193 0.38144797
0002a0 46 83 43 3c 69 d9 45 3d 25 e2 5d 3f 7b 84 f9 bd
       0.0119331535 0.04830304 0.86673194 -0.12183472
0002b0 ce 35 29 3e 39 93 ee 3d 91 98 b5 3c db 1f d5 be
       0.16524431 0.11649174 0.022167476 -0.41625866
0002c0 2a b3 62 3e 04 64 5b be 21 36 95 3e ae e5 1d be
       0.22138658 -0.21424872 0.2914286 -0.15419647
0002d0 1c 38 f9 bd 24 55 15 be 94 24 8c 3e 79 ba 68 bf
       -0.12168905 -0.1458326 0.27371657 -0.90909535
0002e0 bb 52 8d 3e 10 d2 02 3c 47 9e db 3c 34 3f c1 be
       0.2760218 0.007984653 0.026808871 -0.37743533
0002f0 7c ea 0e be d5 d1 be 3b b9 2a b5 3e a0 46 fd be
       -0.13956636 0.005823354 0.35384157 -0.49467945
000300 12 67 cc 3e fb 4e d8 bd 91 13 16 bf 8b b0 d2 be
       0.39922386 -0.10561939 -0.58623606 -0.41150317
000310 be 1e 0f bf 84 e7 97 be 92 d3 ec bc 4d 03 6e be
       -0.55906284 -0.2966882 -0.028909478 -0.23243447
000320 8c 85 5f 3e f9 a2 7e 3d ef 07 88 3e 00 26 c6 3e
       0.21828288 0.06216714 0.26568553 0.38700867
000330 05 fb da 3d 70 88 d4 be fe 6e 1e 3e bb ef ef bd
       0.106924094 -0.41510344 0.15472028 -0.11715647
000340 63 15 0d bc b4 dc 2d 3e 11 8c 45 3e a3 5a dd 3e
       -0.008611056 0.16978723 0.19291712 0.43233213
000350 b3 ba 8f 3e 43 4c 95 be 0d a9 66 3d 1a a6 2f 3e
       0.28072128 -0.29159746 0.056313563 0.17153206
000360 5e 85 a3 be 09 3c 1b bf 34 78 d8 3a ad 20 47 be
       -0.3193769 -0.6063848 0.0016515316 -0.19446059
000370 06 92 0e 3f c5 25 97 3e 36 d1 0e 3f 39 14 25 be
       0.55691564 0.29521003 0.5578798 -0.16120996
000380 91 68 87 be 16 dd d1 3e 91 de 60 be ef 75 ab 3d
       -0.26446965 0.40988988 -0.21959902 0.083721034
000390 1c 87 59 be 4a 5b 34 3e 16 b1 6b be 9f 4d ca be
       -0.21242946 0.17612949 -0.23016772 -0.39512345
0003a0 e4 c8 91 3e 78 d1 ca bd 4d 20 d7 be 50 d6 e7 bd
       0.2847358 -0.09903234 -0.4201683 -0.11320174
0003b0 b9 29 98 be bd 7d 5e bd 07 3d 0a bf ee 6d a8 3e
       -0.29719332 -0.054319132 -0.5399937 0.3289637
0003c0 a3 6c 30 3d e3 92 8f be 12 9b 0a 3f 7b cb f3 bd
       0.043072354 -0.28041753 0.5414287 -0.11904045
0003d0 26 cf 87 bc 14 a3 de be 18 24 f9 3d 36 cf d5 3b
       -0.016578268 -0.43483794 0.121650875 0.0065249456
0003e0 f8 d9 81 3d 94 8e 07 bf 14 73 0a 3f 4e 8e 89 be
       0.06340402 -0.5295193 0.54081845 -0.26866382
0003f0 29 b4 ff bc d2 57 01 bf 78 03 90 3e 27 77 08 3f
       -0.031213837 -0.5052463 0.28127646 0.5330681

rnn.bias_ih_l0 f4 [32]
000000 34 d6 88 bd 2b 43 65 3e 27 f3 dc bc 97 d0 2f be
       -0.06681481 0.22388904 -0.026971413 -0.17169414
000010 ec f5 bd bd a8 a9 bc bd 64 d4 b3 bb b1 9f 12 be
       -0.092754215 -0.09212047 -0.0054879654 -0.1431873
000020 1a 31 b7 bd 23 cf 8d 3d 55 05 00 3d c2 62 8e 3c
       -0.08944912 0.06924274 0.031255085 0.017381076
000030 de b1 13 bc d3 27 5d 3e 32 21 03 be 1c 8a 8b be
       -0.009014575 0.21597223 -0.12805632 -0.27253807
000040 00 a7 92 be 20 71 f0 3d eb d5 d0 bc 23 74 11 3d
       -0.28643036 0.11740327 -0.025492629 0.035511147
000050 f1 c4 bd bc 73 b4 a3 bd b1 aa 53 be 75 eb 45 3e
       -0.023165198 -0.07993402 -0.20670582 0.19328101
000060 41 b2 28 3e 64 9b fa bd b2 e9 12 3e d7 fd 21 be
       0.16474248 -0.1223667 0.1434696 -0.15819488
000070 0a 77 f5 bd 5c ee 3a 3e 71 6e 05 3e 50 63 0b be
       -0.119855955 0.1825499 0.13030411 -0.13612103

rnn.bias_hh_l0 f4 [32]
000000 a7 dc fd bd b7 b2 6c 3e dd 1c 27 bd 1d bb cb bd
       -0.12395602 0.2311505 -0.04079901 -0.099477984
000010 6d ca af 3d a5 bb 85 be be 5a ae bd 57 4c ed 3d
       0.085835315 -0.26119724 -0.085134014 0.11586826
000020 78 08 19 be f1 77 db 3c a2 4a 7a bd 77 6e 6c be
       -0.14944637 0.026790591 -0.06110633 -0.23089014
000030 2b 71 74 be 2a 45 8e 3e e8 81 10 be ca 67 93 be
       -0.23871295 0.27787143 -0.14112055 -0.28790122
000040 aa 5c 89 be 52 c8 90 bd ce 0d e1 bc cd 44 00 be
       -0.2682851 -0.07069458 -0.027472403 -0.12526245
000050 91 2c 84 be 8d 51 60 3e d8 a7 c8 3c f4 e3 4f 3d
       -0.2581525 0.21906109 0.024494097 0.050754502
000060 71 48 0e be aa 8e 5a bd 20 11 92 3e d3 0b 0a be
       -0.13894822 -0.05335871 0.2852869 -0.13481073
000070 57 93 1c be a5 31 a1 3e 92 c1 89 3e 30 0d 07 3c
       -0.1529058 0.31483188 0.26905495 0.00824289

fc1.weight f4 [11, 32]
000000 c8 bd a6 be 70 00 aa 3e 2e 2b 7b 3e fe b1 72 3e
       -0.32566667 0.3320346 0.2452819 0.23700711
000010 14 b7 ab 3e 79 f1 eb be 7d 30 ab be f5 48 f6 3e
       0.33538115 -0.46082667 -0.3343543 0.48102537
000020 da 3f d0 be 16 54 f2 3e 5b e6 48 be 62 1f 23 bf
       -0.40673715 0.47329777 -0.19619124 -0.6371976
000030 50 d7 05 3f bf 7c 52 3f e8 80 84 be 4a 52 82 bf
       0.52281666 0.822216 -0.25879598 -1.0181363
000040 c9 c0 2d bf f8 b1 ec be 22 69 84 be b1 06 66 be
       -0.6787229 -0.4622953 -0.2586146 -0.2246349
000050 45 04 60 be d4 93 34 3f 38 26 02 bf dd a1 af 3e
       -0.21876629 0.7053807 -0.5083957 0.3430318
000060 03 9d ce be 68 2c 67 3e 44 99 6b 3e 2d a0 dd 3b
       -0.40354165 0.22575533 0.23007685 0.006763479
000070 0c bb 66 bf a6 07 0d 3f d6 d9 99 be 94 7b ba be
       -0.9012916 0.55089796 -0.30049008 -0.36422408
000080 e8 42 ae be 59 23 bd bf 0e 36 b8 bf e5 42 e3 bd
       -0.3403542 -1.4776412 -1.4391496 -0.110967435
000090 ce 99 f1 bf 8b 7e 0a bf 67 23 34 3f c3 0a 52 c0
       -1.8875062 -0.5409934 0.7036652 -3.2819068
0000a0 3c 12 c4 be 78 39 36 bf 22 9c 4b 3f 5a 8c 45 bf
       -0.38295162 -0.7118144 0.79535115 -0.77167284
0000b0 0f ad 3f bf e8 8f 41 3e 02 59 83 be b0 a2 cc 3d
       -0.7487344 0.18902552 -0.25653845 0.09991968
0000c0 32 7f b2 bf 80 b6 0d 40 62 74 1d 40 c7 5c 94 3e
       -1.3945067 2.214264 2.4602284 0.28977033
0000d0 d8 5e 2c bf 8f 5d 7f c0 39 22 61 40 88 26 15 3d
       -0.6733222 -3.9900854 3.5177138 0.0364137
0000e0 37 fe 46 3f b7 e9 98 bf d2 03 a6 be ed ef 83 bf
       0.7773165 -1.1946324 -0.3242479 -1.0307595
0000f0 a0 30 52 40 7e 13 03 40 d9 a7 93 3f 0e ac 16 c0
       3.2842178 2.0480647 1.1535598 -2.3542514
000100 b5 0e d8 be b1 44 dc bf b3 a1 19 3e 6a a7 07 c0
       -0.4219872 -1.7208463 0.1500309 -2.1195931
000110 fd 28 d4 be d2 3e ce 3e 51 1c 2c 40 f1 d6 ec bf
       -0.41437522 0.40282303 2.6892283 -1.8503095
000120 64 e7 17 3f 54 ff 34 c0 b4 9d 15 be 69 9a 12 40
       0.5933745 -2.828084 -0.1461094 2.2906744
000130 58 c0 54 be a6 5a c2 bd 7b eb 12 bf 35 8f 32 be
       -0.20776498 -0.09489946 -0.57390565 -0.17437442
000140 66 a2 a2 3f 24 e4 cd 3e 09 08 b3 3e 30 c7 7f bf
       1.270581 0.4021312 0.34967068 -0.9991331
000150 b8 cf bf 3f da a2 cb 3e f9 b1 3e 40 38 0c 39 bf
       1.4985266 0.39772683 2.9796126 -0.7228427
000160 ea b9 67 be 95 c5 5d 3f df 10 28 bf 40 c2 67 3f
       -0.22629514 0.8662961 -0.65650743 0.90530777
000170 bb f0 ac be d6 c5 08 bf 03 c6 0d 40 b2 e5 b1 bf
       -0.33777413 -0.53426874 2.2152107 -1.3898222
000180 71 b0 87 bf a0 d9 16 c0 14 6e 55 3f 2b 42 85 3e
       -1.0600721 -2.3570328 0.8337109 0.26027045
000190 e0 ed d7 bf 11 c0 da 3f f5 e0 e1 3e 61 bd ab bf
       -1.6869469 1.7089864 0.4411694 -1.3417169
0001a0 37 48 ba 3f 10 a7 cd bf 5d 78 15 bf e2 6b ef 3f
       1.4553288 -1.6066608 -0.58386785 1.8704798
0001b0 3f a4 ef 3e d1 c2 f3 bf 76 bd a5 3f 11 da 89 bf
       0.46804997 -1.9043828 1.2948444 -1.0769674
0001c0 a6 69 0c 40 b0 c2 99 3f 60 72 23 3f 7e 8c a9 3f
       2.1939483 1.2012539 0.638464 1.3246
0001d0 84 ed 5a bf 5c a4 85 3d 3e ff 45 3f ea e8 de 3f
       -0.8551867 0.0652549 0.77342594 1.741483
0001e0 e3 ca 02 40 93 29 ce be b9 8c 0e c0 d0 1f 5b bf
       2.0436332 -0.40266094 -2.227339 -0.8559542
0001f0 34 f9 88 be ad 89 6d 3f 5d 79 0e 40 96 c9 5c 3f
       -0.26752627 0.927882 2.2261574 0.86245096
000200 6b 6e 57 3f 6f 2e f2 bf 79 08 45 bf 41 3f 1e 3f
       0.8415286 -1.892042 -0.76966053 0.6181527
000210 32 02 34 be 09 79 e7 3f 8a 29 49 3c 79 83 89 3f
       -0.17578962 1.8083812 0.01227797 1.0743247
000220 fc 4d 50 3f 47 ff 30 c0 69 f5 c1 bf 89 d7 e6 be
       0.81368995 -2.765581 -1.5153018 -0.45086315
000230 a8 aa c3 be 15 88 1d 3e e2 ed 40 40 ae e5 e4 3d
       -0.38216138 0.15383942 3.0145192 0.111766204
000240 38 e9 4e 3f 1f f6 24 bf e4 8a 0c 3f 89 ef 3c 3f
       0.80824614 -0.6443805 0.5489943 0.73803
000250 ed e9 72 3f 85 67 28 3e 44 82 62 40 0d 06 fc be
       0.9488819 0.1644574 3.5392008 -0.49223366
000260 d6 11 e9 3e 80 52 70 bf e2 dc 3d bf 6b b1 13 3f
       0.4552142 -0.93875885 -0.74165165 0.57692593
000270 dc c5 e2 3f 38 ce 93 bf 36 ee b3 3f a9 14 a1 bf
       1.7716632 -1.1547308 1.4057071 -1.258443
000280 74 c9 af 3f 9b af 80 be b5 bf dd be 01 de 71 bf
       1.3733354 -0.25133976 -0.43310323 -0.94479376
000290 72 bd f1 bf 15 f9 28 40 6f 16 1b 40 69 57 13 be
       -1.8885939 2.6402028 2.4232442 -0.14388813
0002a0 f1 27 27 be 8a f1 6f bf 1a da 73 bf 30 f9 be 3f
       -0.1632383 -0.93727934 -0.9525467 1.4919796
0002b0 2a 18 46 3f 04 b6 aa bd 26 2d e5 3f 16 36 60 3e
       0.7738062 -0.08335498 1.7904403 0.21895632
0002c0 d4 a7 a8 3e 40 62 a9 3f 07 ad dc be 2b b3 35 bc
       0.32940543 1.3233109 -0.4310076 -0.01109008
0002d0 3d 7c 50 3f 0c 7d 68 bf 18 0b a7 3f 81 a5 ac 3f
       0.8143957 -0.90815806 1.305026 1.3488008
0002e0 2b 10 18 40 e2 f7 fa 3e 63 fc bf bc 77 a8 5f bf
       2.3759868 0.49017245 -0.023435777 -0.8736643
0002f0 de 4c 19 bf 25 db bb be 08 6b 55 3f 93 bc 01 bf
       -0.59882915 -0.36690632 0.8336644 -0.50678366
000300 ff 28 b9 3e 28 e8 94 bf a4 c4 13 bf 3c ac 67 bf
       0.3616409 -1.1633348 -0.57721925 -0.90497184
000310 4f cc 9d 3e 04 94 33 3e 0c 84 00 40 42 7e e3 be
       0.30819938 0.17536932 2.0080595 -0.44432265
000320 aa 9b 43 bf a3 f9 cc bf 69 78 27 40 d4 1a 32 3f
       -0.764094 -1.6013683 2.6167243 0.69572186
000330 33 dc 3b 3f 3f 65 a5 bf da bc c8 3f 6b 27 56 3f
       0.7338287 -1.2921523 1.5682633 0.836539
000340 d9 bf fc bc 15 d9 00 3f d4 21 b6 3f 82 01 16 3f
       -0.030853199 0.5033124 1.4229074 0.5859605
000350 08 97 6c 3f 9a c3 0c c0 3e 01 88 3f 17 48 e5 3f
       0.92417955 -2.1994386 1.0625379 1.7912625
000360 27 1e 24 40 e0 20 ab 3f af 25 52 c0 ae f0 bb 3f
       2.5643404 1.3369408 -3.28355 1.4682825
000370 6a 9c e6 3f ec 28 b2 3e 1c 03 88 3f 17 84 c9 be
       1.8016484 0.34796846 1.0625949 -0.3935859
000380 cb a4 30 bd 85 29 a1 bf 54 9c 5f bf d2 42 82 be
       -0.04312591 -1.2590796 -0.8734791 -0.25441605
000390 e7 28 63 bf f1 7c 04 3f 7d 47 bb 3f 56 7e 8c bf
       -0.8873429 0.51753145 1.4631191 -1.0976055
0003a0 77 e8 2f 3c 41 e7 ce bf 9b e6 04 bf 4a 4b 42 3f
       0.010736576 -1.6164323 -0.51914376 0.7589613
0003b0 ac 36 80 3f ba 74 77 bf c8 da 97 3f 94 de ca 3e
       1.0016685 -0.96662486 1.1863642 0.3962294
0003c0 72 2f 49 3e 82 8b 8b 3d 4f dd e7 3e 1d d8 28 3f
       0.19647005 0.068137184 0.45286033 0.6595476
0003d0 28 02 17 3f b4 59 81 bf ad 7e e8 3f a6 1a c6 3e
       0.58987665 -1.01055 1.8163658 0.38692206
0003e0 6c 17 40 3f 24 d8 77 be 8b a8 09 c0 b7 9e 66 3e
       0.7503574 -0.24203545 -2.150912 0.22521482
0003f0 16 a3 af 3f de 3a 11 bf 13 63 ae 3f 93 0f 15 bf
       1.3721645 -0.5673045 1.3623985 -0.5822689

fc1.bias f4 [11]
000000 2e 78 b0 3e 3d 3b 24 3e 1c 23 bb bf 0d 4d fe bf
       0.3446669 0.16038223 -1.462009 -1.9867264
000010 2d 65 c1 bf ec c4 af bf a9 6e 8c bf 31 ff cb bf
       -1.5109001 -1.3731971 -1.0971271 -1.5937253
000020 0d f5 7b be 90 1b 91 bd 46 62 8d be
       -0.24605198 -0.07085335 -0.2761404
