src/main/python/saved_models/python3_1_37_RNNClassifier1_128embs_102id_32hd_1hl_Falsebid_1.pt (torch, 75743 bytes, 7 tensors)

word_embeddings.weight f4 [102, 128]
00000000: 0235 eebf f83c 40bf c5c4 5f3f 5bbe aa3f
00000010: 0f34 3e3f eb87 073e bfbc aebf 2f5c 673f
00000020: f55a 58bf a59d 6d3e 1d8d 1d3f 267d 643d
00000030: fb99 1f3f 113f 1abf f2e5 b5be ee5f c2bf
00000040: 9a79 87bf 7fe0 09bf b773 7bbe ef24 08bf
00000050: f07d aa3f 9272 dbbf 6ffc 8cbf d774 5bbf
00000060: a230 4ebf f974 31be 9197 2740 9044 79bf
00000070: 7b3a 353f a9ff 223c c75b 8fbf b923 da3f
00000080: 0ec1 6dbf 97b8 3f3f b5b2 a3be df65 cb3f
00000090: b309 11bf 7263 3abf 7f1b b1be fb34 5f3d
000000a0: 79d3 08bf 0ef2 ae3f 4eda c43f 2f8d b0be
000000b0: 6c20 dfbf 32c6 2fbd 5908 c9be 0f70 843f
000000c0: fa87 31bf 92cc 93be 959e d33f 2bfb a4be
000000d0: 2f90 cd3f 19ea 6b3f 0a9e 0f40 b09e 62bf
000000e0: 5c2d 7abf 6fa1 f9bf 66cc a0bf 8a49 233f
000000f0: c16e 9ebf 636a fdbe c21a c4be a206 95bf
00000100: add6 1040 a681 4c3e 8e45 4cc0 0c26 833f
00000110: 6b21 273e 862c ffbe d8ee c03f 3f1c d23e
00000120: 92bf 09c0 5554 7a3f 6d0c cd3f 4fc8 9e3e
00000130: c6cc d0bf 37bd 7cbe f393 c83f 5d1c 5e3f
00000140: 79b2 a93e 4f9b afbe 22cc 37bd 640e 36bf
00000150: 5999 2fc0 6312 a6be b1e6 91bf 2814 813f
00000160: e4d9 59bc d538 c43e 4ad5 19be 5812 c13e
00000170: 2a1e b1bf 285f 40bf fa9b 943f 97c2 aebe
00000180: 8c80 163e 7f9c 213f 32e7 f73f e94c 3c3e
00000190: b170 9fbf 1391 3dbf f09d 093f c7b2 5ac0
000001a0: 4fbd 87be b557 b1bf 0504 0040 7b70 1040
000001b0: 43e8 ba3e 5aac 543f 73a8 0cc0 73c8 623f
000001c0: 4dcc 723e 6397 a23f f0d4 0f3f c520 a53f
000001d0: c3bb 2ebf ac13 e4bf f0f9 7dbf 6b00 ee3f
000001e0: 40a5 04c0 ca6a 643f 2d93 dcbf ff22 613f
000001f0: a53f 3fbe 3d66 7ebd f286 703f f1a2 87bf
00000200: 875a a1bf bc3c 96be e681 c5bf 493f 8bbf
00000210: 0719 86bf 38e8 e6bd c777 593e 70bd 0a3c
00000220: 1d3e 96bf 2b30 39be 6e1b 7bbf 72c5 633f
00000230: 78f0 693d b90b 7bbf 7a65 14bf 8904 183f
00000240: aecb a0be 779d e03f 035b 7e3d 1fbc 55be
00000250: f4c0 9bbe 836d d83f c442 82be 16ac 22bd
00000260: 399f 48be e90d 993f 1664 8abe bca2 bfbe
00000270: cf83 813f 80dc 8dbf 2aee 25c0 7a0e 1a3f
00000280: d27f abbe 86ba a7bf 108e 0abf a510 de3e
00000290: 91ad 873d 1461 643e f6e2 02bf 5649 5d3f
000002a0: ed0d b6be 62ae aebe 5623 c2bf 55ce 523f
000002b0: 6e44 9e3f e311 91be dfc4 d33f 741f aa3f
000002c0: 9862 293f c55f f13e fb40 613e de8a 163f
000002d0: f937 0f3d adbc 363f cccd b63f e014 863e
000002e0: c572 f7bc 15ae 4cbe 6cc0 7fbf a631 d6bf
000002f0: c133 8fbe 5601 353f b210 66be 527f 083f
00000300: 4290 333f ff77 173f 94e9 efbe db07 efbf
00000310: 996d a1bf a8c4 e7be f24f 113f 0c7d 14bf
00000320: 1087 1dbf 60fc 08bf 8ca6 73bf 2fbf c0bc
00000330: 3cea 593f c364 37bf 91f5 00bf ef11 1fbf
00000340: d1e6 90bf d378 453e 18cc be3f e56f 67be
00000350: 6830 a73f 61ff 183f 9e63 04c0 c4ed 6d3f
00000360: eac4 46bd 3b84 d23f e9d6 563f a3c2 253f
00000370: 07e4 debe 6a99 f1be 8ef6 d3bf 7cf2 113e
00000380: 1ca7 ccbf 7325 94bf bd1c 96be a1a5 c7bf
00000390: ce58 e0bf 022d 2fbe 5a21 533f babc 5d3f
000003a0: 2a1d f3bd fc4a 2dbf 35cf 953c 5814 ce3f
000003b0: e7d4 14bf ecb2 cd3f 6884 233f 15b5 aebe
000003c0: b7ac c8be 6bb3 39bf c577 813e 3777 c33f
000003d0: 40f9 02c0 5c5b 103f 3c2b 053f a7f5 973f
000003e0: 4abe fe3f 29ec 0dbf 78af fe3f da34 b43f
000003f0: 9cb0 cabf 4ecf 5e3f 50a4 79be f474 9d3e
-1.8609927 -0.7509303 0.8740962 1.3339342 0.74298185 0.13235442 -1.3651351 0.90375036
-0.8451379 0.23204668 0.61543447 0.055783413 0.6234433 -0.6025248 -0.35526997 -1.5185525
-1.0583985 -0.5385818 -0.2455586 -0.53181356 1.3319683 -1.7144339 -1.1014537 -0.8572516
-0.8054296 -0.17329778 2.6186259 -0.97370243 0.7079236 0.009948649 -1.1199883 1.7042152
-0.92872703 0.74891037 -0.3197228 1.5890464 -0.56655425 -0.7280799 -0.3459129 0.054493885
-0.5344768 1.3667619 1.5379121 -0.34482715 -1.7431769 -0.042913623 -0.3926418 1.0346698
-0.6934811 -0.28867012 1.653277 -0.32222876 1.6059626 0.9215408 2.244021 -0.8852339
-0.9772546 -1.9502391 -1.2562377 0.63784087 -1.237755 -0.4949523 -0.38301665 -1.1642649
2.2631028 0.19971332 -3.1917453 1.0245986 0.16321342 -0.49838656 1.5072889 0.41037175
-2.1523175 0.9778493 1.6019417 0.31012198 -1.6312492 -0.24681555 1.567015 0.8676203
0.33143976 -0.3429818 -0.04487241 -0.7111571 -2.7437346 -0.32435903 -1.1398526 1.0084276
-0.013296578 0.3832461 -0.1502277 0.37709308 -1.383733 -0.75145197 1.16101 -0.34132835
0.14697474 0.6312942 1.936743 0.18388714 -1.2456266 -0.7404949 0.5375662 -3.4171617
-0.26511618 -1.3854891 2.0002453 2.2568653 0.36505327 0.8307549 -2.1977813 0.8858711
0.23710747 1.270245 0.5618429 1.2900625 -0.6825525 -1.7818503 -0.992095 1.8593878
-2.072586 0.8922545 -1.7232414 0.87944025 -0.18676622 -0.06210922 0.9395591 -1.0596601
-1.2605752 -0.29343212 -1.5430267 -1.0878688 -1.0476388 -0.11274761 0.21237098 0.008468017
-1.1737705 -0.18084781 -0.9808873 0.8897315 0.057114094 -0.9806476 -0.5796734 0.5938192
-0.31405395 1.7548054 0.062098514 -0.20872544 -0.3042065 1.690842 -0.25441563 -0.039714895
-0.19591989 1.195737 -0.27029485 -0.37428844 1.011835 -1.1082916 -2.5926614 0.6017834
-0.33495957 -1.3103797 -0.5412302 0.43372074 0.06624902 0.22302657 -0.51127565 0.86440027
-0.355575 -0.3411742 -1.5167034 0.8234609 1.2364633 -0.2833396 1.6544455 1.3290849
0.6616607 0.4714338 0.21997444 0.58805645 0.03496549 0.71381646 1.4281554 0.261878
-0.030206094 -0.19988282 -0.9990299 -1.6733902 -0.27969173 0.70705163 -0.22467306 0.53319275
0.70141995 0.59167475 -0.46857893 -1.8674272 -1.2611572 -0.45267224 0.5676261 -0.58003306
-0.61534214 -0.53510094 -0.95176005 -0.023528663 0.8512304 -0.71638125 -0.50374705 -0.6213674
-1.132044 0.19284372 1.4906034 -0.22601278 1.3061647 0.5976468 -2.0685802 0.92940927
-0.048527636 1.6446604 0.83921677 0.6475012 -0.43533346 -0.47187358 -1.6559618 0.14252657
-1.5988498 -1.1573929 -0.293188 -1.5597421 -1.7527101 -0.17107013 0.82472765 0.866161
-0.11870797 -0.6769254 0.01828728 1.6099958 -0.58137363 1.6070228 0.6387391 -0.3412253
-0.3919427 -0.72539395 0.2528669 1.5270756 -2.046463 0.56389403 0.52019095 1.1871842
1.9901822 -0.55438477 1.9897299 1.4078629 -1.5835147 0.8703507 -0.24379086 0.3075329

rnn.weight_ih_l0 f4 [32, 128]
00000000: 6b78 883e 59f3 6a3d 9c1a 1ebe 0912 d6bd
00000010: e460 4c3e 4443 96bd 8f89 bc3d fdff 82be
00000020: b902 a33e b1f8 f5bc 620c 16be ec52 acbe
00000030: 6c6d 883e 45c1 d9be fd1d c93d 7a3b 63be
00000040: ea93 dabc a83c 31be 93ce 3b3e 8cd4 9dbc
00000050: 8bab a43d 9e1b 78be 9b43 e93d b469 c7bb
00000060: 415b 833e c539 3dbe cb88 4ebe 6fd9 1b3e
00000070: 1705 45bc 415f 38be a235 6d3d e4da 303e
00000080: defb 843e 261f ed3d 5b01 15be af18 9f3d
00000090: 45ce 653d bf0e e7bd 3188 96bd d670 c63c
000000a0: c81d 99bd 8e67 583d fd78 22bd 7e83 0bbe
000000b0: 4d56 81be 06f6 79bd 2a4e 17be d459 9dbc
000000c0: cf5b 0c3d 812a 0c3b f5b8 35be c9b6 1ebd
000000d0: 6e65 3e3d 13cf 463d 2070 f73d cff6 3fbd
000000e0: 6866 093e d5f1 dbbd 31ea 533a 9646 9ebd
000000f0: 969f 2fbe 8165 413e c560 023e 6014 94be
00000100: 6892 353c d49c 13bd 227b e73d f724 06be
00000110: f2a1 1d3d 8171 04bd 3e2a acbc 9a4a 4a3e
00000120: 7ef2 4abe 7651 76bd 2e25 d0bd a65b 0f3e
00000130: 52df 39b8 228a 04bc 2d56 6abd b953 03be
00000140: 9ba1 d1bd f5fd ea3d 7f21 803e b32f 463e
00000150: daa7 a9bd 97c1 18be 5931 a53d 534d 59be
00000160: 63c8 a23d f5b8 313e ad83 f23d 8d2f b0bc
00000170: fdc3 91bd dbe4 d3bd 7987 8abe c7bf 213e
00000180: b8af d5be 4723 a83e ff07 fbbd d00b fcbd
00000190: fba7 1c3e 6877 343d 400b bbbb 0882 293c
000001a0: 06b3 c93d 2af6 2fbe e8bf c83d 46f3 8e3d
000001b0: 7809 25be ae6e 4ebe 92a2 bcbd 7a7e 583c
000001c0: b540 96be 573e 9e3e d927 8abe 9ee9 92ba
000001d0: 2fbf d1bd 65a5 f33c fcb7 14be 2344 08be
000001e0: 1150 ffbd 75f4 ecbd 43bd 98bd eb69 263e
000001f0: fbca 683e 18ef dcbd f387 a4bd 5f7b 98bd
00000200: b86d df3d e7d3 8e3d 6515 163e 9a60 b9bc
00000210: fd37 30bd 934f 913c cdca 893e a9d4 febd
00000220: 1f32 1cbe 6544 6f3e 4f3c 17be 4c61 0ebc
00000230: ccab 58be 9c91 3c3d ad06 7a3d a072 41be
00000240: 4661 e13b 57ea f93b 7d26 0a3e 5094 64bd
00000250: 95e9 97bd 5842 02bd df84 ef3d 7cb0 ab3d
00000260: 52b7 083e ecf8 18bb 9840 49be 47e1 683d
00000270: d7ff 84be 18f0 bebd 746d 713b fe71 8d3d
00000280: 0db1 90bd 28c1 d83d f904 02bb 6e65 01be
00000290: c6e1 a0bd c3ba fcbd c3d5 c6be 2bba 183d
000002a0: bea5 5d3e a03e 31be a378 89be 9b85 14be
000002b0: 24b2 6abc 5cf6 35be fb57 21be 4e8e 023e
000002c0: d09e 6b3d 1324 a63d 465f b43c af6a a93d
000002d0: 2ceb 563e d024 8d3e b549 1b3d 8216 583e
000002e0: 0b48 8bbe 8a68 a73d 97cd adbd 9f0f dcbc
000002f0: 28e4 1dbd 943c df3d 5788 f43d 5f0a 91bd
00000300: 324c 9ebe 5cb6 bd3d 02fe 27bd cf81 8c3e
00000310: d0e1 893d 8692 ab3c 42c3 f1bd 633a 35be
00000320: e169 3b3e 726e fc3c 84ec dfbd 325d 253d
00000330: a402 72bd fb44 1e3d 7b94 363e 9f06 bd3c
00000340: bfcd 9c3d c38d b0bc b3d4 71bc 7ef8 e73c
00000350: f8eb cd3e 577b b13c 9ed6 3abe 4088 51bd
00000360: daff 07bc 3960 f73d 1cd5 9b3e a747 ab3d
00000370: 5833 133d bffa 0d3d 35fb ad3b 4741 46be
00000380: aa98 853d dd0f 723c 6de2 43bd ce13 dc3c
00000390: 9762 ccbd 6b27 103e ac8d 253e 5ef3 0abe
000003a0: ce9d 5bbc a5b6 4f3e 1444 6dbe 660e 2f3e
000003b0: a2ae b8bd b037 06bd d89b e83d 17b1 033e
000003c0: d490 5dbe 0b10 aebc 3fec 15be bc0c 9f3d
000003d0: 5696 b9bd 98a3 27be 5fc6 363e e8bb 903e
000003e0: 4b3d 6fbd 42b4 b63d ca81 c03e 400e d73b
000003f0: 27f9 873d e8db 3c3e 9698 5b3e f19f 2cbe
0.26654372 0.05736098 -0.15439838 -0.10452659 0.19958836 -0.07337049 0.09205925 -0.2558593
0.31838015 -0.030025812 -0.14653161 -0.33657014 0.26645982 -0.42530265 0.09820173 -0.22190657
-0.026681859 -0.17308295 0.1834052 -0.01926639 0.08040532 -0.24229285 0.11389848 -0.006085599
0.2565556 -0.18479069 -0.2016937 0.15219663 -0.012025139 -0.18005086 0.057912476 0.17271
0.2597341 0.11578207 -0.14551298 0.0776838 0.056104917 -0.112821095 -0.07350195 0.024223726
-0.074763834 0.052833132 -0.039666165 -0.13624379 -0.25261155 -0.06102564 -0.14775911 -0.019207872
0.034267243 0.002138764 -0.17746337 -0.038748536 0.04648345 0.048537325 0.12081933 -0.046866234
0.13417971 -0.10739485 0.00080839085 -0.07728307 -0.17150721 0.18886377 0.12732227 -0.28921795
0.011082269 -0.036038235 0.113027826 -0.13100038 0.03848452 -0.03233481 -0.021016236 0.1975502
-0.19819066 -0.06013628 -0.101633415 0.13999805 -4.431542e-05 -0.008089574 -0.05721109 -0.12824906
-0.10235902 0.1147422 0.25025555 0.19354133 -0.08283968 -0.14917599 0.08066053 -0.21220903
0.07948377 0.17355712 0.118415214 -0.021507049 -0.0711746 -0.10346385 -0.27056482 0.15795814
-0.41735625 0.32839414 -0.122573845 -0.123069406 0.15298454 0.044059187 -0.005708128 0.010345943
0.09848599 -0.17183748 0.09802228 0.069799945 -0.16116893 -0.20159408 -0.09210695 0.013213748
-0.29346243 0.30906937 -0.26983526 -0.0011208539 -0.102415435 0.029741952 -0.1452331 -0.13307242
-0.12466443 -0.11570064 -0.07457974 0.16251342 0.22733681 -0.10787791 -0.08033743 -0.07445406
0.10909599 0.06974011 0.14656599 -0.022629071 -0.043022145 0.01773814 0.26912537 -0.124429055
-0.15253495 0.23365934 -0.147691 -0.00869019 -0.21159285 0.0460373 0.061041523 -0.18891382
0.006878051 0.0076268124 0.13491245 -0.055805504 -0.07417599 -0.03180155 0.11695265 0.08383271
0.13351181 -0.0023341728 -0.19653547 0.056855466 -0.2597644 -0.09323138 0.003683892 0.06906508
-0.0706502 0.10583717 -0.001983939 -0.12636349 -0.07855563 -0.123403095 -0.38834962 0.03728692
0.21645257 -0.17309046 -0.2684985 -0.14504091 -0.014324699 -0.1776976 -0.15756218 0.12749597
0.057524502 0.08112349 0.022018086 0.082723014 0.20988148 0.27567148 0.03791209 0.21102336
-0.27203402 0.08174236 -0.08486479 -0.026862917 -0.038547665 0.10900226 0.11940067 -0.07082056
-0.30917507 0.09263298 -0.041013725 0.27442786 0.067325234 0.020943891 -0.118048206 -0.17698054
0.18302108 0.030814383 -0.10933784 0.04037208 -0.05908455 0.038640004 0.17830078 0.023074446
0.076564305 -0.021551972 -0.014760184 0.028316732 0.40219092 0.021665258 -0.18245932 -0.05115533
-0.008300746 0.120789 0.30436027 0.08363276 0.035937637 0.03466296 0.005309487 -0.19360839
0.06523259 0.01477429 -0.04782336 0.026864912 -0.09979742 0.14077537 0.16167325 -0.135694
-0.013404323 0.20284517 -0.23170501 0.17095336 -0.090176836 -0.03276795 0.1135785 0.12860523
-0.21637279 -0.021247884 -0.14640902 0.07766101 -0.090618774 -0.16371 0.1784911 0.2826836
-0.058408063 0.089211 0.3759902 0.006562978 0.06639319 0.18443263 0.21444926 -0.16857888

rnn.weight_hh_l0 f4 [32, 32]
00000000: 2aca 993e fc81 92bd 2da7 9abe 8f05 57bd
00000010: 851a 48bd f8dc 38bf e93b 7fbe 3b07 183f
00000020: 1426 dd3e f1ac cbbe aa97 a13e be71 05bf
00000030: 6a41 80bd 0799 2dbe e1bf 343e 158c 19be
00000040: 9fae 9d3e 2d1d 83bd 833c 82be c2d7 363d
00000050: 82b1 c83e f490 833e c2d2 533f 3ad7 bebd
00000060: 03a2 10bf 5b7c c43d 772c dabd b419 163e
00000070: 29c0 f73e 5d3b 22be f04d 503e 5bbd b93d
00000080: b9dc 703d b901 323f 200a a13e 2468 cabd
00000090: f028 b5bc 97bf 62bf 7c0a b13c 4b88 313e
000000a0: 4323 9f3e 032a e0be 906e 593e c484 62bf
000000b0: 8e21 dfbd dcc9 00be 9a53 783f a191 a9be
000000c0: 4240 ecbd 3560 e23e b3f8 f9be 9fb1 78bd
000000d0: 6df5 713e 2555 b13d bff8 993e 5ece 4fbf
000000e0: 0b93 9bbe 8add 05bf b5f1 8ebe cb89 263e
000000f0: d07c 9a3d 733a 903f 56af 1e3e 7ca1 1bbe
00000100: b9ef 1cbe 2087 e63c 4c3f 393e a50c 053f
00000110: 3a3d 19bc 1263 163f e3f8 4c3e f072 83bc
00000120: 5270 c2be 186e 073e da92 673e e148 0a3e
00000130: f26e bf3c b431 a93e 99d1 94be 90f6 1d3e
00000140: 4229 77be 7adf 21be 0b3f 4b3f e730 be3d
00000150: 2597 f9bb c844 1b3f e2cf 093f bcaf 85be
00000160: c064 3c3f d5ae 883e 393d e43c 8df0 23be
00000170: 96f1 c73e c462 373d 51d0 82be 1f98 a0be
00000180: 1df2 283e a01e 6e3c f21d 55bd 7216 35be
00000190: d370 11bf 9301 ed3e 44a9 0e3e 9afb e43d
000001a0: 0190 c9be 91a7 9abe a4ed 83be f65e 143e
000001b0: eb28 b9bc d6e3 96be 9a0c 88be 8d87 83be
000001c0: 1b78 6f3e 83f9 3dbd 52af 0c3e 2a78 1fbf
000001d0: e371 3cbe a7bf 67bd f077 0d3f b1bd 543f
000001e0: 0615 34be 7ede ad3f a8bf f93b 2334 1d3d
000001f0: 8ce3 b33e 76fc 3ebd 0b46 dfbc bec4 633f
00000200: 4970 c2bd fad4 ff3c 1098 a03e 7ca0 c63e
00000210: 65aa 3a3e 38f5 8abe 006a 09bf 6f57 cc3e
00000220: 97c3 b93e 7561 d93d 36a8 43be b20e a9bd
00000230: 41aa f7be 205c c9bd 1270 3b3e 9916 84bd
00000240: 4ff8 633e 8b14 9dbe f76c 89be 39cf 5d3d
00000250: 30a2 6a3e d2f3 1cbe de56 39bf 3413 5a3e
00000260: 1caf 01bf 9706 b43d 438e e9be a480 da3d
00000270: 8f12 8bbe 506a 193e 6c09 b8be 0d07 5bbd
00000280: 956b 243c eda9 843f fd0a d2be 7986 6bbd
00000290: 1d11 69be c0dc 46bf e9b1 963e f837 1d3e
000002a0: 1c16 743d 1d72 a23e c6e6 68be cc64 99bd
000002b0: a2f7 153e 6af8 123e 1cb3 57bd cdab a0be
000002c0: 037e 563e 73f2 0abf 3c08 f1be f981 103d
000002d0: 5ee1 64be fad2 52bf 164c b9bc 3f2b 19bf
000002e0: fbb5 fb3e 41f8 66bd 5bd1 59bd bed2 873e
000002f0: 6c9d ef3e 62c2 a13c 6ab9 1c3d d063 97bf
00000300: 563f 093e 0ed5 dc3e 3303 42be 22fb 88be
00000310: ad6f 823e 458c 7fbe 85a4 8e3e 74e2 bf3e
00000320: 287c 1d3f 2a9a 8fbe 7aae 803e e9d3 6bbe
00000330: 736b 41be aed9 38be f9cc cf3e 9cef 2fbe
00000340: 7758 ed3e e77b cdbd 2aa2 c6be 2c82 52be
00000350: 9dc5 f83e e1d1 2d3d ca9f 85bd 8cd0 8fbe
00000360: ac8d 2f3e 1e79 1cbe cafc d9be 6e21 e33e
00000370: a087 963d 334e 45be 9ff8 bb3e e1b8 b83e
00000380: e8ff 293e d74b a33e 63b4 0c3d 8fdc 7cbe
00000390: 2074 a1bd 523d 7b3e fce4 a1be 2b8d a53b
000003a0: 25c2 b63e 639b b43d b373 7f3c 579f 453e
000003b0: 706d 233e e447 f7bc e9a7 bebe 1e73 94be
000003c0: f479 853e 1af0 9f3c 0707 3fbf c33f 4b3d
000003d0: 0357 6c3e ea14 723d 8f70 21bc 3f94 1a3f
000003e0: bdf1 233d c0f7 95be df07 c1bd 3527 9a3d
000003f0: 48f5 a1be 2ba2 6d3c c7a8 59be 0d0b 313f
0.3003705 -0.07153699 -0.3020567 -0.052495535 -0.048853416 -0.7221217 -0.24925198 0.5938603
0.43193114 -0.3978038 0.31561023 -0.5212668 -0.06262477 -0.16952907 0.17651321 -0.14994843
0.30797288 -0.06402049 -0.25436792 0.044639356 0.39197928 0.25696528 0.82743466 -0.09318395
-0.5649721 0.095940314 -0.10653012 0.14658242 0.48388794 -0.15842958 0.20342231 0.0906932
0.058804248 0.6953388 0.31453037 -0.098831445 -0.022114247 -0.8857359 0.021611445 0.17337148
0.3108159 -0.43782052 0.21233582 -0.88483834 -0.10895072 -0.12577003 0.97002566 -0.3311892
-0.11535694 0.44214025 -0.48822555 -0.060716268 0.23628779 0.08658818 0.3007259 -0.81174266
-0.30385622 -0.52291167 -0.27918783 0.16263501 0.07543337 1.1267837 0.15496573 -0.1519832
-0.15325822 0.028140604 0.18090552 0.5197242 -0.009352976 0.5874492 0.20016818 -0.016046017
-0.3797632 0.13225591 0.22614613 0.13504364 0.023368333 0.33045733 -0.2906616 0.15426087
-0.24136832 -0.15807906 0.7939307 0.09286671 -0.007616895 0.60651827 0.5383283 -0.26110637
0.7359123 0.26695886 0.027861224 -0.16009732 0.39051503 0.044771925 -0.25549558 -0.3136606
0.16498609 0.014533669 -0.05203051 -0.17684343 -0.5681278 0.46290264 0.13931757 0.11180802
-0.3936768 -0.30205968 -0.25767243 0.1448935 -0.022602519 -0.294707 -0.26572114 -0.25689355
0.2338566 -0.04638053 0.13738754 -0.6229273 -0.1840282 -0.05657926 0.55261135 0.83101946
-0.17586145 1.3583524 0.007621724 0.0383798 0.35134542 -0.046627484 -0.027255079 0.8897208
-0.09494073 0.031229485 0.31366014 0.38794315 0.18229063 -0.27140212 -0.5367737 0.39910457
0.36282036 0.106142916 -0.19107136 -0.08254756 -0.4837208 -0.098320246 0.1830447 -0.06449623
0.22262691 -0.30679736 -0.26840946 0.0541527 0.22913432 -0.15327385 -0.72398174 0.21296388
-0.5065782 0.087903194 -0.4561635 0.106690675 -0.27162597 0.14981961 -0.35944688 -0.05347352
0.010035415 1.0364357 -0.41024008 -0.05750129 -0.22760434 -0.7768059 0.2943261 0.15353382
0.059591398 0.31727687 -0.22744283 -0.074899286 0.14645246 0.14352575 -0.052661046 -0.31381074
0.20946507 -0.542762 -0.47076595 0.0352802 -0.22351596 -0.82353175 -0.022619288 -0.59831613
0.49162278 -0.056389097 -0.053178173 0.2652797 0.4679979 0.01974601 0.038262762 -1.1827335
0.13403067 0.43131298 -0.18946533 -0.267541 0.25475827 -0.24955852 0.27859893 0.37477458
0.6151757 -0.28047305 0.25133115 -0.23030056 -0.18888645 -0.18051788 0.4058607 -0.17181247
0.46356556 -0.10033398 -0.38795596 -0.20557469 0.48588267 0.042436484 -0.06524618 -0.28088796
0.17143887 -0.15280578 -0.42575675 0.44361442 0.07350087 -0.19268112 0.3671312 0.3607855
0.16601527 0.318938 0.034351718 -0.24693511 -0.07883477 0.2453511 -0.31620014 0.005052229
0.35694996 0.088187 0.01559155 0.19299065 0.15959716 -0.030185647 -0.3723748 -0.28994077
0.26069605 0.019523669 -0.746201 0.049621355 0.23080067 0.059101976 -0.009853496 0.60382456
0.04002546 -0.2929058 -0.094253294 0.075270094 -0.31632447 0.014503996 -0.2125579 0.6915749

rnn.bias_ih_l0 f4 [32]
00000000: 7b04 2cbe fa9c 023b 544e eebd 5bd0 2ebe
00000010: 2f62 653c d6e4 8b3c 1875 58be db10 22bc
00000020: 4d70 b8bd d36d 173e 0c7a 01be d4e3 ae3d
00000030: 62ac 1f3e c702 2f3e 3165 99be 3d98 7b3e
00000040: 7fd7 ad3d 8fd5 773e 2819 f3bd 9b82 81bd
00000050: 80c0 7a3d 28c0 d1bd a4d4 a7be a8ed 043e
00000060: f5e5 dabd 8605 0cbe 43aa 363e 170f 42be
00000070: d467 84be d2d3 57be 88d4 70bd 8484 5f3d
-0.16798584 0.001992999 -0.11636034 -0.17071669 0.01400046 0.01707689 -0.21138418 -0.009891714
-0.09005795 0.14787988 -0.12644213 0.085395485 0.15593103 0.17090903 -0.29960015 0.24569793
0.08488368 0.2420256 -0.118700325 -0.06323739 0.06121874 -0.10241729 -0.3277942 0.12981284
-0.10688392 -0.13673982 0.17838387 -0.18951069 -0.25860465 -0.21076897 -0.058796436 0.054569736

rnn.bias_hh_l0 f4 [32]
00000000: 8779 70be 8514 343d c81d bc3d f1a7 90be
00000010: 10e9 bcbc a256 67be 27a5 2abe c426 1dbe
00000020: 66b0 fa3c 49f4 523e 0f82 bbbe f05b e8bd
00000030: ce10 7f3e 30d1 083e 04ed 82be feba 8e39
00000040: ac5d 58be a6c5 323e a664 dfbd a2a4 7c3e
00000050: 70da 873d b267 d4bd daa0 86be c3e8 783e
00000060: d864 9f3d 97b1 81be 12fc 053d 2f23 c0be
00000070: 98ca 96be 9397 23be ee3a 02be 8ac8 893d
-0.23483859 0.04396488 0.09185368 -0.2825313 -0.023060352 -0.22591642 -0.16664563 -0.15346819
0.030601691 0.20601 -0.36622664 -0.11345661 0.24908754 0.13361049 -0.25571454 0.0002722367
-0.21129483 0.1745821 -0.10907869 0.24672177 0.066334605 -0.10371341 -0.26294595 0.24307542
0.07782906 -0.25330803 0.032711096 -0.37526843 -0.29451442 -0.1597579 -0.12717792 0.06727703

fc1.weight f4 [8, 32]
00000000: 5a8f c1be 6004 0abe 2f7c 963e e59d 14bf
00000010: f3a9 cabe d505 363d 6f81 93be cc46 0fbf
00000020: 6de5 54be e7c8 3d3f 1b1b 8abe 69cb 0a3f
00000030: c777 253f 1e79 803e 12cd 1ebf 270d 593e
00000040: a665 10bf 15ed a43e bdc2 733d fa7f ed3d
00000050: 2f74 7dbe a01b 9dbe f5a4 cabe 9033 423f
00000060: 1719 843e 16cd 943e f484 993e 5588 bbbe
00000070: 514c 85be d38e ddbe 9413 71bf e59f 663f
00000080: c575 ec3e 8127 633e 7b6a cfbf 1168 803d
00000090: 4460 2a40 7b13 c5bd 36f0 e6be 15f7 a0bf
000000a0: 4ca1 2840 e66d 52be d3e9 abbe 2f9b cbbf
000000b0: f73b 00c0 0941 aebd bbd1 0240 e4b6 543f
000000c0: d661 ab3f db68 84bf 81ff f1bf b0b2 bdbe
000000d0: f5f8 4640 39a4 40be bf95 7f3d 83b3 653f
000000e0: 157b b4bf 70b1 b1bf 5ec4 c4bf e289 0540
000000f0: 4972 97bf b8e6 27bf 5f1b ac3f b469 b0bf
00000100: 6d96 3e3e 62bc f73d 1d5e fdbd bfc6 24bf
00000110: e3b3 1840 4203 923b 90c3 d2bc 15a6 8e3f
00000120: 8de0 acbe 7d2e 7ebf 6573 0240 7c54 d8bf
00000130: 5b5c d4be 01a3 30bf 52fd 083f 90dd 02c0
00000140: 6aa0 c93f f34b 0fc0 c05d d1bf fef3 06bd
00000150: 9360 ffbe 2e5c fc3f 5e22 2cbf 6586 d9bf
00000160: 284a 983b af28 aa3f 2f0d 03c0 96d6 c13e
00000170: 3a37 903f b67f 14bf 9a19 0840 2922 873e
00000180: 6f72 b83f 2c2f 913f b38f cfbe 6925 a03d
00000190: b4e3 1540 9995 5d3f 4288 4d3f c8bb 713f
000001a0: 59ff 3bbe 194e dfbf 76a6 3a40 c49e 48bf
000001b0: f77b c2be 8ddf 81be 7a48 3fbf c2da 983e
000001c0: 33e4 ba3d 4813 6ebf afdc 86bf fbc9 e7bf
000001d0: cb4b 97be 3598 39bd beb9 b73f d579 4d3e
000001e0: 4120 033c bf00 f23e b32b 383f 2568 2540
000001f0: 70d4 f8bf 4d81 72be 46f7 0f40 a098 1abf
00000200: fcf5 dc3f ab05 db3e 2136 2cbf 1c3f e73f
00000210: 817c e83e cccf 93bd dffa b93f a917 cfbd
00000220: 4fc3 d13d 554c 86bf d554 b23d a0ca 78bf
00000230: 04ae 8d3e ae19 9bbe 58d5 03be 5124 64bf
00000240: e8cb 033f 3d42 bfbf 2691 72be 8604 94bf
00000250: b3be db3f 07d1 dd3f c512 983f 3a8c 6abf
00000260: fe97 29bf d18f c33e 0abd afbf ae99 a13f
00000270: 18c3 26bf b2d9 b7bd 237f c1bc 5d0b a53f
00000280: ab20 ba3e 17d6 003e 329f 2dbf fa3c 113f
00000290: ae43 cf3d 9b09 b6bd fb82 563e 72be 9d3d
000002a0: d406 6e3e 20c4 32bf e971 853e 9264 443e
000002b0: d671 83bf 3754 ddbe dbfa b4be 0a95 06bf
000002c0: 1293 213f b044 9dbf eeb4 debd 4e65 d3be
000002d0: 0f01 943e 3825 8a3d 5bdb 49bf ed25 953f
000002e0: df60 073e 60d7 553f adae 47be 7e38 1a3e
000002f0: 3aa8 193e 7999 333f 01d5 71be fbb4 15be
00000300: e5fd 80bd 7085 863d e09a 9a3d 64fa 513d
00000310: 1089 8dbe 5e43 093f 5601 c43e bbbd 003e
00000320: c53e b1bd c213 033e b1d7 16be 98e8 353e
00000330: cf83 91bd 4368 1c3d 98d2 bb3e e24d 403e
00000340: 9966 38be b228 173e 42eb 783e 1fba ee3d
00000350: e990 aebd 06a4 dcbd 65ec 583e a650 5dbf
00000360: f6bf 603e a332 01bf 8f42 503e 5c05 54be
00000370: 2140 fa3e d5b3 943d 3857 9d3e 08d9 3cbf
00000380: 6c9b c3bc 6432 243e 10b1 5d3e 8832 563f
00000390: 615f 4fbe 5cf9 0ebd a393 913d da55 913d
000003a0: 267f 92bb e6ed 17bf b35b 103e 95f6 84bd
000003b0: 81d8 1ebf 31ed 24be 171e 4f3f c85d 7cbd
000003c0: 0375 403e a9d3 883e 178f 403d 0648 193e
000003d0: 3df7 a0bd fbe4 853d 9281 503f c0e7 e0be
000003e0: 1dbb 0e3e d69b 3c3c b6c2 07bd e0cf 80bd
000003f0: de74 6c3e a2bb eb3e f2b1 163f fd27 abbe
-0.3780468 -0.13478231 0.2939162 -0.5805343 -0.39582786 0.044439156 -0.28809687 -0.559674
-0.20790644 0.7413468 -0.26973805 0.5421663 0.6463589 0.25092405 -0.6203166 0.21196423
-0.56405103 0.3221213 0.05951189 0.11596675 -0.24751352 -0.3068514 -0.39578977 0.7585993
0.25800392 0.29062718 0.29984248 -0.3662745 -0.26034787 -0.4327303 -0.941705 0.9008773
0.461836 0.22183038 -1.620437 0.06269849 2.6621256 -0.09622856 -0.4510514 -1.2575403
2.6348448 -0.20549735 -0.3357683 -1.5906733 -2.00366 -0.08508498 2.044051 0.8309157
1.3389232 -1.0344499 -1.8906099 -0.3705039 3.1089451 -0.18812646 0.06239867 0.8972704
-1.4100062 -1.3882275 -1.5372427 2.0865407 -1.1831752 -0.65586424 1.3445853 -1.3782258
0.1861207 0.12096478 -0.12371466 -0.6436576 2.3859794 0.004455955 -0.025728017 1.1144434
-0.3376507 -0.99289685 2.0382931 -1.6900783 -0.41476712 -0.68998724 0.53511536 -2.044773
1.575208 -2.2390106 -1.6356735 -0.032947533 -0.49878368 1.9715631 -0.6723994 -1.6994139
0.004647512 1.3293666 -2.0476797 0.3785903 1.1266854 -0.5800737 2.1265626 0.2639325
1.4409922 1.1342521 -0.4053932 0.078196354 2.342023 0.8655639 0.8028604 0.94427156
-0.18359126 -1.7445709 2.91641 -0.7836726 -0.37985203 -0.25365868 -0.74719965 0.298544
0.09125557 -0.9299817 -1.0536097 -1.8108515 -0.29550013 -0.04531117 1.4353559 0.20066006
0.008003295 0.47266194 0.7194168 2.5844815 -1.9439831 -0.23682137 2.2494674 -0.6038914
1.7262568 0.42777762 -0.67270094 1.8066134 0.4540749 -0.072173685 1.4529685 -0.10111935
0.1024233 -1.0492045 0.08707587 -0.9718418 0.27671826 -0.3029303 -0.12874353 -0.89117914
0.5148301 -1.4942089 -0.23688182 -1.156388 1.7167572 1.7329415 1.1880728 -0.9162022
-0.66247547 0.3819566 -1.3729565 1.2625024 -0.6514144 -0.08977069 -0.023620194 1.2894093
0.3635305 0.12581669 -0.6782104 0.5673367 0.10120331 -0.08888551 0.20948403 0.0770234
0.23244792 -0.69830513 0.2606347 0.1917899 -1.0269115 -0.43228313 -0.35347638 -0.52571166
0.63115036 -1.2286587 -0.10874353 -0.41288227 0.28907058 0.0674538 -0.78850335 1.1652199
0.13220547 0.8353176 -0.19500227 0.15060613 0.1500558 0.70156056 -0.23616411 -0.1461982
-0.062984265 0.0656842 0.07549071 0.05126418 -0.27643633 0.5361842 0.3828227 0.12572376
-0.086545505 0.12800506 -0.14730717 0.17764509 -0.071052186 0.03818537 0.36684108 0.1877971
-0.18007888 0.14761618 0.24308494 0.116565935 -0.08523733 -0.107734725 0.21183927 -0.86451185
0.21948227 -0.5046789 0.2033789 -0.2070517 0.4887705 0.07260863 0.30730605 -0.73768663
-0.023877822 0.16034847 0.21649575 0.83670855 -0.20251228 -0.034905776 0.071082376 0.07096453
-0.0044707237 -0.5934738 0.1409748 -0.06492344 -0.6204911 -0.16106106 0.8090529 -0.061612874
0.18794636 0.26723984 0.04701146 0.14968881 -0.07859657 0.06537815 0.8144771 -0.4392681
0.13938566 0.011511764 -0.033144675 -0.06289649 0.23091456 0.4604159 0.58865273 -0.33428946

fc1.bias f4 [8]
00000000: 261e 983d 7a5b 35bd 582d abbf a912 bdbf
00000010: 358d 6cbf 9e9b 84be 7aef 67be cdcb dabc
0.07427625 -0.044276692 -1.3373213 -1.477132 -0.92402965 -0.25899976 -0.22649947 -0.026708508
