src/main/python/saved_models/python3_1_66_RNNClassifier1_128embs_102id_32hd_1hl_Truebid_0.pt (torch, 98847 bytes, 11 tensors)

word_embeddings.weight f4 [102, 128]
000000 e3 1a d1 bf 51 73 dc be 4b 51 e3 be f2 39 c5 bf
       -1.633633 -0.4305673 -0.4439796 -1.5408309
000010 3f df 4b be e0 76 b1 be 0f a4 9c bf 63 ea c1 bf
       -0.1990938 -0.34661007 -1.2237567 -1.5149654
000020 49 59 82 bf df ee ad 3e 72 32 15 bf 83 2f fd be
       -1.0183498 0.33971307 -0.582801 -0.4945031
000030 3a 73 3f 3d f2 ab e3 3f 70 d8 de 3e fb f8 94 3e
       0.046740748 1.7786849 0.43524504 0.29096207
000040 b8 6a 14 bf a2 22 4d bf 6e 59 2d 3f 0d 84 a3 3d
       -0.5797534 -0.8013097 0.67714584 0.07984171
000050 f9 e3 7e 3f f0 b9 53 bd 72 a8 9f be 49 32 87 3f
       0.9956661 -0.051690996 -0.311832 1.0562221
000060 62 f1 9b 3f 75 d0 d2 be bb 99 05 c0 10 53 b9 bf
       1.2183039 -0.41174665 -2.087508 -1.4478474
000070 52 4b 34 3e 37 d6 2e bf 1e ea 8c bf 42 ca 4a 3c
       0.17606857 -0.68295616 -1.1008947 0.012377324
000080 df c5 12 40 1d df 65 3d 0d b8 c1 3e 53 96 67 bf
       2.293327 0.05612098 0.37835732 -0.9046375
000090 82 d7 04 3e f8 47 16 bd b8 a4 d1 bd d5 53 0e bf
       0.12972835 -0.03668973 -0.10236496 -0.5559667
0000a0 ad 06 8b 3d 35 f6 d5 3e ff 52 63 bd 14 6d 78 bd
       0.06788383 0.41789404 -0.055499073 -0.0606509
0000b0 14 57 21 40 1d ef 59 bf 8a ae bc 3f 96 54 c8 be
       2.5209398 -0.8513048 1.4740765 -0.39127034
0000c0 b2 5b 6c bf ee 37 5f 3f 52 00 8c 3e c9 d9 4a be
       -0.92327416 0.87194717 0.27343994 -0.19809641
0000d0 04 92 00 3f c4 ae 32 3f 0d f1 9a 3f e5 1d 01 40
       0.502228 0.6979792 1.2104813 2.0174496
0000e0 b2 2f b8 bd b0 9b 3b 3f 1f da 94 be 5e af 45 bf
       -0.08993472 0.73284435 -0.29072663 -0.77220714
0000f0 0a af b1 3f 9d 33 84 bf e8 37 4e c0 c9 0a 7c bf
       1.3881543 -1.0328251 -3.2221622 -0.98453957
000100 08 be 0d 3e a0 c7 a7 bf cd 58 4a bf 06 86 6e bf
       0.13842022 -1.3107796 -0.7904175 -0.93173254
000110 48 fc d8 3b 1d 11 34 be 6f 06 e7 3f 4d 47 97 3b
       0.006621871 -0.17584653 1.8048838 0.004616654
000120 46 e1 4f bf a0 af ef bc fb f9 53 bf d8 71 5d bf
       -0.81203115 -0.02925855 -0.82803315 -0.86501837
000130 71 90 4d bf ce 46 fb be 88 e9 96 3e 73 9c 5b bf
       -0.80298525 -0.49077457 0.29475045 -0.857856
000140 d3 af bb be c8 8c 82 3e 58 09 ae be c0 f0 86 3f
       -0.3665758 0.25498033 -0.33991504 1.0542221
000150 5c 88 a4 bf 19 68 bd be 5c 2c 34 3e e2 76 d9 be
       -1.2854114 -0.36993483 0.17595047 -0.42473513
000160 2a 97 63 3e a2 f0 39 bf 52 f8 a2 bf 70 61 1e 3f
       0.22225633 -0.726328 -1.2732031 0.6186743
000170 7c a3 a0 bf b1 38 2c bf ed 20 d3 3e e7 31 e7 3f
       -1.2549891 -0.67274004 0.41236058 1.8062104
000180 25 49 11 3f b7 22 9f 3f fa f7 7a 3f 06 de 8a bf
       0.56752235 1.2432469 0.9803463 -1.0849006
000190 97 8e aa 3f 90 cc 44 bf c0 c1 8e bf 37 6a a8 3f
       1.3324765 -0.7687464 -1.1152878 1.3157414
0001a0 7b 11 ac 3f 64 30 c5 3e fd c3 4d bd 7e d7 1e 3e
       1.3442835 0.38513482 -0.050235737 0.15511891
0001b0 6f d4 fe bf d1 9f 3e bf 37 de cf bf 4f b1 91 bf
       -1.990858 -0.7446261 -1.623969 -1.1382235
0001c0 99 80 94 3f c7 a4 e3 be 3c 4a b5 3f 5f c5 1f 3f
       1.1601745 -0.44461653 1.416328 0.6241054
0001d0 c9 db f9 3e a8 fa 57 3c 00 a3 e8 3e d8 14 1b bf
       0.48800495 0.01318232 0.4543686 -0.6057868
0001e0 61 43 22 40 06 53 ad be 9b e3 94 3c 04 61 c4 3f
       2.5353625 -0.33852404 0.018174937 1.5342107
0001f0 55 54 ed bf 7d b6 bd 3f ea 23 7a bc a5 6f 02 3f
       -1.8541361 1.4821316 -0.015267352 0.50951606
000200 86 5d 36 3f 97 64 e3 bf bd 2d b5 3e ed 8c 99 3f
       0.71236455 -1.7765073 0.35386458 1.1996132
000210 7a 22 9b be 07 84 e1 bf 2d 85 22 3f 7a ea 4d bf
       -0.3029974 -1.7618417 0.6348446 -0.8043591
000220 e9 38 ce bf 03 91 ef bf 87 07 0b 3f 3c 22 29 3f
       -1.6111118 -1.8716129 0.5430836 0.6606786
000230 bf e4 12 40 a3 c6 2c 3f 1f 4e db 3f c0 aa e5 bf
       2.2952116 0.67490596 1.7133216 -1.7942734
000240 8a 7f ae bf 48 b4 7b bf 30 71 c1 3f a4 51 24 3f
       -1.3632672 -0.9832196 1.5112667 0.64187074
000250 50 28 f2 3e 29 70 db be a2 26 0d 3f 40 10 c6 bf
       0.4729638 -0.4285901 0.55137074 -1.5473709
000260 ff a2 04 3f 35 2f da 3d ed d9 89 3e ff 91 a9 3f
       0.5181121 0.10653535 0.26924077 1.324768
000270 8e 7d df 3f a0 6f ed 3f 9b d4 34 bf 4d a7 23 40
       1.7460191 1.854969 -0.7063691 2.5570862
000280 0e c7 d5 3e e8 d2 59 be 7d 07 57 bf 95 0c d7 be
       0.4175343 -0.2127186 -0.839958 -0.42001787
000290 d8 c0 1f bf 14 30 7a bf b3 f5 5f 3f 79 be 7c 3f
       -0.6240363 -0.9772961 0.8748428 0.9872814
0002a0 ca 80 9e 3e f8 a5 c2 3f 1b 45 9a 3f 49 65 e8 bf
       0.30957633 1.52069 1.2052339 -1.815591
0002b0 83 92 ce be 8a 8a 75 bf 63 a5 aa bb ff 82 a1 bd
       -0.40346155 -0.9591452 -0.005207704 -0.07886314
0002c0 ba f9 57 3f b3 35 95 3f 07 e5 06 3f b1 43 cf 3f
       0.8436543 1.1657013 0.5269322 1.6192533
0002d0 26 c7 76 bf b8 ea 10 3e bd 96 27 be f3 68 b7 be
       -0.96397626 0.14152038 -0.16366096 -0.35822257
0002e0 a6 73 dc 3f 43 6e 9b be 70 9b 74 3e 3b 08 ac 3f
       1.7222793 -0.3035756 0.2388742 1.3440012
0002f0 fe 67 d3 3d 68 d8 8c 3f b5 f0 ae be cd 84 72 3f
       0.10322569 1.1003542 -0.3416802 0.9473389
000300 43 8a 11 bf b4 6c 56 3f fe 4e e4 3f 67 1d 48 be
       -0.56851596 0.8375962 1.7836607 -0.19542466
000310 8b d1 03 3f 25 7a ec bf e9 ab 3a c0 88 3c 11 bf
       0.5149161 -1.8474776 -2.9167426 -0.5673299
000320 57 91 0a bf 20 2a 65 3f fb eb 61 bf c8 24 08 3f
       -0.5412802 0.895174 -0.882507 0.53181124
000330 07 dc c5 bf 82 75 31 be 5a 6e 3a 3f d1 b8 69 3d
       -1.5457772 -0.17329982 0.72824633 0.05706102
000340 fa cf 67 3f fd ec 85 3f d8 45 05 bf 8e 69 ad 3f
       0.9055172 1.0462948 -0.520597 1.3547838
000350 78 d6 70 3e ed 05 f5 3f 85 0f eb 3f 47 8a a9 3f
       0.23519313 1.9142433 1.8364111 1.3245324
000360 fc 10 78 bf 9f 35 a0 3f e7 eb 9a 3f ce 25 07 bf
       -0.96900916 1.2516364 1.2103242 -0.5279206
000370 ce cf 5f 3e cd 05 13 bf 13 83 ba 3f ad ae e2 3f
       0.21856615 -0.57430726 1.4571251 1.7709557
000380 60 30 d3 3f b4 2f dd be 0a c4 8a be 7b 36 b8 bf
       1.6499138 -0.43200457 -0.2710269 -1.4391626
000390 05 9f 9f 3f 8e 0d a3 3f 80 2a c8 3e 74 40 c6 3e
       1.2470404 1.2738512 0.39094925 0.3872105
0003a0 3d 7d a3 bd 7d f6 ae 3e 59 e6 72 3f d0 24 b1 bf
       -0.07982872 0.3417243 0.9488273 -1.3839359
0003b0 dc ae dc 3f 50 58 17 c0 1e f3 6d bf 0e 56 96 3e
       1.7240863 -2.3647652 -0.9294909 0.2936253
0003c0 92 4b 5c 3e 28 3f 70 3f 4f 9c bb 3f 1b 75 0e bf
       0.21513203 0.9384637 1.4657077 -0.5564744
0003d0 e3 ad 3e bf 4d 02 4f be 10 2e 6b be 3e 80 ae 3a
       -0.7448408 -0.20215721 -0.2296679 0.0013313366
0003e0 2a 24 c0 3e de c0 14 bf d5 82 12 bf 6c 3e 81 3f
       0.3752759 -0.5810679 -0.57230884 1.0097175
0003f0 b5 5e d8 bd 47 00 97 bf a7 ea b9 bd 43 28 10 3f
       -0.10564939 -1.179696 -0.090779595 0.56311435

rnn.weight_ih_l0 f4 [32, 128]
000000 ae 3b b3 bd d6 c7 4d bb 8c b2 06 bb 55 c7 95 be
       -0.08751617 -0.003139963 -0.00205532 -0.2925364
000010 e3 d7 37 3d ef 87 3c be e1 0e 5d be 1f 89 97 bd
       0.04488362 -0.1841123 -0.21587707 -0.07399201
000020 46 ca 54 bd 39 68 a5 bd 6b c5 9a bd 3f c2 17 3e
       -0.051950715 -0.080765195 -0.07557186 0.14820193
000030 7d 8f 3c bd da a8 af 3d 46 2f 8e be 95 d6 db 3d
       -0.04603528 0.08577128 -0.27770442 0.10734288
000040 51 3a 6f be 60 89 fc 3d d9 7a 2b 3e 5f 18 e4 3d
       -0.2336209 0.1233089 0.16746081 0.11137461
000050 12 ba 78 3e 46 55 22 3b 89 c3 32 be 3f c2 f0 3d
       0.2428973 0.0024770065 -0.17457403 0.117557995
000060 e6 2f 4f 3d be c9 ad 3a 50 94 3c 3d d2 a0 3a be
       0.05058279 0.0013258976 0.04603988 -0.1822541
000070 a9 9c 62 be 4d d4 81 bd 11 48 04 3e a1 7f 8d be
       -0.22130074 -0.06339321 0.12918116 -0.27636436
000080 85 f8 aa be bf 2b 9e 3d 12 ed 06 be ab 22 dd 3d
       -0.3339273 0.07723188 -0.13176373 0.10797628
000090 b8 c1 e9 3d c5 2f c3 bd a6 bd 3c 3c dd e9 63 bc
       0.11413902 -0.09530596 0.011519825 -0.013910738
0000a0 fa 0c 1c be 5d 74 18 3e ba 78 5e be f6 45 6f bd
       -0.15239325 0.14888139 -0.21725741 -0.05841633
0000b0 63 99 85 3d 14 5c d8 3d 1e b6 a6 bd c2 d6 00 be
       0.06523397 0.105644375 -0.08140205 -0.12581924
0000c0 b3 30 5a 3e 93 8d 8f be 33 e9 e2 bc a1 f5 31 be
       0.2130764 -0.280377 -0.027699089 -0.17378856
0000d0 37 80 91 3e 31 dd fe bc 4e 9f 02 bd 75 29 8e 3d
       0.28418133 -0.031111332 -0.031890206 0.06941501
0000e0 7e 67 a1 3e 0b 73 4c 3c 39 25 b5 bd ba fe 57 3e
       0.3152427 0.0124786 -0.0884499 0.21093264
0000f0 b8 17 1a 3e 54 1c 3d 3d 32 cf a1 3d 22 e9 b3 3e
       0.1504811 0.046169594 0.079008475 0.35138804
000100 88 d1 ee 3d 3a d5 81 bc a1 f4 d5 bd e8 75 0d 3d
       0.11661059 -0.015848745 -0.1044705 0.034536272
000110 97 02 9f be 88 49 9b bd 64 9d 78 be ef cf d8 bd
       -0.31056663 -0.07582384 -0.2427879 -0.10586535
000120 69 6f 9f bc bb 56 a5 bd 28 f0 75 bd d1 be 16 bd
       -0.019462304 -0.08073183 -0.060043484 -0.03680307
000130 ad 3f 12 3e a5 d1 db bc 12 12 31 3e 05 32 ae bd
       0.14282103 -0.026833365 0.1729205 -0.08505634
000140 77 71 c8 bd f7 e6 2d be 31 59 7f be 18 5d 67 bd
       -0.09787267 -0.16982637 -0.24936368 -0.056485265
000150 2d f9 4b 3d dc 03 0a be a6 1b 6f 3e f6 01 7d 3e
       0.04979818 -0.13478035 0.23350391 0.2470778
000160 1c 59 30 3e b7 b1 31 3e 73 8a d3 bd 36 78 1a 3e
       0.17221493 0.17352949 -0.103291415 0.1508492
000170 41 4d e8 3d e8 ce b8 3d e9 fc 08 bd 36 e4 c2 3c
       0.1134286 0.09023839 -0.03344432 0.02379046
000180 84 f5 2a bc 3f 41 2d be 95 b9 1c 3c ab 6d f3 bc
       -0.010434512 -0.1691942 0.009565731 -0.02971538
000190 49 cf c0 39 49 46 ec bd 3b d3 b6 bd eb cc 64 be
       0.00036775533 -0.11536843 -0.08927008 -0.22343795
0001a0 64 3e 16 bc 82 48 01 3e 67 27 1d 3d 13 58 8d bc
       -0.0091701485 0.12625316 0.038367655 -0.017253911
0001b0 90 90 b8 bc 76 48 76 3e 54 36 02 bd a3 88 7d be
       -0.02252987 0.24051079 -0.031790093 -0.24759154
0001c0 8c 4e 3e be 2d ba 54 3b c7 00 ac be 99 da da 3d
       -0.18584651 0.0032459602 -0.33594343 0.106862254
0001d0 a4 6f 4b be b1 6b a6 3d 7e 8d 09 be 23 9f 34 3d
       -0.19866806 0.08126009 -0.13432881 0.044097077
0001e0 03 22 07 be 11 f6 22 3d 66 07 ea 3d 76 83 b6 3e
       -0.13196568 0.03978545 0.114271924 0.35647172
0001f0 87 1f 13 be b0 bc 6f 3e 62 18 ea 3d ac 24 87 be
       -0.14367495 0.23411822 0.11430432 -0.26395166
000200 5d d3 2d 3c d6 cc 93 bc ca 14 a9 bd c3 bf 87 3e
       0.010609475 -0.01804201 -0.08255918 0.2651349
000210 c1 e0 55 3e 4c 3b 00 be 54 52 d9 3d cb 57 ea bd
       0.20886518 -0.1252262 0.10611406 -0.114425264
000220 9d cc 70 bd 87 a6 33 3e 72 55 d6 3d 20 01 d9 3e
       -0.058788884 0.17543994 0.10465516 0.4238367
000230 46 e5 b5 bb 37 90 13 bf 3b 44 85 3c 07 c8 bd bc
       -0.005551013 -0.5764193 0.016267886 -0.02316667
000240 91 b3 18 3d 59 86 02 3e 90 5b 8b 3c 6c ab 1f be
       0.037280623 0.12746562 0.017011434 -0.15592736
000250 88 ef 84 be 19 76 c2 3e 8b a1 52 3d 28 62 14 3e
       -0.25963998 0.37980726 0.05142359 0.14490569
000260 f5 df 27 be a5 6b cc bd d8 1f 04 3d b8 18 a7 bc
       -0.16394027 -0.09981469 0.03225693 -0.020397529
000270 1e f2 4c 3d c4 54 2c 3d 9f b3 31 3e f7 83 4f 3d
       0.05003559 0.042073026 0.17353676 0.05066296
000280 0d 5e 9e be fa 28 39 be 48 32 2c be eb 61 00 be
       -0.3093113 -0.18082038 -0.16816056 -0.12537353
000290 6d 94 b7 bd 9e 4a 49 3e 3f b3 13 3d 2e 66 7e 3e
       -0.08963857 0.1965737 0.036059614 0.24843666
0002a0 b6 85 58 3d 04 26 79 3e c2 31 c4 3b d8 71 27 bd
       0.05286189 0.24330908 0.005987377 -0.040880054
0002b0 2a 0f 0b be 91 2e 01 3e 70 ec 35 3e 67 0b 97 bc
       -0.13580003 0.1261542 0.17765975 -0.018438054
0002c0 2f 91 04 bd 3f 88 1c bd dd 8c 53 3e 1c 7d 37 be
       -0.03236502 -0.038215872 0.20659204 -0.17918819
0002d0 fb 48 04 be bf 7f be 3d e8 19 f8 bd d0 38 a3 be
       -0.12918465 0.093017094 -0.12114316 -0.31879282
0002e0 7e d5 76 be 12 0a aa 3c c7 08 5e 3e d0 3c 85 3e
       -0.24104878 0.020756755 0.21683036 0.2602296
0002f0 0a 09 0e bd 30 27 3f 3e b8 f5 14 3e 8b c9 dd 3d
       -0.03467659 0.18667293 0.1454686 0.10829457
000300 a6 43 96 bd 9f a8 d3 bc 78 04 34 3e 3d 4a 94 3c
       -0.07337122 -0.02583724 0.1757983 0.018101806
000310 b7 ed ad bb 5e e3 3b bd 0c 75 37 3e 10 20 9f 3d
       -0.005307879 -0.04587113 0.17915744 0.07769787
000320 24 a8 7c 3d aa 6e 4d be 91 bf 59 bd 47 fc 0a 3e
       0.06168379 -0.20061746 -0.053161208 0.13572799
000330 42 78 ed 3d 4a 6d c4 3d 0a 8d 1f bd 31 da 4f 3e
       0.11595203 0.09591158 -0.038952865 0.20298077
000340 f6 61 03 3e 84 6a b9 3d 1d 9d da bd 6b e6 99 bd
       0.12830338 0.09053519 -0.10674498 -0.07514652
000350 92 47 25 bc 71 25 90 bd 1c ff 10 be 46 2a 95 bd
       -0.0100878645 -0.070383914 -0.14159817 -0.07283454
000360 84 cf 76 be da 6e 9c 3e 28 0b 56 3e fa 68 56 3e
       -0.24102598 0.30553323 0.20902693 0.20938483
000370 87 2b 4c 3e c8 0c 0b 3e c1 15 23 3e 1d 87 a6 bd
       0.1993848 0.13579094 0.15926267 -0.081312396
000380 02 ef 7f 3e 1b 95 00 be 14 26 1b 3e 56 f1 8e 3e
       0.24993518 -0.12556879 0.15151244 0.279185
000390 8f c1 9f 3d 0e 1c 0a be 6b 8c 2f 3d 71 c8 23 be
       0.0780059 -0.13487265 0.042858522 -0.15994431
0003a0 43 09 10 be 04 a0 74 3d 6b 9d 97 3d e2 75 a4 bd
       -0.14066033 0.059722915 0.07403072 -0.08030297
0003b0 69 27 0d be 1a 7e aa bb ac d3 7a 3e 05 15 ce 3c
       -0.13784565 -0.0052030208 0.24494809 0.025156507
0003c0 e6 96 00 3e f3 8d ab 3d 22 b1 7e 3c 49 cd 83 3d
       0.12557563 0.08376684 0.015545161 0.064356394
0003d0 8e 52 22 be 74 35 26 3e 14 2e 01 bc c2 d8 24 3e
       -0.15851805 0.16231328 -0.007884521 0.16098312
0003e0 bd 3b 30 3e 61 fa 6e bd 63 86 fa 3c 03 78 13 3d
       0.17210288 -0.05834425 0.030581659 0.036003124
0003f0 f2 69 48 be 8c 91 68 3e 43 b5 c7 bc 34 5d c4 be
       -0.19571665 0.22711772 -0.024378425 -0.38352358

rnn.weight_hh_l0 f4 [32, 32]
000000 24 0a fc 3e e1 74 b0 3d 14 61 30 3d 4c d4 8a 3e
       0.49226487 0.08616043 0.04306133 0.27115095
000010 3e 1c de be 3a c8 de be e3 4c ae be 45 ea 53 3e
       -0.43380922 -0.43512136 -0.34043035 0.20694835
000020 5a c6 ad 3b 75 33 ae 3e 26 47 ca 3e 9c 82 86 3e
       0.0053031864 0.34023634 0.39507407 0.26271522
000030 02 21 42 3e 08 a5 8f 3e 48 6c c1 be 28 0c da 3e
       0.18957904 0.28055596 -0.37777925 0.425874
000040 ab e1 db 3e b9 7b 5b 3c 51 14 07 3e 16 0a 48 3c
       0.42945608 0.013396197 0.13191344 0.012209436
000050 d5 19 d6 3e f7 e0 d5 3e 98 b3 9e be 9c ca 50 bd
       0.41816583 0.41773197 -0.30996394 -0.050974473
000060 b8 80 4f 3e 96 a1 a5 3e 0b 08 c2 3e ce 9e f8 bd
       0.20263946 0.32349843 0.3789676 -0.121396646
000070 f9 a3 a6 be 8b 05 9f 3e d3 77 28 3e 88 6c 9b ba
       -0.32546976 0.31058916 0.1645196 -0.0011857906
000080 b3 32 57 3d 38 e1 83 3e d5 6f 02 3e f8 39 24 be
       0.052538585 0.25757766 0.12737973 -0.16037738
000090 69 37 d3 3c d8 0d 5d 3e a4 78 25 bc e4 ef 37 3f
       0.025783258 0.21587312 -0.010099564 0.7185042
0000a0 73 89 c3 be fb 89 70 3e f1 84 de 3e f7 bd 92 3d
       -0.38190803 0.23490135 0.434608 0.07165139
0000b0 4b db 8b be 27 3a ff 3e d4 fa d1 3d cf 29 b1 3e
       -0.27315745 0.49849054 0.1025292 0.3460221
0000c0 ff c4 52 be e6 87 9b bd 79 0e 14 bd cb 63 22 be
       -0.2058296 -0.0759428 -0.036146615 -0.1585838
0000d0 c3 0a 31 3e a8 82 7a 3b 86 01 f2 bb 6d ee ef bd
       0.17289262 0.003822485 -0.0073854355 -0.11715398
0000e0 c1 41 60 3e 43 60 33 bc 8f 8f 1c bf d3 b3 df 3e
       0.21900083 -0.010948244 -0.61156553 0.43691882
0000f0 a6 39 3d 3c 3b b8 40 3e 8e af 0c bf f6 c3 60 bd
       0.011549389 0.18820278 -0.54955375 -0.054874383
000100 45 27 0b bf 8e 17 14 bf c7 b8 e7 3d 25 13 e5 3e
       -0.54356796 -0.5784844 0.1131454 0.4474117
000110 44 9e 9b 3d 86 79 d4 bd 8c 7d cf 3c e2 73 8e be
       0.07598546 -0.10374741 0.02532842 -0.27822787
000120 71 c5 82 be 89 28 1f bf a0 1e 3c bf 34 70 89 be
       -0.2554126 -0.62171227 -0.7348423 -0.26843417
000130 41 e9 88 3d 3b ee 9c 3e e0 da ca bd bc 27 b9 be
       0.06685115 0.30650505 -0.09905028 -0.36163127
000140 1a dd b4 be 73 5c bc bc cd a0 23 3c 9b 8b ce 3e
       -0.35324937 -0.022993302 0.009987068 0.40340886
000150 18 b7 0c bf 09 fa 3d 3e c7 8b 3a bc e9 07 06 3e
       -0.5496688 0.18552412 -0.011385865 0.13088955
000160 36 79 96 be 02 60 59 be bf a1 38 be 31 3e 61 be
       -0.29389352 -0.2122803 -0.18030451 -0.2199638
000170 11 55 bb 3e 85 28 09 bf b4 8f bf 3e 20 13 67 3e
       0.36588338 -0.5357745 0.37414324 0.2256589
000180 a9 93 25 3c 61 55 84 be 6c 04 af 3e e0 7e 29 3e
       0.010106006 -0.2584639 0.3418306 0.16552305
000190 d4 ae 1e be 29 85 6d 3e 6e 9f b5 3d 44 8c df 3e
       -0.15496379 0.23195328 0.088682994 0.43661702
0001a0 9d d9 02 bf 9d b1 1f be 39 05 bf be 17 de f4 bd
       -0.511133 -0.15595098 -0.37308672 -0.11956423
0001b0 2a ab c4 bc 37 2e 11 3f 73 d8 11 3e 4e 7e b9 3e
       -0.024007399 0.56711143 0.14242725 0.36229175
0001c0 4a 0a 4b bf 3f 97 14 3d d2 f9 99 bc e9 e4 5e 3e
       -0.79312575 0.036277052 -0.018795881 0.2176701
0001d0 0d a1 3d 3e 7e 60 5c bd 99 32 9a 3e c3 ad 20 bf
       0.18518467 -0.05380296 0.30116728 -0.6276514
0001e0 1b 7e a8 3d 28 fb 45 3e da 9a aa be 1c b0 06 3e
       0.08227178 0.1933409 -0.33321267 0.13153118
0001f0 8f 2a 65 3e 6b 49 1a bf 8b 9c 85 be f3 ea 19 3e
       0.22379516 -0.60268277 -0.26095995 0.15031032
000200 30 5c 50 bd 56 8b 1e 3e 8b 82 05 be 64 2a ab bd
       -0.050869167 0.1548284 -0.1303808 -0.08357695
000210 f4 4d 7e 3d 41 9f 3d 3d 59 a3 f7 bd cc 4f 93 3e
       0.06208606 0.046294454 -0.12091703 0.28771818
000220 ae 64 80 3e 2e 2a 41 be 9e 54 97 be a9 ab d3 bd
       0.25076813 -0.18863747 -0.29556745 -0.10335476
000230 a7 3b 0c be cc c2 65 3d 67 63 8b 3e e8 9d 95 be
       -0.1369463 0.056093976 0.27224275 -0.29222035
000240 b5 e7 65 3d 1e 93 8d 3d 6c 90 f2 bd c4 47 a8 3d
       0.056129176 0.06912826 -0.118439525 0.08216813
000250 ad 2b 24 3e c1 3b 34 3e 04 26 53 3e 4f c5 2b 3e
       0.16032286 0.1760092 0.2061997 0.16774486
000260 26 f7 49 3e 2c af 5f be ad 67 eb be 46 c6 d4 bd
       0.19723186 -0.21844167 -0.45977536 -0.1038938
000270 95 99 73 be 6c c6 08 3c bc 27 6f bd 73 ab 45 3e
       -0.23789056 0.008348089 -0.058387503 0.19303684
000280 f2 b1 84 be 86 3f a5 bd 45 c2 49 be 68 dc 9e 3e
       -0.25917011 -0.08068757 -0.19703014 0.31027532
000290 b3 1d 36 3e dd 90 e2 3e 2e 75 c3 3e 19 e4 81 3e
       0.17784767 0.44251147 0.38175339 0.25369337
0002a0 b9 54 88 3d 69 74 1a 3d 98 59 ab 3d 9d d4 00 3f
       0.066567846 0.037708674 0.08366698 0.5032442
0002b0 ae 9e 3c bf c0 3d de bd 82 bc a8 3e b5 62 70 be
       -0.73679626 -0.10851622 0.3295632 -0.23475154
0002c0 98 8f c5 3d d1 e7 2f 3e a5 94 4f 3e db 37 13 bd
       0.09646529 0.17178275 0.20271547 -0.03594194
0002d0 cc ae 16 bd f2 ba 28 bf c5 8b 7e 3e 13 19 a7 be
       -0.036787793 -0.65910256 0.24858005 -0.32636318
0002e0 aa 55 29 be b0 95 9a be 7b 7f 90 be d0 a5 94 3e
       -0.16536584 -0.30192327 -0.2822226 0.29032755
0002f0 d7 5f 28 3e 9a 46 36 be 0e 46 c5 be 2f 5f d7 3c
       0.1644281 -0.1780037 -0.3853001 0.026290504
000300 d5 4c 84 3e 15 7d 74 3e 2d c4 b3 3a 93 18 b1 3e
       0.25839868 0.2387584 0.0013715081 0.3458906
000310 96 51 51 3e 5a d0 6b 3e 8c fb 0a 3f 09 62 15 3f
       0.20441279 0.23028699 0.5429008 0.58352715
000320 74 2a f0 be 67 d5 d3 3e e7 74 d4 3e ac 8a 83 3c
       -0.4690739 0.4137375 0.4149544 0.016057335
000330 b0 00 08 be d7 48 8a 3e 9e aa f4 3e 44 ee 69 3e
       -0.13281512 0.27008697 0.4778642 0.22844797
000340 9b 20 08 bf 69 38 ce bd ff d7 a6 3e b5 1b 4c bc
       -0.5317475 -0.10069353 0.32586667 -0.012457778
000350 ff 2c a4 3e 15 0c 2f bf ca 2b 5e 3e c5 14 12 bf
       0.3206558 -0.6837781 0.21696392 -0.5706294
000360 0b 99 06 be 67 bf e8 bd 6f 20 05 bf f0 dd 65 3f
       -0.13144319 -0.11364632 -0.52002615 0.89791775
000370 93 96 c5 3e f8 22 f4 3d 67 cc 2b be 84 18 c0 bd
       0.38591442 0.11920732 -0.16777192 -0.09379676
000380 a2 90 35 bf dc c2 14 3f 6f d9 21 3e 82 5a 3b bd
       -0.7092382 0.5810983 0.158056 -0.04574061
000390 8e 0f 11 3f c5 a9 33 3e 05 0c 0b 3f 41 d4 5c 3e
       0.5666436 0.1754523 0.54315215 0.21565343
0003a0 f4 db 81 be 37 4d a8 be 1e 1c 8e bd 3b 37 82 be
       -0.25363123 -0.3287141 -0.06938957 -0.25432763
0003b0 cb 2e b9 be b7 b5 53 3e 6e 30 00 3e 2a f1 62 be
       -0.36168513 0.20674787 0.12518474 -0.2216231
0003c0 9e d8 37 be 26 49 34 3e ca af b4 bd 01 53 5a be
       -0.17953727 0.17606029 -0.088225916 -0.21320726
0003d0 bd 08 11 bf 06 93 1f bf ea 7b 45 be 5a 12 aa 3c
       -0.5665396 -0.62333715 -0.1928555 0.020760704
0003e0 9e 02 5a 3e 17 fc d2 be e2 b5 03 bf 1a ac 81 bd
       0.21290061 -0.41207954 -0.51449406 -0.06331654
0003f0 f8 7d 49 be af 2c 2e be 1a 2f 73 be f3 d6 b5 be
       -0.1967696 -0.17009233 -0.23748437 -0.35515556

rnn.bias_ih_l0 f4 [32]
000000 46 a2 ef 3d 91 af bc bb d5 40 99 3d fa 71 02 be
       0.11700873 -0.005758234 0.07483069 -0.12738791
000010 41 3b 03 bc 5a 0b 09 be e9 61 32 be 85 87 98 bc
       -0.008009733 -0.13383237 -0.17420162 -0.018619308
000020 42 43 12 3e 74 2f 2a be ae ca c2 bc d6 0c 67 bd
       0.1428347 -0.16619664 -0.023778286 -0.056408726
000030 03 4c 46 3d a4 de 76 be 85 3b 40 be 96 f4 88 be
       0.048412334 -0.24108368 -0.18772705 -0.26749104
000040 c4 95 01 3e fc cd 0e be 51 53 c3 3d e3 51 5f 3e
       0.12654787 -0.13945764 0.09537376 0.21808581
000050 10 7f d8 3d 30 1c a9 3d 44 0a 07 3d ae 6e 35 3e
       0.1057111 0.082573295 0.032968774 0.17718002
000060 4a 72 39 bc b2 bd f3 3c 7b 4e 85 be 5e 3d 17 be
       -0.011318753 0.02975354 -0.26036438 -0.14769503
000070 5a c5 a7 be 34 92 0e be db 7d 50 be da f4 80 3d
       -0.32767755 -0.1392296 -0.2036051 0.06296702

rnn.bias_hh_l0 f4 [32]
000000 fb 90 12 be ba 1a 04 bd a2 e1 4d 3e a9 1b 9d bd
       -0.14313118 -0.03225205 0.20105603 -0.076712914
000010 07 1c e6 bc 30 b3 0b be d6 54 58 be 73 44 49 3d
       -0.028089536 -0.13642573 -0.21126112 0.049137544
000020 b5 ad c1 b9 6f f6 52 be 4d fd 19 3d 5b 49 69 3c
       -0.0003694125 -0.2060182 0.037595082 0.014238681
000030 10 da a3 3d b1 61 6d be 04 b4 b3 3d ab d4 94 be
       0.080005765 -0.23181798 0.0877457 -0.29068503
000040 62 8f ba 3d cd d8 16 be 84 15 cd 3d fb b7 c1 3d
       0.09109379 -0.1473114 0.100138694 0.094589196
000050 08 05 82 bc 92 65 0d bd 74 3d 92 3d 68 af a9 bd
       -0.01587154 -0.034520693 0.071406275 -0.08285409
000060 02 58 17 be c9 68 52 bc 3d d4 d6 bd 1d bd 87 bd
       -0.14779666 -0.012842366 -0.104897 -0.06627867
000070 fb 01 2e be d8 69 b6 bd 90 83 26 be f2 42 16 be
       -0.16992943 -0.08906907 -0.16261125 -0.14673975

rnn.weight_ih_l0_reverse f4 [32, 128]
000000 11 05 5a 3e d9 a5 ed bd 20 87 c3 bd ff 94 72 be
       0.21290995 -0.116038986 -0.095472574 -0.2368965
000010 3c 12 ba 3d 3e cb ba bd 4d ac 9a 3d ba ad 0d 3e
       0.09085509 -0.091207966 0.07552395 0.13835803
000020 af ea c4 bd f0 3f 9f 3c 4b 30 ce 3d 50 e9 a1 bd
       -0.09615075 0.019439667 0.10067805 -0.07905829
000030 4d 96 41 3e a1 b8 17 3e 80 20 28 3e dd 28 fc 3b
       0.18904991 0.14816524 0.16418648 0.007695301
000040 89 a8 18 3e aa 02 56 bd 6e 75 00 bd 1e 57 3f 3e
       0.14908041 -0.052248634 -0.03136199 0.18685576
000050 2a 17 fd bc db 98 a5 3e 73 78 16 3e c6 11 db bd
       -0.030894835 0.32343182 0.14694385 -0.106967494
000060 db 64 90 3d 8e 5f a9 3d eb 24 af 3e 35 ab 70 be
       0.07050487 0.08270179 0.34207854 -0.2350281
000070 e8 b0 37 3d 0d 95 a1 bd 0d d7 9b 3e 1b f7 7f 3d
       0.044846445 -0.07889757 0.30437508 0.062491518
000080 38 c5 86 3d e5 89 81 3c eb d1 f3 3d 71 a9 a7 bc
       0.06580585 0.015812824 0.11905273 -0.020466538
000090 2b e2 18 be 12 6e 4a 3e 8f b1 59 3c f4 1d d9 3d
       -0.14930026 0.19768551 0.013286962 0.10601416
0000a0 1f d5 70 be 4c 19 5f be 45 fb 17 3e 7d c1 71 3e
       -0.23518799 -0.21786994 0.14841945 0.23608966
0000b0 33 79 6f be 20 7d 43 be 7f 4f 60 3d b0 f4 fa 3d
       -0.23386078 -0.190907 0.054763313 0.12253702
0000c0 33 8d ad bb 19 74 f2 3c da 1b 43 3e bd e4 30 be
       -0.0052963733 0.029596375 0.19053593 -0.17274757
0000d0 fe f0 98 bc c6 08 aa 3c c5 3a 67 be 71 77 f4 3d
       -0.018669602 0.020756137 -0.22581013 0.11936844
0000e0 b4 69 8d 3e 01 49 0f 3e 86 4a 1e be 15 c6 ae bb
       0.27619708 0.13992693 -0.15458116 -0.005333672
0000f0 32 9a de 3d 0d 1f d4 bc 93 14 b1 3e 48 54 38 3e
       0.10869254 -0.025893712 0.3458601 0.18000901
000100 67 c0 8b 3e 3f f4 a7 bc 70 aa f7 3d 0c d8 0e 3e
       0.2729523 -0.020502208 0.12093055 0.13949603
000110 1f cb ef 3d 11 1b c0 3d 90 e8 f5 3c 4a 7f 6c be
       0.11708664 0.093801625 0.030018121 -0.23095432
000120 8f cc 9f bd 2b 44 82 3e 02 3e 25 3d a1 71 88 3e
       -0.07802688 0.25442633 0.04034234 0.26649192
000130 f0 07 45 3d 04 f2 a2 bd 07 79 9b bd 4b 7c 67 3b
       0.048103273 -0.07956317 -0.075914435 0.0035321887
000140 e0 5a 11 3e 20 01 6c 3d e8 97 9a be 1f ab d2 bd
       0.14194822 0.05761826 -0.3019402 -0.10286545
000150 36 70 06 be f8 6c 65 3d 56 ec e8 3d b9 84 03 3e
       -0.13128743 0.056012124 0.113732025 0.12843598
000160 60 1c b3 bd e2 e8 59 bc c4 ed 7c 3d 11 45 89 3d
       -0.087456465 -0.0133001525 0.06175019 0.067026265
000170 e8 91 6d 3c 9a ff 94 3e 86 f2 23 bd dc 55 fc 3d
       0.014500119 0.2910126 -0.04002621 0.12321064
000180 44 20 45 be 04 16 a5 bd e0 34 0c 3d ca 2c 7e 3d
       -0.1925059 -0.0806084 0.034230113 0.062054433
000190 4e 62 28 be b4 b2 19 3e 3f 13 77 3e 26 ca 7e be
       -0.1644375 0.15009576 0.24128436 -0.24881801
0001a0 74 fa 4a be df df 08 bd 39 48 9a bc 12 85 65 be
       -0.19822103 -0.033416625 -0.018833267 -0.22414044
0001b0 e7 11 2b 3e d4 12 98 3d b2 22 62 3c 7b fd 4d be
       0.16706048 0.07425466 0.013802217 -0.20116226
0001c0 bc e6 0d be a3 9a 77 be 09 ba 5a 3d 38 b5 6e 3d
       -0.1385755 -0.24180083 0.053400073 0.058278292
0001d0 b4 ad 1d be ea 5c 7e 3d cd 37 22 3e ab 42 8c 3e
       -0.15398294 0.06210033 0.15841599 0.27394614
0001e0 f2 b5 1e be 4a 95 54 3e 81 f4 7d be d9 cc 9e bd
       -0.15499094 0.20760074 -0.24800302 -0.07753915
0001f0 c3 68 95 3e 8f 91 03 be 80 9e 35 3e 5e e0 cb bd
       0.2918149 -0.12848495 0.17736244 -0.09954904
000200 ab 19 5a 3b 9f 0a fe bd 2f a8 d7 be da 92 41 be
       0.003327946 -0.124043696 -0.421205 -0.18903676
000210 34 3b 19 be a5 8e e6 3d a8 de 2c 3e f2 2a 74 3d
       -0.1496399 0.11257676 0.16881812 0.05961127
000220 ba 1a 2b 3e 55 f3 db bd 38 50 3f be b6 a6 9b 3e
       0.16709414 -0.10739771 -0.18682945 0.30400628
000230 df 93 5e bd 66 2b 96 be b6 c0 10 be 64 a1 c3 3d
       -0.05434024 -0.29329985 -0.14136013 0.09552267
000240 72 27 39 be 9c b4 6c bd e9 e4 10 be 86 32 f3 3d
       -0.18081453 -0.05778943 -0.14149822 0.11874871
000250 34 80 e3 bc d8 d8 6f 3e a5 a2 57 bd 93 90 9d be
       -0.027771093 0.23422563 -0.052645344 -0.30774364
000260 21 37 ee 3d e4 67 0d 3e 8c 65 7e 3d a2 25 7f bc
       0.11631609 0.13809162 0.06210856 -0.015572937
000270 46 92 11 3e 91 33 58 3a f2 15 07 3e 1d 65 65 bd
       0.14215955 0.000824743 0.13191965 -0.056004632
000280 9a 7a 56 3d 3f c2 f3 bb c2 4c 65 be 7e 24 71 3d
       0.052363016 -0.0074389274 -0.22392562 0.058872692
000290 6b f9 96 3e de f3 49 3e 22 75 85 3d e9 e6 e4 3e
       0.29487166 0.19721934 0.06516482 0.4470742
0002a0 45 f7 f9 3c 9e a6 40 be 05 41 1b 3e 38 17 e1 bd
       0.030513415 -0.1881356 0.15161522 -0.10990757
0002b0 7b 14 10 3e 39 84 2e bd cb 70 b2 3d ca 1c a5 bd
       0.14070313 -0.042606566 0.0871292 -0.08062132
0002c0 34 98 29 3d a4 c5 30 be f4 c8 13 be 95 01 22 be
       0.041404918 -0.17262894 -0.14432126 -0.15820916
0002d0 00 c2 09 3e 2c 46 33 3e a4 78 32 be 44 49 6e 3e
       0.13452911 0.17507237 -0.17428833 0.23270136
0002e0 6a 03 22 3e e6 25 92 3d 63 70 41 bd 66 64 16 3c
       0.15821615 0.07136135 -0.04722632 0.00917921
0002f0 82 cc 3b 3d 99 22 ae bd fc ed 39 be 5e b8 35 3d
       0.04584933 -0.08502693 -0.1815719 0.04436528
000300 e6 d8 d3 be c9 3b 5a bc f3 f7 07 3d a6 23 af bd
       -0.41376418 -0.013319918 0.033195447 -0.08551721
000310 77 9c dd bc 30 ae ac 3e b5 6c 2b be 0e 96 87 be
       -0.027052147 0.33726645 -0.16740687 -0.2648167
000320 e5 4d db bd e8 4e 32 3e 11 08 61 bb 65 7f e7 3d
       -0.107082166 0.17412913 -0.0034337083 0.113035955
000330 fc 6f 9b bd 41 dc 55 3c 91 84 ee 3c 43 6b 86 bd
       -0.07589719 0.013053001 0.029115947 -0.06563427
000340 5d ab 88 3d 8b 90 6c be 3b 93 07 be af d2 0c 3e
       0.0667331 -0.23102014 -0.13239758 0.13752244
000350 78 47 a6 bd a3 f6 0b 3e 29 d7 a0 3b 27 24 16 3d
       -0.081191 0.13668303 0.0049084616 0.03665557
000360 4f 13 c6 3c 5b 54 a6 3d 63 69 16 3e 43 7f fb bd
       0.024179129 0.08121558 0.1468864 -0.122801326
000370 86 c1 c3 3c d0 e5 3c 3e 0c 33 64 3d b6 67 4a 3e
       0.02389599 0.18447042 0.055712745 0.19766125
000380 c5 ce 57 bd 97 7c 6d be 26 80 b3 bd 07 5a 82 3e
       -0.052687425 -0.23192059 -0.08764677 0.2545931
000390 20 60 35 be 10 bc 0c bd db 24 19 3e a0 49 76 bc
       -0.1771245 -0.034359038 0.14955465 -0.015032202
0003a0 a8 73 32 be 10 a4 8b 3e 50 fb 00 bd 96 7b bd be
       -0.17426932 0.27273607 -0.03148967 -0.3700835
0003b0 b0 cb 2d 3c 3b b1 37 bd 62 f4 d9 3d f4 27 2e 3c
       0.010607645 -0.044846755 0.106423154 0.010629643
0003c0 c0 59 8f bd 37 4a 61 bd b9 a8 7c be c1 c0 1d 3e
       -0.0699954 -0.055002417 -0.24673738 0.15405561
0003d0 9f 6f 71 bc 4d 62 ab 3e 6e 05 f4 bc 70 e8 7c 3d
       -0.014736085 0.33473435 -0.029787745 0.061745107
0003e0 5c 6a 2f 3d 1d 28 98 3d 41 2e b4 b8 74 02 6a 3e
       0.04282604 0.07429526 -8.591684e-05 0.22852498
0003f0 78 36 dd 3d 6f 6e 90 3d 62 6d 92 bb 8e 21 87 bd
       0.10801405 0.070523135 -0.004468606 -0.06598197

rnn.weight_hh_l0_reverse f4 [32, 32]
000000 3b bc 2b 3e 80 c1 ab 3e 09 7e a0 bd fe 50 8d 3e
       0.16771023 0.33546066 -0.07836539 0.27600855
000010 af db 04 bd df d2 b1 bd 68 94 52 be 3e 7b 70 be
       -0.03243607 -0.086827986 -0.20564425 -0.23484513
000020 e6 17 13 3e 11 a2 75 3c 71 e0 fc be 6f 3f 44 be
       0.14364585 0.014992253 -0.49389985 -0.19164823
000030 1b ec 11 be e9 44 c1 3c 4b 7b 21 3c e7 d3 95 3e
       -0.14250223 0.02359243 0.0098560555 0.2926323
000040 56 bd 94 3e 6a 9b ac be b2 2d 32 3f 08 cd 10 3e
       0.29050702 -0.33712322 0.69600976 0.14140713
000050 a9 da 8e 3d 18 47 69 bd ab 0f 87 bd ae 4b fc bd
       0.069753 -0.056952566 -0.06594785 -0.12319122
000060 97 0c bb be 1d a0 09 3f 3f 3c 37 3e da 35 03 be
       -0.36533043 0.5375994 0.17894076 -0.12813511
000070 28 b5 b2 bd 4a 28 9c bd c9 03 3f 3e ef a6 6b 3c
       -0.08725959 -0.07624872 0.18653788 0.014383062
000080 e7 f0 3d 3f 8c d4 3c 3c e2 e2 fb be 0e 7e 5e 3e
       0.7419571 0.0115252845 -0.49196535 0.21727774
000090 81 ba a0 bd f7 cc 83 bb ad ac 88 bd 32 a2 ac be
       -0.07848073 -0.0040222364 -0.0667356 -0.33717495
0000a0 1a aa e3 bd c4 99 32 3d f9 02 7d 3e 90 fa 54 3e
       -0.11116429 0.043603674 0.24708165 0.20798707
0000b0 6a c6 9a 3d 1f 2e 24 3d c8 91 07 be a1 fd e7 3e
       0.07557376 0.040083047 -0.13239205 0.4531069
0000c0 76 89 a9 3e c4 26 ad be c8 08 03 3f 70 17 10 be
       0.33112687 -0.33818638 0.51185274 -0.1407144
0000d0 0e b9 84 be 81 d0 86 be 00 9e 3a be 4d 76 22 be
       -0.25922436 -0.2633095 -0.18224335 -0.1586544
0000e0 fa 64 ae bd 86 e1 86 3e 71 92 60 3e f1 ef 41 3e
       -0.085153535 0.26343936 0.21930863 0.18939187
0000f0 ed 15 f2 bc 7e 6a 60 3d 5d 27 25 3f 50 93 3e 3c
       -0.02955147 0.05478906 0.6451319 0.011631802
000100 d2 bf d3 3c 17 8e 14 3f 1d 08 da be f0 36 be 3b
       0.025848303 0.5802931 -0.42584315 0.005804889
000110 6e 99 38 3e e1 8f f9 3d 7b 44 9c 3c dc 88 2b 3f
       0.18027279 0.12185646 0.019075623 0.67005706
000120 0c 4b 8b bd b0 8d 8d 3d ae ef 10 3f a2 72 9a bd
       -0.068014234 0.0691179 0.5661572 -0.07541396
000130 9f f6 2a 3f 5a 58 55 3d c8 35 31 be 2e 3f 84 3d
       0.66782564 0.05208621 -0.17305672 0.06457363
000140 2b 6e 27 3f f1 37 47 be bb 16 3e 3e 3f 72 43 be
       0.6540248 -0.19454934 0.18563358 -0.1908655
000150 d9 df df 3d ee 96 d4 bd 68 22 95 bb 66 d8 ed 3d
       0.109313674 -0.1038035 -0.0045512207 0.1161354
000160 8e 03 83 be f1 1c 70 3c 65 06 e4 3c de 60 31 bf
       -0.2558865 0.014655338 0.02783508 -0.6928843
000170 5b 9f 83 3a b4 f3 6d 3d 08 49 fa be 21 23 48 3e
       0.0010041998 0.05809374 -0.48883843 0.1954465
000180 b0 65 ed 3e 6e f0 f7 bd 4d b1 25 be d9 d8 d1 3e
       0.46366644 -0.12106405 -0.16180916 0.40985754
000190 8c 77 bb be fc 43 af 3e 8d 59 63 3d b1 65 02 bf
       -0.36614645 0.34231555 0.055505324 -0.5093642
0001a0 e1 38 a4 bd b0 4b 06 be b2 88 f2 bd 3b 32 76 bd
       -0.08018661 -0.1311481 -0.11842479 -0.060106497
0001b0 7c 5b 9d 3d 06 28 4c be 80 2f 1b 3d 2c c3 ec bc
       0.07683465 -0.19937143 0.037887096 -0.028901659
0001c0 c4 36 a6 3d 12 50 82 bc 51 cd b2 3e 8c 09 6d be
       0.081159145 -0.015907321 0.3492227 -0.23148173
0001d0 e7 8a c7 3c 89 50 3f be 4b 60 74 3e d4 d5 8b 3e
       0.024358226 -0.18683065 0.23864858 0.27311575
0001e0 91 96 0d 3d ee 92 03 be 1a 14 54 be 7d 12 89 be
       0.03456742 -0.12849018 -0.20710793 -0.26771918
0001f0 b2 94 3b be 0e a3 36 3e 3f e6 4c 3f 15 b8 ab 3e
       -0.18318442 0.17835638 0.8003883 0.3353888
000200 97 be 47 3f f7 71 e8 3e 81 e2 07 bf a2 ec 23 3e
       0.7802519 0.45399448 -0.5307999 0.16008237
000210 9b f2 3a 3e 77 df 7f bd 85 90 4a 3d 11 11 1b bf
       0.18256609 -0.062468972 0.04945423 -0.60572916
000220 16 69 ba bd bd 9a 09 3e 19 f9 c7 3e f5 21 ef 3c
       -0.09102075 0.13437934 0.39057234 0.029190997
000230 74 dd 42 3e 77 60 19 bc a2 55 33 3e fb d5 00 3f
       0.1902979 -0.009361378 0.17513135 0.5032651
000240 71 ae 57 3e 56 b2 68 be e7 48 ab 3e f6 17 f1 bd
       0.21062638 -0.2272428 0.33454058 -0.11772148
000250 20 35 4c 3e 54 29 d2 be 85 86 41 3d 78 8f 50 3c
       0.1994214 -0.41047156 0.04724743 0.012729518
000260 3d 02 19 be 10 d7 d2 bd 36 d3 db bd 79 2c 01 bf
       -0.1494226 -0.10294926 -0.10733645 -0.50458485
000270 63 29 6e bd cd d3 50 3c ee 0c d6 3e b9 4e d5 bd
       -0.05814494 0.01274581 0.4180674 -0.10415406
000280 1e c1 b6 3d f7 b4 b0 3d 50 05 27 3e 9b 7b 2e 3e
       0.08923553 0.08628266 0.1631062 0.17039339
000290 7a c7 c9 b9 ce 48 b2 bc 9a dc 12 3e f3 9b 20 3d
       -0.0003848633 -0.021763232 0.14341965 0.039211225
0002a0 8d 10 35 3e bf a2 8f be f4 a1 ca 3c 62 26 07 bd
       0.17682095 -0.28053853 0.024735428 -0.03299559
0002b0 c8 29 d9 3c bc ee ca bd f5 6f 43 3e f9 8f 5a 3c
       0.02650918 -0.09908816 0.19085677 0.01333999
0002c0 df 34 8e bd 52 93 3a 3e 72 92 70 be 4e 86 86 3c
       -0.06943678 0.1822026 -0.23493364 0.016421463
0002d0 bd 61 d4 bb 34 04 9b be a4 e8 c3 3c 5c b4 2a 3e
       -0.006481378 -0.30276644 0.023914643 0.16670364
0002e0 78 28 80 36 e2 23 0a 3d ac 59 18 3d 35 87 6d be
       3.8194084e-06 0.033725627 0.037194893 -0.23196109
0002f0 2c 0c 2e bd f0 8f 8d bc 9e 62 05 3c 23 86 77 be
       -0.042492077 -0.017280549 0.008141188 -0.24172263
000300 00 32 4b be 51 26 8d 3e db bb bf 3c 45 2c b9 3d
       -0.19843292 0.27568296 0.023405006 0.09041647
000310 86 d1 86 bd 8e 05 06 3e 76 b1 3b 3e 10 09 5c 3e
       -0.06582932 0.13088056 0.18329415 0.21487832
000320 2a 25 c4 3e 4d 4b 7e bd 7d 07 98 be 96 37 a4 3e
       0.38309604 -0.06208353 -0.29693213 0.3207366
000330 65 c2 1e be 62 53 a9 3d e2 53 ee be 0d 15 1f 3f
       -0.15503843 0.08267857 -0.46548373 0.62141496
000340 8c a1 1f bd ea bd 64 bd 95 9a 99 3e 71 8e 9d bc
       -0.038972422 -0.05584518 0.3000075 -0.01923296
000350 16 ca 4b 3d c0 9b 91 be b8 fb db 3d 62 ba f2 bd
       0.04975327 -0.2843914 0.10741371 -0.11851956
000360 23 7c 87 bd bb 05 a5 3e 4e f1 80 be de b4 14 3c
       -0.06615474 0.32230935 -0.251841 0.009076325
000370 42 cc ba be a9 1b d1 3e 68 1f 25 3d 05 23 4f 3e
       -0.3648396 0.40841416 0.040313154 0.20228203
000380 2d fb f6 3e c4 cb 97 be d3 26 e1 3e 38 da 8e 3c
       0.48238507 -0.29647648 0.43974933 0.01743804
000390 d1 07 20 be 1a cb 6d be 1a d3 fd 3d ed 74 25 bf
       -0.15627982 -0.23222008 0.1239378 -0.6463154
0003a0 5e 2d 48 bd 89 a0 48 3e 57 7d 48 3e 7a 4f 53 3e
       -0.04887139 0.1959249 0.19579063 0.20635787
0003b0 ce fe da bd a8 4b 27 be 6c b6 5a be bf f8 87 3d
       -0.106931314 -0.16337454 -0.21358651 0.066392414
0003c0 84 50 ef be 36 4c 60 3e 7d 0c 1b be ab ae 74 3d
       -0.46741116 0.21904072 -0.15141483 0.05973689
0003d0 63 46 49 be 91 25 af 3b 72 1e a7 3d 8e e2 ba be
       -0.19655757 0.0053450544 0.08160104 -0.36500973
0003e0 8f b8 78 3e b3 2f 77 be 90 08 64 be 6a 59 02 3f
       0.24289154 -0.2413929 -0.22268891 0.50917685
0003f0 f3 39 8a bd 61 36 35 3d e6 79 b3 3e 06 93 23 be
       -0.06749334 0.044241313 0.3505394 -0.15974054

rnn.bias_ih_l0_reverse f4 [32]
000000 7d 12 35 3d cf 4f 36 be 55 00 1b 3e 2c 23 95 be
       0.044207085 -0.17803882 0.15136845 -0.29128397
000010 2d 4e 19 3d 2a 90 33 be 9f a5 0d be 7d 55 ae bc
       0.03742807 -0.17535463 -0.1383271 -0.021280998
000020 79 80 54 be 4e 8c 6d 3e a9 3b 2d 3e 11 9f cd bc
       -0.20752133 0.23198053 0.1691729 -0.025100263
000030 17 61 81 3e 7f 56 9b bd c3 48 66 3d fc 22 1d be
       0.25269386 -0.07584857 0.056221735 -0.15345377
000040 1c 22 02 bd d1 31 34 be 52 1f 70 be cd 22 4c 3e
       -0.03177081 -0.17597128 -0.23449448 0.1993515
000050 1d ce d5 bc 21 df 39 3e a7 85 ba be 47 04 64 3e
       -0.026099259 0.18151523 -0.36430094 0.22267257
000060 09 4f 06 3e a4 88 9d be 3e 90 a1 3e 0d 2a b8 3d
       0.13116087 -0.3076831 0.3155536 0.089923956
000070 40 20 82 3e a4 e0 95 be d5 dd 4c be 28 54 14 3e
       0.2541523 -0.2927295 -0.20006497 0.14485228

rnn.bias_hh_l0_reverse f4 [32]
000000 a3 9e 43 3d 38 71 78 be 6a 04 c3 3d a4 ca 8b be
       0.04775871 -0.2426194 0.09522326 -0.2730304
000010 60 a6 c1 3d aa 96 5d be 9d 0c 96 be 57 72 f3 3d
       0.09455562 -0.21639505 -0.29306498 0.11887043
000020 15 dd 99 be ef f5 37 3e 2a a3 52 3e 0b 69 30 bc
       -0.30051485 0.1796491 0.20570055 -0.010767232
000030 df c3 08 3e d1 29 01 3e 0c 60 d7 3d ad e5 63 bd
       0.13355969 0.12613608 0.10516366 -0.055638958
000040 6b 71 ae 3d 21 11 bf bd f1 af 81 be 76 14 a1 3e
       0.085177265 -0.09329439 -0.25329545 0.31460923
000050 4e ce fb bc 42 8a 3b 3e b8 aa 59 be a2 77 c0 3c
       -0.030738022 0.1831446 -0.2125653 0.023494545
000060 70 3e 6c 3c 00 eb 06 bc c5 d1 46 3e af 72 81 3d
       0.014419183 -0.008234739 0.19415958 0.06320702
000070 22 41 cc 3d 9c 77 12 be 70 d7 cf 3d 6c 44 d0 3c
       0.099733606 -0.1430344 0.10148513 0.025423251

fc1.weight f4 [12, 64]
000000 24 5f a6 be 47 bd f6 be 48 ab d6 3e 76 e9 ae be
       -0.32494462 -0.48191282 0.41927552 -0.34162492
000010 f6 e0 75 be a2 0e 8d be 65 17 09 bf ad 60 72 3e
       -0.24011597 -0.27550226 -0.5355132 0.23669691
000020 65 5c 9c bd b3 a2 d5 3d b8 99 54 3d 96 2e bc 3e
       -0.0763481 0.10431423 0.05190441 0.36754292
000030 c1 38 9d bc 64 ad 90 be 4d 4e d6 be 73 81 e6 bd
       -0.019192101 -0.28257287 -0.41856614 -0.11255159
000040 e2 de 3b 3e 14 55 25 bf fe d3 fb 3e c2 28 65 3e
       0.18346742 -0.64582944 0.49185175 0.22378829
000050 89 ea c9 3e 61 69 46 3e bd 2f fd be 54 5e 23 3f
       0.3943675 0.19376136 -0.49450484 0.6381581
000060 93 ef c4 3e bc 03 60 be 0b 91 13 bf 4c f9 60 bd
       0.3846403 -0.21876425 -0.57643193 -0.054925248
000070 2d 52 28 bf 75 14 d6 be 3b a7 8e 3e 3a a5 88 3e
       -0.6575039 -0.41812482 0.27861962 0.26688558
000080 a2 53 e7 bd e9 65 7a be 14 46 fa be 58 d7 c3 bd
       -0.112952486 -0.24452938 -0.4888159 -0.09562558
000090 c2 3f e3 be 60 a7 b4 be f3 9c cb be 09 2c f4 3d
       -0.4438458 -0.35283947 -0.3976818 0.119224615
0000a0 d8 a6 6d be 2f 48 80 3e 1d ca 2e bb 67 34 5e be
       -0.23208177 0.25055072 -0.0026670762 -0.21699677
0000b0 cc 30 9d 3e aa 5e 96 3e ff ee 4e 3d 0e f4 41 be
       0.30701292 0.29369098 0.050520893 -0.18940756
0000c0 e7 18 cd 3e b7 27 77 be 21 f3 40 bd 5d 20 ab 3e
       0.4005806 -0.24136244 -0.047106866 0.3342313
0000d0 e5 c3 d1 be 4e 43 40 3e 98 ac 90 be e8 e9 60 3e
       -0.40969768 0.18775675 -0.2825668 0.21964228
0000e0 74 35 d0 be 35 e9 a2 be 4a 6a c9 3e 60 eb 2d be
       -0.40665781 -0.31818548 0.39338905 -0.1698432
0000f0 44 62 9f 3e 2f c6 5b be b9 29 02 be eb 28 ee 3e
       0.31129658 -0.2146232 -0.12711228 0.46515593
000100 60 03 8d 3f 34 0c e1 bc 71 06 f5 3e 16 0d 7a 3e
       1.1016655 -0.02747164 0.47856477 0.24419054
000110 04 fe b6 3f 67 98 61 3e 19 47 c2 be f0 ab 20 3d
       1.429627 0.22030793 -0.37944868 0.039226472
000120 68 e0 50 3f 90 d7 f6 3d e9 2a a0 be 8f cd a4 bf
       0.81592417 0.12052834 -0.31282738 -1.2875232
000130 25 c8 94 3e 3e c7 c4 3e f8 fa 13 bf 95 6e e6 bc
       0.29058948 0.3843326 -0.5780482 -0.028128901
000140 89 3b a3 be d2 4f 81 3c 4d a3 2f bf 7e d3 78 bf
       -0.3188136 0.015785132 -0.6860855 -0.9719771
000150 24 f3 1b 3f 40 50 b6 be 05 71 85 3f fe 02 dd be
       0.6091788 -0.356081 1.0425116 -0.43166345
000160 7e fd 73 3d 46 82 b0 3f 63 96 5b 3f 33 4e 8b ba
       0.05956792 1.3789756 0.85776347 -0.0010628164
000170 f4 74 f3 be b3 24 ab be a1 9c 19 be ed ab 56 bf
       -0.47550166 -0.33426437 -0.15001155 -0.8385609
000180 3a 1e 24 be 9d 0c 9f 3f b2 fc 4b 3f 5a 83 ad be
       -0.16027156 1.2425724 0.7968246 -0.33889276
000190 de e7 8c be 01 74 25 40 3c 9c 93 3c d7 5c a4 bf
       -0.2752065 2.5852053 0.018018834 -1.2840832
0001a0 e0 19 24 be f3 c4 09 c0 4a ac 49 bf 91 17 b6 be
       -0.16025496 -2.1526458 -0.7877852 -0.35564855
0001b0 e8 9b 64 bf a5 25 a3 bf 23 c1 6d bf d3 0e e9 be
       -0.89300394 -1.2745863 -0.9287283 -0.45519122
0001c0 81 1d db be 11 b4 a5 3f 0e 3c cc be 61 55 f9 3c
       -0.42795947 1.2945577 -0.39889568 0.03043622
0001d0 bf f0 90 3f 0b 6f 04 3d cb 49 83 be 79 9e 95 bd
       1.132347 0.03233246 -0.25642237 -0.07305617
0001e0 19 1c db 3f 7e 64 85 be d8 bf 3b 3e 2f 59 a5 3f
       1.711795 -0.26053232 0.18334901 1.2917842
0001f0 d7 3e d2 3e d0 85 00 3e 18 c6 b8 3f 88 c1 0a 3f
       0.41063568 0.12551045 1.4435453 0.54201555
000200 e9 c3 29 3f af c3 af be 76 d7 be bf ff 53 02 bf
       0.6631456 -0.34328982 -1.4909503 -0.5090942
000210 50 db ad be af 2e 8f 3f 3e e2 bd be 79 69 4e bf
       -0.33956385 1.1186122 -0.37086672 -0.8062969
000220 31 3c 88 bf 45 ac 4b be 6a c1 38 3f 7b 6b e8 3e
       -1.0643369 -0.19889934 0.72170126 0.453945
000230 04 df 2c be e5 04 96 3f 51 7a b5 3f 84 0a 2d 3f
       -0.16881949 1.1720244 1.4177953 0.6759417
000240 db 97 a8 3e 78 68 31 3e a2 71 50 bf 65 ba 1f 3e
       0.32928357 0.17325008 -0.8142339 0.15598448
000250 57 79 02 bf 3f 09 63 bf d9 9e 25 be 97 e2 17 3f
       -0.509664 -0.88685983 -0.16173877 0.59330124
000260 74 1e 01 bf 03 a2 79 3f 25 b1 67 3f f0 d2 b5 be
       -0.5043709 0.97512835 0.90504676 -0.35512495
000270 58 0a 8d be c1 1a 45 3e d0 e7 fc 3e 37 36 8c bd
       -0.27546954 0.19248487 0.4939561 -0.06846278
000280 8e 60 9e 3d 95 b6 45 bf 8b 3a 88 be 4f c5 57 bd
       0.0773326 -0.77231723 -0.26607165 -0.052678403
000290 f0 59 d6 3e 16 fa a5 3f e2 04 a6 be 9f a5 6b 3f
       0.41865492 1.2966945 -0.324256 0.9204959
0002a0 8d 01 2a 3f 68 44 d0 bf 24 61 d2 bc e0 07 6e 3f
       0.66408616 -1.6270876 -0.025681086 0.92980766
0002b0 04 44 c9 bf 63 43 85 bf 75 36 f4 3e 90 bb 60 3f
       -1.5723882 -1.041119 0.47697797 0.877862
0002c0 b8 ab 26 bf 85 6e a4 3f 46 98 be be 33 4e 97 be
       -0.6510577 1.2846228 -0.3722555 -0.2955185
0002d0 17 0b 40 3e c9 03 9b bd 49 94 b8 3e f0 8c 41 bf
       0.1875423 -0.07569081 0.36050633 -0.7560568
0002e0 dd 73 aa 3f 17 fc 52 bf 31 ba 83 3e 8e cc 4d bf
       1.3316609 -0.8241591 0.2572799 -0.8039025
0002f0 60 a0 1f 3f 5b f2 8a be 7d fa 2c 3f 2c 5d 06 bf
       0.6235409 -0.27138028 0.67569715 -0.5248592
000300 7e 8b 67 3f 79 81 3d be 82 4d b5 bf 48 cc 70 3f
       0.90447223 -0.18506421 -1.4164279 0.9406171
000310 53 e6 16 be 06 2e 08 3e 1f f4 11 bf 8b 58 43 bf
       -0.14736299 0.13298807 -0.57013124 -0.7630698
000320 48 32 d6 3d 44 5a 54 3f c4 24 8e be 40 58 c0 be
       0.10458809 0.82950234 -0.27762425 -0.3756733
000330 c7 8d 85 3e 4e e9 2f bf a1 02 b1 3f 6a 3e 9b 3f
       0.2608473 -0.6871537 1.3828927 1.2128422
000340 21 bf 6e be f1 e1 fe bc 89 39 35 3d 74 b4 69 bf
       -0.23315097 -0.031113597 0.044244323 -0.91290975
000350 f6 37 5b bf cb 8b 85 be 76 1e d3 3e 0d 09 18 3f
       -0.85632265 -0.26083216 0.41234177 0.5938881
000360 05 66 71 bf 2e 0d 01 be 21 c8 23 3f 13 55 96 bc
       -0.94296294 -0.12602684 0.6397725 -0.018351113
000370 20 ce 51 3f 9c 20 2d 3e ae b4 3d 3e 06 cc 96 bf
       0.81955147 0.1690697 0.18525955 -1.1781013
000380 8b b8 a9 3e b1 23 00 be d4 d8 dd 3e f2 61 87 3f
       0.33148608 -0.12513615 0.4332949 1.0576766
000390 30 8b 03 3f b1 93 b3 3e 52 86 a7 3f 1a 73 1b bf
       0.5138426 0.35073617 1.3087866 -0.60722506
0003a0 29 b7 bf bd 18 15 b2 be 63 21 24 3e a5 73 06 bd
       -0.09361107 -0.34781718 0.16028361 -0.03282513
0003b0 bb c4 5a bf 57 31 8e 3e 5f 25 7d bf fe 9e b2 be
       -0.85456437 0.27772018 -0.9888515 -0.34886926
0003c0 4e fe 20 3f 09 cf 25 3f 30 d6 6c 3f b5 f0 a0 bf
       0.6288804 0.64769036 0.92514324 -1.2573458
0003d0 53 19 33 be 3a 0e ff be bf 07 5e 3c 9c 55 1c be
       -0.17490129 -0.49815542 0.0135516515 -0.15267032
0003e0 a1 e9 80 3f f6 44 3c bf e9 ca a8 bf 66 6a 57 3f
       1.0071298 -0.73542726 -1.3186923 0.84146726
0003f0 1b 0f 0d bf 3f 3e 46 3c 62 ab f3 be 63 ee 6c 3e
       -0.55101174 0.012099802 -0.47591692 0.23137812

fc1.bias f4 [12]
000000 bd 28 3d 3d 86 2a ac bc ac f4 cd bd b3 60 f7 be
       0.04618143 -0.02101637 -0.10056433 -0.48315963
000010 b8 c9 9b be 6d 7f 09 bf 29 d1 f3 be e1 39 c0 be
       -0.30427337 -0.5371006 -0.47620514 -0.37544158
000020 7a 9e ff bd 60 52 c0 be f7 d6 91 be d4 a9 95 be
       -0.12481399 -0.37562847 -0.28484318 -0.2923113
