src/main/python/saved_models/python3_1_55_RNNClassifier1_128embs_102id_32hd_1hl_Truebid_2.pt (torch, 98591 bytes, 11 tensors)

word_embeddings.weight f4 [102, 128]
1.1337882 -1.2252536 -0.5580076 -0.18921377 1.345859 1.1873609 0.59333855 -0.6078965
-1.0330932 0.32033178 -1.7302283 0.9239992 -1.0929612 0.7232913 0.05169557 2.9296575
0.25761065 -1.4764912 -1.2440982 -0.070100605 -0.59376603 0.20775159 0.17447877 -0.022872398
0.46786448 -1.0909094 -0.30264643 -0.80791306 -0.094654135 0.3038416 -1.2358416 0.10870016
-1.3953485 -1.0088445 0.6830135 -0.43253824 -0.37301946 -0.77688843 1.2965451 0.35806674
0.22352628 -0.42432952 1.21174 1.2114054 -0.59284765 -0.16624439 -0.017657302 -3.2208118
0.4701139 -0.4095938 0.3119844 0.7304417 -0.7898812 0.23165172 0.22807482 0.7682725
-0.9179179 -0.48065934 -0.33790696 0.78671217 1.0834172 -1.8522764 -1.1919882 -1.0517266
-1.012586 -1.357515 -0.3211635 0.24184377 1.8044537 -0.10260395 1.9232781 0.1618556
1.4284132 -0.1918245 0.22533831 -0.7045628 -1.2601815 0.9946205 -0.7811712 -0.26114622
-2.4262323 0.43784055 0.0068381396 0.39028284 -0.16838248 -1.6813639 0.5361808 -2.257312
-0.733913 -0.19784582 -0.4292705 -1.0492349 0.9251619 0.14844374 0.2557585 -0.9358347
0.8794279 -0.13733922 1.4316455 -0.06878341 -0.09539462 0.24369851 0.662615 1.5884386
-0.2978591 0.60772187 0.42912143 0.7516855 1.7669094 0.6303734 0.91287136 -0.44436
0.11045577 -0.37399098 1.2056196 -1.5063349 -0.5663276 -1.1037458 -1.3665295 -0.71807826
-0.8713082 -0.021476466 -0.67039037 -0.4736669 1.4464592 0.9255738 0.13103034 1.7091961
2.2293458 -1.2026618 -0.6192838 -1.8004566 0.8679732 -0.3330266 -1.1898326 0.109344274
-1.4063338 -0.72841763 -1.1367315 -0.19106205 -0.53170174 1.0911871 -0.78350717 -1.4841628
0.3359799 0.31324008 0.6982811 -0.70956063 -0.8490974 0.5564742 0.23917525 -1.5984826
1.6100041 -2.2314565 -1.0179394 1.3944873 -0.349978 -0.20707552 0.17096926 -0.3866315
0.39160478 0.21200569 0.04862163 -1.4696877 0.56215215 -0.9434362 -0.009123366 0.21190828
-0.24877362 0.3884161 -1.0051844 0.08008251 -0.6481597 -0.54326105 -0.6833577 -1.8035386
-0.30530596 -1.8579252 0.9189427 -0.41862884 -0.18336448 -1.5118871 -0.13633268 -0.921735
-0.3427276 1.4602793 -0.37803984 -0.48086214 -0.48481506 1.6906209 0.18171944 -0.25056916
-0.28598142 0.19986601 -0.04417223 1.1528325 0.28534746 0.28037405 -0.9372746 -1.611234
-0.51270616 -1.2280331 1.0228597 0.18384326 0.373495 0.48953587 -0.20392965 -1.2248808
-0.51607996 -0.29436755 -0.031890646 0.73927504 -2.0602229 -0.35475355 -1.5475235 -0.9225909
-0.5791726 1.8332412 -0.8885724 0.0995536 -0.12597702 1.4014006 -1.1103296 1.7787582
3.500572 1.0221287 0.30675852 1.4133736 -2.6186364 -0.20184185 -2.3059595 0.041736253
-0.73275286 -0.80123603 -1.3258085 -0.4485976 0.31799477 0.14764743 0.5379089 2.127317
-0.27618155 -1.8440002 0.3128358 -1.0633754 0.20392719 -0.6064164 0.8182468 0.18530504
0.039011497 -1.7436965 -2.0154147 0.0054084756 0.12753798 -0.27258083 1.0323284 -0.22766498
00000000: f91f 913f 1cd5 9cbf 96d9 0ebf 41c1 41be
00000010: 1c45 ac3f 71fb 973f 09e5 173f 1b9f 1bbf
00000020: 663c 84bf 8702 a43e 1f78 ddbf 368b 6c3f
00000030: 27e6 8bbf 9e29 393f bcbe 533d 827f 3b40
00000040: 8be5 833e aafd bcbf 9c3e 9fbf e890 8fbd
00000050: 0d01 18bf d5bc 543e 90aa 323e e55e bbbc
00000060: ef8b ef3e eba2 8bbf 79f4 9abe 64d3 4ebf
00000070: 07da c1bd 2091 9b3e 0f30 9ebf 319e de3d
00000080: c89a b2bf d121 81bf f9d9 2e3f a775 ddbe
00000090: 68fc bebe 29e2 46bf 31f5 a53f 8654 b73e
000000a0: 13e4 643e b841 d9be 4c1a 9b3f 550f 9b3f
000000b0: ddc4 17bf f83b 2abe 0ca6 90bc c821 4ec0
000000c0: c5b2 f03e 47b6 d1be 6bbc 9f3e 3afe 3a3f
000000d0: a835 4abf 1c36 6d3e 728c 693e 82ad 443f
000000e0: abfc 6abf fb18 f6be 2402 adbe f865 493f
000000f0: 6aad 8a3f 6517 edbf 1293 98bf fa9e 86bf
00000100: 6b9c 81bf 0dc3 adbf 8b6f a4be e5a5 773e
00000110: 57f8 e63f 0522 d2bd fa2d f63f 79bd 253e
00000120: 3ed6 b63f a46d 44be 16bf 663e 3a5e 34bf
00000130: a14d a1bf 739f 7e3f d6fa 47bf f5b4 85be
00000140: 6447 1bc0 a32c e03e 7912 e03b 27d3 c73e
00000150: 756c 2cbe ef36 d7bf 2543 093f cd77 10c0
00000160: b9e1 3bbf 1898 4abe 58c9 dbbe 544d 86bf
00000170: 69d7 6c3f a301 183e c7f2 823e dd92 6fbf
00000180: 3022 613f a7a2 0cbe 2940 b73f 51de 8cbd
00000190: 415e c3bd 1a8c 793e 23a1 293f f551 cb3f
000001a0: fd80 98be a993 1b3f ceb5 db3e 766e 403f
000001b0: 162a e23f 2760 213f f0b1 693f 2783 e3be
000001c0: a236 e23d bf7b bfbe be51 9a3f 95cf c0bf
000001d0: d8fa 10bf 8b47 8dbf 70ea aebf fad3 37bf
000001e0: 0e0e 5fbf 6aef afbc b49e 2bbf 7884 f2be
000001f0: 9325 b93f 68f2 6c3f d12c 063e f0c6 da3f
00000200: 9aad 0e40 d2f0 99bf 6289 1ebf 5d75 e6bf
00000210: 7e33 5e3f 7682 aabe 6f4c 98bf e4ef df3d
00000220: bf02 b4bf 9479 3abf 6b80 91bf c5a5 43be
00000230: 9b1d 08bf 05ac 8b3f ed93 48bf 0cf9 bdbf
00000240: 8f05 ac3e 0161 a03e 8dc2 323f c4a5 35bf
00000250: 725e 59bf 1875 0e3f 5bea 743e 149b ccbf
00000260: 9d14 ce3f 2fd0 0ec0 d74b 82bf 8f7e b23f
00000270: 5130 b3be 9b0b 54be 9112 2f3e 90f4 c5be
00000280: 6c80 c83e 0518 593e 7927 473d ba1e bcbf
00000290: 34e9 0f3f 0985 71bf 2c7a 15bc 7cfe 583e
000002a0: 83be 7ebe 7ade c63e e2a9 80bf 4d02 a43d
000002b0: cbed 25bf 2813 0bbf 88f0 2ebf 5ada e6bf
000002c0: 1051 9cbe 7ed0 edbf d43f 6b3f 8556 d6be
000002d0: e6c3 3bbe 8485 c1bf cb9a 0bbe d3f6 6bbf
000002e0: fe79 afbe 6fea ba3f 708e c1be 9033 f6be
000002f0: ae39 f8be 4466 d83f a914 3a3e 9a4a 80be
00000300: 286c 92be ada9 4c3e f1ed 34bd 0490 933f
00000310: 1019 923e 308d 8f3e 3af1 6fbf ea3c cebf
00000320: b640 03bf 3030 9dbf 11ed 823f 6841 3c3e
00000330: bd3a bf3e 72a4 fa3e efd2 50be e5c8 9cbf
00000340: d11d 04bf 58b7 96be c49f 02bd 2141 3d3f
00000350: b1da 03c0 42a2 b5be 4015 c6bf eb2e 6cbf
00000360: a844 14bf a6a7 ea3f 7b79 63bf c2e2 cb3d
00000370: 1f00 01be 1861 b33f 481f 8ebf 59ae e33f
00000380: 5f09 6040 1dd5 823f 740f 9d3e 6de9 b43f
00000390: bd97 27c0 a1af 4ebe d794 13c0 a2f3 2a3d
000003a0: b195 3bbf ce1d 4dbf 18b4 a9bf 96ae e5be
000003b0: 36d0 a23e e330 173e 66b4 093f f625 0840
000003c0: ab67 8dbe 3308 ecbf 042c a03e af1c 88bf
000003d0: 4ad2 503e 1b3e 1bbf 9f78 513f 9bc0 3d3e
000003e0: 85ca 1f3d 7231 dfbf 8efc 00c0 9539 b13b
000003f0: 5199 023e b78f 8bbe 5623 843f 0221 69be

rnn.weight_ih_l0 f4 [32, 128]
-0.047966838 -0.05985491 -0.2965946 -0.12196504 0.007703845 -0.008223462 -0.15430908 0.0015256797
0.18488428 0.19607656 0.03335801 0.070749626 0.13241415 0.2645082 0.22050753 0.044012908
0.08848982 0.15376866 0.12905194 0.0012973072 0.20970176 -0.08294137 -0.0166411 0.02674528
0.13793866 0.11903254 -0.13851346 -0.018082103 -0.18007778 0.020628668 0.006245897 -0.34485915
-0.019537015 -0.04367387 -0.06676926 0.017893832 0.016633037 0.2901792 0.005814633 0.30212152
0.052692056 -0.035077035 0.28935513 0.23424473 0.10768829 0.0347197 0.33212146 -0.045403667
0.0534148 0.023250964 0.31883064 0.042482067 0.07804732 0.23495574 0.113894984 -0.21157071
0.003283503 0.08820946 0.044928435 -0.06549463 -0.02460953 0.0062648654 -0.30021888 0.3072733
-0.3590837 -0.029554894 0.24007347 0.060204335 -0.021502927 -0.1768486 -0.048612136 0.16541125
0.09165269 -0.0013788677 -0.124440156 -0.033542976 -0.09316659 -0.039189667 0.1550597 0.030139117
0.020996837 0.26042798 -0.08341195 -0.12449651 0.038389213 -0.12344855 -0.04916223 0.0028208906
0.022042159 -0.023406776 -0.2765902 0.03808922 0.0248911 0.0014063893 -0.13869214 0.28595582
0.24428077 -0.07377223 -0.21688947 -0.02615404 0.09383409 0.1722514 0.01726125 -0.026033763
0.0575446 -0.1870293 0.16496122 -0.099544235 -0.018781064 -0.16248205 0.10370167 -0.08083448
-0.002006128 0.03538016 -0.1957729 -0.0061272574 -0.056426644 -0.20832309 0.007866228 -0.16671945
0.07946912 -0.024605973 0.08368126 -0.26180315 -0.10364529 -0.10574627 -0.059726845 0.010254035
0.005827099 -0.05240575 -0.104365416 -0.0339733 -0.015018526 0.18838364 -0.11410315 0.015713237
0.08072353 -0.06435431 0.0018360752 -0.3255895 0.09934708 0.072648466 0.02108669 0.19756794
0.14770956 -0.09885242 -0.065017484 0.127922 0.03756192 0.13834767 0.08610903 0.048118345
0.16471697 -0.21624653 -0.0057374253 0.10136359 -0.06757677 0.24572016 0.09416924 0.053542864
-0.064484015 0.12700804 0.033340037 -0.24237533 -0.20790815 0.16387287 0.17128637 -0.0043526995
-0.087824814 -0.053784918 -0.12303979 0.030585533 0.12054119 0.21889284 -0.018497141 -0.24677268
0.22175032 0.27542844 -0.21850729 0.027746383 0.110666886 0.05912893 0.27186328 0.07220192
0.0045715803 0.016404038 -0.18303598 -0.25368103 -0.17091717 -0.23204666 0.09823757 0.08929838
0.1905754 -0.06963896 0.026645703 0.1909092 -0.052177954 -0.074644625 -0.27317423 -0.22252715
-0.059337758 -0.10138631 0.008192596 -0.034851402 -0.012836693 -0.1490644 -0.09303063 -0.19009204
-0.29447365 0.09277651 -0.20325509 0.13565043 -0.052013982 0.18421072 -0.15894757 0.00385936
-0.12236423 -0.15435186 -0.17595921 -0.25771034 0.03216132 -0.1791599 0.117491655 -0.11451643
0.13866054 -0.094177954 0.011010163 0.005828117 0.1452684 0.045939215 -0.035464883 0.041231994
0.037788242 -0.20052044 1.4952702e-05 -0.15846673 0.13253425 -0.16547348 -0.18627815 0.041063454
-0.14037202 0.012892635 -0.119416185 -0.16808508 -0.31297618 -0.010628074 0.09674877 -0.14924715
0.09031614 -0.12182811 -0.026346136 -0.061633777 -0.23722193 0.114111505 -0.23082726 0.19091493
00000000: e078 44bd 6c2a 75bd 3fdb 97be cfc8 f9bd
00000010: 8970 fc3b b3bb 06bc 3303 1ebe 51f9 c73a
00000020: 4e52 3d3e 4bc8 483e 69a2 083d 2ee5 903d
00000030: 9397 073e 9e6d 873e bacc 613e e146 343d
00000040: 273a b53d 8875 1d3e 3126 043e 680a aa3a
00000050: 0fbc 563e 2add a9bd eb52 88bc eb18 db3c
00000060: cb3f 0d3e 55c7 f33d 79d6 0dbe eb20 94bc
00000070: 4f66 38be 74fd a83c 62aa cc3b 6191 b0be
00000080: 170c a0bc 5fe3 32bd 52be 88bd 1696 923c
00000090: 0242 883c 5e92 943e ad88 be3b acaf 9a3e
000000a0: a0d3 573d f0ac 0fbd 5b26 943e dadd 6f3e
000000b0: ae8b dc3d 3f36 0e3d d30b aa3e 32f9 39bd
000000c0: 7ac9 5a3d ce78 be3c c53d a33e ad01 2e3d
000000d0: 46d7 9f3d 3d98 703e c641 e93d fea5 58be
000000e0: 0a30 573b 29a7 b43d e106 383d 0c22 86bd
000000f0: ed99 c9bc 8049 cd3b 4ab6 99be ed52 9d3e
00000100: d2d9 b7be 1b1d f2bc d2d5 753e d298 763d
00000110: e826 b0bc cd17 35be 851d 47bd 9161 293e
00000120: 68b4 bb3d 1fbb b4ba 7bda febd 5c64 09bd
00000130: 20ce bebd 5885 20bd f8c7 1e3e 4fe6 f63c
00000140: 8f01 ac3c d156 853e e2d3 aabd 07f8 febd
00000150: 023e 1d3d 98d2 fcbd 565e 49bd b1de 383b
00000160: c291 b43c 91bf bfbc 3b9d 8dbe 7103 1c3d
00000170: 6ce8 cb3c 9856 b83a 5005 0ebe cd68 923e
00000180: bd24 7a3e e515 97bd 4618 5ebe ff40 d6bc
00000190: 162c c03d ac62 303e 7767 8d3c c244 d5bc
000001a0: e3b3 6b3d 9c84 3fbe 98eb 283e d9dd cbbd
000001b0: bfda 99bc b261 26be 8b61 d43d 8c8c a5bd
000001c0: 3e79 03bb c9ea 103d b178 48be 29c7 c8bb
000001d0: a01f 67bd a652 55be 5ae1 003c 81b8 2abe
000001e0: b5c0 a23d 7792 c9bc 1561 ab3d 100b 86be
000001f0: fb43 d4bd 8091 d8bd 23a4 74bd 8a00 283c
00000200: 40f1 be3b 69a7 56bd 89bd d5bd 9627 0bbd
00000210: 4410 76bc a4e7 403e eaae e9bd 0cb9 803c
00000220: 6152 a53d 31cc 83bd 76a8 f03a abb3 a6be
00000230: 7b76 cb3d b8c8 943d febd ac3c 404f 4a3e
00000240: 2d41 173e 2373 cabd e327 85bd fcfd 023e
00000250: 87da 193d 03ab 0d3e ee59 b03d be17 453d
00000260: 91ab 283e bb6f 5dbe 0301 bcbb b797 cf3d
00000270: b165 8abd 119e 7b3e cddb c03d c34f 5b3d
00000280: 3210 84bd 650e 023e 908f 083d 3d31 78be
00000290: e0e5 54be 4ace 273e b265 2f3e 17a1 8ebb
000002a0: 7fdd b3bd 934d 5cbd 49fc fbbd 838e fa3c
000002b0: 4dde f63d 7225 603e 5187 97bc fab1 7cbe
000002c0: 8412 633e f504 8d3e 60c0 5fbe 624c e33c
000002d0: 52a5 e23d 2d31 723d aa31 8b3e 9ade 933d
000002e0: 32cd 953b c361 863c c96d 3bbe 7be2 81be
000002f0: e904 2fbe a49d 6dbe c730 c93d 12e2 b63d
00000300: 3326 433e df9e 8ebd 1748 da3c b47d 433e
00000310: 8db8 55bd 48df 98bd 7edd 8bbe 28de 63be
00000320: 260c 73bd a0a3 cfbd 3d3a 063c 58c0 0ebd
00000330: fe50 52bc 57a4 18be d886 bebd 7da7 42be
00000340: 40c5 96be 9c01 be3d 1a22 50be f2e7 0a3e
00000350: 9d0c 55bd bca1 3c3e 27c3 22be 51ed 7c3b
00000360: 199a fabd 6a0e 1ebe a72e 34be 9cf2 83be
00000370: 97bb 033d b175 37be 779f f03d 9787 eabd
00000380: 07fd 0d3e 5fe0 c0bd f963 343c caf9 be3b
00000390: 3dc1 143e c22a 3c3d a043 11bd e1e2 283d
000003a0: d8c7 1a3d 3b55 4dbe 5edd 7a37 1a45 22be
000003b0: 0fb7 073e e171 29be b3bf 3ebe 2732 283d
000003c0: afbd 0fbe a13b 533c 7990 f4bd 7f1e 2cbe
000003d0: 6a3e a0be 6021 2ebc 3824 c63d 3fd4 18be
000003e0: abf7 b83d 0481 f9bd dad3 d7bc b373 7cbd
000003f0: 4eea 72be 4bb3 e93d fb5d 6cbe 347f 433e

rnn.weight_hh_l0 f4 [32, 32]
0.3026262 -0.025690673 -0.19325686 0.12661803 -0.22988199 -0.0017480272 -0.01762472 0.47447947
0.2510204 0.28122765 -0.31317914 0.23300953 -0.10774721 0.24419954 -0.31507143 0.05391238
-0.09332684 0.31906426 -0.09487177 0.138432 0.09227186 -0.16081606 0.15348874 -0.36880028
0.06725758 -0.40295175 0.20871148 -0.002214717 0.15891692 -0.06498108 0.21047115 0.22654468
-0.16276187 -0.15580073 -0.052219916 0.2545498 0.14541864 0.5753334 0.15351944 -0.530754
-0.16547093 -0.55482465 -0.13380279 -0.42142674 -0.59976447 -0.29881424 -0.25186557 0.21962546
-0.02067685 -0.22732435 0.3639441 0.086684704 0.26465586 0.39875197 -0.18735547 -0.14257658
0.095286444 -0.28863087 -0.046921562 -0.40502566 0.3352336 0.9521045 0.29214814 0.05785316
-0.17065732 0.36591968 -0.117907465 -0.48722154 0.1956868 0.18608612 0.34263027 -0.20722005
-0.23931701 -0.1427903 0.041995894 0.37247378 -0.5141048 -0.16997308 -0.19819862 -0.04072673
0.11315102 -0.06894609 0.22745825 0.2199996 -0.22782895 0.29058224 -1.2669218 0.3098061
0.22137268 0.20459712 -0.12911627 0.013344387 -0.10600756 -0.004843563 -0.13511072 -0.24843356
0.10041156 -0.019161457 -0.41517338 0.294046 -0.08872496 -0.16174954 0.095401615 0.23431976
-0.25660136 0.14535454 -0.20897447 -0.14747235 -0.7487347 0.018032864 -0.2502828 0.074601024
0.1001816 -0.4561002 -0.055766173 0.1625301 0.27087685 -0.14887172 0.2825446 -0.43295506
-0.06249083 -0.31058592 0.3079758 -0.102650344 0.32259813 0.05643999 -0.10100884 0.4932495
-0.0043650484 0.11085992 0.71234494 -0.3836038 -0.26723793 0.234537 -0.13878316 0.24246141
0.23071638 0.16742021 0.07371355 0.44743824 0.59155136 0.21088922 0.38289812 -0.11520459
-0.0034429594 0.3350149 0.041413143 -0.27008417 -0.15282276 0.2608833 0.25996837 -0.059329845
0.2202311 0.46882546 0.16700512 -0.104882345 -0.5748147 -0.37975731 0.03982168 -0.3446154
0.18111719 0.015887449 -0.08695625 0.2858364 0.21059892 0.26257965 0.03231594 -0.059032474
-0.2608971 -0.8836969 -0.4050918 -0.07795583 -0.655952 -0.42594862 -0.028357785 0.041120943
0.0073969616 -0.12623994 0.14243402 0.039044477 0.27520734 -0.19375089 0.40490374 -0.13322897
-0.24355885 -0.44263673 -0.1443774 -0.02018973 0.07498282 0.24246584 -0.27103367 0.7161369
0.0029241503 -0.00812933 0.20339201 -0.03804995 0.20523104 -0.13648626 0.099520825 -0.10774966
-0.28472334 -0.073164195 0.13242596 0.3554389 0.049490493 0.019330805 -0.13950087 -0.07268765
-0.014325358 -0.02623384 0.05986638 0.12827104 0.009282288 -0.17744564 -0.11584374 0.19675474
-0.06721169 0.15367211 0.086587675 -0.019660648 -0.09621964 0.2490297 -0.06736341 0.0371244
0.24977805 -0.3988758 -0.7258151 0.08571213 0.17783323 -0.22189334 0.020738084 0.27354863
0.36058643 0.6045408 -0.33732957 -0.15763927 -0.15737697 0.39397466 0.04840893 -0.04032548
0.11097012 -0.21804725 -0.23944168 -0.17817852 0.09086238 -0.45777875 0.5071359 -0.12806325
0.023090107 -0.40589157 0.39470586 -0.14506738 0.4922656 -0.050766934 0.20570436 0.35881078
00000000: d2f1 9a3e 3f75 d2bc 20e5 45be 28a8 013e
00000010: 2f66 6bbe 0f1e e5ba b861 90bc f9ee f23e
00000020: bf85 803e 12fd 8f3e 0459 a0be 0d9a 6e3e
00000030: 92aa dcbd 720f 7a3e 0b51 a1be 3ad3 5c3d
00000040: 2422 bfbd 645c a33e 214c c2bd 1ec1 0d3e
00000050: 07f9 bc3d f7ac 24be 272c 1d3e 64d3 bcbe
00000060: 58be 893d b14f cebe 76b8 553e c924 11bb
00000070: 1ebb 223e cd14 85bd c085 573e 54fb 673e
00000080: 0cab 26be 3a8a 1fbe 8de4 55bd 5a54 823e
00000090: a0e8 143e 0d49 133f 3334 1d3e 7fdf 07bf
000000a0: 3671 29be fd08 0ebf 9903 09be 3fc5 d7be
000000b0: 2a8a 19bf 2efe 98be 86f4 80be 7fe5 603e
000000c0: 7f62 a9bc b7c7 68be e256 ba3e c087 b13d
000000d0: f980 873e 3829 cc3e 1dda 3fbe 98ff 11be
000000e0: 8a25 c33d 6dc7 93be d330 40bd 865f cfbe
000000f0: bda3 ab3e 1fbd 733f 7194 953e 6ff7 6c3d
00000100: cbc0 2ebe d359 bb3e 7879 f1bd 1a75 f9be
00000110: 1f62 483e 5c8d 3e3e 3c6d af3e 7e31 54be
00000120: 850f 75be 9f37 12be e303 2c3d e2b4 be3e
00000130: 5f9c 03bf 6c0d 2ebe 94f4 4abe 12d1 26bd
00000140: b9bb e73d 9c33 8dbd d1ea 683e 9347 613e
00000150: fe4b 69be 32c7 943e 7e2a a2bf e89e 9e3e
00000160: 85af 623e e881 513e 0e37 04be 6aa2 5a3c
00000170: 7e1a d9bd c0b6 9ebb 775a 0abe 5e65 7ebe
00000180: 93a4 cd3d 7df8 9cbc 9b91 d4be 338d 963e
00000190: 6fb5 b5bd aca1 25be ec61 c33d 85f1 6f3e
000001a0: 4161 83be d2d7 143e 67fd 55be fe02 17be
000001b0: 14ad 3fbf a8b9 933c 1125 80be 6cc8 983d
000001c0: 032c cd3d f785 e9be 126b 64bd 4a6e 263e
000001d0: 5fb0 8a3e d471 18be b0a9 903e 49ac ddbe
000001e0: 62f6 7fbd 1e05 9fbe 01af 9d3e 583a d2bd
000001f0: 952b a53e 9e2d 673d b9dd cebd 338b fc3e
00000200: ae08 8fbb 870a e33d 3d5c 363f b867 c4be
00000210: 69d3 88be 782a 703e 2c1d 0ebe ce47 783e
00000220: ea40 6c3e 3470 2b3e 21f7 963d a016 e53e
00000230: e96f 173f 58f3 573e 390b c43e 62f0 ebbd
00000240: 46a3 61bb 1387 ab3e d4a0 293d 7948 8abe
00000250: 927d 1cbe 7f92 853e 931a 853e da03 73bd
00000260: 4384 613e e409 f03e 6403 2b3e 8ecc d6bd
00000270: 0e27 13bf 8d6f c2be 0f1c 233d 6e71 b0be
00000280: c976 393e 6526 823c 1e16 b2bd 2659 923e
00000290: 3ea7 573e d770 863e b85d 043d 09cc 71bd
000002a0: 4e94 85be f639 62bf 3168 cfbe 4ea7 9fbd
000002b0: 78ec 27bf f015 dabe 964e e8bc 6f6e 283d
000002c0: 3662 f23b 0b45 01be 39da 113e 1aed 1f3d
000002d0: fae7 8c3e a266 46be 8b4f cf3e 2d6d 08be
000002e0: 7e67 79be 48a1 e2be abd7 13be ef64 a5bc
000002f0: 9890 993d f748 783e edc4 8abe bf54 373f
00000300: 1aa3 3f3b e230 05bc ff45 503e 44da 1bbd
00000310: 1628 523e 0ec3 0bbe 93d1 cb3d dbab dcbd
00000320: 42c7 91be 1cd7 95bd ac9a 073e 16fc b53e
00000330: 8bb6 4a3d a35b 9e3c 51d9 0ebe 43dd 94bd
00000340: e8b4 6abc 5ae8 d6bc 7336 753d 7c59 033e
00000350: bd14 183c 4fb4 35be 7c3f edbd 137a 493e
00000360: 48a6 89bd 395c 1d3e e154 b13d 5e0f a1bc
00000370: cd0e c5bd a401 7f3e d4f5 89bd c10f 183d
00000380: d1c5 7f3e 7339 ccbe 05cf 39bf d789 af3d
00000390: ea19 363e 0238 63be eae2 a93c 910e 8c3e
000003a0: c99e b83e 30c3 1a3f 76b6 acbe 306c 21be
000003b0: 6e27 21be 0cb7 c93e 7148 463d 552c 25bd
000003c0: 4d44 e33d c747 5fbe 3330 75be 6e74 36be
000003d0: 0e16 ba3d fa61 eabe a9d3 013f 0323 03be
000003e0: 7727 bd3c 05d1 cfbe e316 ca3e 8b8c 14be
000003f0: 3d0a fc3e fdf0 4fbd 2aa4 523e 0cb6 b73e

rnn.bias_ih_l0 f4 [32]
-0.00959729 -0.070676595 -0.23910044 0.112614475 -0.04141993 -0.057866033 0.09714757 0.08146384
0.11471211 0.25374237 -0.21307151 0.038605656 -0.21879299 0.04252791 0.11190414 -0.02251808
-0.25833252 -0.007366744 -0.11525857 0.1695847 -0.27924973 -0.120065495 0.23251374 -0.10851912
-0.2855434 -0.1055203 0.040151328 -0.1649314 0.0048338627 -0.09267546 -0.014414049 -0.06287989
00000000: f43d 1dbc e4be 90bd bfd6 74be 6ba2 e63d
00000010: f2a7 29bd ef04 6dbd 4ef5 c63d 84d6 a63d
00000020: 2fee ea3d 85ea 813e 6b2f 5abe f720 1e3d
00000030: 450b 60be bf31 2e3d ff2d e53d d677 b8bc
00000040: 2944 84be ba64 f1bb af0c ecbd 9da7 2d3e
00000050: d2f9 8ebe e6e4 f5bd 1518 6e3e 463f debd
00000060: bf32 92be 071b d8bd b875 243d c7e3 28be
00000070: 6165 9e3b a2cc bdbd e728 6cbc 2cc7 80bd

rnn.bias_hh_l0 f4 [32]
0.18705457 0.010115219 -0.05155251 0.047076866 -0.1086014 -0.028146228 0.0007634753 0.10856507
0.122249976 0.052322075 -0.28345543 0.0955767 -0.13173938 0.033481102 0.1112907 -0.09695852
-0.26929003 -0.12605546 0.12123571 0.075090505 -0.23672071 -0.041450307 0.1391939 -0.28137967
-0.20332247 -0.08864316 -0.05306373 -0.13119386 0.058628444 -0.18711255 0.1448113 0.11547767
00000000: 3c8b 3f3e 4eba 253c ba28 53bd acd3 403d
00000010: 696a debd eb92 e6bc f623 483a 5d57 de3d
00000020: 325e fa3d ac4f 563d 1221 91be b8bd c33d
00000030: b0e6 06be 7b23 093d 61ec e33d 3092 c6bd
00000040: 62e0 89be af14 01be 6e4a f83d 0dc9 993d
00000050: ea66 72be ccc7 29bd d988 0e3e ff10 90be
00000060: c433 50be 8c8a b5bd 5b59 59bd af57 06be
00000070: 6124 703d 6f9a 3fbe 6a49 143e 8f7f ec3d

rnn.weight_ih_l0_reverse f4 [32, 128]
-0.058778998 -0.04850614 -0.28806287 0.0034702008 -0.13241641 -0.16545336 0.4393204 -0.24765065
-0.03180366 -0.0077071977 0.123961255 -0.00948884 -0.034144606 0.062983744 -0.13915537 -0.0819355
0.25324056 -0.15437704 -0.120637365 0.19936796 -0.12082846 0.1560433 -0.048850574 0.071221545
0.0048522083 0.044957276 0.054971434 0.1806744 -0.13027024 0.08489247 0.03944434 0.14205985
-0.12840435 0.06433063 -0.041040506 -0.095553465 0.19230196 0.24584903 0.11554518 0.030848857
0.27971247 0.21344127 -0.035515763 0.098661005 -0.49148417 0.04980378 0.32443506 0.06714856
0.0949964 0.2726702 -0.2067186 0.03772878 -0.10925371 -0.17010005 -0.009654414 -0.054005843
-0.08177148 0.16504228 -4.5719822e-05 -0.28150594 0.16754948 0.100141205 -0.079936005 -0.15595293
-0.118939035 0.087012246 -0.0466779 0.12031448 -0.067310706 0.03627754 -0.08122079 0.054656524
-0.025540272 -0.119681455 0.021320684 0.08542332 -0.21495931 -0.030959608 -0.27262464 0.25524423
-0.02349784 -0.07044436 -0.0986399 -0.04698058 0.21110727 0.12274835 0.038403325 -0.16632383
-0.018911777 0.03168615 -0.084774196 0.13547131 0.07396072 -0.17585029 0.2680678 -0.1162806
0.059643105 0.025234092 -0.18589565 -0.19829679 0.011779329 0.073254146 -0.21804538 -0.0075785443
-0.09519237 -0.011431586 0.15454777 0.02616204 0.20189777 0.0802187 -0.116739996 -0.21517499
0.1738796 -0.0020743646 -0.118585855 0.10304347 0.105949014 -0.16215356 0.14708824 -0.15373938
-0.043572836 -0.44106188 -0.04177255 0.035742342 -0.15631779 0.1591517 -0.19109885 0.07280514
0.0025634945 0.05270809 0.09682892 0.09124989 -0.04547937 0.007889858 -0.018197717 0.01574693
-0.10966342 -0.12464012 -0.10024013 0.10247441 -0.43893242 -0.11246818 -0.19715692 0.084644094
0.022630593 0.30665272 -0.021792794 -0.13814597 0.30163485 -0.24823003 -0.16219595 -0.021938829
-0.028613064 -0.19373293 0.20978507 -0.43396574 0.1853642 0.18816443 0.2777375 -0.11548652
0.31297138 0.064600736 0.058683954 0.082832746 0.16458273 0.13943508 0.32769558 0.14283343
0.035085186 0.023035442 -0.26612005 -0.0028577328 0.22109602 -0.055314977 0.28496972 0.072360024
0.24483329 -0.0047573717 0.27121764 0.05981972 -0.06646265 -0.018210707 -0.102571145 0.08924455
-0.053340647 0.16802846 -0.025918031 -0.09792584 -0.22368008 0.10342177 0.029665159 -0.18179972
-0.18567167 -0.017484257 0.026078768 -0.14757252 -0.0050079543 -0.04318308 -0.114180826 -0.054872468
0.037811916 -0.20699345 0.050559547 0.35183963 -0.012890097 -0.09372841 0.109808445 -0.07606618
0.043571062 0.067915685 0.14670515 -0.06340568 0.09875627 -0.11757094 0.017730195 0.17533676
0.21230632 0.13451004 -0.056820966 0.22780447 -0.02651695 0.059572447 0.25315937 -0.19660261
-0.17348395 0.16299333 0.04489199 0.13331138 0.015670376 0.017335555 -0.16612548 -0.22927411
0.20133843 -0.07315043 0.063454494 -0.18346979 -0.10690063 0.20034224 -0.018088225 0.30084148
-0.10043428 0.14754649 0.31829745 0.06749425 0.111603394 -0.30168653 0.06900725 0.051101573
-0.13657545 0.1667895 0.071476616 -0.23143946 -0.010932625 0.042418282 0.27291062 -0.25583243
00000000: 3fc2 70bd 60ae 46bd fa7c 93be 4f6c 633b
00000010: 2b98 07be 9b6c 29be 9aee e03e 2298 7dbe
00000020: 8e44 02bd a98c fcbb 66df fd3d 1477 1bbc
00000030: 37db 0bbd 9ffd 803d bf7e 0ebe cdcd a7bd
00000040: bfa8 813e 0415 1ebe b910 f7bd 1d27 4c3e
00000050: e974 f7bd d1c9 1f3e 8a17 48bd 9adc 913d
00000060: 46ff 9e3b 1f25 383d ba29 613d b602 393e
00000070: 9065 05be 1adc ad3d 6390 213d 2378 113e
00000080: 6e7c 03be c7bf 833d 171a 28bd 89b1 c3bd
00000090: ceea 443e d9bf 7b3e f4a2 ec3d beb6 fc3c
000000a0: 7936 8f3e 5990 5a3e fa78 11bd c80e ca3d
000000b0: d0a3 fbbe 0cff 4b3d 5a1c a63e 2f85 893d
000000c0: 798d c23d 6e9b 8b3e 0aae 53be 7e89 1a3d
000000d0: 69c0 dfbd b52e 2ebe 8c2d 1ebc 3b35 5dbd
000000e0: ce77 a7bd d800 293e 49c3 3fb8 8c21 90be
000000f0: 1792 2b3e d516 cd3d 7db5 a3bd 20b2 1fbe
00000100: 4f96 f3bd 7a33 b23d 5331 3fbd 7067 f63d
00000110: 32da 89bd c297 143d 1657 a6bd 85df 5f3d
00000120: d539 d1bc 8d1b f5bd b7a8 ae3c 6cf2 ae3d
00000130: 4b1e 5cbe 019f fdbc 7595 8bbe 5faf 823e
00000140: 8b7e c0bc 2245 90bd b703 cabd b56e 40bd
00000150: 812c 583e 7d63 fb3d ce4c 1d3d cb50 2abe
00000160: dfec 9abc 56c9 013d 189e adbd feb8 0a3e
00000170: b878 973d 1912 34be 2f40 893e 8624 eebd
00000180: 544c 743d bab7 ce3c 6e5b 3ebe 500e 4bbe
00000190: 16fe 403c 4506 963d 4a47 5fbe 7055 f8bb
000001a0: 38f4 c2bd 8c4b 3bbc c541 1e3e c651 d63c
000001b0: 4abe 4e3e b449 a43d 6115 efbd d556 5cbe
000001c0: 7e0d 323e 10f2 07bb 24dd f2bd 7408 d33d
000001d0: ccfb d83d 950b 26be 4d9e 163e db6d 1dbe
000001e0: 6e79 32bd ddd2 e1be b219 2bbd 9066 123d
000001f0: c511 20be aaf8 223e 6baf 43be dc1a 953d
00000200: 4d00 283b 70e4 573d 3e4e c63d 39e1 ba3d
00000210: 9348 3abd 7744 013c 6113 95bc b5ff 803c
00000220: 3797 e0bd 5243 ffbd b34a cdbd 1ade d13d
00000230: c0bb e0be b855 e6bd 81e3 49be e259 ad3d
00000240: cb63 b93c 9601 9d3e cd86 b2bc 2376 0dbe
00000250: e26f 9a3e 0330 7ebe b216 26be 0fb9 b3bc
00000260: f265 eabc ed61 46be e6d1 563e c230 debe
00000270: 1dd0 3d3e 2dae 403e 9c33 8e3e 3284 ecbd
00000280: c93d a03e 644d 843d 965e 703d 37a4 a93d
00000290: 6088 283e 12c8 0e3e b7c7 a73e ed42 123e
000002a0: 7cb5 0f3d d3b4 bc3c e340 88be cd48 3bbb
000002b0: ff66 623e f591 62bd 8de7 913e 7e31 943d
000002c0: 94b5 7a3e bae3 9bbb 0add 8a3e 8605 753d
000002d0: 921d 88bd 9f2e 95bc d210 d2bd d9c5 b63d
000002e0: b97b 5abd a70f 2c3e 0d52 d4bc 588d c8bd
000002f0: 640c 65be cbce d33d 5904 f33c b529 3abe
00000300: b720 3ebe 253b 8fbc 24a3 d53c 401d 17be
00000310: c419 a4bb bee0 30bd a3d7 e9bd f4c1 60bd
00000320: abe0 1a3d 17f6 53be 8717 4f3d 5324 b43e
00000330: fc30 53bc aef4 bfbd 40e3 e03d 96c8 9bbd
00000340: 9277 323d 6117 8b3d e039 163e d6da 81bd
00000350: ba40 ca3d 08c9 f0bd ea3e 913c 7b8b 333e
00000360: d466 593e 00bd 093e 1abd 68bd 9345 693e
00000370: 133a d9bc 3d02 743d 1b9e 813e 3252 49be
00000380: c7a5 31be b9e7 263e aae0 373d c782 083e
00000390: 295f 803c 4b03 8e3c cc1c 2abe d5c6 6abe
000003a0: a92b 4e3e e5cf 95bd 6ef4 813d 81df 3bbe
000003b0: b8ee dabd 8426 4d3e c22d 94bc e507 9a3e
000003c0: 7db0 cdbd 6d16 173e e2f7 a23e 6d3a 8a3d
000003d0: 5290 e43d a876 9abe ac53 8d3d e24f 513d
000003e0: 6fda 0bbe deca 2a3e 5562 923d 77fe 6cbe
000003f0: c11e 33bc cbbe 2d3d f1ba 8b3e 78fc 82be

rnn.weight_hh_l0_reverse f4 [32, 32]
0.28556222 -0.11641654 0.1485699 -0.5804526 0.0016039324 0.17782931 -0.035266448 -0.30598155
-0.18811658 -0.060481314 0.5248767 0.19649696 -0.28102624 -0.4160893 0.2012286 -0.18025772
0.49725762 0.26404756 0.40820104 -0.40782425 0.14545146 -0.051170804 0.30482644 0.10040706
0.15284489 0.019827502 -0.3656873 0.58719623 0.17213841 0.009162968 0.122909166 -0.03291329
0.11477134 0.037887387 -0.22341566 -0.090667345 0.018408893 -0.15688121 -0.22230642 -0.3383779
-0.08035273 0.11110258 -0.12147542 -0.15921006 -0.17766048 0.08101279 -0.08074534 -0.084941
-0.29999408 -0.0062205927 0.34563887 -0.29514694 0.43140665 0.32246932 0.31390196 0.048463862
0.18859354 0.09146108 -0.21930835 0.25764143 -0.114294276 -0.050951675 -0.005283547 -0.1594866
-0.33802536 0.0019264165 -0.16161345 -0.2645471 0.0154068405 0.09075212 0.09847298 0.31828982
-0.09109692 0.76256746 -0.21170093 -0.34803998 -0.1995156 -0.16324763 0.5977135 0.37220722
-0.17859708 0.18279602 0.2616001 0.16064796 0.045863654 -0.06831927 -0.42045647 0.5836209
-0.19465941 -0.38014838 0.009847007 0.22501862 -0.14365923 -7.037665e-05 0.09744421 0.24032755
-0.18449378 0.26650676 0.011611507 1.0718434 0.30787402 -0.54677534 -0.06802031 0.012166834
0.3532802 -0.0745307 -0.21407449 0.0636964 0.31192163 0.07265309 -0.3309417 0.03269114
-0.50444406 0.07828257 -1.1037482 0.20622401 0.064343974 -0.1062678 -0.4358532 -0.35128897
-0.17494991 -0.4512465 -0.107132666 -0.38864076 0.052208327 0.14990456 -0.08434867 0.13727693
-0.058002435 -0.07086832 0.36123282 -0.20598693 -0.0022304843 0.083199576 -0.29847923 -0.54742116
0.007508487 -0.0010604139 -0.24141154 0.18295735 0.048635375 -0.08546828 -0.01830982 0.0441324
0.13448758 -0.13269047 0.37252292 -0.23390526 0.2279563 0.26457012 0.44360027 0.06053364
0.07108893 0.3439189 -0.08784298 0.5154308 -0.054672826 -0.15319943 0.17675278 -0.22650692
-0.29732504 -0.14639963 0.42974615 -0.09677092 0.023748558 0.041111417 0.060250964 0.44848907
-0.27322003 0.24562444 -0.060296025 0.10630773 -0.2562066 0.08726403 0.179385 0.0011232558
0.30260712 0.25117484 -0.023460032 -0.0026954785 -0.230638 -0.45334303 -0.31640938 0.4030666
0.18780248 0.070049904 0.42849517 -0.08854945 -0.12659897 0.35584116 0.4061501 0.233634
0.27340603 0.06095203 -0.15716487 -0.00027373398 0.1637219 0.20051865 -0.112364545 0.1545602
-0.008356595 -0.2658727 0.2347205 -0.1789247 0.23285739 -0.3988262 -0.15607338 -0.3202823
-0.21858671 0.2661911 -0.28580245 0.041737664 -0.34362164 -0.13202004 -0.23380831 -0.085476674
-0.28706652 -0.024264041 0.16262645 -0.39947632 0.15050398 -0.028051388 -0.2389649 0.42809504
0.21268062 -0.11099402 0.16509372 0.1739578 0.046537492 -0.4173241 0.21361938 -0.31972682
0.00994521 0.19170481 -0.46941042 0.34139612 0.26597068 0.5622467 -0.2951237 0.20012783
-0.24919917 -0.13581611 -0.58534485 0.08068476 -0.15904997 -0.22199474 0.098800726 0.057916217
-0.10584143 -0.25522345 -0.020774176 -0.06758578 -0.11225888 -0.14434901 -0.11304184 -0.2205958
00000000: 3635 923e cc6b eebd b522 183e 8b98 14bf
00000010: 0a3b d23a e318 363e 8d73 10bd 9da9 9cbe
00000020: a2a1 40be 41bb 77bd 525e 063f 8036 493e
00000030: ace2 8fbe a809 d5be df0e 4e3e 7b95 38be
00000040: 8d98 fe3e 3e31 873e baff d03e 57ce d0be
00000050: 3af1 143e 7a98 51bd 3612 9c3e 37a2 cd3d
00000060: 5f83 1c3e 496d a23c 5e3b bbbe 7e52 163f
00000070: 0d45 303e 4620 163c cdb7 fb3d 16d0 06bd
00000080: 3c0d eb3d ce2f 1b3d 13c7 64be cdaf b9bd
00000090: 3fce 963c 78a5 20be 4ba4 63be de3f adbe
000000a0: f98f a4bd c089 e33d 1bc8 f8bd f607 23be
000000b0: a1ec 35be 09ea a53d d05d a5bd 8cf5 adbd
000000c0: d398 99be 1dd6 cbbb 94f7 b03e 801d 97be
000000d0: 55e1 dc3e b31a a53e c2b7 a03e 0b82 463d
000000e0: aa1e 413e f24f bb3d 5e92 60be 94e9 833e
000000f0: 1e13 eabd b4b2 50bd 9b21 adbb 7550 23be
00000100: a911 adbe d07f fc3a ff7d 25be b872 87be
00000110: f96c 7c3c 3fdc b93d 34ac c93d e2f6 a23e
00000120: 0691 babd 9f37 433f 21c8 58be 4c32 b2be
00000130: d14d 4cbe 632a 27be c003 193f f291 be3e
00000140: 27e2 36be e12e 3b3e 73f0 853e e680 243e
00000150: 87db 3b3d f9ea 8bbd 1246 d7be 2e68 153f
00000160: cc54 47be cfa2 c2be 5755 213c 486b 663e
00000170: 681b 13be 2d97 93b8 d490 c73d 6d18 763e
00000180: f0eb 3cbe 9373 883e 313e 3e3c 2a32 893f
00000190: aaa1 9d3e 78f9 0bbf 3b4e 8bbd 6757 473c
000001a0: 24e1 b43e 8da3 98bd 5836 5bbe 4273 823d
000001b0: 31b4 9f3e 25cb 943d 3171 a9be 25e7 053d
000001c0: 3f23 01bf 9d52 a03d 9f47 8dbf 632c 533e
000001d0: c6c6 833d efa2 d9bd 2728 dfbe 26dc b3be
000001e0: 1226 33be c809 e7be 5f68 dbbd ecfb c6be
000001f0: 66d8 553d 9580 193e ffbe acbd 5392 0c3e
00000200: f693 6dbd 6923 91bd 82f3 b83e 3dee 52be
00000210: 512d 12bb 8a64 aa3d 45d2 98be cb23 0cbf
00000220: c109 f63b 96fd 8aba 9634 77be 2c59 3b3e
00000230: e335 473d fe09 afbd 7afe 95bc 2dc4 343d
00000240: 1db7 093e 03e0 07be 53bb be3e dc84 6fbe
00000250: 606d 693e bc75 873e 931f e33e 1ff2 773d
00000260: 1397 913d 2316 b03e 05e7 b3bd 46f3 033f
00000270: 9df0 5fbd 50e0 1cbe aefe 343e 6ef1 67be
00000280: fd3a 98be c9e9 15be b007 dc3e d52f c6bd
00000290: 568c c23c 7264 283d b7c9 763d 5ca0 e53e
000002a0: 7fe3 8bbe f984 7b3e f7f8 76bd deb7 d93d
000002b0: 832d 83be 7cb7 b23d b4b0 373e 363a 933a
000002c0: 52ef 9a3e fd99 803e 412f c0bc a0a6 30bb
000002d0: 5e2c 6cbe 941c e8be 6900 a2be bf5e ce3e
000002e0: 4b4f 403e 5376 8f3d b863 db3e 6a59 b5bd
000002f0: 29a3 01be d030 b63e e8f2 cf3e c03d 6f3e
00000300: e0fb 8b3e d6a8 793d d4ef 20be f483 8fb9
00000310: b7a6 273e c354 4d3e 621f e6bd 0745 1e3e
00000320: 1aea 08bc 7720 88be 925a 703e 0938 37be
00000330: 2b72 6e3e f332 ccbe b3d1 1fbe 0bfc a3be
00000340: 32d5 5fbe 334a 883e b354 92be 1df5 2a3d
00000350: 2def afbe 4330 07be 726b 6fbe 650e afbd
00000360: 62fa 92be 62c5 c6bc 8c87 263e 2988 ccbe
00000370: b71d 1a3e 06cc e5bc 37b3 74be 462f db3e
00000380: f3c8 593e d550 e3bd 540e 293e fe21 323e
00000390: 199e 3e3d 81ab d5be 0abf 5a3e 3cb3 a3be
000003a0: 3cf1 223c 444e 443e 9056 f0be 79cb ae3e
000003b0: 4f2d 883e 66ef 0f3f 741a 97be 4fee 4c3e
000003c0: 112e 7fbe 6113 0bbe 29d9 15bf 0d3e a53d
000003d0: ffdd 22be 9752 63be 0958 ca3d 8e39 6d3d
000003e0: 64c3 d8bd a6ac 82be 9b2e aabc 6a6a 8abd
000003f0: fce7 e5bd 3ad0 13be 7b82 e7bd dee3 61be

rnn.bias_ih_l0_reverse f4 [32]
-0.16301332 0.025606493 0.21862073 0.17671643 -0.20896712 -0.028313376 -0.023680858 0.38411906
0.020409407 -0.07056723 -0.15088882 0.036362734 -0.11265614 0.19948591 0.2781838 -0.2531645
0.093177035 0.35342625 0.09635079 0.12754793 -0.19237097 -0.26600462 0.20503911 0.20847091
0.1512736 0.27969578 -0.023006666 -0.16473277 0.18013203 0.24193972 0.07181425 0.28053135
00000000: f7ec 26be b5c4 d13c 1dde 5f3e 27f5 343e
00000010: 7afb 55be 74f1 e7bc 5cfe c1bc 41ab c43e
00000020: a131 a73c 8d85 90bd 9982 1abe 17f1 143d
00000030: 43b8 e6bd 0946 4c3e 1b6e 8e3e c79e 81be
00000040: 9ad3 be3d 49f4 b43e 9053 c53d ed9b 023e
00000050: e5fc 44be c231 88be c6f5 513e 6679 553e
00000060: 77e7 1a3e 4934 8f3e 7a78 bcbc b5af 28be
00000070: 8874 383e 0cbf 773e 5913 933d cea1 8f3e

rnn.bias_hh_l0_reverse f4 [32]
0.02928409 -0.29685098 -0.015487097 0.22198042 -0.24506645 0.11558542 0.10480706 0.14822116
0.0011976903 0.09205225 -0.07057809 0.06292017 -0.104676716 0.28038976 0.17807522 -0.12567905
0.28032112 0.29253468 0.14063832 0.23872277 -0.15635496 -0.03303729 0.13399553 0.16945006
0.04029721 -0.05327363 0.059531793 -0.14709215 0.05321594 -0.018281573 0.1449697 -0.03717176
00000000: 30e5 ef3c dafc 97be 98bd 7dbc d64e 633e
00000010: b3f2 7abe 0cb8 ec3d 15a5 d63d 4ac7 173e
00000020: d1fb 9c3a e485 bc3d 3f8b 90bd 4adc 803d
00000030: bf60 d6bd 3f8f 8f3e 5a59 363e 02b2 00be
00000040: 4086 8f3e 1bc7 953e 7e03 103e be73 743e
00000050: 841b 20be 1c52 07bd 2036 093e 5184 2d3e
00000060: b00e 253d 7335 5abd 9cd7 733d 539f 16be
00000070: f5f8 593d 3dc3 95bc f072 143e 6a41 18bd

fc1.weight f4 [11, 64]
0.2054128 0.2103766 -0.3578207 0.4144502 -0.46394798 0.52798367 0.20685862 0.5459344
0.23022713 0.37190664 -0.35494253 0.5521954 -0.3035918 0.49362755 0.14496207 0.42366034
-0.44149405 -0.18022554 0.03291305 0.37765446 -0.7033172 0.45570263 0.26973343 -0.37344036
-0.3806438 -0.2024833 0.11951641 -0.18634526 -0.07215352 0.12143278 0.19763762 0.04990218
-0.15254006 -0.18072715 0.2231497 0.2529538 -0.28324783 -0.036028806 0.3883198 0.19438604
-0.29039893 -0.066365145 0.43412584 0.40828833 -0.3252575 0.26992965 0.25012955 -0.47385305
0.62070125 0.23912053 -0.26853448 0.12482482 -0.3501001 -0.37211052 0.42861825 0.30463076
0.509115 0.5292105 0.16815552 -0.20683199 0.19489859 0.36543918 0.35318714 0.2488167
0.0714254 0.36520287 -0.46546036 -0.79519296 -0.30051434 -2.0656312 0.16879708 -0.41694015
-0.81808126 0.4741769 0.33254904 0.74130446 0.19604112 0.39219964 0.50676113 -1.7116063
1.0218042 -0.53762174 -1.7891269 -1.5169011 0.96359104 0.31050035 0.72540027 -0.55716944
-0.16592537 -0.02137319 -0.31010693 0.9170593 -0.29645386 -1.0750971 0.07062832 -0.06691694
0.69424736 -0.89440495 -0.47527966 0.38229597 -0.034948144 0.9816782 0.19101691 -0.8270565
1.3187615 0.7837486 -1.2162038 -1.5591115 1.5991899 -2.6104493 -1.131818 -0.49013045
-0.20449227 0.39995855 0.8304467 0.5497939 1.2577254 0.5487424 -0.0767387 -0.96419495
-1.9918779 -1.2121912 0.16866983 -0.7261788 -1.0351288 -1.9163836 -0.4183019 -0.6933244
-0.96280736 0.4001769 -0.5844137 0.43950227 0.83861184 -0.110863335 -1.2565022 0.11552945
0.28876755 0.23623012 0.3229145 0.33307612 0.4448578 0.15490788 0.6146999 -0.7610568
0.12658624 0.35813513 0.1810426 -0.68163353 0.00063896616 -1.0146695 0.8379126 0.7298142
0.41148868 -0.36403042 -0.89480793 1.2270032 0.53400105 -1.0091418 -0.6127658 0.346329
0.34843048 -0.08782728 -0.94498265 -0.7539604 1.1113619 -1.0682658 -0.6234475 -1.3834952
0.20770721 -0.71824175 -0.591692 0.21175313 0.57611215 -0.058824822 -1.1270826 1.0152274
-1.1092578 -1.095504 0.4814896 0.30623388 -0.25877762 0.084816135 -0.90754807 -0.81519717
0.118504606 -0.581724 -0.20638293 -0.10664964 0.09277603 -0.7730857 -0.3349653 0.48973432
-0.4719144 -0.781623 0.47655955 0.6090182 0.9310601 -0.064107075 -0.35883164 0.3350222
-0.9170171 -0.21657453 1.5379844 -0.39279482 -0.24836811 -0.15293661 -0.09505845 -0.8539948
-0.12426122 -0.57568604 0.014586494 -0.16683657 0.9229895 -1.1602854 -0.51648957 -0.44818744
-0.6137249 0.085665375 -0.07387766 0.26492044 0.2226799 -0.546347 -0.33282217 -1.3722311
0.30203462 1.6949034 0.35501102 0.61214435 0.92140865 -0.72850597 -0.70408064 -0.5297158
1.0990907 -0.26037034 -0.6665419 -0.9019408 -0.6416036 -0.38816944 -0.9688571 0.5144015
-1.0520904 -0.4108568 -0.453888 0.54338574 -0.04226607 1.3885843 0.48433223 -0.52907485
-0.6962418 -0.4235231 -0.9478703 -0.26996282 -1.0470701 -0.8576014 0.5569292 -0.3103575
00000000: bc57 523e f76c 573e 4634 b7be d132 d43e
00000010: 978a edbe f029 073f bfd2 533e 5bc2 0b3f
00000020: a9c0 6b3e 8c6a be3e 07bb b5be ae5c 0d3f
00000030: 6270 9bbe c0bc fc3e f070 143e 02ea d83e
00000040: 820b e2be 0b8d 38be d6cf 063d ed5b c13e
00000050: 990c 34bf db51 e93e 801a 8a3e 9333 bfbe
00000060: bfe3 c2be c857 4fbe 05c5 f43d 4bd1 3ebe
00000070: 3ac5 93bd c0b1 f83d 8461 4a3e 3a66 4c3d
00000080: 7633 1cbe 8a10 39be 5b81 643e 2983 813e
00000090: dc05 91be f192 13bd dad1 c63e 220d 473e
000000a0: 2baf 94be 73ea 87bd be45 de3e 2b0b d13e
000000b0: 2788 a6be 3834 8a3e fb10 803e de9c f2be
000000c0: 47e6 1e3f 03dc 743e 5a7d 89be 28a4 ff3d
000000d0: 5240 b3be 4585 bebe da73 db3e 90f8 9b3e
000000e0: 5c55 023f 577a 073f f630 2c3e c4cb 53be
000000f0: 7f93 473e d81a bb3e f2d4 b43e cec9 7e3e
00000100: 7b47 923d dffb ba3e d250 eebe c491 4bbf
00000110: 04dd 99be 4d33 04c0 24d9 2c3e 2e79 d5be
00000120: c66d 51bf 51c7 f23e de43 aa3e 21c6 3d3f
00000130: 01bf 483e 64ce c83e 19bb 013f ea15 dbbf
00000140: 7bca 823f 94a1 09bf 1c02 e5bf d129 c2bf
00000150: e7ad 763f e7f9 9e3e d5b3 393f a8a2 0ebf
00000160: 57e8 29be d416 afbc 56c6 9ebe 66c4 6a3f
00000170: cdc8 97be c89c 89bf 95a5 903d c00b 89bd
00000180: 32ba 313f b9f7 64bf db57 f3be 4cbc c33e
00000190: c925 0fbd 434f 7b3f f099 433e fab9 53bf
000001a0: 2dcd a83f c0a3 483f 91ac 9bbf f790 c7bf
000001b0: 41b2 cc3f 9a11 27c0 6adf 90bf 61f2 fabe
000001c0: 6c66 51be 5ec7 cc3e 2898 543f 4bbf 0c3f
000001d0: 25fd a03f 627a 0c3f 2e29 9dbd 7bd5 76bf
000001e0: dbf5 febf 1529 9bbf c9b7 2c3e dbe6 39bf
000001f0: 1a7f 84bf 0f4c f5bf ab2b d6be b57d 31bf
00000200: 8b7a 76bf fde3 cc3e 239c 15bf 7106 e13e
00000210: 44af 563f 510c e3bd 10d5 a0bf b49a ec3d
00000220: 57d9 933e 4fe6 713e 0d55 a53e f488 aa3e
00000230: 67c4 e33e 2ca0 1e3e f95c 1d3f 9ed4 42bf
00000240: d39f 013e 7d5d b73e 3b63 393e 897f 2ebf
00000250: 4b80 273a b1e0 81bf 7181 563f 1ad5 3a3f
00000260: a5ae d23e 3262 babe 2212 65bf 710e 9d3f
00000270: 4bb4 083f 8f2b 81bf 38de 1cbf 0952 b13e
00000280: 7b65 b23e cade b3bd 62ea 71bf 8c03 41bf
00000290: 1b41 8e3f efbc 88bf 419a 1fbf 5f16 b1bf
000002a0: 33b1 543e b1de 37bf 2079 17bf d0d5 583e
000002b0: 167c 133f 4cf2 70bd 3e44 90bf f9f2 813f
000002c0: 29fc 8dbf 7a39 8cbf ce85 f63e b0ca 9c3e
000002d0: 807e 84be 15b4 ad3d 1255 68bf c3b0 50bf
000002e0: 8bb2 f23d ddeb 14bf 0c56 53be 206b dabd
000002f0: 5c01 be3d f2e8 45bf 9280 abbe 75be fa3e
00000300: c49e f1be 7218 48bf 9dff f33e 9ee8 1b3f
00000310: f459 6e3f 924a 83bd c8b8 b7be 0888 ab3e
00000320: a2c1 6abf b7c5 5dbe acdc c43f 671c c9be
00000330: 3654 7ebe 6a9b 1cbe 01ae c2bd 679f 5abf
00000340: ab7c febd 2960 13bf 31fc 6e3c 35d7 2abe
00000350: 0a49 6c3f 3b84 94bf a938 04bf d378 e5be
00000360: 131d 1dbf 5471 af3d 2c4d 97bd a7a3 873e
00000370: 3306 643e 66dd 0bbf ab67 aabe 45a5 afbf
00000380: 48a4 9a3e 98f2 d83f 01c4 b53e 7eb5 1c3f
00000390: 70e1 6b3f 5e7f 3abf a13e 34bf 749b 07bf
000003a0: 01af 8c3f 434f 85be 7da2 2abf 98e5 66bf
000003b0: 2240 24bf 25be c6be 0507 78bf d1af 033f
000003c0: e6aa 86bf d35b d2be 0264 e8be 541b 0b3f
000003d0: 301f 2dbd 21bd b13f 65fa f73e 7371 07bf
000003e0: e73c 32bf 05d8 d8be a1a7 72bf 9138 8abe
000003f0: 6506 86bf c48b 5bbf e992 0e3f 2ee7 9ebe

fc1.bias f4 [11]
0.14512113 0.06547646 -0.20436324 -0.39908975 -0.12382914 -0.39976373 -0.50749826 -0.5494156
-0.031823736 -0.55787086 -0.24125572
00000000: a29a 143e 8618 863d 9944 51be 7e55 ccbe
00000010: 229a fdbd d5ad ccbe 68eb 01bf 80a6 0cbf
00000020: 9b59 02bd a0d0 0ebf bd0b 77be
