src/main/python/saved_models/python3_1_28_RNNClassifier1_128embs_102id_32hd_1hl_Truebid_0.pt (torch, 97823 bytes, 11 tensors)

word_embeddings.weight f4 [102, 128]
-1.6389288 -0.47116762 -0.40634888 -1.4307891 -0.28173572 -0.3682744 -1.0279862 -1.5860792
-1.1071286 0.3699074 -0.509897 -0.4679647 -0.07299123 1.6842289 0.46504003 0.23435731
-0.5248117 -1.020855 0.766026 0.058345143 0.9205879 0.013606079 -0.35122412 1.0548438
1.3305106 -0.45084336 -2.096618 -1.4802411 0.25771216 -0.7498538 -1.0437925 -0.012057147
2.1670725 -0.028510835 0.27036226 -0.97571284 0.17752019 -0.06342314 -0.025143174 -0.6740745
0.10265879 0.2932891 0.03644462 0.04151994 2.5102158 -0.8244286 1.6077298 -0.3538253
-0.93766093 0.8181471 0.16418295 -0.1320593 0.4871676 0.699521 0.9984137 1.9970546
-0.157992 0.69151676 -0.2607669 -1.0211649 1.3499005 -1.0820487 -3.2774332 -0.9995808
0.1453318 -1.2895429 -0.74316955 -0.9182574 0.11437711 -0.2121184 1.9612876 0.13945724
-0.91631436 -0.090582825 -0.8815814 -0.7345514 -0.6947981 -0.4263463 0.31571352 -0.7895144
-0.21087317 0.37220967 -0.39290997 0.9051767 -1.2680018 -0.3123087 0.062376615 -0.43590778
0.09381426 -0.6822911 -1.1912303 0.54861885 -1.2869445 -0.6460978 0.44343615 1.7068422
0.5042741 1.4986738 0.97569674 -1.0321876 1.4880478 -0.58540535 -1.1577992 1.2771065
1.3969958 0.3710023 -0.010940391 0.11488301 -2.0176766 -0.66990256 -1.6772057 -1.0205513
1.0540715 -0.40821338 1.50208 0.57819325 0.5286693 0.03752367 0.60701185 -0.5437634
2.723266 -0.3894672 -0.011619483 1.5914229 -1.7984663 1.56568 -0.11009086 0.52293015
0.71236455 -1.7765073 0.35386458 1.1996132 -0.3029974 -1.7618417 0.6348446 -0.8043591
-1.6111118 -1.8716129 0.5430836 0.6606786 2.2952116 0.67490596 1.7133216 -1.7942734
-1.3632672 -0.9832196 1.5112667 0.64187074 0.4729638 -0.4285901 0.55137074 -1.5473709
0.5181121 0.10653535 0.26924077 1.324768 1.7460191 1.854969 -0.7063691 2.5570862
0.4175343 -0.2127186 -0.839958 -0.42001787 -0.6240363 -0.9772961 0.8748428 0.9872814
0.30957633 1.52069 1.2052339 -1.815591 -0.40346155 -0.9591452 -0.005207704 -0.07886314
0.8436543 1.1657013 0.5269322 1.6192533 -0.96397626 0.14152038 -0.16366096 -0.35822257
1.7222793 -0.3035756 0.2388742 1.3440012 0.10322569 1.1003542 -0.3416802 0.9473389
-0.56851596 0.8375962 1.7836607 -0.19542466 0.5149161 -1.8474776 -2.9167426 -0.5673299
-0.5412802 0.895174 -0.882507 0.53181124 -1.5457772 -0.17329982 0.72824633 0.05706102
0.9055172 1.0462948 -0.520597 1.3547838 0.23519313 1.9142433 1.8364111 1.3245324
-0.96900916 1.2516364 1.2103242 -0.5279206 0.21856615 -0.57430726 1.4571251 1.7709557
1.6499138 -0.43200457 -0.2710269 -1.4391626 1.2470404 1.2738512 0.39094925 0.3872105
-0.07982872 0.3417243 0.9488273 -1.3839359 1.7240863 -2.3647652 -0.9294909 0.2936253
0.21513203 0.9384637 1.4657077 -0.5564744 -0.7448408 -0.20215721 -0.2296679 0.0013313366
0.3752759 -0.5810679 -0.57230884 1.0097175 -0.10564939 -1.179696 -0.090779595 0.56311435
00000000: 6bc8 d1bf e23c f1be f60c d0be 1924 b7bf
00000010: aa3f 90be 768e bcbe 0d95 83bf a504 cbbf
00000020: 64b6 8dbf 8164 bd3e 9c88 02bf 1299 efbe
00000030: 6d7c 95bd d094 d73f ba19 ee3e 5dfb 6f3e
00000040: 0f5a 06bf 60ab 82bf 481a 443f 51fb 6e3d
00000050: a6ab 6b3f 08ec 5e3c a6d3 b3be 1f05 873f
00000060: 2c4e aa3f f1d4 e6be fd2e 06c0 8a78 bdbf
00000070: d9f2 833e 6bf6 3fbf fe9a 85bf 578b 45bc
00000080: 51b1 0a40 8e8f e9bc ec6c 8a3e 51c8 79bf
00000090: dac7 353e fee3 81bd 0ff9 cdbc 2590 2cbf
000000a0: c63e d23d fd29 963e f446 153d d010 2a3d
000000b0: 60a7 2040 c10d 53bf 17ca cd3f 9728 b5be
000000c0: 8c0a 70bf 1772 513f 931f 283e 8e3a 07be
000000d0: 086e f93e cf13 333f 0a98 7f3f 7c9f ff3f
000000e0: a8c8 21be 3e07 313f 3d83 85be 88b5 82bf
000000f0: 8ac9 ac3f 9280 8abf 77c1 51c0 87e4 7fbf
00000100: dcd1 143e be0f a5bf 5c40 3ebf eb12 6bbf
00000110: 8c3e ea3d 9135 59be 790b fb3f e1cd 0e3e
00000120: 9493 6abf 7d83 b9bd 52af 61bf 900b 3cbf
00000130: 4ade 31bf 104a dabe 34a5 a13e 9e1d 4abf
00000140: 23ef 57be 4492 be3e 7f2b c9be a9b9 673f
00000150: e24d a2bf ede6 9fbe 9f7e 7f3d 4e2f dfbe
00000160: b121 c03d a1aa 2ebf 3c7a 98bf 4972 0c3f
00000170: 99ba a4bf aa66 25bf 100a e33e ce79 da3f
00000180: 1b18 013f 8bd4 bf3f 43c7 793f b91e 84bf
00000190: 5a78 be3f 20dd 15bf c432 94bf 3a78 a33f
000001a0: c2d0 b23f 03f4 bd3e 533f 33bc c947 eb3d
000001b0: 9d21 01c0 bc7e 2bbf adae d6bf 6da1 82bf
000001c0: d1eb 863f 5801 d1be 2844 c03f 7904 143f
000001d0: df56 073f 6bb2 193d 2165 1b3f 1434 0bbf
000001e0: fd49 2e40 3f68 c7be a55f 3ebc bfb3 cb3f
000001f0: 2534 e6bf 3468 c83f 5177 e1bd c0de 053f
00000200: 865d 363f 9764 e3bf bd2d b53e ed8c 993f
00000210: 7a22 9bbe 0784 e1bf 2d85 223f 7aea 4dbf
00000220: e938 cebf 0391 efbf 8707 0b3f 3c22 293f
00000230: bfe4 1240 a3c6 2c3f 1f4e db3f c0aa e5bf
00000240: 8a7f aebf 48b4 7bbf 3071 c13f a451 243f
00000250: 5028 f23e 2970 dbbe a226 0d3f 4010 c6bf
00000260: ffa2 043f 352f da3d edd9 893e ff91 a93f
00000270: 8e7d df3f a06f ed3f 9bd4 34bf 4da7 2340
00000280: 0ec7 d53e e8d2 59be 7d07 57bf 950c d7be
00000290: d8c0 1fbf 1430 7abf b3f5 5f3f 79be 7c3f
000002a0: ca80 9e3e f8a5 c23f 1b45 9a3f 4965 e8bf
000002b0: 8392 cebe 8a8a 75bf 63a5 aabb ff82 a1bd
000002c0: baf9 573f b335 953f 07e5 063f b143 cf3f
000002d0: 26c7 76bf b8ea 103e bd96 27be f368 b7be
000002e0: a673 dc3f 436e 9bbe 709b 743e 3b08 ac3f
000002f0: fe67 d33d 68d8 8c3f b5f0 aebe cd84 723f
00000300: 438a 11bf b46c 563f fe4e e43f 671d 48be
00000310: 8bd1 033f 257a ecbf e9ab 3ac0 883c 11bf
00000320: 5791 0abf 202a 653f fbeb 61bf c824 083f
00000330: 07dc c5bf 8275 31be 5a6e 3a3f d1b8 693d
00000340: facf 673f fdec 853f d845 05bf 8e69 ad3f
00000350: 78d6 703e ed05 f53f 850f eb3f 478a a93f
00000360: fc10 78bf 9f35 a03f e7eb 9a3f ce25 07bf
00000370: cecf 5f3e cd05 13bf 1383 ba3f adae e23f
00000380: 6030 d33f b42f ddbe 0ac4 8abe 7b36 b8bf
00000390: 059f 9f3f 8e0d a33f 802a c83e 7440 c63e
000003a0: 3d7d a3bd 7df6 ae3e 59e6 723f d024 b1bf
000003b0: dcae dc3f 5058 17c0 1ef3 6dbf 0e56 963e
000003c0: 924b 5c3e 283f 703f 4f9c bb3f 1b75 0ebf
000003d0: e3ad 3ebf 4d02 4fbe 102e 6bbe 3e80 ae3a
000003e0: 2a24 c03e dec0 14bf d582 12bf 6c3e 813f
000003f0: b55e d8bd 4700 97bf a7ea b9bd 4328 103f

rnn.weight_ih_l0 f4 [32, 128]
0.0067939623 -0.08318368 -0.06848437 -0.2560673 0.079003036 -0.14684527 -0.10365764 0.038910523
0.06423639 -0.07312569 0.12113291 0.14220184 0.05585776 0.2032448 -0.047027286 0.14180638
-0.16843106 0.027574375 -0.0070611434 0.1216602 0.0727792 0.002802475 -0.11305842 -0.006535275
0.037109252 0.03673288 -0.024615185 -0.23690227 -0.22563154 -0.068808764 0.14722191 -0.16736081
-0.217724 0.097308256 -0.037682034 0.02708357 0.091163434 -0.046941314 0.05027751 0.19546722
-0.25412962 -0.014749721 -0.2436562 0.080921866 0.0082155885 0.076587714 -0.045586564 -0.033217944
0.19314581 -0.23990335 0.18015195 -0.1982265 0.19420068 -0.109372266 -0.1415926 0.15029444
0.25238127 0.010173068 -0.039286315 0.2310536 0.16530249 0.05369992 -0.065943316 0.11153127
0.13872427 0.008782409 -0.18065035 -0.007935683 -0.2739613 0.1609303 -0.2710747 0.013900835
-0.012957361 -0.035970803 -0.038588148 0.008547902 0.16982092 0.0066786157 0.07547601 0.028658094
-0.13868064 -0.03084586 -0.10410147 -0.028630352 0.13485557 -0.09153557 0.16177909 0.23605262
0.094439805 0.16669856 -0.04984245 0.20778587 0.121181004 0.07551932 -0.016112903 -0.001360683
0.020265909 -0.21756321 -0.05126868 -0.2073654 -0.07052742 -0.12091362 -0.08746925 -0.036004003
-0.029828684 0.29421782 0.053279273 -0.05396408 0.04657096 0.20871577 -0.050093558 -0.0724132
-0.19816169 0.10073316 -0.1383139 0.21330607 -0.17470081 0.10054539 -0.03136283 0.17033026
-0.12988721 0.14413725 -0.11680159 0.18778448 -0.050006963 0.0032677783 0.18108737 -0.08065915
0.008668052 0.047070473 -0.06661677 0.12036751 0.11591637 -0.061950225 0.13541295 -0.04445831
-0.046578005 0.026895037 0.058355264 0.2775622 0.06532079 -0.20826237 -0.1754729 -0.019044539
0.007985754 0.124371625 0.059834838 -0.020086212 -0.027108472 0.1621672 -0.044434067 0.010901502
-0.1564873 -0.14475389 -0.11913484 -0.045151208 -0.17263591 -0.10237576 0.33677283 -0.011315517
-0.09496399 -0.12943819 -0.24476448 -0.11284503 -0.008592491 0.17632261 0.010684766 0.093652196
-0.047754727 0.17196268 0.11950697 -0.1983978 -0.13460281 0.049248774 0.14386278 -0.01203558
0.018899467 -0.075648 0.053222127 -0.018826243 -0.079994574 -0.06700482 -0.02131564 -0.0944406
0.09243306 0.0047981637 0.15889442 0.20402518 0.050087456 0.0868393 0.0031232992 0.13802236
0.028861804 -0.06312109 0.17315543 0.07319644 0.04667414 -0.15446903 0.115651034 0.16155817
-0.06174215 -0.21963115 0.0055369074 0.09167328 -0.0019805452 0.21919996 0.019766958 0.16381125
0.069109574 0.08622841 -0.17750423 -0.08089874 0.053246964 -0.13286114 -0.048246242 -0.05630276
-0.1296975 0.22679277 0.15572439 0.20662405 0.2066362 0.22527753 0.13189077 -0.015696846
0.25008455 -0.09266362 0.11563533 0.050174464 -0.041948307 -0.08180165 0.1394729 -0.18307503
-0.10796262 0.13527413 -0.016346307 -0.11501982 -0.08574198 0.07147663 0.037576716 -0.11520543
0.109409146 0.036860064 -0.053876687 0.12942316 0.03980194 0.13263862 -0.17967606 0.112072825
0.028955624 -0.110884905 0.095244445 0.11958312 -0.19640218 0.21569532 -0.03003652 -0.17695037
00000000: e39f de3b 355c aabd 8941 8cbd 411b 83be
00000010: 58cc a13d 9b5e 16be 754a d4bd a460 1f3d
00000020: 5e8e 833d ecc2 95bd 8814 f83d 5c9d 113e
00000030: 1bcb 643d 681f 503e af9f 40bd b135 113e
00000040: 3179 2cbe a8e3 e13c 2a61 e7bb fc28 f93d
00000050: 430d 953d baa9 373b 2c8b e7bd dc25 d6bb
00000060: dfff 173d 3775 163d c9a5 c9bc 8296 72be
00000070: f40b 67be 9ceb 8cbd 57c1 163e a260 2bbe
00000080: 0af3 5ebe 8d49 c73d 7a58 1abd 5dde dd3c
00000090: e5b3 ba3d 8945 40bd caef 4d3d 8f28 483e
000000a0: 471d 82be d0a8 71bc 0381 79be 5dba a53d
000000b0: ad9a 063c 05da 9c3d fab8 3abd 8a0f 08bd
000000c0: 04c8 453e 39a9 75be c179 383e e3fb 4abe
000000d0: 8bdc 463e 91fe dfbd a7fd 10be c9e6 193e
000000e0: 1e38 813e f1ac 263c b0ea 20bd 5199 6c3e
000000f0: 0e45 293e 73f4 5b3d 4a0d 87bd 826a e43d
00000100: bc0d 0e3e 18e4 0f3c 68fc 38be ab04 02bc
00000110: a844 8cbe eaca 243e 4eca 8abe 54c0 633c
00000120: 1c4b 54bc 1f56 13bd 9b0e 1ebd 800c 0c3c
00000130: 89e5 2d3e 4ad8 da3b 2b93 9a3d 61c4 ea3c
00000140: 4c02 0ebe 75b0 fcbc 2733 d5bd 338a eabc
00000150: 9417 0a3e 0077 bbbd 6ba9 253e c7b7 713e
00000160: a869 c13d 07b3 2a3e 9927 4cbd d2c5 543e
00000170: bf2d f83d e0a9 9a3d 35ff 83bc f258 b2ba
00000180: b104 a63c e4c8 5ebe 1bff 51bd 9857 54be
00000190: ae70 90bd 8fa1 f7bd 1423 b3bd ef78 13bd
000001a0: 495b f4bc b8a3 963e 5e3b 5a3d 7009 5dbd
000001b0: 31c1 3e3d 96b9 553e e72e 4dbd 5f4d 94bd
000001c0: e6ea 4abe 304d ce3d 29a2 0dbe e86c 5a3e
000001d0: c5e4 32be beea cd3d 5076 00bd 0e6b 2e3e
000001e0: 2701 05be b798 133e ac35 efbd 934a 403e
000001f0: 1ad4 4cbd 3928 563b f86e 393e a030 a5bd
00000200: 7204 0e3c f8cc 403d 606e 88bd 3e83 f63d
00000210: 9065 ed3d 85bf 7dbd b1a9 0a3e eb19 36bd
00000220: 94c8 3ebd fb52 dc3c ee05 6f3d a21c 8e3e
00000230: e8c6 853d bb42 55be 2baf 33be 4b03 9cbc
00000240: aed6 023c 8db6 fe3d 6015 753d d78b a4bc
00000250: 9612 debc 290f 263e 7f00 36bd 379c 323c
00000260: 353e 20be 5d3a 14be f8fc f3bd 79f0 38bd
00000270: 78c7 30be 62aa d1bd 7d6d ac3e b864 39bc
00000280: 7b7c c2bd 728b 04be 8aa3 7abe 4c1b e7bd
00000290: 85c7 0cbc ea8d 343e 280f 2f3c b9cc bf3d
000002a0: 769a 43bd fc16 303e 12c0 f43d cb28 4bbe
000002b0: 52d5 09be 15b9 493d c450 133e e230 45bc
000002c0: 0ed3 9a3c 57ed 9abd 72ff 593d 7e39 9abc
000002d0: 32d4 a3bd d339 89bd 239e aebc 136a c1bd
000002e0: 8b4d bd3d ea39 9d3b 38b5 223e faeb 503e
000002f0: 8128 4d3d ced8 b13d 44b0 4c3b bc55 0d3e
00000300: 976f ec3c a145 81bd a84f 313e 04e8 953d
00000310: 622d 3f3d 212d 1ebe 73da ec3d 816f 253e
00000320: 56e5 7cbd fde6 60be f26e b53b 33bf bb3d
00000330: 09cc 01bb f475 603e 51ee a13c 23be 273e
00000340: 5289 8d3d 8598 b03d abc3 35be 3dae a5bd
00000350: 7d19 5a3d c00c 08be da9d 45bd b99d 66bd
00000360: 6ccf 04be 5d3c 683e 3776 1f3e 4195 533e
00000370: 7198 533e 27af 663e 600e 073e ac96 80bc
00000380: 150b 803e 6dc6 bdbd 37d2 ec3d bd83 4d3d
00000390: fdd1 2bbd a087 a7bd fcd1 0e3e 0578 3bbe
000003a0: 821b ddbd 4d85 0a3e b1e8 85bc 838f ebbd
000003b0: 7e99 afbd 5762 923d 0bea 193d d3f0 ebbd
000003c0: e711 e03d 94fa 163d cdad 5cbd 8187 043e
000003d0: 5c07 233d 6bd2 073e 00fd 37be 7086 e53d
000003e0: 5834 ed3c a017 e3bd 850f c33d ffe7 f43d
000003f0: a71d 49be 3cdf 5c3e 260f f6bc 7a32 35be

rnn.weight_hh_l0 f4 [32, 32]
-0.33192787 -0.06494505 0.335161 0.21210706 0.042224694 0.099529974 -0.25316808 0.27288818
-0.048255842 -0.22303405 -0.16288394 0.23441531 0.062130574 0.10168069 -0.17306827 0.2569277
0.024557605 0.23712312 -0.019248495 0.002854913 0.029108733 -0.0044369022 0.071384445 0.024681093
-0.052102093 0.014666606 0.29773486 -0.3407461 -0.34731516 0.3233956 -0.16525699 -0.07948339
0.020462016 0.049407043 0.008773845 -0.044418175 0.1823217 0.25171804 0.027168574 0.24602687
-0.19580631 -0.38266593 -0.3412785 0.055803142 -0.27287006 0.104099974 0.18726847 0.2739514
-0.16099946 0.11530635 0.08818032 -0.16673304 -0.15950921 -0.012246 0.18404661 0.01593351
0.08450492 0.04775047 -0.21454598 -0.11289021 -0.20506887 0.15834896 -0.32621017 -0.112865694
0.11480621 -0.029365735 -0.22581738 -0.13168132 -0.016446173 -0.12819457 0.16598615 -0.02042222
0.0674307 0.3228812 0.17515863 -0.42507458 0.011931551 0.061072323 -0.05877227 -0.23580465
0.0063745896 -0.41073084 -0.05784026 0.24709186 -0.154026 0.24834095 -0.18804911 0.15075727
-0.06989055 -0.16517906 -0.27101225 0.26167136 0.12867682 -0.2511599 0.29211983 0.22169335
-0.07173218 0.071642965 0.017992591 0.0805847 0.15162143 0.22399585 0.024098324 0.17161284
-0.20344704 -0.2787337 -0.1573846 -0.007902483 -0.24082005 0.051406004 0.0875439 0.41376832
-0.18534647 0.08934863 0.07547104 0.011727311 0.075179674 -0.27495244 0.34545898 -0.23399428
0.061680675 0.101909645 -0.19239639 -0.2400349 -0.2528673 -0.051465526 -0.21848206 0.03673398
0.027155235 0.12133924 -0.20547996 0.14371303 0.025303952 0.07757369 -0.19502401 0.0146847125
0.12616105 -0.14366168 -0.16001384 -0.0966876 -0.05629215 0.097166404 0.15502594 -0.1050344
0.0532576 0.090615526 -0.07066933 -0.006502135 0.015760206 0.114001885 0.06764283 0.11888255
0.08083167 -0.18011053 -0.21360739 -0.131023 -0.18984811 0.0576238 0.0037802104 0.082880534
0.21220052 0.26375943 -0.27002466 0.05951951 0.23775876 -0.00023119412 0.19097772 0.06556118
-0.14661346 -0.34885317 0.0067348154 0.078647524 -0.19965939 0.09182343 0.15073463 -0.0426122
-0.024933806 0.006530071 0.007559244 -0.061340086 0.053817216 -0.14785242 0.17271207 -0.12653956
-0.03270289 -0.12432 -0.33904934 0.44356182 -0.20172377 -0.39113486 -0.11273411 -0.15888767
0.5143027 0.2684248 -0.2652765 -0.22808746 -0.0010907198 -0.007060868 0.38457647 -0.061061647
0.22679295 0.34061027 0.1684912 -0.20783652 0.01560598 -0.21332689 0.31598008 -0.16558792
0.14840907 -0.23514213 0.12539464 0.15135787 0.08597124 -0.0052543785 -0.14816037 -0.027347269
-0.092453584 0.11205769 -0.26826382 0.24796131 0.17080097 -0.25897124 0.26485306 0.058185145
-0.17528452 0.1445979 0.1111838 0.14163801 0.24986346 0.0635362 0.0092641795 0.20554326
-0.43470153 -0.44112659 -0.19451882 -0.011661274 -0.2813093 0.2330722 0.068470195 0.25738618
-0.10454434 0.29393736 0.0152950315 -0.210184 -0.09083118 -0.17474087 -0.037294302 -0.16676866
0.22067592 -0.036944035 -0.28262553 -0.17359474 -0.3668331 -0.06630036 -0.054067142 -0.23269744
00000000: 73f2 a9be e901 85bd 399a ab3e 9832 593e
00000010: cdf3 2c3d 5fd6 cb3d 3f9f 81be 00b8 8b3e
00000020: eba7 45bd 0a63 64be 0ccb 26be 910a 703e
00000030: a17c 7e3d f73d d03d cf38 31be 078c 833e
00000040: 082d c93c 67d0 723e 05af 9dbc 7e19 3b3b
00000050: 7075 ee3c 6f63 91bb 0232 923d 0130 ca3c
00000060: 0169 55bd 344c 703c b470 983e 4676 aebe
00000070: 4bd3 b1be 1c94 a53e 2139 29be 30c8 a2bd
00000080: f59f a73c 0a5f 4a3d 2cc0 0f3c d5ef 35bd
00000090: 8ab2 3a3e 30e1 803e a190 de3c 78ee 7b3e
000000a0: 7381 48be caec c3be 0ebc aebe d691 643d
000000b0: a0b5 8bbe 5e32 d53d 4ec3 3f3e 5c43 8c3e
000000c0: 0bdd 24be bc25 ec3d e297 b43d 11bc 2abe
000000d0: 6256 23be 72a3 48bc b776 3c3e fe86 823c
000000e0: ea10 ad3d ff95 433d f1b1 5bbe fb32 e7bd
000000f0: 93fd 51be 3b26 223e 0505 a7be 2126 e7bd
00000100: 851f eb3d 6990 f0bc ac3c 67be 78d7 06be
00000110: 20ba 86bc 7045 03be 46f8 293e 804c a7bc
00000120: 1b19 8a3d af50 a53e c95c 333e 60a3 d9be
00000130: 8d7c 433c f926 7a3d 31bb 70bd c676 71be
00000140: efe1 d03b 504b d2be e9e9 6cbd a605 7d3e
00000150: feb8 1dbe 174d 7e3e f28f 40be 1d60 1a3e
00000160: c722 8fbd b324 29be 1ec2 8abe caf9 853e
00000170: dbc3 033e 0898 80be bb90 953e 9503 633e
00000180: 52e8 92bd 8cb9 923d 3365 933c 9709 a53d
00000190: a642 1b3e 2b5f 653e d969 c53c 47bb 2f3e
000001a0: 6c54 50be 2fb6 8ebe 6e29 21be 6b79 01bc
000001b0: 8899 76be 1a8f 523d 374a b33d 71d9 d33e
000001c0: 77cb 3dbe 6afc b63d 9090 9a3d e823 403c
000001d0: cdf7 993d 91c6 8cbe 00e0 b03e 329c 6fbe
000001e0: e0a4 7c3d 01b6 d03d 8f03 45be b5cb 75be
000001f0: d377 81be 84cd 52bd c3b9 5fbe 5f76 163d
00000200: a874 de3c b580 f83d 5769 52be 8229 133e
00000210: 3c4a cf3c f4de 9e3d 60b4 47be 2698 703c
00000220: 5d30 013e 0c1c 13be abda 23be 2604 c6bd
00000230: 9992 66bd 2eff c63d 1fbf 1e3e 471c d7bd
00000240: a424 5a3d a294 b93d 15bb 90bd dd0f d5bb
00000250: 8c1b 813c d279 e93d 5388 8a3d b278 f33d
00000260: 138b a53d e56e 38be e5bb 5abe e52a 06be
00000270: 8b67 42be ef06 6c3d 68bd 773b 45bd a93d
00000280: 184b 593e 7a0b 873e ac40 8abe bbca 733d
00000290: 0877 733e b36c 72b9 aa8f 433e f144 863d
000002a0: d721 16be e29c b2be baaf dc3b f411 a13d
000002b0: 8373 4cbe ec0d bc3d 2e5a 1a3e 218a 2ebd
000002c0: fb41 ccbc 35fa d53b 89b3 f73b be3f 7bbd
000002d0: 716f 5c3d a066 17be 6fdb 303e 9693 01be
000002e0: 77f3 05bd 7c9b febd e097 adbe 891a e33e
000002f0: ad90 4ebe d442 c8be 24e1 e6bd 73b3 22be
00000300: 57a9 033f fa6e 893e 52d2 87be c28f 69be
00000310: 7cf6 8eba db5e e7bb 35e7 c43e c71b 7abd
00000320: 693c 683e 7864 ae3e f588 2c3e 19d3 54be
00000330: 39b0 7f3c 5d72 5abe 24c8 a13e e18f 29be
00000340: 8cf8 173e 19c9 70be 7467 003e 8ffd 1a3e
00000350: b111 b03d ec2c acbb 5ab7 17be 6107 e0bc
00000360: 4e58 bdbd 817e e53d e059 89be 92e9 7d3e
00000370: 73e6 2e3e e197 84be d29a 873e 8c53 6e3d
00000380: c97d 33be 7911 143e 55b4 e33d 8e09 113e
00000390: 35dc 7f3e 441f 823d c9c8 173c ef79 523e
000003a0: 3391 debe 58db e1be f12f 47be ee0e 3fbc
000003b0: c607 90be 7baa 6e3e 1a3a 8c3d 1fc8 833e
000003c0: 581b d6bd f57e 963e 0398 7a3c 793a 57be
000003d0: b305 babd 45ef 32be e9c1 18bd 67c5 2abe
000003e0: def8 613e a152 17bd 4bb4 90be d2c2 31be
000003f0: 8cd1 bbbe 7cc8 87bd 8275 5dbd 3d48 6ebe

rnn.bias_ih_l0 f4 [32]
0.13188946 -0.06388191 0.16561489 -0.10492773 -0.05533296 -0.12724325 -0.03954629 -0.026491312
-0.050278492 -0.048230715 0.00892088 -0.016081026 0.09074377 -0.15170604 -0.21982938 -0.13988082
0.1184473 -0.09819611 -0.025417661 0.1728392 0.17805228 0.14611624 -0.0026310417 0.04787385
0.04825916 0.04896934 -0.19588149 0.09249804 -0.2791887 -0.15538391 -0.106555164 0.08465206
00000000: 080e 073e 85d4 82bd f396 293e 5ae4 d6bd
00000010: d0a4 62bd 0e4c 02be 4afb 21bd 4f04 d9bc
00000020: d2f0 4dbd 928d 45bd e228 123c 5bbc 83bc
00000030: dfd7 b93d d458 1bbe f41a 61be eb3c 0fbe
00000040: 7f94 f23d 0b1b c9bd b338 d0bc c2fc 303e
00000050: 5653 363e 7f9f 153e 8e6d 2cbb 5f17 443d
00000060: 66ab 453d 1394 483d 2895 48be 9d6f bd3d
00000070: d2f1 8ebe f61c 1fbe 9839 dabd 0f5e ad3d

rnn.bias_hh_l0 f4 [32]
-0.12824999 -0.090376474 0.29183936 -0.05425204 -0.07541128 -0.12983671 -0.07660609 0.041265164
-0.19348454 -0.08805237 0.07029458 0.05456647 0.12233782 -0.14244062 0.05564308 -0.16307679
0.0829933 -0.106050044 -0.020652737 0.04934325 0.056468643 0.0290206 0.03580647 -0.21216166
-0.088219605 0.0063734716 -0.040414188 0.17391734 -0.12143953 -0.1052222 -0.0655629 -0.12505578
00000000: f753 03be 4d17 b9bd f86b 953e 6337 5ebd
00000010: 3b71 9abd eaf3 04be a7e3 9cbd a905 293d
00000020: d020 46be cd54 b4bd 9bf6 8f3d 1781 5f3d
00000030: 408c fa3d f4db 11be 00ea 633d 9afd 26be
00000040: 64f8 a93d c430 d9bd ee2f a9bc 261c 4a3d
00000050: aa4b 673d 9cbc ed3c cea9 123d e840 59be
00000060: 7bac b4bd 8ed8 d03b 5989 25bd 6317 323e
00000070: 4ab5 f8bd bd7e d7bd d745 86bd 9f0e 00be

rnn.weight_ih_l0_reverse f4 [32, 128]
0.14523838 0.009294792 -0.165031 -0.16498926 0.13937376 0.068817645 -0.08114717 0.13629603
-0.09287681 -0.0016295558 0.019923855 0.06706813 0.09237187 0.20823881 0.05055675 -0.010530675
0.11893531 -0.13899708 0.058603298 -0.016511055 0.0026455713 0.18495496 0.07546879 -0.10633536
-0.07643294 -0.014025355 0.047927864 -0.08608551 -0.02112336 0.03686817 0.15832014 -0.04879592
0.027407823 0.1771714 -0.08889486 -0.06109467 -0.19619086 0.21966633 0.075253464 -0.009062398
-0.18605182 -0.11751339 0.0038893684 0.037586182 -0.20479567 -0.11230163 -0.0076253214 -0.081327416
0.07707202 0.020460257 0.02735072 -0.17022525 -0.02450872 -0.01853959 -0.06489723 -0.04076745
0.18592127 0.14999656 -0.09745064 0.0002523662 0.19028105 0.08388929 0.21526298 0.20828955
0.13007699 0.051011454 0.23998754 -0.03323867 0.018997692 -0.031641223 -0.100025274 -0.066170916
-0.040497955 0.092024066 -0.12179018 0.15018202 0.035691846 -0.20054203 0.16433252 0.02479475
0.16776791 -0.038063373 -0.18129465 -0.17858672 -0.20285244 0.006166826 0.10257615 0.2147603
-0.07720267 0.1615881 0.055796314 0.017014572 0.008955796 0.2258625 0.008025411 0.25218517
0.018992003 -0.01666285 0.04771484 -0.048046693 -0.15664428 0.08628808 0.03892465 -0.1204581
-0.061450105 -0.12109535 -0.010007332 -0.054013092 -0.055312254 0.13139077 -0.0671326 -0.15133153
-0.100963324 -0.1319623 0.12683733 -0.028263438 -0.11393239 0.0096907765 0.045784276 0.14721328
-0.12838618 0.067863956 -0.12923007 -0.060151584 0.19675988 0.00030076798 0.2167002 0.0019365476
-0.049355384 -0.118262224 -0.21962793 0.12381261 -0.07847645 0.112121955 0.07742644 0.031058293
0.082616374 -0.09878898 -0.09212599 0.26533914 -0.13776359 -0.24491777 -0.078012496 -0.0008385787
-0.12804203 -0.106557235 -0.20259431 -0.09843 -0.11069203 -0.029172635 -0.09311244 -0.16149752
0.09355847 0.10570781 -0.08151919 -0.05960215 0.13379318 0.051254794 0.035685126 -0.12720363
-0.012893615 0.005176896 -0.1707831 0.14997597 0.15950257 0.18735375 0.080285676 0.12242053
0.14804672 -0.15261884 0.08152136 -0.14428191 0.025489928 -0.10263957 -0.04540543 -0.15985943
0.015201031 -0.13902353 -0.13582052 -0.189175 0.060073376 0.10651927 -0.17500298 0.14337899
0.16819042 0.18502803 0.040182855 -0.013921544 0.071283266 -0.09166256 -0.10380758 0.07773511
-0.052058794 0.07008761 0.04553202 -0.21213269 -0.11382709 0.090163514 -0.12955248 -0.22959067
-0.037891418 0.13176514 -0.14884138 0.06560534 -0.013951125 0.08443484 0.0880486 -0.13539016
-0.027316649 -0.2470726 -0.12982404 0.07348216 -0.14464127 0.026625192 0.055125516 0.013289479
0.09140751 0.052917622 0.21818794 -0.027438823 0.029406805 0.10906773 0.15059757 0.21808136
-0.040727735 -0.14973377 -0.13371292 0.09192244 -0.16288592 -0.017499385 -0.07054006 0.01781306
-0.1151003 0.24572009 -0.029974205 -0.06601418 -0.04248734 -0.027452834 0.080815576 0.041119818
0.007933511 -0.07697494 -0.16399653 0.11299989 0.1587095 0.2797656 -0.16515802 -0.10414582
-0.055959433 -0.023231411 0.035558637 0.036207464 0.07073586 0.07898888 0.033838976 -0.1304627
00000000: 5fb9 143e 2f49 183c e3fd 28be f2f2 28be
00000010: ffb7 0e3e 44f0 8c3d 7d30 a6bd 3091 0b3e
00000020: 3236 bebd d296 d5ba 5a37 a33c 045b 893d
00000030: 772d bd3d 8e3c 553e 9814 4f3d da88 2cbc
00000040: 5b94 f33d 4055 0ebe 030a 703d 3142 87bc
00000050: 5261 2d3b d564 3d3e 628f 9a3d 5ac6 d9bd
00000060: e088 9cbd 9aca 65bc 0250 443d 9a4d b0bd
00000070: e60a adbc 1403 173d ad1e 223e 3bde 47bd
00000080: 5f86 e03c 6b6c 353e 820e b6bd 683e 7abd
00000090: 42e6 48be 36f0 603e 7d1e 9a3d 747a 14bc
000000a0: 5e84 3ebe dcaa f0bd c6e4 7e3b f8f3 193d
000000b0: f5b5 51be 66fe e5bd d5dd f9bb fd8e a6bd
000000c0: efd7 9d3d 459c a73c 9e0e e03c 874f 2ebe
000000d0: 83c6 c8bc 57e0 97bc d7e8 84bd c5fb 26bd
000000e0: 2562 3e3e b398 193e 3394 c7bd 0550 8439
000000f0: 09d9 423e 26ce ab3d e66d 5c3e db49 553e
00000100: e732 053e 63f1 503d 4bbf 753e 4625 08bd
00000110: 0ca1 9b3c 3a9a 01bd 0dda ccbd 9e84 87bd
00000120: 2fe1 25bd 1d77 bc3d 216d f9bd 51c9 193e
00000130: 9d31 123d e45a 4dbe c946 283e 5c1e cb3c
00000140: 5acb 2b3e 57e8 1bbd 4ea5 39be 70df 36be
00000150: 8db8 4fbe 1613 ca3b 7213 d23d 20ea 5b3e
00000160: 6f1c 9ebd 5a77 253e ad8a 643d 2562 8b3c
00000170: 55bb 123c 8048 673e 037d 033c 6a1e 813e
00000180: 1e95 9b3c 8780 88bc a370 433d 9ccc 44bd
00000190: 5c67 20be ceb7 b03d 746f 1f3d bdb2 f6bd
000001a0: 1bb3 7bbd d700 f8bd cbf5 23bc d53c 5dbd
000001b0: 1a8f 62bd 4d8b 063e d17c 89bd a7f6 1abe
000001c0: dcc5 cebd 2021 07be a5e1 013e ba88 e7bc
000001d0: 6355 e9bd 10c6 1e3c 4b88 3b3d 14bf 163e
000001e0: ab77 03be 42fc 8a3d e354 04be 8261 76bd
000001f0: 6c7b 493e 65b0 9d39 a8e6 5d3e c1d3 fd3a
00000200: df28 4abd 7733 f2bd 25e6 60be 7791 fd3d
00000210: 43b8 a0bd 32a0 e53d c191 9e3d f66d fe3c
00000220: c632 a93d e051 cabd 8dac bcbd 88da 873e
00000230: e611 0dbe b9cb 7abe 04c5 9fbd 10d4 5bba
00000240: 731d 03be ae3a dabd e274 4fbe ab95 c9bd
00000250: 81b2 e2bd 73fb eebc bcb1 bebd 9b5f 25be
00000260: 959b bf3d 567d d83d 88f3 a6bd 6221 74bd
00000270: 1401 093e 8cf0 513d 912a 123d ab41 02be
00000280: be3f 53bc f4a2 a93b c4e1 2ebe 4d93 193e
00000290: a454 233e a9d9 3f3e d16c a43d 9db7 fa3d
000002a0: 8f99 173e 1d48 1cbe acf4 a63d a3be 13be
000002b0: 41d0 d03c b234 d2bd 0bfb 39bd 31b2 23be
000002c0: bf0d 793c 2f5c 0ebe 8914 0bbe 17b7 41be
000002d0: 800f 763d c626 da3d fb33 33be f1d1 123e
000002e0: 1c3a 2c3e fd77 3d3e c796 243d 3017 64bc
000002f0: f6fc 913d 95b9 bbbd 1299 d4bd 9633 9f3d
00000300: 9a3b 55bd 188a 8f3d c97f 3a3d 5039 59be
00000310: 2d1e e9bd a6a7 b83d 68a9 04be d119 6bbe
00000320: 0834 1bbd 71ed 063e e069 18be 185c 863d
00000330: 4293 64bc 2cec ac3d d352 b43d b8a3 0abe
00000340: 2ac7 dfbc 9a00 7dbe 98f0 04be d17d 963d
00000350: d71c 14be 131d da3c 4bcb 613d 1dbc 593c
00000360: dc33 bb3d 26c0 583d a96c 5f3e 62c7 e0bc
00000370: 8ae6 f03c e75e df3d 4036 1a3e b850 5f3e
00000380: 20d2 26bd cf53 19be 0aec 08be d541 bc3d
00000390: 91cb 26be df5a 8fbc 4f77 90bd b2ec 913c
000003a0: b5b9 ebbd 0c9e 7b3e 778c f5bc 7132 87bd
000003b0: 3407 2ebd c4e4 e0bc a382 a53d 416d 283d
000003c0: 8ffb 013c 0aa5 9dbd b5ee 27be 7d6c e73d
000003d0: be84 223e 703d 8f3e 2f1f 29be 674a d5bd
000003e0: b835 65bd cd4f bebc efa5 113d 474e 143d
000003f0: f6dd 903d ecc4 a13d bd9a 0a3d 0498 05be

rnn.weight_hh_l0_reverse f4 [32, 32]
0.11406506 0.05329104 0.060514085 0.17236535 0.010202516 -0.07619203 0.056418307 -0.045696612
0.12879463 0.094782226 -0.06543589 -0.13170934 -0.17199615 -0.17424276 -0.047862094 0.13440129
0.049612857 0.14667416 0.25489673 -0.13030723 -0.052164666 -0.073092096 0.06861897 0.080966614
0.017096216 0.18654048 -0.021671476 0.022719996 -0.1656977 -0.0688284 -0.06918983 0.11018998
-0.030422714 -0.08926704 -0.075810045 0.11657038 -0.076851875 0.15566017 -0.06511677 0.09933736
-0.05533641 -0.07300542 0.12095278 0.16436073 0.0132572055 -0.059849337 0.027855469 -0.080198675
0.04742718 -0.13382332 0.02468917 -0.09737155 -0.14696239 -0.023670148 -0.08659029 0.019146988
0.013970934 0.20462187 0.18774909 0.07186167 -0.050837573 0.06785271 -0.049404595 -0.11523315
-0.22210743 0.2957394 0.101627186 0.042560354 0.07585335 0.09206449 -0.15179001 -0.13349178
-0.07486322 -0.116870105 -0.007458536 0.20417412 0.12005314 0.010999405 -0.22047484 0.21277463
0.11307877 -0.045021273 -0.08131678 0.0010241295 -0.08373592 -0.19428028 0.0060052085 -0.07509632
-0.19966309 -0.18416488 0.16488072 -0.0036292318 -0.082116865 0.038263846 -0.19267786 -0.049505774
0.17947802 0.05177444 0.13893573 0.18392748 -0.19015405 0.26770455 0.10416098 0.12242756
0.0068650576 -0.036317885 0.13125193 -0.038483765 0.08484768 -0.09192317 -0.063698865 0.07106628
-0.10325676 0.1661349 0.045533095 -0.19412401 -0.07335684 -0.03925705 0.28767905 0.1611199
0.072188124 0.2975746 -0.1895114 -0.21988288 -0.14594708 0.1404191 0.13285492 0.15892804
0.11626315 0.23804581 -0.16988945 0.05306564 0.08089725 -0.05834767 0.1370475 -0.20026344
-0.026037848 0.062607236 0.08189451 0.118408255 0.082916535 -0.020871859 0.07782426 0.09997383
-0.05778544 -0.062016536 -0.027942678 -0.10286069 0.1348598 -0.20016061 0.13773268 0.02408062
-0.042001214 0.1440031 -0.06557431 0.08023174 0.011933306 0.04009551 0.19756481 -0.09569489
-0.012409512 0.075450025 0.08918834 0.16279025 -0.18251577 -0.13603055 0.037173122 -0.010560738
0.1979172 -0.102429256 -0.05120598 0.0619959 0.10637327 -0.07494252 0.014155405 -0.011330337
0.04255342 -0.052897763 -0.10166526 0.11745505 -0.033217914 -0.17583543 0.005332225 0.15324134
-0.06699086 0.10740395 0.11133641 -0.0916408 -0.10121341 0.0031976858 -0.04507484 -0.03179966
-0.05717716 0.17161383 0.08447134 0.0018555187 -0.15026224 0.035291955 0.15623567 0.090017796
0.28888255 0.027569508 -0.08627859 0.074375495 -0.08408783 -0.05295212 -0.15604734 0.30272928
-0.095266 -0.03454408 0.2606612 0.0056825345 0.07549968 -0.21082228 -0.031590056 0.15980053
0.01982497 0.13153146 -0.22319782 -0.14731278 -0.282792 0.16380648 0.07200394 0.11931984
0.24099532 -0.14932725 0.18103766 -0.04088133 -0.11752895 -0.13718191 0.12411226 -0.095037095
-0.029136248 0.06343144 0.1802724 -0.0994311 0.11163171 0.02453141 -0.14294206 -0.020474175
-0.08826621 0.076682985 0.061923366 0.16257758 -0.13564888 -0.031706627 0.046055336 -0.24837144
-0.11184992 0.094142 -0.096276924 -0.05825045 -0.070053704 -0.107902244 0.20678589 -0.13431256
00000000: f19a e93d b547 5a3d 9edd 773d 8b80 303e
00000010: 7428 273c 910a 9cbd e216 673d 5f2c 3bbd
00000020: bde2 033e 2f1d c23d 4003 86bd d0de 06be
00000030: c21f 30be b26c 32be 0b0b 44bd 7ea0 093e
00000040: da36 4b3d c031 163e d381 823e 426f 05be
00000050: 9eaa 55bd 4fb1 95bd 1a88 8c3d d3d1 a53d
00000060: 5d0d 8c3c 7804 3f3e 6188 b1bc 491f ba3c
00000070: a8ac 29be e7f5 8cbd 66b3 8dbd 49ab e13d
00000080: 0e39 f9bc a3d1 b6bd 4c42 9bbd 74bc ee3d
00000090: 8464 9dbd 6165 1f3e f15b 85bd 6371 cb3d
000000a0: 6ea8 62bd de83 95bd 17b6 f73d 2e4e 283e
000000b0: c034 593c 9424 75bd 2731 e43c 343f a4bd
000000c0: 0143 423d fb08 09be f140 ca3c bc6a c7bd
000000d0: 4f7d 16be e6e7 c1bc 4056 b1bd 25da 9c3c
000000e0: 58e6 643c 6588 513e 4c41 403e 362c 933d
000000f0: 0f3b 50bd 5df6 8a3d 795c 4abd 5cff ebbd
00000100: 2170 63be 286b 973e ea21 d03d c453 2e3d
00000110: 0059 9b3d 4f8c bc3d d76e 1bbe 12b2 08be
00000120: e351 99bd 9859 efbd bc66 f4bb 0513 513e
00000130: 6cde f53d d936 343c 28c4 61be 98e1 593e
00000140: d895 e73d 3a68 38bd 6989 a6bd 153c 863a
00000150: bd7d abbd 69f1 46be 57c7 c43b 19cc 99bd
00000160: 7b74 4cbe b895 3cbe 7ed6 283e 68d8 6dbb
00000170: e32c a8bd 8dba 1c3d 584d 45be 91c6 4abd
00000180: 16c9 373e 6f11 543d 2b45 0e3e 7c57 3c3e
00000190: beb7 42be 9210 893e 5a52 d53d 4dbb fa3d
000001a0: 47f4 e03b 10c2 14bd e866 063e 27a1 1dbd
000001b0: 9fc4 ad3d 3742 bcbd 8d74 82bd 338b 913d
000001c0: 4878 d3bd 441f 2a3e e980 3a3d 72c8 46be
000001d0: 1c3c 96bd 00cc 20bd ab4a 933e 9dfc 243e
000001e0: 5ed7 933d b35b 983e 470f 42be fa28 61be
000001f0: 2773 15be 06ca 0f3e 1f0b 083e 08be 223e
00000200: 601b ee3d 48c2 733e 80f7 2dbe 5b5b 593d
00000210: 75ad a53d f7fd 6ebd 2e56 0c3e dc11 4dbe
00000220: 534d d5bc 3938 803d 4fb8 a73d 0780 f23d
00000230: 25d0 a93d 76fb aabc 5362 9f3d 14bf cc3d
00000240: 6db0 6cbd 0d05 7ebd 0be8 e4bc a0a8 d2bd
00000250: b018 0a3e e7f6 4cbe cc09 0d3e b844 c53c
00000260: 7709 2cbd 8c75 133e d34b 86bd 8a50 a43d
00000270: ea83 433c 313b 243d 6e4e 4a3e affb c3bd
00000280: 4451 4bbc 8b85 9a3d 60a8 b63d 7db2 263e
00000290: 6ae5 3abe 984b 0bbe d842 183d f206 2dbc
000002a0: ceaa 4a3e 6ec6 d1bd 5dbd 51bd 6aef 7d3d
000002b0: 3bda d93d 777b 99bd 12ec 673c e1a2 39bc
000002c0: 7f4c 2e3d 53ab 58bd e035 d0bd 468c f03d
000002d0: 820f 08bd 340e 34be f2b9 ae3b 4ceb 1c3e
000002e0: 8132 89bd 9af6 db3d 5804 e43d 2cae bbbd
000002f0: fa48 cfbd 4490 513b 65a0 38bd 5c40 02bd
00000300: 9932 6abd 89bb 2f3e 4fff ac3d e034 f33a
00000310: 58de 19be 4c8e 103d 3efc 1f3e 405b b83d
00000320: 6ae8 933e 73d9 e13c d4b2 b0bd 2e52 983d
00000330: 3d36 acbd 52e4 58bd e0ca 1fbe 55ff 9a3e
00000340: d21a c3bd 187e 0dbd 6375 853e 8e34 ba3b
00000350: 949f 9a3d cce1 57be 9364 01bd c0a2 233e
00000360: fa67 a23c 2fb0 063e f88d 64be 29d9 16be
00000370: 1dca 90be e3bc 273e cd76 933d f65d f43d
00000380: 7ac7 763e 3ee9 18be f061 393e 2e73 27bd
00000390: 05b3 f0bd 6a79 0cbe 922e fe3d cfa2 c2bd
000003a0: 24af eebc 58e8 813d 5499 383e 88a2 cbbd
000003b0: 2a9f e43d 18f6 c83c 675f 12be 75b9 a7bc
000003c0: eac4 b4bd f80b 9d3d 5ba3 7d3d bd7a 263e
000003d0: 8ae7 0abe cfde 01bd 85a4 3c3d 1555 7ebe
000003e0: 9211 e5bd 85cd c03d d62c c5bd 0698 6ebd
000003f0: 5178 8fbd dafb dcbd aebf 533e 3b89 09be

rnn.bias_ih_l0_reverse f4 [32]
-0.02254703 -0.164608 0.13606697 -0.20182289 -0.004187537 -0.06852649 0.007186507 -0.08198312
-0.12423363 0.076217756 0.11747505 0.08404396 0.23979479 -0.12083652 -0.009642681 -0.15457498
-0.0977063 -0.22752674 -0.2527746 0.054145377 0.03524464 0.14953381 -0.2678073 0.17609574
0.10217637 -0.21111947 0.14248233 0.023473829 0.26143068 -0.11092094 -0.17324044 0.092791
00000000: 8db4 b8bc 008f 28be 2455 0b3e a9aa 4ebe
00000010: 9b37 89bb 9e57 8cbd ca7c eb3b c4e6 a7bd
00000020: 346e febd 0e18 9c3d c296 f03d 3d1f ac3d
00000030: c48c 753e 2379 f7bd 56fc 1dbc e748 1ebe
00000040: 3e1a c8bd c5fc 68be ac6b 81be 8bc7 5d3d
00000050: af5c 103d 641f 193e 0a1e 89be 7152 343e
00000060: d841 d13d b42f 58be e3e6 113e 304c c03c
00000070: 3eda 853e 852a e3bd f165 31be 3509 be3d

rnn.bias_hh_l0_reverse f4 [32]
-0.01899555 -0.22918905 0.07991944 -0.18356915 0.05293894 -0.10956611 -0.14755158 0.05816921
-0.21722813 0.023887007 0.15400162 0.098377086 0.12065632 0.08114422 0.039299082 -0.05676349
0.01924192 -0.14484893 -0.27157488 0.16940294 0.03060601 0.1511629 -0.11607132 -0.023083352
-0.014565788 0.08832467 0.021090861 -0.0032427947 0.107000254 0.038776185 0.1283111 -0.026636325
00000000: 8e9c 9bbc 89b0 6abe ceac a33d 8df9 3bbe
00000010: 80d6 583d 3264 e0bd c317 17be d642 6e3d
00000020: 0d71 5ebe afae c33c 9ab2 1d3e ed79 c93d
00000030: a91a f73d f12e a63d 13f8 203d d580 68bd
00000040: 3ba1 9d3c 4753 14be dd0b 8bbe f777 2d3e
00000050: 75b9 fa3c 72ca 1a3e cdb6 edbd 4c19 bdbc
00000060: 58a5 6ebc 91e3 b43d bec6 ac3c 1185 54bb
00000070: f322 db3d c7d3 1e3d fc63 033e 6c34 dabc

fc1.weight f4 [8, 64]
-0.28699338 -0.39102173 0.11742201 -0.29283303 -0.14158612 -0.5199779 0.25623664 -0.3044578
-0.205534 -0.12676227 -0.3307345 0.30166796 0.025625492 -0.27128443 -0.3447734 -0.36624554
0.16715533 -0.41398394 0.37433782 0.25559935 0.07019421 0.19503243 -0.6449323 0.55590355
0.49342304 -0.24240658 -0.41255963 0.2560156 -0.51221085 -0.5459104 0.31798124 0.37724698
-0.19588795 0.13097274 -0.4099526 0.013572324 -0.2594972 -0.08653197 -0.1152222 0.010995973
-0.1807923 0.08961684 -0.008456349 -0.21099731 0.10734776 0.13201667 0.045296703 0.13801636
0.21558449 -0.120412506 -0.090582356 -0.021651108 -0.3941987 0.095984876 0.0013372534 0.2587198
-0.36305946 -0.0944647 0.1518909 -0.11565622 0.2050306 -0.04914827 -0.25848 0.3146756
0.45242214 0.41703042 0.11934663 0.19319083 0.7208299 0.038957506 -0.56690806 0.5915746
0.54781127 -0.026381984 -0.3273202 -0.5498303 0.17299415 0.553179 -0.28162384 -0.054217346
-0.62851685 -0.109246224 -0.5008965 -0.5702007 0.24431038 -0.36349973 0.43794605 -0.7747184
0.24988611 0.6082147 0.22110118 0.19520153 -0.34570408 -0.10786894 -0.26539722 -0.4333406
-0.16493101 0.54239243 0.38696858 -0.29148433 -0.5278065 0.64201295 -0.395352 -0.6921028
-0.034808066 -0.49533802 -0.6142681 -0.39521256 0.20671283 -0.49153394 -0.36620614 -0.19125187
-0.37292966 0.4931699 -0.20586893 0.23821653 0.31958824 0.12754121 -0.2895191 -0.2915852
0.13352463 0.5573656 0.3675544 0.47805852 0.28424007 0.33549193 0.6043032 0.47413364
0.39642823 0.06246087 -0.69486445 -0.20621629 -0.2674329 0.46009102 -0.3945142 -0.2778455
-0.025660217 0.10211084 0.5432607 0.23862551 -0.4396082 0.42435887 0.5085716 0.49915412
0.086729705 0.20979589 -0.3094193 -0.08116723 -0.11114978 -0.4751448 -0.1621558 0.15905271
-0.13284573 0.41703227 0.38052908 -0.44064844 -0.17512088 0.50710386 0.20618168 0.11527589
0.43404588 0.03550732 -0.2923563 -0.034595594 0.40108046 0.6058644 -0.2360669 0.3185221
0.3198335 -0.3883699 0.23493493 0.17294575 -0.46369365 -0.46268824 0.2463166 0.7948235
-0.19527796 0.70079637 -0.15068437 -0.1647884 0.26811257 -0.47266677 0.17181353 -0.35287791
0.28683928 -0.17830288 0.13655521 -0.4517849 0.13835064 -0.15705799 0.4676759 -0.42046747
0.3661148 0.28829053 0.054858036 0.5030566 -0.2237404 0.2437328 -0.42272112 -0.22432415
0.016509388 0.24482796 -0.27251083 -0.2810486 0.12668195 -0.2901426 0.4978725 0.5471363
-0.25307685 -0.10925153 -0.27866122 -0.57221043 -0.44492644 -0.36038023 0.6728534 0.2068266
-0.43801603 -0.17194724 0.30227226 0.20688254 0.5707271 -0.07889472 0.00263476 -0.41651073
0.43424383 0.014306337 0.24958664 0.4871603 0.35032046 -0.22357465 0.584191 -0.5246526
-0.0075257886 0.07254802 0.09772363 0.083921604 -0.31861058 0.088896856 -0.44501233 0.012546283
0.1632674 0.03499175 0.5736241 -0.4470192 0.21317402 0.021311564 -0.094725646 -0.17881063
0.42784324 -0.11091859 -0.46098801 0.35864088 -0.4043387 0.07102219 -0.29592958 0.14236948
00000000: ccf0 92be 0034 c8be f37a f03d 36ee 95be
00000010: f4fb 10be 461d 05bf 7331 833e e5e1 9bbe
00000020: 8177 52be f8cd 01be 0856 a9be 3974 9a3e
00000030: 8dec d13c cbe5 8abe 2486 b0be 8984 bbbe
00000040: c42a 2b3e b4f5 d3be 35a9 bf3e ebdd 823e
00000050: fbc1 8f3d 95b6 473e 491a 25bf b24f 0e3f
00000060: f2a1 fc3e 6e39 78be 043b d3be 7a14 833e
00000070: 4020 03bf c9c0 0bbf 70ce a23e 8426 c13e
00000080: da96 48be b81d 063e 4fe5 d1be 745e 5e3c
00000090: d1dc 84be ac37 b1bd 9ef9 ebbd 7428 343c
000000a0: 9e21 39be 0989 b73d 808c 0abc ae0f 58be
000000b0: 24d9 db3d 612f 073e 0989 393d 2954 0d3e
000000c0: 2ec2 5c3e d59a f6bd 3e83 b9bd aa5d b1bc
000000d0: 69d4 c9be b893 c43d c746 af3a ec76 843e
000000e0: eee2 b9be b576 c1bd 4a89 1b3e 2bdd ecbd
000000f0: 8bf3 513e b24f 49bd 7e57 84be 291d a13e
00000100: e0a3 e73e 0385 d53e 026c f43d d1d3 453e
00000110: 4f88 383f e891 1f3d e320 11bf 6f71 173f
00000120: 5c3d 0c3f 081f d8bc 8396 a7be aec1 0cbf
00000130: 6125 313e 249d 0d3f 0031 90be 0213 5ebd
00000140: 7be6 20bf 7cbc dfbd c13a 00bf acf8 11bf
00000150: 802c 7a3e a31c babe 773a e03e f253 46bf
00000160: 25e2 7f3e f5b3 1b3f 5968 623e e9e2 473e
00000170: 2000 b1be 64ea dcbd 25e2 87be d2de ddbe
00000180: ade3 28be 3bda 0a3f bf20 c63e 6f3d 95be
00000190: 541e 07bf f65a 243f 946b cabe a62d 31bf
000001a0: e792 0ebd f29c fdbe ad40 1dbf 4d59 cabe
000001b0: 87ac 533e 56aa fbbe 5f7f bbbe 88d7 43be
000001c0: a3f0 bebe c480 fc3e 4ecf 52be 09ef 733e
000001d0: 12a1 a33e 2a9a 023e d93b 94be a84a 95be
000001e0: aeba 083e 83af 0e3f 1730 bc3e 16c4 f43e
000001f0: ea87 913e 99c5 ab3e 9db3 1a3f a5c1 f23e
00000200: a4f8 ca3e f8d6 7f3d a3e2 31bf 5d2a 53be
00000210: f7ec 88be 0d91 eb3e c4fd c9be c441 8ebe
00000220: 6035 d2bc 7d1f d13d 2213 0b3f 3f5a 743e
00000230: 5314 e1be 9145 d93e c031 023f 2191 ff3e
00000240: 589f b13d bcd4 563e 356c 9ebe 013b a6bd
00000250: 7fa2 e3bd 2e46 f3be 2c0c 26be b7de 223e
00000260: b608 08be 4185 d53e b5d4 c23e ac9c e1be
00000270: e352 33be 8fd1 013f 4a21 533e c415 ec3d
00000280: 433b de3e 2070 113d baaf 95be 1cb4 0dbd
00000290: 6b5a cd3e ee19 1b3f 85bb 71be 5415 a33e
000002a0: 37c1 a33e 6bd8 c6be c892 703e b118 313e
000002b0: 4169 edbe 79e5 ecbe 6b3a 7c3e 8e79 4b3f
000002c0: f2f6 47be 6467 333f 014d 1abe 4abe 28be
000002d0: 0d46 893e 6101 f2be e3ef 2f3e 6aac b4be
000002e0: 99dc 923e 0895 36be 21d5 0b3e 5a50 e7be
000002f0: caab 0d3e cfd3 20be 3773 ef3e 8347 d7be
00000300: 6673 bb3e d19a 933e d2b2 603d 51c8 003f
00000310: 341c 65be 1795 793e e76e d8be 3bb5 65be
00000320: b23e 873c 2eb4 7a3e 8a86 8bbe 9ae5 8fbe
00000330: eab8 013e 928d 94be 25e9 fe3e 2011 0c3f
00000340: 4a93 81be 44bf dfbd afac 8ebe 627c 12bf
00000350: 66cd e3be c283 b8be 1f40 2c3f 5aca 533e
00000360: a343 e0be f012 30be 6ec3 9a3e 04d9 533e
00000370: 2c1b 123f 8e93 a1bd f0ab 2c3b e540 d5be
00000380: 3555 de3e 2065 6a3c a493 7f3e 136d f93e
00000390: 345d b33e c1f0 64be 8b8d 153f a24f 06bf
000003a0: e49a f6bb 0e94 943d 5423 c83d 17df ab3d
000003b0: ed20 a3be 8e0f b63d a8d8 e3be ed8e 4d3c
000003c0: 922f 273e 8253 0f3d 07d9 123f b3df e4be
000003d0: 4a4a 5a3e 9795 ae3c 85ff c1bd 221a 37be
000003e0: 450e db3e 4929 e3bd 9f06 ecbe c79f b73e
000003f0: 7b05 cfbe 1574 913d 1584 97be 4ec9 113e

fc1.bias f4 [8]
-0.07884871 0.007400335 -0.2559549 -0.22275364 -0.008302428 -0.20707275 -0.12097668 -0.18848664
00000000: 6f7b a1bd 827e f23b 850c 83be 8819 64be
00000010: e806 08bc e10a 54be 9fc2 f7bd a402 41be
