src/main/python/saved_models/python3_1_28_RNNClassifier1_128embs_102id_32hd_1hl_Falsebid_1.pt (torch, 75743 bytes, 7 tensors)

word_embeddings.weight f4 [102, 128]
00000000: 9bac bbbf c249 47bf 04ff a63f 5c6c b23f
00000010: cbf0 853f 0c1a 3fbb 9281 b2bf d9f4 943f
00000020: 6fff 01bf f876 ad3e 9ca2 c83e b85f 783e
00000030: f6db 213e a6e5 1abf 614e 05bf 5a84 cfbf
00000040: 2106 69bf 889e 55bf 7ad7 bdbe f610 f6be
00000050: 2b94 853f f723 e1bf 54fa 9dbf 905f 6dbf
00000060: 9692 2dbe 62d2 7cbe 1cbf 3240 84a8 2dbf
00000070: 04bf 103f 09f6 113d 2f75 a1bf b31f eb3f
00000080: 9f10 7abf c61b 043f aa19 cbbd cc02 9d3f
00000090: 2c16 11bf 1077 0abf 2f35 86be 6387 f3bd
000000a0: c829 1dbf c9b5 a13f 579d bf3f c27b 93be
000000b0: c7bd fbbf 8e30 54bb 4fb2 7ebe 4f00 523f
000000c0: 354a 39bf dfc8 1dbf dea8 c03f 442c 6ebe
000000d0: 89d3 cc3f fdef 7a3f 47e0 0940 026d 37bf
000000e0: 4fa0 febe e679 f9bf 260a 92bf 5859 b63e
000000f0: c446 68bf 3f43 3bbe 5c78 45be 7988 61bf
00000100: 304c 0f40 2baa 353e c5e0 44c0 f9a0 603f
00000110: a371 a2bc 77fa d2bd dd82 813f af86 0d3f
00000120: 25d9 cdbf 2ef0 623f 4c93 b13f 2dc4 4d3f
00000130: 9353 aebf d5e0 efbd 0a95 c33f 9f70 263f
00000140: a018 393f da6c a0be dc23 943e a3e5 17bf
00000150: 141f 25c0 3b28 b7be 7032 09c0 a844 653f
00000160: 5ff3 21be 6c79 ee3e ba06 1b3d f1eb d13d
00000170: 59d0 d2bf b106 3bbf 0651 8f3f 76ca 33bf
00000180: 4d87 abbe 61e4 f13e 8af6 cc3f e47f 873d
00000190: f07b 9cbf 0b4e 55bf 7d1e f13d acc5 67c0
000001a0: 675d 7dbe 5f47 aebf 5d92 f23f dab1 1d40
000001b0: 03fb 773e 6d45 913f 5010 f4bf 1979 e53e
000001c0: ee68 a73e bc04 523f e8c0 3d3f 675f bc3f
000001d0: bd52 3dbf fd5a 02c0 45a3 6fbf 45f7 af3f
000001e0: 0103 e6bf 8f11 1f3f 9ab6 f6bf 2ef5 803f
000001f0: 209c d3be d2a2 39be c1d2 de3e 0351 7dbf
00000200: 875a a1bf bc3c 96be e681 c5bf 493f 8bbf
00000210: 0719 86bf 38e8 e6bd c777 593e 70bd 0a3c
00000220: 1d3e 96bf 2b30 39be 6e1b 7bbf 72c5 633f
00000230: 78f0 693d b90b 7bbf 7a65 14bf 8904 183f
00000240: aecb a0be 779d e03f 035b 7e3d 1fbc 55be
00000250: f4c0 9bbe 836d d83f c442 82be 16ac 22bd
00000260: 399f 48be e90d 993f 1664 8abe bca2 bfbe
00000270: cf83 813f 80dc 8dbf 2aee 25c0 7a0e 1a3f
00000280: d27f abbe 86ba a7bf 108e 0abf a510 de3e
00000290: 91ad 873d 1461 643e f6e2 02bf 5649 5d3f
000002a0: ed0d b6be 62ae aebe 5623 c2bf 55ce 523f
000002b0: 6e44 9e3f e311 91be dfc4 d33f 741f aa3f
000002c0: 9862 293f c55f f13e fb40 613e de8a 163f
000002d0: f937 0f3d adbc 363f cccd b63f e014 863e
000002e0: c572 f7bc 15ae 4cbe 6cc0 7fbf a631 d6bf
000002f0: c133 8fbe 5601 353f b210 66be 527f 083f
00000300: 4290 333f ff77 173f 94e9 efbe db07 efbf
00000310: 996d a1bf a8c4 e7be f24f 113f 0c7d 14bf
00000320: 1087 1dbf 60fc 08bf 8ca6 73bf 2fbf c0bc
00000330: 3cea 593f c364 37bf 91f5 00bf ef11 1fbf
00000340: d1e6 90bf d378 453e 18cc be3f e56f 67be
00000350: 6830 a73f 61ff 183f 9e63 04c0 c4ed 6d3f
00000360: eac4 46bd 3b84 d23f e9d6 563f a3c2 253f
00000370: 07e4 debe 6a99 f1be 8ef6 d3bf 7cf2 113e
00000380: 1ca7 ccbf 7325 94bf bd1c 96be a1a5 c7bf
00000390: ce58 e0bf 022d 2fbe 5a21 533f babc 5d3f
000003a0: 2a1d f3bd fc4a 2dbf 35cf 953c 5814 ce3f
000003b0: e7d4 14bf ecb2 cd3f 6884 233f 15b5 aebe
000003c0: b7ac c8be 6bb3 39bf c577 813e 3777 c33f
000003d0: 40f9 02c0 5c5b 103f 3c2b 053f a7f5 973f
000003e0: 4abe fe3f 29ec 0dbf 78af fe3f da34 b43f
000003f0: 9cb0 cabf 4ecf 5e3f 50a4 79be f474 9d3e
-1.466205 -0.7784692 1.3046575 1.3939319 1.0464109 -0.0029159812 -1.3945792 1.1637222
-0.50780386 0.33879828 0.3918656 0.24255264 0.15806565 -0.60506666 -0.5207272 -1.6212265
-0.91024977 -0.83445024 -0.37078458 -0.48059815 1.0435842 -1.7589101 -1.2342019 -0.9272394
-0.1695045 -0.2468963 2.7929144 -0.6783526 0.56541467 0.035635028 -1.2613887 1.8369049
-0.9768161 0.5160488 -0.099170044 1.2266479 -0.56674457 -0.54087925 -0.2621245 -0.11891057
-0.6139188 1.2633601 1.4969891 -0.28805357 -1.966729 -0.0032377574 -0.24872707 0.8203172
-0.72378856 -0.6163463 1.5051534 -0.23259073 1.6002055 0.98022443 2.1543138 -0.7165071
-0.4973168 -1.9490325 -1.1409347 0.3561504 -0.9073298 -0.18287371 -0.19284195 -0.88098866
2.239025 0.17740695 -3.0762188 0.87745625 -0.019829577 -0.10301679 1.0118061 0.55283636
-1.6081892 0.88647735 1.3873076 0.80377465 -1.3619255 -0.11712805 1.5279858 0.65015596
0.723032 -0.31333047 0.2893361 -0.5933477 -2.5800219 -0.3577288 -2.1437035 0.89557886
-0.15815495 0.46577013 0.03784821 0.102500804 -1.6469833 -0.73057085 1.1196601 -0.70230806
-0.33501664 0.47244552 1.6012738 0.0661619 -1.2225323 -0.8332221 0.11773393 -3.62144
-0.24742661 -1.3615531 1.8950917 2.4639802 0.24216847 1.1349312 -1.9067478 0.44818953
0.32697242 0.82038474 0.74122477 1.4716614 -0.73954374 -2.0368035 -0.93608505 1.3747336
-1.7969667 0.6213617 -1.9274476 1.0074823 -0.4133005 -0.18128517 0.43520167 -0.9895174
-1.2605752 -0.29343212 -1.5430267 -1.0878688 -1.0476388 -0.11274761 0.21237098 0.008468017
-1.1737705 -0.18084781 -0.9808873 0.8897315 0.057114094 -0.9806476 -0.5796734 0.5938192
-0.31405395 1.7548054 0.062098514 -0.20872544 -0.3042065 1.690842 -0.25441563 -0.039714895
-0.19591989 1.195737 -0.27029485 -0.37428844 1.011835 -1.1082916 -2.5926614 0.6017834
-0.33495957 -1.3103797 -0.5412302 0.43372074 0.06624902 0.22302657 -0.51127565 0.86440027
-0.355575 -0.3411742 -1.5167034 0.8234609 1.2364633 -0.2833396 1.6544455 1.3290849
0.6616607 0.4714338 0.21997444 0.58805645 0.03496549 0.71381646 1.4281554 0.261878
-0.030206094 -0.19988282 -0.9990299 -1.6733902 -0.27969173 0.70705163 -0.22467306 0.53319275
0.70141995 0.59167475 -0.46857893 -1.8674272 -1.2611572 -0.45267224 0.5676261 -0.58003306
-0.61534214 -0.53510094 -0.95176005 -0.023528663 0.8512304 -0.71638125 -0.50374705 -0.6213674
-1.132044 0.19284372 1.4906034 -0.22601278 1.3061647 0.5976468 -2.0685802 0.92940927
-0.048527636 1.6446604 0.83921677 0.6475012 -0.43533346 -0.47187358 -1.6559618 0.14252657
-1.5988498 -1.1573929 -0.293188 -1.5597421 -1.7527101 -0.17107013 0.82472765 0.866161
-0.11870797 -0.6769254 0.01828728 1.6099958 -0.58137363 1.6070228 0.6387391 -0.3412253
-0.3919427 -0.72539395 0.2528669 1.5270756 -2.046463 0.56389403 0.52019095 1.1871842
1.9901822 -0.55438477 1.9897299 1.4078629 -1.5835147 0.8703507 -0.24379086 0.3075329

rnn.weight_ih_l0 f4 [32, 128]
00000000: 5d91 6a3e 249b 0e3e 4a53 12be d6fd 1f3d
00000010: aaf0 7e3e 02d3 01bd ba6d 8a3e 810e 6ebe
00000020: dbb8 103e a3b7 b7bc a5a2 9bbd ff04 0fbe
00000030: aabd de3d a1c8 4ebe f183 c8bc ca43 bbbd
00000040: 73d7 c5bd 647e 06be ea65 a73d 2fc3 aabb
00000050: 025c c13d 158b fbbd bbb1 653c 16a5 19bc
00000060: 6945 1b3e b068 abbd 8078 17be cc6e 74bc
00000070: 3ae4 02be 2e85 19be 6f33 1e3c af11 613e
00000080: c751 893e 753f 0c3e 36f9 aabd 1f13 293d
00000090: e34a 1dbd e97a bbbd 24e3 30be 264a 503d
000000a0: 9cc6 203e 7134 013e 0b9e 6ebd 9126 bbbd
000000b0: ac0a 02be 4684 0ebe 5d06 0cbe 7867 cdbc
000000c0: 4b9a 4a3d 61a8 d4bd 0ee8 71be a8c1 23be
000000d0: ad83 953d 4cbd f93d 74d4 253e 0acf 96bd
000000e0: 0593 193e f566 85bd 53d1 10bd a032 71bd
000000f0: 076b afbd 50a6 9a3d 24d7 3b3c d5fd 3ebe
00000100: 00d5 aebd 1965 103d 0aee e83c 9b30 a5bd
00000110: ba38 f5bd e18f d53d e097 adbb a55e 473e
00000120: e9ca bbbd baf4 e8bc f6f7 0cbc 6571 223c
00000130: 0cb7 2a3d dafb f4bd 6005 8ebd a544 15be
00000140: 50ec 86bd ec6b 4b3e 33c1 863e ff04 253d
00000150: 530d 8dbc f5df 9ebd 24dc 493e 57af 2bbe
00000160: 4b98 f23c 08ea 1d3e a5bd e13d 8f65 cabc
00000170: b595 e5bd 576b 2d39 3480 edbd 902b fd3d
00000180: 11c9 03be 1679 193e 789b ffbd 3794 84bd
00000190: 8dd8 e93d 5284 023e bf58 2fbd ef41 4abc
000001a0: b4fc 333e b8dc d9bd 8e4a 743d 6a40 fc3d
000001b0: 9afd 5abe 7b57 dcbd 4bb2 843c 9ebd ba3d
000001c0: 9ac8 18be 7e20 1e3e 0906 1cbe 2239 f73d
000001d0: 5c2a a6bd f52a aebd 159d bf3d 258f 9cbd
000001e0: c145 553c 61ec 8fbc 96e1 9c3d 31eb 4d3d
000001f0: 8faa dc3d 15a7 13be 0300 12be d5f6 81bd
00000200: c813 25be 3f6b 81bc 6888 823d f80c 07bd
00000210: 5c11 fd3c 6840 0e3e b608 573e 1b2c adbd
00000220: 206f 3e3c 639e a43d 6869 a0bd 001a 0ebd
00000230: 6381 e7bd 4f94 6e3c fa15 943d 5fe4 3ebe
00000240: 350e ed3c 950c f7bd 484e 173e 6d97 a3bd
00000250: a688 883d c286 13be baa0 1f3e b5c5 543e
00000260: 4856 273e bf10 063d 4411 aebd 7f9a 9a3d
00000270: 50bd 5ebe 346d bd3c 6be6 7bbd 15d7 283e
00000280: 0ce4 debd 4cf1 1a3e c5b6 fe3b 2ed8 20bd
00000290: b129 bfbb 6dde 31be 26a3 e2bd 44e3 70bd
000002a0: 1c5d 493e a839 d3bd 2916 77bd 874a ffbd
000002b0: fd73 1dbe 6bd2 3fbc bc1f 23be 7aed f83d
000002c0: 4be1 6d3d 25c3 d23c e179 2cbd daae 7f3d
000002d0: a186 733e 0628 2b3e 1713 bebc b2c1 983d
000002e0: 2745 cb3d 26ca 783d ae9d 36bd 587f 83bd
000002f0: 1bd9 cebd d950 373e f07c 393e 2a30 6c3c
00000300: 7506 56be 6839 4c3e 83b0 c13d f8f0 3a3e
00000310: 70b2 a9bc 39c2 6dbd 4b22 febd 6f6c f3bd
00000320: f8ea c83d a6b7 d8bd 1b94 28be f46e 873e
00000330: 004b fcbc 9517 053e a3a4 69bb 5007 74bd
00000340: 0efd c33d 1c1c c4bb 8764 6f3d abd6 a3bd
00000350: 1c95 013e cbb4 63bc 6fa3 d6bd 9028 913d
00000360: 405d babd 3f8c 143e 2f26 813e db1d 7f3c
00000370: 096d 943d f176 4b3c e2bd 28bd 83f4 f3bd
00000380: 17cf 94bd 8951 a83d cc7d b5bc 4f95 1e3c
00000390: 9a2b 7abd 6920 233e c033 e83d 667c b3bd
000003a0: 11b0 3bbd b630 87bd 2c47 5cbe 8789 dd3d
000003b0: e051 bc3d 805c 2c3b 2629 0b3e accd eb3d
000003c0: f864 60be 9dc2 cd3d 4281 86bd e756 0f3e
000003d0: dbec ffbd fd5b 85be 1a16 283e 5384 443c
000003e0: 936c c73c 5d5a e93d 84de 063e ee9b b33d
000003f0: b83b 033e 8441 a83d d93f 85bc 3658 d7bd
0.22907014 0.13926369 -0.14289585 0.039060436 0.24896494 -0.031695373 0.2703684 -0.2324772
0.14133017 -0.022426432 -0.07599381 -0.1396675 0.10876019 -0.20193721 -0.024476977 -0.09143789
-0.09660234 -0.13134152 0.081737354 -0.005211256 0.09441377 -0.12282387 0.014019425 -0.009377738
0.15163197 -0.08369577 -0.14792061 -0.014918994 -0.12782374 -0.1499221 0.009655817 0.21979402
0.26820204 0.13696082 -0.083483145 0.041278 -0.038401496 -0.091543026 -0.17274147 0.050851963
0.15700763 0.12617661 -0.05825619 -0.09138215 -0.12699383 -0.13917646 -0.13674302 -0.025073752
0.04946355 -0.10383678 -0.23623678 -0.15991843 0.07300506 0.12194309 0.16194326 -0.07363708
0.1499749 -0.06513778 -0.035355877 -0.05888617 -0.08565336 0.07551253 0.011464868 -0.18651517
-0.0853672 0.035252664 0.028433818 -0.080659114 -0.1197371 0.10427833 -0.005297646 0.19469698
-0.091695614 -0.028437007 -0.00860404 0.009914731 0.041678473 -0.119620994 -0.06934619 -0.14576967
-0.06588042 0.19865388 0.26319274 0.040287968 -0.017218268 -0.0775756 0.19712883 -0.16766106
0.029613635 0.15421307 0.110225 -0.02470663 -0.11210195 0.00016538553 -0.115967184 0.123618245
-0.1286967 0.14987597 -0.12480825 -0.06473582 0.11418257 0.12745789 -0.042809244 -0.012344821
0.17576867 -0.10637802 0.059641413 0.123169735 -0.21385804 -0.10758873 0.016198298 0.09118198
-0.14920273 0.15442082 -0.15236677 0.12071444 -0.08113548 -0.08504287 0.09356133 -0.0764449
0.013017119 -0.017568769 0.076602146 0.050273124 0.10774719 -0.14419205 -0.14257817 -0.063459076
-0.16120827 -0.01579821 0.06373674 -0.032971352 0.030892067 0.13891757 0.20999417 -0.08455678
0.011623174 0.08038022 -0.07832605 -0.034692764 -0.113039754 0.014561727 0.07230754 -0.18641804
0.028937439 -0.12062947 0.14775956 -0.079878666 0.066666886 -0.14406875 0.15588656 0.20778544
0.16341507 0.032730814 -0.08499387 0.07548999 -0.21751904 0.023123361 -0.06149904 0.16488297
-0.1088334 0.1513111 0.0077732527 -0.039268665 -0.0058338274 -0.17370005 -0.11066274 -0.058810487
0.19664425 -0.103137314 -0.060323868 -0.12465387 -0.15376277 -0.011707882 -0.15930074 0.1215467
0.058076184 0.025727818 -0.04210842 0.06242261 0.23781826 0.16714486 -0.023202462 0.074588194
0.09925299 0.06073966 -0.04458397 -0.06420773 -0.10100003 0.17901935 0.18114066 0.01441578
-0.209009 0.19943774 0.09457495 0.18255985 -0.020714968 -0.058046553 -0.124088846 -0.118859164
0.09810442 -0.10581903 -0.16462748 0.26451838 -0.030797482 0.12997277 -0.003565111 -0.059577286
0.09569751 -0.005984796 0.05844548 -0.07999929 0.12654537 -0.013898085 -0.10480391 0.07087815
-0.09099817 0.14506625 0.25224444 0.015571083 0.07247359 0.012418495 -0.04119671 -0.11911871
-0.07266062 0.082186766 -0.022154711 0.009679153 -0.061076738 0.15930332 0.113379955 -0.087639615
-0.045822207 -0.06601088 -0.21511525 0.10817247 0.09195304 0.0026300251 0.13589916 0.11513838
-0.21913517 0.10046885 -0.06567623 0.13997994 -0.124963485 -0.26046744 0.16414681 0.011994439
0.024343764 0.113941886 0.1317082 0.087699756 0.1281575 0.08215621 -0.016265796 -0.10514872

rnn.weight_hh_l0 f4 [32, 32]
00000000: 5d03 5b3d 8658 713d 89ef e63d c3a9 873d
00000010: 1a50 41bd 5dfb 6abe e0de d5bd 6202 b83e
00000020: 21ee b43d 5681 66bd 1b8f 013e 8bbc 7dbe
00000030: 80e2 09be 1845 58be 6644 f73d 56b9 c83c
00000040: 87ad 62bc a748 953e 4363 603e bc97 7fbe
00000050: ef5a 3e3e a6eb 753d 49b2 983e ad0e 053e
00000060: 93ae 34be 862a a33e 9468 02bf a818 a53c
00000070: 94dd 663e 5ab6 0d3e d711 ebbc 6b80 9c3e
00000080: f5fb 4d3e 594d 1c3e 5acb ab3d 6e0e 68be
00000090: d541 93bd cc19 40be ae5e f53d 6cbd fdbd
000000a0: ddd9 d93d 7062 26be fa4f d03d 410e 693e
000000b0: cb3d 03bd 7f5d cfbe 9aac 6d3e 726b 91be
000000c0: b179 2e3c 62db 29bf d186 1fbf c6ee c4be
000000d0: 07c1 ea3d 58a7 cf3c 874f 103e 22df 263d
000000e0: 8305 12be c9de 86be d149 9f3e fda9 143e
000000f0: 2f1b 313e 9f1d 253e 310c 92bd 005b 92be
00000100: 8982 9dbe d757 6d3c b538 50be c54d 9c3e
00000110: 0596 2dbe 9b3b 6c3e c953 613d 4cbf adb9
00000120: d413 783c 8b9a 253d a39d 1abd ab7c 8dbe
00000130: 2071 28bd 484e ad3e 98f6 9cbe e167 8b3c
00000140: 4481 9cbe ebe0 a73d eabd 8d3c 4d0c 873e
00000150: dd10 3cb9 96cc be3d b925 97be 73b2 8abe
00000160: 685e 7f3e fc8b 86be 5818 b23c b5e5 99bd
00000170: 693e cfbd 2c55 e63d bca2 6abe c117 c1be
00000180: eef5 253e 421e 093e 52c3 283e dfa4 33bd
00000190: ab50 8cbc 4eed a2bc a399 62bd de9d 483e
000001a0: f259 913d 3378 1cbe 3ef0 10be 9b02 29bb
000001b0: a56e 04be e851 d2bd 1c32 743e edc7 133c
000001c0: 966d 653e ed1e 753d 5a65 8a3d 843c 96be
000001d0: 1692 57bd 73de 0d3d 53c3 ef3d d06e 623e
000001e0: 85cd 3dbd 5ec7 de3e 9e49 43be a30b 073d
000001f0: 3a4c 0ebe b1b2 0bbe 4c00 613e 3e5b eb3e
00000200: 611e 2a3e d9e5 1d3e 6d4d 163e 3e7a cfbd
00000210: feaa 7fbc d3a7 cdbd 7f50 0ebd d282 a33e
00000220: f8a2 943e 7048 1b3d 5ae5 0fbe defd eebd
00000230: 9570 32be 81aa 84be 8fd4 193e f27d 363e
00000240: c83d 593e a322 ce3e 1b7e ce3e 9c14 2fbe
00000250: 5d78 c53d 41e0 7bbc dbf2 a03d feff 453e
00000260: 45a8 72be 1e36 003f e29b 86be e2f1 e53d
00000270: cfe6 20be 457a c9bd d3a9 9cbd 78c5 803e
00000280: b019 ccbc 38e1 763c 7b17 ebbd b6a1 cf3b
00000290: 3152 3abe eaee e63d 3ff0 f63d 566d 493c
000002a0: 2760 d6bd e631 313e f90e 36be acaf b93a
000002b0: 89ec 373e 27b2 66bd 6d5c d0bd 1dd3 ebbd
000002c0: 76c5 60bd 666f 9e3d 23c4 f3bd e5f6 113e
000002d0: 906a 36be 0da6 acbd 9a48 133e c8c7 fcbd
000002e0: 4869 b9bd 0589 47bd 69d3 0fbe 7571 cf3d
000002f0: 0929 2dbe 0027 453d 3feb e43d 84c0 67be
00000300: 4832 ae3d 96af 243e 123c b43d 4626 12be
00000310: 0afc 80bb 4f0b 4dbd befd 2f3e 4ad8 a1bd
00000320: 70d4 4b3e 51de e93c 3bf4 da3d f09c c13e
00000330: b06d 803c 809f 9dbe 834b 483e 13bb 98be
00000340: b7df 7f3e 71bf 23bf 3729 c6be 1cb9 efbe
00000350: e76d 05bd 26e9 62bd eff9 223e a8d9 943d
00000360: a47c a93d c52b 53be 4286 4e3e 6aa6 293e
00000370: eda9 81bd f6c1 043d 0b43 563d 9afd ebbe
00000380: d4c0 1dbd 0707 213e 84e0 6e3d b350 1b3e
00000390: a878 9c3d 0469 a2bd f598 8b3c 975d 633e
000003a0: 27ae 393e 0a8e 81bc a453 82bd a3c0 1c3d
000003b0: e839 58bd ad73 33be 57bb b8bd e4a6 61be
000003c0: 8b4a 103e 460c 37be 5f32 f9bd 1bc4 b4bd
000003d0: b409 91bc 5e22 213d 0966 fc3c a357 1b3e
000003e0: 5f78 d1bc 60dc 79bb 96db 11bb 6153 273d
000003f0: a8c9 72bd 85a3 6b3e 5330 983d 192c 0a3e
0.053470004 0.058922313 0.112761565 0.06624176 -0.04719553 -0.2294745 -0.10442901 0.35939318
0.08834482 -0.056275688 0.12652247 -0.24778955 -0.13465309 -0.21120107 0.12073593 0.024502438
-0.013835317 0.29156992 0.21912865 -0.24960226 0.18589376 0.060039185 0.2982352 0.1299388
-0.1764472 0.3186838 -0.50940824 0.020153359 0.22545463 0.13839093 -0.02869503 0.30566725
0.20115645 0.15263881 0.083883956 -0.22661754 -0.07190291 -0.1875984 0.11980949 -0.12389645
0.10637257 -0.16248488 0.10171504 0.22759344 -0.032041352 -0.4050102 0.23210374 -0.28402287
0.010649131 -0.66350377 -0.6231509 -0.3846342 0.11462598 0.02534835 0.14092837 0.04074014
-0.14259915 -0.26341847 0.31111005 0.1451797 0.17295526 0.16124581 -0.071312316 -0.28585052
-0.30763653 0.014486275 -0.20334132 0.30528083 -0.16951759 0.23069613 0.055011544 -0.0003313966
0.015141446 0.040430587 -0.03774799 -0.27634177 -0.04112351 0.33848786 -0.30656886 0.017017307
-0.30567372 0.081971966 0.017302472 0.26376572 -0.00017935359 0.093163654 -0.29520968 -0.2708927
0.24938357 -0.26278675 0.021740124 -0.07514516 -0.10119326 0.11246714 -0.2291364 -0.37713435
0.16207096 0.13390449 0.16480759 -0.043858405 -0.01712831 -0.019888546 -0.0553223 0.19591472
0.07097234 -0.15280227 -0.14154145 -0.0025788906 -0.12932833 -0.102695286 0.2384724 0.009019834
0.22405085 0.059843946 0.067576125 -0.29343045 -0.052629553 0.034635972 0.11707177 0.22112584
-0.046338577 0.4351148 -0.19071051 0.032970082 -0.13896266 -0.13642384 0.2197277 0.4596805
0.16613151 0.15419711 0.14677973 -0.10130738 -0.015604733 -0.100417756 -0.034744736 0.31935745
0.29030585 0.03791088 -0.14052334 -0.11669515 -0.17425759 -0.25911334 0.15022491 0.17821482
0.21214974 0.402608 0.40330586 -0.17097706 0.09642098 -0.0153732905 0.07858821 0.19335935
-0.23697002 0.50082576 -0.26290804 0.11227776 -0.15713046 -0.09837774 -0.07649579 0.25150657
-0.024914593 0.015068345 -0.11479088 0.006336416 -0.18195416 0.11276038 0.12057542 0.012294134
-0.10467558 0.17304191 -0.17779149 0.0014166734 0.17961325 -0.056322243 -0.10173879 -0.11514876
-0.054875813 0.07736091 -0.119026445 0.14254339 -0.17814088 -0.08430109 0.14383164 -0.12342793
-0.09053284 -0.048714656 -0.1404549 0.10129062 -0.16910185 0.048132896 0.11177682 -0.22632033
0.08505684 0.16082606 0.0880052 -0.14272413 -0.0039362954 -0.050059613 0.17186639 -0.07902582
0.19905257 0.028548392 0.106911145 0.37815046 0.015677303 -0.3078575 0.19560055 -0.29830226
0.24987684 -0.6396399 -0.3870332 -0.46820915 -0.032575514 -0.05539813 0.15915655 0.07268077
0.082757264 -0.20622166 0.20168403 0.16567388 -0.06331239 0.032411538 0.05231003 -0.4609192
-0.038513973 0.15725337 0.058319584 0.15167503 0.07640201 -0.079301864 0.017040709 0.2220367
0.1813284 -0.0158148 -0.063636094 0.03826965 -0.0527896 -0.17524596 -0.09020107 -0.2203632
0.14090936 -0.17875776 -0.12167811 -0.08826467 -0.017704822 0.039339416 0.030810373 0.1517015
-0.025570093 -0.0038125739 -0.0022256128 0.040851 -0.059274346 0.23011597 0.07431092 0.13493384

rnn.bias_ih_l0 f4 [32]
00000000: d3b6 2dbe 433c d0bd e81d 933c 30df 67bc
00000010: 0a17 883c 3745 233e c356 debd 60fe 8cbb
00000020: 81f5 f4bd 5ce2 913d b9ac 23bd 8d55 2f3e
00000030: 4ca7 ae3d 25d1 103e 6f20 5fbe bc9f a13e
00000040: 6386 063e 2029 643e eae1 af3c 6e87 d1bc
00000050: 793a 0b3e 1635 14be f5f1 44be befb bc3d
00000060: f41c 82bd 820d 383a ad53 de3d 2363 96bc
00000070: 5679 64be ad62 7bbe b1b6 683d a26b 35bc
-0.16964273 -0.10167744 0.017958596 -0.014152333 0.016612548 0.15944372 -0.10856392 -0.004302785
-0.11960889 0.07123253 -0.039959643 0.17122479 0.08528003 0.14142282 -0.21789716 0.3156718
0.13137202 0.22281313 0.021470029 -0.025577273 0.13596524 -0.14473376 -0.19232924 0.092277035
-0.063531786 0.0007021056 0.10855804 -0.018357819 -0.22311911 -0.2454936 0.056814853 -0.011073025

rnn.bias_hh_l0 f4 [32]
00000000: e62b 72be 538e 74bd 1899 673e b0fd 00be
00000010: 3083 a7bc 971c abbd d7b6 82bd 306e 17be
00000020: 7aa4 893a 5677 043e fa3a 8fbe d851 e2bc
00000030: a3b7 363e 183f d53d 1430 32be 6ade 8f3d
00000040: dcc2 28be 5819 1f3e 7cb3 fe3c 799a 913e
00000050: 7e77 103e d988 15be c989 02be bc78 523e
00000060: a92d f83d 6d4a edbd 3005 18bd 0b03 51be
00000070: 6c9f 84be 7526 47be 9a87 3dbc 0b2c d63a
-0.23649558 -0.059706043 0.22616994 -0.12596774 -0.020448297 -0.083550625 -0.0638253 -0.14788127
0.0010501288 0.12936148 -0.27974683 -0.027626917 0.1784349 0.10412425 -0.17401153 0.07024844
-0.16480583 0.15537012 0.031091444 0.28438166 0.14108083 -0.14602984 -0.12747873 0.20553869
0.12118084 -0.11586461 -0.037114322 -0.20411317 -0.2590288 -0.19448264 -0.011567974 0.001634003

fc1.weight f4 [8, 32]
00000000: 72a1 95be 0299 4dbe 08bb 1a3f e775 c3be
00000010: 4590 13bf a25c 803e a887 c0be e0b7 83be
00000020: d93e 9ebd b347 173f 568c d8be 9a27 2c3f
00000030: 1779 d03e 3ffd 64bd 4d88 d1be 0c1f ec3d
00000040: a14e 1fbf 080b 0d3f 6478 ba3e bac1 443e
00000050: edca d2be 356c d1be ead3 1cbf ab01 843f
00000060: 8fe5 353e 257e 4c3e bc79 803e e5a6 b9be
00000070: c152 6abe 13ce 12be 43d7 65bf a318 073f
00000080: 8cc3 ccbd 4201 dabe 1405 443e 1ed9 913e
00000090: 7c90 923f 3c27 86bf 4278 e6be 1528 0abe
000000a0: dedc 9f3f 34c3 43bf 821b 33bf 763a 2bbf
000000b0: 9709 88bf 46e8 6ebe 4152 b23f 5dc5 a23e
000000c0: 82ae 9c3f 8f3a d13d 14ff 74bf 5241 bcbe
000000d0: 5591 663f e304 06bf 8222 9f3e f801 3c3f
000000e0: 8e55 8cbf 2b4d c6be 6a5d abbe b8fb 663f
000000f0: c323 d1be 70c7 05bf 0c3f 4c3f d086 39bf
00000100: f59e 9ebe eed7 3cbd c46e 0a3f fdc9 82be
00000110: aa0e 603f 17a8 85bf 9080 d4be 1566 5f3f
00000120: e7a7 6fbc b2b0 06bf 95c4 8d3f 9da0 3dbf
00000130: 0b02 f1bd e48e 61be f94a 7dbd d9ff 64bf
00000140: 501f 423f f78b b4bf 135f 00be 0102 723e
00000150: 23da dbbe 0023 283f ed46 34bf 4826 5cbf
00000160: a557 4e3e 2823 1d3f d61c 46bf 2cba f9be
00000170: 2669 7f3f 9c9c 603e c729 f13e a116 74bf
00000180: 318c 7d3f e04b 7f3f 5eb7 40bf a35f 0dbe
00000190: e951 663f 01f6 9f3e 6aa7 463f 715e 863f
000001a0: 0f8c c53d 7b10 2bbf c5c9 673f 86db 2dbf
000001b0: d2e4 8f3e 28d5 53be 4dab 17be 721c 8a3d
000001c0: 7bde 05bf 5859 0e3f 23a5 ecbd ab32 8dbf
000001d0: 029a b9be 8e71 eebe 25aa 6c3f 076d 54bf
000001e0: 1f7c db3c a27e 22bf aca2 973e 9371 613f
000001f0: 4daa 1abe c374 813e b8ea 123f aed6 83bf
00000200: 40b0 673f cfb0 a8bd 5046 2fbf 786e 843f
00000210: 21ff 87be 5403 063e 8c66 253f 4255 93be
00000220: 9a07 8bbb 919e ddbe 62b8 bcbe 937f 16bf
00000230: 0ce1 123e ffe5 6cbd 18e3 c0bd 43ae 84bf
00000240: b1da 593f 8a4c 45bf 43da 16bd 4f0f 74bf
00000250: 4c28 343f 3ada 593f 155c 663f 2413 4dbf
00000260: 6746 86bf 4d8b 053f 9dc7 30bf cf91 27be
00000270: 0f62 2cbe 0da3 313e d5c2 6dbf e940 c13e
00000280: aab9 7c3f fff4 23be e1c2 80bf d174 9d3f
00000290: ab6f 503f debe a33e 81a2 49be a4b3 8c3e
000002a0: 457b f93c f303 ae3e 9b88 523f 82d4 873e
000002b0: 2df6 6ebf 2ca4 89bf 51f8 2bbf 843e 8fbf
000002c0: 0e84 ab3f 721c 2abf b6a1 70bf b2e2 c3bd
000002d0: 6452 0ebf 97be dabe b1df 0e3f 2f8c a23f
000002e0: da74 483e 1c86 9fbd bed7 14bd 1ff2 623d
000002f0: cd1a 883f ae16 a23f 8686 1e3f 8893 a93e
00000300: 2002 c5be 41ef 803f c795 12bf a5e6 7f3e
00000310: 8598 1ebf 712a 0d3e 7e82 523f 6c9f 2ebd
00000320: b301 403e d8ae c03e 3c3e fb3e edf3 ee3e
00000330: b8a3 48bf b11c a63c 649a d03f 03d9 cb3e
00000340: 3a77 08bf b8ec 89bf 99f2 77bf 8701 8e3e
00000350: e173 4c3f 41ed 743f cc5f 0d3f 6fdb d0bf
00000360: 3db8 283e 5d5d 5cbe 4c04 1b3e e3d1 48be
00000370: f6c2 6f3f c3c7 593f 0ce9 313f 7fa5 413e
00000380: d6d6 6e3e e3c5 413f 1969 d0bc ce9d 183f
00000390: 5926 1cbb 986c f1be f572 9b3e ce83 033f
000003a0: 9d31 173f 9e87 50bd 1c47 f33e 80e1 28bd
000003b0: 00e9 b3be 38d4 2fbf c0fa ca3e a9f0 f0be
000003c0: a6e4 543e 0c6f b2bd a5fa 0bbf a05d e2be
000003d0: 634a 993d 34c3 d63e 0ff3 173e ba91 82bd
000003e0: 682e e6bd 4382 7f3e 83c4 d3be 39e0 c43e
000003f0: 97cd f23e ae55 593f 6d38 06bf a984 debe
-0.29224735 -0.20077899 0.6044164 -0.3817589 -0.5764201 0.25070673 -0.37603498 -0.25726223
-0.07726831 0.5909378 -0.42294568 0.6724793 0.40717384 -0.055905577 -0.40924302 0.11529359
-0.62229353 0.5509496 0.36419976 0.19214526 -0.41170445 -0.40902868 -0.61260855 1.0313009
0.17763351 0.19969995 0.25092876 -0.36260143 -0.2288313 -0.14336424 -0.8978159 0.5277197
-0.09998235 -0.42579085 0.19142562 0.2848596 1.1450343 -1.0480723 -0.45013624 -0.13491853
1.2489278 -0.7646973 -0.6996385 -0.6688608 -1.0627927 -0.23330793 1.3931352 0.317912
1.2240756 0.10216247 -0.9570172 -0.36768585 0.9006551 -0.52351207 0.31081015 0.73440504
-1.0963609 -0.3873075 -0.33469707 0.9022784 -0.40847597 -0.5225744 0.797837 -0.7247133
-0.3098065 -0.046104364 0.54075265 -0.2554473 0.87522376 -1.0441922 -0.41504335 0.8726514
-0.014627433 -0.52613366 1.1075617 -0.740732 -0.11767968 -0.22027165 -0.061839078 -0.8945289
0.7582903 -1.4105214 -0.12536268 0.23633577 -0.42939863 0.65678406 -0.70420724 -0.8599591
0.20150621 0.6138177 -0.7738775 -0.4877485 0.9976982 0.21934742 0.47102186 -0.9534703
0.9904204 0.9972515 -0.75279796 -0.13806014 0.89968735 0.31242374 0.77599204 1.0497571
0.09645855 -0.6682202 0.9054225 -0.6791309 0.28104264 -0.20686781 -0.1481144 0.06743707
-0.52292603 0.5560508 -0.11554935 -1.1031088 -0.3625031 -0.4657101 0.9244712 -0.8297886
0.026792584 -0.63474476 0.29616296 0.88063926 -0.15104027 0.25284395 0.573894 -1.029989
0.9050331 -0.082368486 -0.68466663 1.0346212 -0.26561835 0.13087207 0.646096 -0.28775984
-0.0042428495 -0.4328504 -0.36859423 -0.5878841 0.14343661 -0.05783653 -0.09418315 -1.036568
0.8509932 -0.77069914 -0.036829244 -0.9533586 0.7037399 0.8509861 0.89984256 -0.8010733
-1.0490235 0.5216568 -0.69054586 -0.16364215 -0.16834281 0.17347355 -0.92875415 0.37744835
0.987208 -0.16011427 -1.0059472 1.2301275 0.8142039 0.31981558 -0.19690897 0.27480805
0.030454287 0.33987388 0.82239693 0.26529318 -0.93344384 -1.0753226 -0.67175776 -1.1190953
1.3399675 -0.66449654 -0.9399675 -0.09564723 -0.5559447 -0.42723534 0.55810076 1.2699031
0.19575825 -0.07789251 -0.03633856 0.055406686 1.0633179 1.2663171 0.61924016 0.3312037
-0.38478184 1.0073014 -0.5725979 0.24990328 -0.61951476 0.13785721 0.82230365 -0.042632505
0.18750648 0.37633395 0.4907092 0.46670476 -0.78374815 0.020277353 1.6297116 0.39814004
-0.53306925 -1.0775366 -0.9685455 0.2773554 0.7986432 0.9567452 0.552243 -1.6316966
0.16476531 -0.2151999 0.15138358 -0.19611315 0.9365686 0.8507044 0.69496226 0.18910788
0.23324141 0.75692576 -0.02544074 0.5961579 -0.0023826568 -0.47153163 0.30361143 0.51372993
0.5906008 -0.050910585 0.4751519 -0.04123068 -0.35138702 -0.68683195 0.39644432 -0.4705861
0.20790347 -0.08712587 -0.5467933 -0.44212055 0.07484891 0.41945803 0.14838813 -0.063754514
-0.1123932 0.24952035 -0.41360864 0.38452318 0.47422478 0.8489636 -0.5242985 -0.43460587

fc1.bias f4 [8]
00000000: 5e60 acbe 26ad 4b3e aafb e9be b29d 8bbe
00000010: c41c 86be 3d85 a2be 7eb9 b8be 688c eebe
-0.33667272 0.1989027 -0.45699817 -0.2726875 -0.2619382 -0.31742278 -0.3607902 -0.46591496
