src/main/python/saved_models/python3_1_28_RNNClassifier1_128embs_102id_32hd_1hl_Falsebid_2.pt (torch, 75743 bytes, 7 tensors)

word_embeddings.weight f4 [102, 128]
-1.5704477 -0.28137276 0.98914397 0.7509496 1.4994415 -1.3116688 -0.06096576 -0.37535512
-0.3699721 -1.4825113 0.11510013 1.1445514 -0.5130738 0.9089881 -1.0775962 1.0632728
1.069268 -1.8971596 -1.2724445 0.93440163 1.8496931 1.6112858 0.24174935 -0.71831566
-1.3083247 0.45234305 -1.2018089 -0.057806034 0.66121197 -2.0802994 0.3625273 -0.8084638
-0.39103228 0.01779883 0.9927946 -0.4431032 -0.9989728 1.9507205 0.78881145 -0.004745739
-0.096971825 -1.8809749 0.060057644 1.6285126 0.38222703 -0.89182997 -0.116040505 1.363224
0.13380319 -2.2043724 -1.3311727 0.93195677 -1.2350447 0.81346637 0.18528815 2.0896578
0.1468458 -0.6683205 1.661614 0.20600723 -0.4766696 0.27110803 -1.1896855 0.8061946
1.6178371 -2.17009 -0.6951243 -0.833787 1.2937528 -0.85203904 0.58494127 -1.5370321
1.1200651 -2.4486196 -0.9457044 0.9040879 0.25237873 0.30226672 -1.0179775 1.5706079
-0.979836 0.0386121 0.022338739 0.43367764 -0.7412712 -0.37264606 0.35745975 -0.83000535
0.7876094 -0.05179856 -0.07102343 -2.07524 0.13428201 1.2644203 -1.2717135 0.23245598
-1.0257735 1.495152 0.8552351 -0.60075885 -0.284155 1.5000578 0.5043455 -0.6780754
0.5053503 -0.06224297 0.18646643 -0.1472885 -0.2638862 0.008340312 -0.8316583 0.08312518
1.1602602 -0.2167247 -0.19320993 0.17902489 -0.1323376 -0.10343677 0.73453856 1.7782502
-1.6518263 -0.35558593 0.049367428 1.350331 1.099281 0.7376999 -0.19767992 -0.6348704
-0.9523288 -0.09726387 0.8517359 0.34951928 0.3688938 -0.38044342 -0.4310289 -0.91316897
0.5465479 -0.710634 -0.48165712 -2.154276 0.49074286 1.6103604 -0.5122903 0.9526563
-0.058140017 -0.6293489 0.22862454 0.69813055 -0.9404151 0.061086923 -1.3086765 -0.65695536
0.11653974 1.6412822 -0.8265713 -0.89542186 1.2834606 -1.3217021 0.8371501 0.17705078
-0.10383869 -0.091728956 -0.7589794 -0.09951936 0.38926333 1.3015717 -1.2621958 -0.6706315
1.3349392 1.0803232 0.24528687 0.34360802 0.79683447 -1.3496435 1.4733793 -0.8630376
-0.65492076 -0.8900968 -0.75879866 -0.2817288 0.69084275 -1.3921475 1.4812034 2.6723306
0.6649591 0.33157578 -0.3731824 -1.1017504 -0.09249424 -0.30105776 0.16325895 0.65233546
-0.2070873 1.795185 -1.3566271 0.98447835 -1.1432666 0.018896012 -0.12552217 1.5874672
-0.39656854 0.86624753 -0.9287544 -1.4683362 -0.322526 -0.18848288 -0.73019886 1.7132318
-1.0638194 -0.2417493 -1.2250497 -0.5876326 0.16870938 -1.6214882 -2.9052663 -1.4441133
-0.59365827 0.7092984 -0.26494202 -0.008430879 0.39899683 -1.6384801 -0.06427038 -0.6951604
-1.8378097 0.32890296 0.1619711 1.404205 -1.5346798 -0.6089083 -0.8502795 -0.07809695
-0.16058454 -0.25088927 -0.022788439 1.2629187 1.0555512 -0.37902644 -0.17689106 0.10723886
-0.7958838 -0.4412593 1.4290284 -0.92891616 0.17912258 -0.7082646 0.8186084 0.5650344
0.9185583 -1.2311989 1.363457 1.0455055 0.04932949 0.72746205 -0.3943509 0.61493325
00000000: 6e04 c9bf 1710 90be 8a38 7d3f 3c3e 403f
00000010: b3ed bf3f c3e4 a7bf 3cb7 79bd 8c2e c0be
00000020: fc6c bdbe eec2 bdbf 9eb9 eb3d a980 923f
00000030: ce58 03bf 72b3 683f acee 89bf 5319 883f
00000040: c6dd 883f 20d6 f2bf 76df a2bf f234 6f3f
00000050: bec2 ec3f 9d3e ce3f 248d 773e 89e3 37bf
00000060: 2f77 a7bf 8299 e73e e0d4 99bf 05c6 6cbd
00000070: 3045 293f a023 05c0 2e9d b93e 7cf7 4ebf
00000080: 6235 c8be dace 913c c927 7e3f 6cde e2be
00000090: aebc 7fbf 36b1 f93f 8cef 493f 2582 9bbb
000000a0: 2a99 c6bd c9c3 f0bf 01ff 753d 1a73 d03f
000000b0: 43b3 c33e f84e 64bf a5a6 edbd 207e ae3f
000000c0: b403 093e 7014 0dc0 de63 aabf b894 6e3f
000000d0: f215 9ebf 553f 503f 2dbc 3d3e f4bc 0540
000000e0: bf5e 163e 0d17 2bbf c4af d43f 8ff3 523e
000000f0: 0a0e f4be acce 8a3e 9d47 98bf c562 4e3f
00000100: 4915 cf3f c1e2 0ac0 abf3 31bf 1173 55bf
00000110: b199 a53f 3b1f 5abf b6be 153f 78bd c4bf
00000120: 4b5e 8f3f 2fb6 1cc0 af19 72bf 4e72 673f
00000130: c937 813e b4c2 9a3e 164d 82bf ae09 c93f
00000140: 88d6 7abf b927 1e3d bbff b63c ff0a de3e
00000150: f3c3 3dbf 77cb bebe f704 b73e 3b7b 54bf
00000160: c5a0 493f ba2a 54bd bb74 91bd bbd0 04c0
00000170: 3981 093e 86d8 a13f 82c7 a2bf f108 6e3e
00000180: 8c4c 83bf 2461 bf3f b0f0 5a3f 55cb 19bf
00000190: c47c 91be e501 c03f c91c 013f 5996 2dbf
000001a0: a35e 013f 7cf2 7ebd 0ef1 3e3e ccd2 16be
000001b0: 181c 87be cea5 083c 8fe7 54bf 893d aa3d
000001c0: 6883 943f 14ed 5dbe d3d8 45be 4d52 373e
000001d0: 8283 07be a8d6 d3bd b80a 3c3f b49d e33f
000001e0: 0b6f d3bf 5c0f b6be 8035 4a3d a5d7 ac3f
000001f0: 3db5 8c3f e7d9 3c3f 9b6c 4abe de86 22bf
00000200: d2cb 73bf 4832 c7bd 5d0b 5a3f 31f4 b23e
00000210: a6df bc3e 7bc9 c2be d2af dcbe 71c5 69bf
00000220: 90ea 0b3f 1cec 35bf c39b f6be a8df 09c0
00000230: a642 fb3e 4a20 ce3f 7525 03bf 49e1 733f
00000240: 3a24 6ebd 021d 21bf 8d1c 6a3e afb8 323f
00000250: 0bbf 70bf 4836 7a3d b682 a7bf 3a2e 28bf
00000260: 63ac ee3d 8915 d23f 2d9a 53bf 5e3a 65bf
00000270: 7048 a43f 892d a9bf 784f 563f cd4c 353e
00000280: 61a9 d4bd 64dc bbbd 794c 42bf ced0 cbbd
00000290: 864d c73e e799 a63f a28f a1bf 82ae 2bbf
000002a0: 4adf aa3f 0848 8a3f 7b2c 7b3e 64ed af3e
000002b0: 58fd 4b3f 1ec1 acbf b197 bc3f 08f0 5cbf
000002c0: e3a8 27bf 62dd 63bf a140 42bf c23e 90be
000002d0: 12db 303f e431 b2bf 1398 bd3f 7707 2b40
000002e0: c23a 2a3f 4dc4 a93e c311 bfbe 2806 8dbf
000002f0: 9f6d bdbd 3e24 9abe 5b2d 273e 75ff 263f
00000300: b10e 54be 9fc8 e53f f5a5 adbf c606 7c3f
00000310: 8f56 92bf cfcb 9a3c e288 00be 2032 cb3f
00000320: 080b cbbe 66c2 5d3f d9c2 6dbf 71f2 bbbf
00000330: 2122 a5be a801 41be 50ee 3abf 2e4b db3f
00000340: 3c2b 88bf 218d 77be 6ece 9cbf 176f 16bf
00000350: 27c2 2c3e ed8c cfbf e2ef 39c0 b4d8 b8bf
00000360: fdf9 17bf 9494 353f 7ba6 87be ab21 0abc
00000370: 5049 cc3e b7b9 d1bf 30a0 83bd 08f6 31bf
00000380: 593d ebbf f865 a83e c1db 253e fdbc b33f
00000390: 6370 c4bf 6ae1 1bbf ebab 59bf 4bf1 9fbd
000003a0: 4670 24be 8f74 80be d2ae babc 52a7 a13f
000003b0: 4d1c 873f c10f c2be ee22 35be 0ca0 db3d
000003c0: 0abf 4bbf bdec e1be 67ea b63f 73cd 6dbf
000003d0: e96b 373e d450 35bf 5290 513f 18a6 103f
000003e0: a326 6b3f ed97 9dbf c285 ae3f 20d3 853f
000003f0: b80d 4a3d f43a 3a3f 5ce8 c9be 446c 1d3f

rnn.weight_ih_l0 f4 [32, 128]
-0.23044501 -0.047903765 -0.062296413 0.08744955 -0.12794138 -0.014951073 -0.15023285 -0.043487445
0.07599846 0.07960763 0.072510906 -0.2488176 -0.08582202 -0.26392487 0.20216507 0.07062531
-0.12894413 -0.03357675 -0.07116717 -0.051815275 -0.07984153 0.058523726 0.09014447 0.12856632
0.017533246 -0.12262805 -0.008153338 0.061322033 0.041769307 -0.14919227 -0.149355 -0.0024276546
0.050241977 0.13154712 0.13732147 0.12821731 0.095803834 -0.13205075 0.02525706 0.030278903
0.1867992 -0.0093119675 -0.006346325 0.17261103 0.07490854 -0.09702739 -0.06682237 -0.06611285
-0.12473393 -0.16558677 0.13919851 0.012118261 0.09224924 0.0036791002 0.1770726 0.14145197
0.092465475 0.1812829 -0.012107071 -0.14778642 0.018025357 -0.089900814 0.058024023 -0.084444456
-0.044719644 -0.08547182 -0.16519858 -0.044458304 -0.06489707 -0.02680647 0.1788309 -0.24351428
0.15279625 0.06793191 -0.2521828 -0.16814615 0.1201492 0.006290682 -0.063061744 0.09455566
0.032213695 0.14308082 -0.13396025 -0.2967503 0.14627735 0.05648373 0.0933494 0.17330237
-0.091402225 0.021197252 0.08789099 0.048990242 -0.28931883 0.2800192 0.0039412486 -0.19834691
0.0025094864 -0.043059185 0.21397537 -0.09128419 0.1945803 -0.01779933 -0.096872985 0.013361141
0.19805554 0.2250916 0.09602421 -0.051350124 -0.044873867 0.004360382 -0.28441495 -0.005110537
-0.09930968 0.26778442 -0.21360515 0.168782 -0.11644488 0.028292168 -0.09955811 0.16311663
0.11450584 -0.004340131 0.07260513 0.2292106 -0.20230572 0.08149561 -0.27361575 -0.34001482
-0.056538843 0.020143861 -0.09142987 -0.0983047 -0.089963965 -0.11622801 0.050008494 -0.09380772
0.20239311 0.07283684 0.09227783 -0.04601048 0.07120818 0.05974058 0.11379034 0.012117523
0.19599335 -0.006368654 0.24202539 0.049444582 -0.07830368 -0.041804686 -0.13617933 -0.044731423
-0.11561703 0.07042271 -0.20498055 -0.116987765 -0.094388336 0.08637699 -0.09806929 -0.118680716
0.04451021 0.01777839 -0.027608892 0.26785535 -0.17148057 0.15252596 0.03674945 0.09025773
0.050064366 -0.0687089 0.11237494 -0.30099782 -0.05316721 -0.2767441 0.12271428 -0.024002003
-0.10292554 0.122472644 0.28027523 -0.2444798 -0.030550834 0.09752646 0.20783958 0.15327078
0.1545839 0.08241552 0.2525479 0.040095393 -0.10446656 -0.2296473 0.11206724 0.104077324
0.11053915 -0.02761866 -0.14615904 -0.054250162 0.025387712 -0.11963518 0.038490534 -0.026559304
0.13359863 -0.030973628 0.07233045 -0.14488156 0.084817536 -0.21596733 0.26607236 0.022675235
0.26700187 -0.049830392 -0.24072808 0.048416212 -0.017017853 0.12943876 0.037255354 -0.093360275
0.0948401 -0.05321938 -0.10290087 0.1636538 -0.19425316 0.3444409 -0.050024126 -0.16126154
0.028379489 0.10803922 0.09785352 0.18144313 0.09689844 -0.1524369 0.0049502966 -0.17872518
0.12978151 -0.023969533 0.09215573 -0.048144415 -0.17507465 -0.016876487 -0.03369362 0.11395805
0.08606102 0.10920961 -0.11550342 0.23152553 -0.09331249 0.25612783 0.09923465 -0.11450137
0.058155544 -0.0709477 0.2709149 0.1866011 -0.2524888 0.22107165 -0.02762451 -0.1821864
00000000: c7f9 6bbe bd36 44bd 862a 7fbd c018 b33d
00000010: 1103 03be 58f5 74bc a4d6 19be e41f 32bd
00000020: 15a5 9b3d 5309 a33d 9980 943d 0aca 7ebe
00000030: 75c3 afbd 2921 87be 5c04 4f3e 01a4 903d
00000040: ee09 04be c687 09bd 18c0 91bd 413c 54bd
00000050: f583 a3bd 93b6 6f3d aa9d b83d e4a6 033e
00000060: e2a1 8f3c 6a24 fbbd 9495 05bc d02c 7b3d
00000070: 4b16 2b3d dcc5 18be 84f0 18be 4919 1fbb
00000080: 88ca 4d3d 4ab4 063e 009e 0c3e 664b 033e
00000090: cd34 c43d 5038 07be e5e7 ce3c 760b f83c
000000a0: 4a48 3f3e 3991 18bc d5f4 cfbb f2c0 303e
000000b0: a669 993d 4cb6 c6bd 2bda 88bd 2d66 87bd
000000c0: 8174 ffbd 948f 29be 0e8a 0e3e ac8b 463c
000000d0: 2bed bc3d 0f1d 713b 8552 353e c9d8 103e
000000e0: 8a5e bd3d 39a2 393e bc5c 46bc 5355 17be
000000f0: eaa9 933c eb1d b8bd 99aa 6d3d 37f1 acbd
00000100: f22b 37bd d90b afbd d129 29be e919 36bd
00000110: c1e8 84bd 3e99 dbbc 731f 373e cf5b 79be
00000120: 9f76 1c3e e31f 8b3d 1b1e 81be 812e 2cbe
00000130: c910 f63d 1122 ce3b 8426 81bd 66a6 c13d
00000140: 82f2 033d c783 123e e02c 09be a8ef 97be
00000150: bbc9 153e 7c5b 673d f82d bf3d 2d76 313e
00000160: 1731 bbbd dca5 ad3c 3100 b43d fea9 483d
00000170: 9921 94be ad5e 8f3e 9725 813b 741b 4bbe
00000180: 3276 243b d45e 30bd 5c1c 5b3e 35f3 babd
00000190: 0f40 473e e7cf 91bc 5865 c6bd b0e8 5a3c
000001a0: 12cf 4a3e 6a7e 663e 57a8 c43d 8254 52bd
000001b0: a9cd 37bd 89e1 8e3b d69e 91be 4b76 a7bb
000001c0: e062 cbbd 0a1b 893e 4fbb 5abe 30d5 2c3e
000001d0: a77a eebd fac4 e73c 1fe5 cbbd 0c08 273e
000001e0: 0a82 ea3d a837 8ebb 00b2 943d 2fb6 6a3e
000001f0: 3b29 4fbe 2ce7 a63d 5d17 8cbe 6c16 aebe
00000200: 4695 67bd bd04 a53c 953f bbbd f953 c9bd
00000210: 073f b8bd f308 eebd b5d5 4c3d 431e c0bd
00000220: 2440 4f3e 7b2b 953d 29fc bc3d 7c75 3cbd
00000230: 98d5 913d 8ab2 743d e90a e93d 9388 463c
00000240: 7bb2 483e 24b0 d0bb 81d5 773e 6786 4a3d
00000250: ae5d a0bd 643b 2bbd 9872 0bbe 4c38 37bd
00000260: 9fc8 ecbd c839 903d 6ce6 51be 4897 efbd
00000270: ac4e c1bd 6be6 b03d 8dd8 c8bd e00e f3bd
00000280: 5750 363d fca3 913c 0b2c e2bc 5624 893e
00000290: 9a98 2fbe c42f 1c3e 9786 163d 0bd9 b83d
000002a0: 4b10 4d3d 40b7 8cbd d524 e63d 631c 9abe
000002b0: dcc5 59bd 67b1 8dbe a051 fb3d d99f c4bc
000002c0: a0ca d2bd f0d2 fa3d 3c80 8f3e ea58 7abe
000002d0: be45 fabc f4bb c73d e6d3 543e 04f3 1c3e
000002e0: 3e4b 1e3e 78c9 a83d f54d 813e 113b 243d
000002f0: 90f2 d5bd a928 6bbe 8283 e53d 7e26 d53d
00000300: 5a62 e23d 8740 e2bc b7aa 15be 6b35 5ebd
00000310: e4f9 cf3c 4a03 f5bd 40a8 1d3d e692 d9bc
00000320: 14ce 083e 68bc fdbc fd21 943d d55b 14be
00000330: d1b4 ad3d 8a26 5dbe a33a 883e 6ac1 b93c
00000340: 78b4 883e f41a 4cbd 6c81 76be 1450 463d
00000350: 0669 8bbc 988b 043e 1299 183d ac33 bfbd
00000360: 873b c23d 91fc 59bd b1bd d2bd dd94 273e
00000370: 4dea 46be 8f5a b03e 19e6 4cbd bf21 25be
00000380: 1a7c e83c ab43 dd3d 6d67 c83d 3acc 393e
00000390: b072 c63d 6b18 1cbe 1936 a23b bc03 37be
000003a0: 72e5 043e c15b c4bc 25bc bc3d 1433 45bd
000003b0: c546 33be 8f40 8abc 5202 0abd d762 e93d
000003c0: c340 b03d 4aa9 df3d 0f8d ecbd 0715 6d3e
000003d0: 9e1a bfbd 3023 833e 893b cb3d b27f eabd
000003e0: 8234 6e3d 074d 91bd 5cb5 8a3e 5c14 3f3e
000003f0: 3646 81be 9b60 623e cc4c e2bc 128f 3abe

rnn.weight_hh_l0 f4 [32, 32]
-0.17071767 0.15462957 -0.08831444 0.11591987 -0.079776235 0.08520842 -0.22058453 0.0341355
-0.112471335 0.09743116 -0.010227109 -0.0684962 0.04994081 0.021654412 -0.044575945 -0.024077667
-0.056739867 -0.02334708 -0.17582104 0.038391855 0.15490808 0.024121836 0.074228525 0.2284072
0.057653602 -0.109203905 0.06568001 0.07535442 -0.07405543 0.084417984 -0.072073095 -0.16858459
-0.013157851 -0.028089916 -0.00027402941 -0.0644896 0.110343605 0.0075022136 -0.0107849855 -0.13203275
0.09949428 -0.025006996 0.110087626 -0.05866154 0.037652165 -0.107360184 0.1382817 -0.025101861
-0.10218905 -0.21976662 -0.18693957 -0.014057972 -0.13280779 0.19573964 0.115844555 -0.005725515
-0.06502697 -0.10133307 -0.003853153 0.076209836 0.08911432 -0.082360476 -0.05497403 0.107636794
0.06140469 0.1709684 0.0490385 0.20652139 0.0014578374 -0.039667495 -0.0640167 -0.094707645
-0.04333891 0.41936404 -0.20954297 -0.23190862 0.023137294 -0.18422842 -0.22081904 -0.23671363
0.4147413 -0.27681574 -0.03938942 0.18383269 -0.11506326 0.18901673 0.14832516 0.13026601
-0.0063571637 -0.16571239 -0.329137 -0.2602537 0.12036831 0.080429204 -0.15380804 -0.1797679
0.11619117 0.1447065 -0.007664628 -0.10294329 0.020002935 0.14088748 0.04191823 0.15064445
0.0012979634 -0.11191771 -0.08995673 0.08113126 0.052507576 0.049170885 0.028078996 -0.16647904
-0.035210755 0.07765167 -0.1271365 0.1061442 0.08782015 0.080327824 0.025697736 0.122573145
0.15165506 -0.075572655 -0.19098046 -0.026583606 0.12346576 0.17900653 -0.13477914 0.097048044
0.2357058 0.2973335 0.049967688 0.015144999 0.09455218 0.022494553 0.24313211 -0.030721072
-0.072706655 0.20129809 0.23867846 -0.07069964 -0.034171943 -0.14729354 0.053884856 -0.0762657
0.22416508 -0.018837873 0.3463283 -0.09213043 -0.025712647 -0.19729017 0.06192596 0.6851964
-0.079076916 -0.16454625 -0.34178707 -0.29710767 -0.08417354 0.10642398 0.1554786 0.26641995
-0.14784563 -0.37435117 -0.015850957 0.13648474 0.12449701 0.029910633 -0.3134226 0.07995897
-0.09242108 -0.28832674 0.16477114 0.25036508 -0.08594452 0.07117277 0.13752608 0.20131257
-0.16243386 -0.04832505 -0.3244529 -0.012346035 0.12944737 0.3828807 0.03212254 -0.52930754
-0.042719185 0.049847454 0.35519034 0.29567394 -0.11808269 0.047382474 0.18959062 -0.34563535
0.05854111 0.34335023 0.062121827 -0.14143378 0.09563493 -0.21079844 0.31089196 -0.024027295
0.15839416 -0.02401781 0.22750786 0.23890297 -0.04758046 -0.062864445 0.10245903 0.0533163
-0.12075391 0.41571173 0.42036238 -0.11520629 0.25568974 -0.29803744 0.08317296 0.22228889
-0.09571955 0.1374675 -0.21601687 0.18905316 -0.05438407 -0.10442612 0.30166158 0.41850376
0.04170896 0.41986006 0.1355238 -0.015473565 0.09704844 0.19789688 0.11727014 0.21870202
0.17508951 -0.18753459 0.027620517 0.11454979 -0.060359094 -0.18170784 0.21032804 0.031325668
-0.19874136 0.053919327 0.29039344 -0.10245722 0.28761926 -0.33191866 0.12549634 0.33510652
0.013336452 -0.027882362 -0.281378 0.20452172 -0.13474908 0.18216491 0.060772937 0.26145
00000000: 9dd0 2ebe 3757 1e3e 33de b4bd 6667 ed3d
00000010: b961 a3bd c181 ae3d e9e0 61be abd1 0b3d
00000020: 5f57 e6bd fd89 c73d 9b8f 27bc bc47 8cbd
00000030: bc8e 4c3d 9864 b13c 4495 36bd 873e c5bc
00000040: 1068 68bd 6042 bfbc 6e0a 34be c740 1d3d
00000050: 39a0 1e3e 289b c53c 2005 983d 94e3 693e
00000060: 2f26 6c3d 4ca6 dfbd 3e83 863d 6b53 9a3d
00000070: 60aa 97bd 56e3 ac3d 0f9b 93bd 70a1 2cbe
00000080: 0794 57bc d31c e6bc 9bab 8fb9 2013 84bd
00000090: d4fb e13d 21d5 f53b 82b3 30bc 9833 07be
000000a0: a8c3 cb3d 79db ccbc 9f75 e13d 1547 70bd
000000b0: 2839 1a3d a8df dbbd b899 0d3e 6ba2 cdbc
000000c0: 7e48 d1bd 800a 61be 166d 3fbe 6853 66bc
000000d0: c4fe 07be f96f 483e e93f ed3d 1a9d bbbb
000000e0: dc2c 85bd b687 cfbd 2e85 7cbb e713 9c3d
000000f0: 9281 b63d 9cac a8bd 732c 61bd ae70 dc3d
00000100: 7c83 7b3d 5712 2f3e 98dc 483d 587a 533e
00000110: e814 bf3a 627a 22bd 301b 83bd 15f6 c1bd
00000120: 2484 31bd e2b6 d63e 6f92 56be 7479 6dbe
00000130: 6c8a bd3c 60a6 3cbe 631e 62be 0f65 72be
00000140: f958 d43e cbba 8dbe cd56 21bd a33e 3c3e
00000150: 49a6 ebbd 9a8d 413e 8de2 173e 7464 053e
00000160: c14f d0bb 82b0 29be a584 a8be f93f 85be
00000170: a983 f63d 11b8 a43d db7f 1dbe 1415 38be
00000180: a3f5 ed3d f12d 143e 8f27 fbbb eed3 d2bd
00000190: 32dd a33c cf44 103e 73b2 2b3d 8a42 1a3e
000001a0: 6d20 aa3a 1d35 e5bd 3c3b b8bd 2528 a63d
000001b0: 2f12 573d 6967 493d ec05 e63c 7b79 2abe
000001c0: 2739 10bd d707 9f3d 1230 02be 2162 d93d
000001d0: 0ddb b33d ea82 a43d 0f84 d23c a107 fb3d
000001e0: 774b 1b3e d6c5 9abd 6290 43be ddc5 d9bc
000001f0: 9edb fc3d 7d4d 373e 8b03 0abe 20c1 c63d
00000200: dc5c 713e 193c 983e ebaa 4c3d bb22 783c
00000210: 93a4 c13d 7f46 b83c a0f7 783e c2aa fbbc
00000220: 3ae7 94bd 1621 4e3e 2068 743e f9ca 90bd
00000230: e1f7 0bbd 1ed4 16be 5eb6 5c3d 3131 9cbd
00000240: 888b 653e e251 9abc f151 b13e e1ae bcbd
00000250: 54a3 d2bc 6f06 4abe 13a6 7d3d 0869 2f3f
00000260: 14f3 a1bd d07e 28be b7fe aebe 7f1e 98be
00000270: 2d63 acbd d1f4 d93d c835 1f3e 3268 883e
00000280: d864 17be f5aa bfbe ded9 81bc a8c2 0b3e
00000290: 4af8 fe3d 2507 f53c ed78 a0be 87c1 a33d
000002a0: 4347 bdbd 909f 93be c4b9 283e da2f 803e
000002b0: ae03 b0bd 07c3 913d a3d3 0c3e e224 4e3e
000002c0: 1055 26be 7df0 45bd b11e a6be 0647 4abc
000002d0: da8d 043e f008 c43e ed92 033d b380 07bf
000002e0: 50fa 2ebd d82c 4c3d 82db b53e 9362 973e
000002f0: 56d5 f1bd 2014 423d 0b24 423e 1ef7 b0be
00000300: cec8 6f3d 9acb af3e 7573 7e3d 04d4 10be
00000310: 3fdc c33d 8cdb 57be 3b2d 9f3e e4d4 c4bc
00000320: 1432 223e 00c1 c4bc d2f7 683e fba2 743e
00000330: bae3 42bd 13bf 80bd 0ad6 d13d 3162 5a3d
00000340: d34d f7bd 2bd8 d43e bd39 d73e 46f1 ebbd
00000350: c4e9 823e 5d98 98be 9656 aa3d b39f 633e
00000360: 9d08 c4bd 48c4 0c3e 8733 5dbe 2797 413e
00000370: d5c1 5ebd 5ddd d5bd 6373 9a3e 2046 d63e
00000380: 04d7 2a3d e6f7 d63e c0c6 0a3e d684 7dbc
00000390: 55c1 c63d 7ba5 4a3e 542b f03d 6cf3 5f3e
000003a0: aa4a 333e 1109 40be 6c44 e23c 1599 ea3d
000003b0: 193b 77bd 9f11 3abe 3c60 573e 584f 003d
000003c0: db82 4bbe 83da 5c3d 73ae 943e 17d5 d1bd
000003d0: d542 933e 3ef1 a9be 1d82 003e 1593 ab3e
000003e0: 2281 5a3c 8d69 e4bc c710 90be 246e 513e
000003f0: aafb 09be 7089 3a3e 0bed 783d c6dc 853e

rnn.bias_ih_l0 f4 [32]
0.19987987 0.2033366 -0.025882531 0.20476085 0.1478252 -0.07088678 -0.20220397 -0.05956381
0.01308842 0.25388995 0.24357912 -0.18566154 -0.17528632 -0.077336706 0.08155646 -0.010192365
0.03298449 0.01664874 -0.27812138 -0.35782832 0.09616465 0.2811739 0.20770927 0.06284469
0.08111552 0.27450594 -0.067819506 -0.29953048 -0.1668203 0.08045048 0.028937425 0.07806496
00000000: 4fad 4c3e 7837 503e 9a07 d4bc d4ac 513e
00000010: 7d5f 173e 172d 91bd 8f0e 4fbe 2ef9 73bd
00000020: d070 563c ddfd 813e ce6c 793e 0f1e 3ebe
00000030: 427e 33be b562 9ebd 1307 a73d e1fd 26bc
00000040: bf1a 073d f062 883c ed65 8ebe 4635 b7be
00000050: f9f1 c43d 07f6 8f3e bdb1 543e b8b4 803d
00000060: e51f a63d 0b8c 8c3e f4e4 8abd 0f5c 99be
00000070: f1d2 2abe 39c3 a43d 2e0e ed3c 86e0 9f3d

rnn.bias_hh_l0 f4 [32]
0.12981284 0.14127839 0.25304657 0.043139417 0.11695231 -0.012681922 -0.18891996 -0.104704484
-0.021596445 0.19713001 0.27086416 -0.14362305 -0.0671982 -0.054484315 0.06253532 -0.088097066
-0.026371907 -0.19014163 -0.16295007 -0.23423783 -0.07163516 0.1408018 0.01729305 0.12926972
0.064674735 0.14245076 -0.15128276 -0.2185283 0.017370889 -0.10771503 -0.22518356 -0.22000965
00000000: a8ed 043e 48ab 103e 528f 813e f5b2 303d
00000010: b184 ef3d d6c7 4fbc 3c74 41be 4e6f d6bd
00000020: 07eb b0bc 73dc 493e b5ae 8a3e ec11 13be
00000030: 369f 89bd f22a 5fbd 8512 803d 3c6c b4bd
00000040: e609 d8bc 7db4 42be 62dc 26be 0bdc 6fbe
00000050: 74b5 92bd 592e 103e 28aa 8d3c 485f 043e
00000060: 3074 843d 9dde 113e dee9 1abe e2c5 5fbe
00000070: 654d 8e3c b399 dcbd 8596 66be 364a 61be

fc1.weight f4 [8, 32]
0.39981687 0.22022927 0.47903183 0.46934995 0.25378007 -0.6012537 -0.10141128 -0.41053325
-0.52255595 0.45387998 0.46009114 -0.7000369 -0.39254054 -0.575664 0.7141301 -0.2870098
0.32363686 -0.048393168 -0.1920696 -0.5394919 0.6276126 0.06495715 0.17101082 0.33726597
-0.21142717 0.7320676 -0.29909 -0.28476292 -0.56840247 -0.61083806 -0.08423607 -0.48778057
-0.88843536 -0.5319765 0.7082632 -0.832905 0.92114264 1.1601553 0.94523126 0.9709169
1.1668898 0.13963123 0.568994 0.33140203 1.2646894 1.1510348 0.74693745 1.3785089
-0.14178082 -0.107242264 -0.095345646 -0.5244905 -0.049205855 -0.124007575 0.24978575 0.07681765
1.1027904 0.95234114 -0.047771078 0.19356339 1.3214269 1.0450727 1.2035238 -0.4000091
0.87598 0.017595327 -0.743943 -0.5860159 -1.1112311 0.97625905 -0.07206833 0.8994462
-0.080062844 -0.41875154 -0.8173197 -0.36774623 -0.24438594 0.942561 -0.62135875 0.14512761
0.46865487 0.8755663 -0.39043862 -0.06506855 -0.6216907 -0.051285725 -0.25067422 0.44719586
1.0024747 -0.9063113 0.0026647674 0.7449381 0.532396 -0.83068836 0.79607177 0.5713038
0.33757016 -0.8304488 0.28940162 0.5144784 -0.9770696 -0.23242855 0.16290744 0.699253
0.77258873 -0.70446444 0.30038333 0.6351547 0.755247 1.1712657 -0.75908846 -0.14014581
-0.8132336 -0.012529382 1.092312 0.985884 -0.73449725 -0.09234685 -0.15335457 0.51486796
-0.08837155 -0.84790635 0.85234946 -0.35369176 -0.6989713 0.73737 -0.16190067 -0.46611315
-1.4062511 0.010691398 -0.7611807 -0.814307 0.4747335 -0.48871747 0.15960106 -0.563582
-0.18936148 -0.34909296 -0.8337242 0.9115618 -0.008539394 -0.7771957 -0.66335124 0.14859974
-1.034785 0.055138458 0.7346145 -0.06499564 -0.61832184 -0.076830365 -0.17012799 -0.8357974
-0.3486366 -0.6206261 -0.10427461 0.7283605 0.6127281 0.71531653 -0.16538098 0.5309128
0.16555843 -0.0054149986 -0.71531904 0.11155647 0.80966353 -0.75570613 1.3658699 0.9530607
0.9476387 -0.9707676 -0.88981867 0.7499463 0.08495293 -0.09012596 0.9131695 -0.2125893
0.122963235 0.9751608 -0.19808416 0.77315927 0.43793067 -1.0838906 -1.1691594 -0.9063862
0.24160893 -1.4706999 0.8468642 -0.25427496 -0.3714406 -0.8845272 0.109390736 0.6052731
0.20234983 0.0814001 -0.74905974 0.27935326 -0.9930393 1.91802 -0.36353356 -0.5221656
0.62599015 0.46520078 -0.67911077 0.6248565 0.09913721 -0.28057012 -1.3158628 1.2363378
0.19510895 0.282114 0.05177106 1.0731958 0.47110695 -0.6463756 -1.1027914 -0.72560513
-0.14975767 1.319049 0.56665325 -0.27572298 -0.28976926 1.1258397 0.028497823 0.86865056
-0.56313163 -0.5287469 -0.33277148 -0.08790996 -0.16905218 0.22995788 0.5216701 -0.1007657
0.1724154 0.18421671 -0.39393675 -0.17053455 0.52553785 0.19550629 -0.124699466 0.37607214
-0.3888516 0.5512729 0.38481513 0.83988905 -0.027177215 -0.4901994 -0.79735595 -0.4353536
0.63550884 -0.2232242 0.44607043 0.2978862 0.01696541 -0.17188342 0.53486526 0.0054436345
00000000: ccb4 cc3e c883 613e a943 f53e a34e f03e
00000010: 76ef 813e c3eb 19bf b8b0 cfbd 6a31 d2be
00000020: 3ac6 05bf f562 e83e 1191 eb3e 9e35 33bf
00000030: 13fb c8be b75e 13bf 3bd1 363f f3f2 92be
00000040: bbb3 a53e ea37 46bd e5ad 44be 241c 0abf
00000050: 38ab 203f 4108 853d 761d 2f3e 20ae ac3e
00000060: 5d80 58be c868 3b3f 5322 99be 72cc 91be
00000070: d382 11bf e25f 1cbf f683 acbd 60be f9be
00000080: 8070 63bf 9d2f 08bf bd50 353f 4339 55bf
00000090: 01d0 6b3f f87f 943f adfa 713f 038e 783f
000000a0: a55c 953f 7dfb 0e3e 97a9 113f 87ad a93e
000000b0: 58e1 a13f 1c55 933f 4b37 3f3f fb72 b03f
000000c0: fe2e 11be d5a1 dbbd 9444 c3bd 0245 06bf
000000d0: 148c 49bd aff7 fdbd d6c7 7f3e 9252 9d3d
000000e0: 3c28 8d3f a1cc 733f 9bab 43bd 7b35 463e
000000f0: 8424 a93f f1c4 853f 110d 9a3f fecd ccbe
00000100: 3a40 603f 1324 903c 0c73 3ebf 2305 16bf
00000110: d23c 8ebf 1dec 793f 9098 93bd 1b42 663f
00000120: fdf7 a3bd 9a66 d6be dd3b 51bf 3c49 bcbe
00000130: 4f40 7abe ad4b 713f 5e11 1fbf 559c 143e
00000140: 88f3 ef3e 1d25 603f 92e7 c7be a942 85bd
00000150: 1f27 1fbf fb10 52bd 5f58 80be dbf6 e43e
00000160: 1751 803f 0404 68bf 61a3 2e3b 43b4 3e3f
00000170: 1b4b 083f fea7 54bf 5ccb 4b3f f740 123f
00000180: ffd5 ac3e 4b98 54bf 732c 943e dbb4 033f
00000190: 3c21 7abf c001 6ebe 35d1 263e 3f02 333f
000001a0: 60c8 453f c857 34bf d8cb 993e 8099 223f
000001b0: de57 413f 09ec 953f 9f53 42bf 6282 0fbe
000001c0: 1430 50bf 0948 4dbc e1d0 8b3f e562 7c3f
000001d0: 0308 3cbf 5820 bdbd fb08 1dbe 63ce 033f
000001e0: 25fc b4bd 6410 59bf 9333 5a3f 1617 b5be
000001f0: c8ef 32bf 48c4 3c3f 4ac9 25be 62a6 eebe
00000200: 0900 b4bf f92a 2f3c bddc 42bf 6c76 50bf
00000210: 4510 f33e 2d39 fabe 766e 233e e946 10bf
00000220: fae7 41be 50bc b2be f36e 55bf 1d5c 693f
00000230: d0e8 0bbc 4cf6 46bf 63d1 29bf 882a 183e
00000240: d673 84bf ddd8 613d b20f 3c3f 6f1c 85bd
00000250: 574a 1ebf 3d59 9dbd 0836 2ebe d2f6 55bf
00000260: 7f80 b2be 5ae1 1ebf ed8d d5bd d575 3a3f
00000270: c0db 1c3f fc1e 373f a259 29be e7e9 073f
00000280: 2688 293e 4d70 b1bb 261f 37bf b877 e43d
00000290: 1c46 4f3f f575 41bf d3d4 ae3f c9fb 733f
000002a0: 7398 723f 3a84 78bf 28cb 63bf 7bfc 3f3f
000002b0: cdfb ad3d f693 b8bd 7ac5 693f 02b1 59be
000002c0: 26d4 fb3d 23a4 793f 93d6 4abe c4ed 453f
000002d0: 7338 e03e edbc 8abf 04a7 95bf ed08 68bf
000002e0: 5568 773e e53f bcbf 18cc 583f 5430 82be
000002f0: 762d bebe 6070 62bf 4008 e03d 2ef3 1a3f
00000300: cb34 4f3e 18b5 a63d 61c2 3fbf 6407 8f3e
00000310: d337 7ebf ae81 f53f 1221 babe a5ac 05bf
00000320: e440 203f cc2e ee3e 34da 2dbf 98f6 1f3f
00000330: 7308 cb3d e3a6 8fbe 316e a8bf 5140 9e3f
00000340: a4ca 473e 3f71 903e e40d 543d 7b5e 893f
00000350: ee34 f13e df78 25bf 4528 8dbf 42c1 39bf
00000360: 135a 19be 99d6 a83f 3010 113f 902b 8dbe
00000370: a35c 94be 841b 903f 4474 e93c e25f 5e3f
00000380: 6529 10bf f55b 07bf 0661 aabe 230a b4bd
00000390: 041c 2dbe 147a 6b3e 2c8c 053f 3f5e cebd
000003a0: aa8d 303e 4ea3 3c3e 14b2 c9be 9ca0 2ebe
000003b0: a689 063f cd32 483e 6f62 ffbd 878c c03e
000003c0: 8f17 c7be 3920 0d3f 7d06 c53e f802 573f
000003d0: c0a2 debc 6afb fabe 851f 4cbf abe6 debe
000003e0: b5b0 223f e294 64be 5863 e43e 8a84 983e
000003f0: 0bfb 8a3c 3502 30be eeec 083f 8460 b23b

fc1.bias f4 [8]
-0.27487957 0.2233585 -0.28948364 -0.39986223 -0.23456447 -0.44389462 -0.31494087 -0.47199616
00000000: 04bd 8cbe 17b8 643e 3337 94be beba ccbe
00000010: ab31 70be 2846 e3be ee3f a1be 7ba9 f1be
