src/main/python/saved_models/python3_1_28_RNNClassifier1_128embs_102id_32hd_1hl_Truebid_1.pt (torch, 97823 bytes, 11 tensors)

word_embeddings.weight f4 [102, 128]
000000 ec c5 02 40 b2 57 bc bf 97 2b 1a bf 02 54 9d bf
       2.0433302 -1.4714262 -0.6022276 -1.2291262
000010 48 a2 2b 3f 32 ae 9f bc 8e 5e 8f 3f 9d 3c 01 3d
       0.67044497 -0.019492242 1.1200731 0.031551946
000020 45 ab 66 be 89 5b 3c bf 8c 26 a5 3f 8e b8 ea be
       -0.22526272 -0.7357717 1.2902389 -0.4584393
000030 3c a5 b7 be 01 fe 80 be 9f 46 11 c0 ec 80 ca 3f
       -0.3586825 -0.2519379 -2.2699354 1.5820594
000040 0a 30 b1 bf 54 7d 83 3f e0 af 05 3f 80 23 1a c0
       -1.3842785 1.0272622 0.5222149 -2.4084167
000050 45 64 11 c0 a9 e7 25 bf 81 16 c1 3e a0 40 59 3f
       -2.271745 -0.6480661 0.37712482 0.84864235
000060 e3 7b e1 bf 99 98 60 be 50 07 42 3e 59 ad 88 3f
       -1.7615932 -0.21933211 0.18948102 1.0677902
000070 ea b1 de 3e 3f 79 04 3e cc 10 92 3f be d2 11 be
       0.43495113 0.12936877 1.1411376 -0.14240548
000080 39 f6 f5 3e c3 b6 d8 3e d0 dd d2 3f ad 2c a1 3f
       0.48039415 0.42326936 1.6473942 1.2591759
000090 81 65 91 3f ce 19 25 bf da 1d ed 3f 79 e2 96 be
       1.1359102 -0.644925 1.8524735 -0.2946966
0000a0 cb f4 dc bf 71 a9 e4 bf a9 c2 58 bb 1d 80 e3 bd
       -1.7262205 -1.786421 -0.003307501 -0.1110842
0000b0 dd f1 1e 40 81 6a d6 bd 08 2d 23 bf 1c 1f b1 3e
       2.4835122 -0.10469533 -0.6374059 0.34594047
0000c0 59 c1 f9 3e 3a 0b 82 3f 61 51 04 c0 07 80 97 bf
       0.48780325 1.0159676 -2.067467 -1.1835946
0000d0 29 cb 60 bf f4 86 eb be 0c de d6 bf 7b be 82 3f
       -0.8781 -0.460014 -1.6786513 1.021438
0000e0 8e 46 80 3e 6d ca a5 be 30 8c 74 bf 8d 1c 5b bf
       0.2505383 -0.32381 -0.9552641 -0.8559044
0000f0 c7 11 b0 3f ca 6d 45 3f 5b 8d 43 3c 13 b8 5c bf
       1.3755425 0.7712065 0.011935557 -0.86218375
000100 7c 93 38 bf 1b a3 fd be 2d f7 9c bf 20 f4 cd be
       -0.72100043 -0.49538502 -1.2262932 -0.40225315
000110 6f d6 a0 3e a3 30 45 3f bf 81 2a 3f b2 1e 3a bd
       0.314136 0.7702734 0.66604227 -0.04543943
000120 b1 4a f8 bc 10 da 25 bd fd fc a5 bf 8f 80 26 3f
       -0.030309053 -0.040491164 -1.2967831 0.65039915
000130 ba 98 f8 be b0 12 aa be 42 6b 4b 3f 46 4d 08 40
       -0.4855402 -0.33217382 0.7946054 2.1297164
000140 50 2c ad bf 02 54 27 bf 22 8f c1 be 29 20 50 be
       -1.3529148 -0.6536256 -0.37804514 -0.20324768
000150 12 0a 79 3f 3d 6c 7c 3f c8 52 be bf 21 60 0d bf
       0.9728099 0.9860266 -1.4869013 -0.55224806
000160 91 9e d6 bf 6a 74 a4 3f 86 e0 c9 3f da ce f1 3e
       -1.6767141 1.2848027 1.5771644 0.47228128
000170 32 e9 20 3f 94 0d 97 3f 0d 0e d4 be a0 a9 32 be
       0.6285583 1.1801019 -0.4141697 -0.1744752
000180 d0 1b bf bf c6 60 06 40 bf 8c 85 be 17 b7 08 bf
       -1.4930363 2.0996566 -0.26083943 -0.5340437
000190 e4 66 02 bf ca 76 a4 bf 73 3e df bf 44 ca 83 be
       -0.5093825 -1.2848752 -1.7440933 -0.25740254
0001a0 bc dc 48 3f 5d 66 24 3f 96 38 c5 3f cf 67 f2 3f
       0.78461814 0.64218694 1.5407894 1.893793
0001b0 13 67 69 3f 5a a1 d3 be 3c 38 4c 3f 5d a6 07 bf
       0.91172904 -0.4133404 0.79773307 -0.52988225
0001c0 6f b1 77 bf 96 76 1c c0 98 df 38 bf a8 37 ef bf
       -0.9675512 -2.444738 -0.72216177 -1.868886
0001d0 cf 2a 8d bf 0c 33 81 bf 6f 86 15 3f 8b 9f 2f 3f
       -1.1028689 -1.0093703 0.58408254 0.6860282
0001e0 10 be b6 bd e3 b2 a2 bf ba 87 94 bf 00 f4 d7 be
       -0.0892297 -1.2710842 -1.160392 -0.42178345
0001f0 a5 71 9e 3f a8 2e ab bf f4 30 28 bf e6 eb d4 3e
       1.2378432 -1.3373613 -0.65699697 0.41586226
000200 90 20 fc bd d5 74 92 3f 72 5b 4e be bc 2e ea 3e
       -0.12310898 1.1441904 -0.20152071 0.4573878
000210 61 14 2a bf a1 e5 c4 3f a5 b3 63 be ce 4a e9 bf
       -0.66437346 1.5382577 -0.22236498 -1.8225954
000220 ad 19 cd 3e 5f 36 43 bf ff 73 b6 3c cb b9 bf 3e
       0.40058652 -0.7625484 0.022272108 0.37446436
000230 36 d5 92 3f 27 04 59 3e 0a d4 cd be f0 9b 0d 3f
       1.1471317 0.2119299 -0.40200835 0.55316067
000240 db 6c 8f be aa 88 96 3f 3e 0c 06 bf 4f 01 a0 bf
       -0.28012738 1.1760457 -0.5236243 -1.2500399
000250 a1 b5 1a bf 41 76 99 bf 38 8c c6 bf 47 8b a1 3b
       -0.60433394 -1.1989213 -1.5511541 0.004929933
000260 3d ad 2d c0 91 be b9 3f bb e1 13 c0 de 33 ba 3f
       -2.7136986 1.4511281 -2.3106525 1.4547079
000270 f6 58 b6 bf 44 fc a3 3f ef ea c5 3f f5 25 a3 3f
       -1.4245899 1.281136 1.5462321 1.2745959
000280 e7 06 89 3e ff e3 62 3f 85 32 44 3d 34 6f 1d be
       0.2676308 0.88629144 0.04789974 -0.15374452
000290 38 0b 6b bf f1 2f 90 3e cc cf 97 bf 11 7b 30 bf
       -0.91813993 0.28161576 -1.186029 -0.68937784
0002a0 0a c0 ad 3f d4 37 37 3f 3a 43 06 40 80 0b 3a bf
       1.3574231 0.7156956 2.0978532 -0.726738
0002b0 6b 43 4f bf 0f 7e f5 3f c5 bb 82 3f 65 3d 6c 3f
       -0.80962247 1.9179095 1.0213553 0.9228118
0002c0 52 ce 6b 3f 39 08 d6 be bd 2e ad 3f 89 b7 8e bf
       0.92111695 -0.41803148 1.3529888 -1.114976
0002d0 e9 4f 9a bf 8d 6b d7 bf 7b 2b 16 3e 40 51 53 be
       -1.2055637 -1.6829697 0.14665024 -0.20636463
0002e0 d8 a7 b9 3e 43 c9 e0 be ca 46 9e be cc 7d 9e bc
       0.36260867 -0.4390355 -0.30913383 -0.019347094
0002f0 ac bd 66 bf 7f 26 31 bf 8c 4f ed be d8 9a 4b bd
       -0.90133166 -0.69199365 -0.46349752 -0.049708217
000300 c5 2f 6b 3e c4 60 a9 3e 2c e8 3b be 73 a5 d6 3e
       0.22967441 0.3308164 -0.18350285 0.41923103
000310 00 c6 c9 be 2d e9 6d bf 6c 61 d7 3f 98 59 01 3f
       -0.39408875 -0.92933923 1.6826606 0.50527334
000320 ae 81 c2 3e 87 58 22 bf c5 dd 8e be da 95 3e bf
       0.37989563 -0.6341633 -0.27903572 -0.74447405
000330 04 34 4b bf 5a 7f be 3f 9c dc 9d bf d0 18 72 3f
       -0.79376245 1.4882615 -1.233295 0.9456911
000340 fd 0f 08 bf fb ad 12 3f ee 2f 53 be c3 62 be bf
       -0.53149396 0.57296723 -0.20623752 -1.487389
000350 a8 d3 fd 3f 3a 18 fb bf eb e9 58 bf a0 fe 16 3f
       1.9830217 -1.9616768 -0.8473193 0.58982277
000360 63 f5 a2 bc bc 47 5b 3f dd 01 0f 40 0d d5 a6 3c
       -0.0198924 0.8565633 2.2344887 0.020365262
000370 6d b5 9d 3e 7b c7 e5 3f 16 d3 0d c0 bd aa f0 3e
       0.3080248 1.7951502 -2.2160087 0.47005263
000380 f2 eb f5 3e a3 81 d4 3e 34 69 01 3e 76 42 ff bf
       0.48031574 0.41505155 0.12637788 -1.9942157
000390 f1 d0 82 3f f3 f9 fc be 7a fa 3e 3e 8a db bc be
       1.0220014 -0.49409446 0.18650237 -0.36886245
0003a0 ef 82 cb 3e 2f 61 11 c0 7d 51 a7 be e4 70 e6 bd
       0.39748332 -2.2715566 -0.32679358 -0.11252001
0003b0 4f b3 a9 be b0 9d 7b bf 61 2f bb 3e 36 35 b3 be
       -0.33144614 -0.9828749 0.36559585 -0.35001534
0003c0 fe 6f 95 3f 7b 09 89 bf 26 aa 9d be 95 1c 1b bf
       1.1674802 -1.0706018 -0.30793875 -0.6059049
0003d0 30 f1 e6 be 90 67 78 3f a6 28 7a be c7 98 ca 3e
       -0.45105886 0.97033024 -0.24429569 0.39569685
0003e0 19 92 52 3f 4c 54 28 bf 89 25 56 3f 99 fb 81 bd
       0.8225418 -0.65753627 0.83651024 -0.063468166
0003f0 90 5c 13 be 7d 4e bf 3d 6b b5 e7 bf 4c 8f 9b bf
       -0.14390779 0.09341142 -1.8102239 -1.2153106

rnn.weight_ih_l0 f4 [32, 128]
000000 0c 77 b1 bd 26 4b 0b 3d 19 17 85 bd 1c 8a 91 3d
       -0.086652845 0.034007214 -0.06498546 0.071064204
000010 60 9a 93 3d 7a 2c 3b 3d 33 a2 07 be c5 52 15 3d
       0.07207179 0.045696713 -0.13245468 0.03645589
000020 04 a4 9f 3d ac eb 81 3d 40 85 1e 3d e8 0a 5d bd
       0.077949554 0.06343779 0.038701296 -0.05396548
000030 ba fd 81 3d d0 5a 99 3b f0 84 96 3c 0e 4b 31 bd
       0.063472226 0.004680015 0.018373936 -0.04328447
000040 77 16 05 bd 14 34 89 3d 85 a5 17 3e 5e f0 0a be
       -0.032492127 0.06699386 0.14809234 -0.13568255
000050 ce 63 a8 3d db f7 88 bd 7b 50 b7 3d f4 ec 19 bd
       0.08222161 -0.066879 0.08950897 -0.03757949
000060 9e b0 f0 ba d4 18 23 3e b2 72 8d 3d 12 84 ba bc
       -0.0018363183 0.1592744 0.06906642 -0.022768054
000070 f2 4d a6 3d 9c f6 4b 3e a4 3e 93 bd c9 72 19 bd
       0.08120336 0.19918293 -0.07189682 -0.037462983
000080 c2 f6 8a 3d 3d 35 b8 3c b8 a7 85 3d 72 69 23 3e
       0.067853466 0.022486323 0.065261304 0.15958193
000090 f1 dc 16 be 24 44 10 3e 92 26 7e bd 0f 40 6d 3c
       -0.1473272 0.14088494 -0.062048502 0.014480605
0000a0 82 0f 31 be 7e d8 9d 3d d6 11 80 3c 83 af bc 3c
       -0.17291072 0.07707308 0.015633505 0.02303291
0000b0 df ec 06 bd 20 9f ec 3d 1b 96 34 be c9 01 df 3b
       -0.03294074 0.11553788 -0.17635386 0.0068056327
0000c0 3d 13 67 3d 5e 01 33 3e e2 3e 48 3e 97 dd f7 bd
       0.05641483 0.1748099 0.19555238 -0.12102812
0000d0 b4 76 00 be 13 0b a4 3d f6 1f e2 3d a8 a1 f7 bd
       -0.12545282 0.08009925 0.11041252 -0.1209138
0000e0 64 07 6c be d3 1d 41 3e 50 92 6d 3e 7a c4 32 bd
       -0.23049694 0.18859033 0.23200345 -0.043644406
0000f0 30 3c c2 3d 2f 2d 2a bd 21 82 30 3c a6 b5 3d 3e
       0.09484136 -0.041546997 0.010773213 0.18526325
000100 bf ff cf 3d 79 90 4d 3d eb 83 c4 bd 50 6b 07 3e
       0.101562016 0.050186608 -0.09595474 0.1322453
000110 30 97 c3 3d d4 0c 33 be 4a d4 27 3e de 43 bb bd
       0.09550321 -0.17485362 0.16389576 -0.09143804
000120 0a fb 86 3d 7a e7 38 3e 39 1f 88 bd a0 eb 00 3e
       0.06590851 0.18057051 -0.0664658 0.12589884
000130 f8 74 a3 3d e2 15 ef bd 25 51 fc 3c b3 14 d1 3d
       0.079812944 -0.11674096 0.030800411 0.10209026
000140 3e 88 ed bd 7b ed dc 3d 31 99 8d 3d 77 f0 65 bd
       -0.11598252 0.10787483 0.069139846 -0.05613753
000150 55 ac 0d be 9e 0c 00 bd c7 99 f8 3d 80 2a ee bd
       -0.1383527 -0.031262033 0.12138706 -0.116292
000160 67 87 46 bd 40 7f 17 be e2 d9 18 be 0e 1b 3d 3e
       -0.048468973 -0.14794636 -0.14926866 0.18467352
000170 a4 87 6b 3c 77 f3 be 3c 22 30 06 b9 5c 41 f6 3b
       0.014375601 0.023309452 -0.00012797167 0.0075151157
000180 e7 07 27 3d ff 17 a0 bc 36 cc 1e be a4 50 b9 3d
       0.04077902 -0.019542692 -0.15507588 0.09048584
000190 c1 68 87 3d 3b 89 02 be c5 ac 87 3c 25 76 73 bd
       0.06611777 -0.12747662 0.016561875 -0.059438843
0001a0 6c 16 61 bd 70 93 93 3d c3 6d 14 bb f5 4c 97 bd
       -0.054953024 0.07205856 -0.002264843 -0.07387725
0001b0 0a eb e0 3c 9f 50 90 bd 9b b4 c3 bd 55 ee 63 be
       0.027455825 -0.07046627 -0.09555932 -0.22258885
0001c0 25 4c 7c bd aa 8b 3e 3e c3 b8 5f 3e ab f0 20 bd
       -0.061596055 0.18607965 0.21847825 -0.03929202
0001d0 fb 44 02 3a b5 d4 01 be 91 32 d6 3d 8d 21 c1 3c
       0.00049693853 -0.12678798 0.104588635 0.023575569
0001e0 43 e2 07 bd 64 66 19 be 02 f5 52 be 3f 37 2c 3d
       -0.033174764 -0.14980465 -0.20601276 0.042044874
0001f0 cd e1 e6 3d 1b d6 45 be 7f 68 bd bd bf 6e 0e 3e
       0.11273537 -0.19319956 -0.09248447 0.13909434
000200 2a a6 43 3d 09 10 cf 3d 88 be 15 3e 78 77 1f 3d
       0.04776589 0.1011048 0.14623463 0.038932294
000210 52 e0 ee bd 35 63 2c be 33 ea 7c be e5 40 32 3e
       -0.116638795 -0.1683472 -0.24698715 0.17407568
000220 de 4d 0a bc 23 02 31 be 34 15 ef 3c 3a f2 36 3e
       -0.008441417 -0.17285971 0.029184915 0.1786584
000230 09 8b c4 3b 6d 9c aa 3c 54 23 a8 bd a6 a7 5e 3d
       0.0059980196 0.020826543 -0.08209863 0.0543591
000240 e7 7c 8a 3d 80 fe 9c 3d da 01 25 3e 58 7f 08 3d
       0.067621045 0.076657295 0.16113988 0.03332457
000250 b4 20 49 be b2 86 c6 bd 2f 1d 87 3a 1e 1c a8 3c
       -0.19641382 -0.0969366 0.001030838 0.02052122
000260 d7 39 1d be 11 81 5c bc c0 dc 9c bd 75 7f a0 bd
       -0.15354095 -0.013458506 -0.07659292 -0.078368105
000270 c7 09 09 3e 51 5f bf 3d d9 be ba bc 5b a2 fd bd
       0.13382636 0.09344352 -0.022796081 -0.123844825
000280 1a bb 96 3c ca 49 eb bd 13 85 ec 3d 2c a0 40 3d
       0.018399764 -0.114886835 0.115488194 0.04702775
000290 57 2d 5c 3d c4 4b cf 3d 35 c2 0b be d0 e8 4f 3c
       0.053754177 0.10121873 -0.13648303 0.012689784
0002a0 99 16 6a 3d 5b a5 d3 bd ee 83 4b bd 58 17 f0 bd
       0.057150457 -0.103342734 -0.049686365 -0.117232025
0002b0 72 96 a9 3c 79 c1 24 3d 87 39 97 3e 2c da e4 bc
       0.02070162 0.040223572 0.29536077 -0.027936064
0002c0 bf ed 70 bd 5f 14 0a be cc b4 32 3c 0b a5 1b bc
       -0.058820482 -0.13484333 0.010907363 -0.0094997985
0002d0 e7 be c9 bc e4 78 d7 3d 70 41 99 bd de 24 2a bd
       -0.024627162 0.10521105 -0.07483184 -0.041539066
0002e0 5f 1d ad bc 30 66 c6 3c 50 42 1f be 12 eb 9c 3b
       -0.02113217 0.024218649 -0.1555264 0.0047887648
0002f0 47 88 d4 3c fd 14 5a 3d 19 e1 fe 3d 95 ee 26 3e
       0.025943888 0.053242672 0.12445278 0.1630195
000300 dc d7 ba bc 69 79 ed bd 11 bd 96 3d 2c 3e e6 3d
       -0.022808008 -0.11595423 0.0736028 0.11242327
000310 c5 d2 48 3e 3a 7c ed 3c b8 4c e4 bd 7f 80 c4 bd
       0.19611652 0.0289899 -0.111474454 -0.09594821
000320 a6 71 e7 bb f8 69 3f 3e 5b 39 9b 3d 8a 71 83 3d
       -0.0070631085 0.18692768 0.07579299 0.0641814
000330 a1 1c c2 3d f8 e8 64 be 08 39 fd bc 5a 9d 2a 3e
       0.09478117 -0.22354496 -0.030910984 0.16661587
000340 33 4b 07 3e c1 a8 70 be bf 0e 1d 3d c4 a2 4c 3e
       0.1321228 -0.23501875 0.03834414 0.19983965
000350 0e 07 17 be fc b4 5a 3d 3d 5b 8d 3d 06 e2 ad bd
       -0.14748785 0.053395256 0.06902168 -0.08490376
000360 9c 55 2e 3d 93 43 47 be ef 18 2a 3c 2f 00 ed bd
       0.042562112 -0.19459371 0.010381921 -0.11572301
000370 3e 31 28 bd 7d ab 03 3e 92 65 1b 3e 0e 4a e5 3d
       -0.041062586 0.12858386 0.15175465 0.111957654
000380 29 00 32 3c 7c c4 6f bd 02 34 08 3e 10 07 e8 3d
       0.010864296 -0.05853699 0.1330109 0.11329472
000390 66 f2 38 bd 8a 4a 60 bc 82 46 89 3d 26 5d aa bc
       -0.045153044 -0.0136896465 0.067029014 -0.02079637
0003a0 31 0b 5f 3e 35 bd 79 bd 05 20 44 be 89 5e 7f 3d
       0.21781613 -0.060971458 -0.1915284 0.062346015
0003b0 71 6c 9a 3d ce bd bb bd a5 ef 91 bd 6e bf 60 be
       0.07540215 -0.09167062 -0.07125787 -0.21948025
0003c0 69 40 d6 bd a0 4b 1c 3e 48 de cf 3d 6c 27 4a bd
       -0.10461504 0.15263224 0.10149819 -0.049354002
0003d0 4b bc c4 ba b1 3b f7 3c db 84 ed bd 1c 52 3b 3d
       -0.0015009729 0.03017983 -0.11597606 0.045732602
0003e0 af c6 0e 3d 59 c0 b2 3d b8 f8 d7 3d d0 a8 40 3d
       0.03485745 0.08728094 0.10545486 0.047035992
0003f0 dd 37 7e be ca 83 b8 3d 8d a3 1a be 9e 18 1b 3c
       -0.24825998 0.09009512 -0.15101452 0.009466318

rnn.weight_hh_l0 f4 [32, 32]
000000 96 37 de bd c2 fc 41 be a6 d5 aa be 19 7c 57 3e
       -0.10850446 -0.18944076 -0.33366126 0.21043433
000010 70 b4 da 3e 2c a8 60 3c 75 00 0e 3d 45 00 14 be
       0.42715788 0.01371197 0.034668405 -0.14453228
000020 c0 76 ab bd 9f e9 aa 3c c7 3b 71 be ae e4 d1 3c
       -0.08372259 0.020863352 -0.2355796 0.025621738
000030 9b 87 46 be 07 ef c2 bc 73 a6 0d 3e d5 4d 6b 3e
       -0.19387667 -0.023795618 0.13833027 0.2297891
000040 40 e9 83 be c6 58 04 3d a3 92 a3 be 5a 47 d2 3c
       -0.25763893 0.032311223 -0.31947812 0.025668789
000050 86 c4 7f be 3b 1b d7 bb e0 e6 0f 3d ca fa 31 be
       -0.24977311 -0.0065645254 0.03513229 -0.17380825
000060 c9 68 57 3e 55 84 c1 bd db ce 77 3e 6b 7e c5 3d
       0.21036066 -0.094490685 0.24200003 0.09643253
000070 e3 26 4b be 22 78 96 be 36 d4 83 be e5 1f 28 be
       -0.19839053 -0.2938853 -0.25747842 -0.16418417
000080 25 fa ee bd 50 07 30 3e 2a c2 9a 3e 96 1e 55 be
       -0.11668805 0.1719029 0.3022626 -0.20812449
000090 c8 70 27 3e b1 68 44 bd 8b 9a af bd 00 cf e9 bd
       0.16351616 -0.047951404 -0.085743986 -0.11416435
0000a0 0c 7d 99 bd 11 e3 6e 3e c3 58 84 3e 64 e6 ee bc
       -0.07494554 0.23328806 0.2584897 -0.029162593
0000b0 5c 7b 94 3e ad b2 20 bd 65 c3 8e b9 23 fb 2b bd
       0.29000366 -0.0392329 -0.0002722993 -0.04198755
0000c0 00 34 bd 3e 2e 6e a9 3e 20 c2 d0 bd f3 f5 b1 bd
       0.36953735 0.33091873 -0.101932764 -0.08689489
0000d0 69 15 56 3e f6 1c e2 be 2b 83 2a 3e a9 22 32 3e
       0.20906605 -0.4416272 0.16651599 0.17396034
0000e0 7d 3b 45 be 18 41 8f 3e 94 fa 1b be c0 84 8a be
       -0.19260974 0.2797935 -0.15232307 -0.27054405
0000f0 42 83 61 3e ab 2b 8b 3e 75 d5 28 3d 38 7e ab 3c
       0.22022727 0.27181754 0.041219193 0.02093421
000100 11 62 25 3d 24 d2 cb 3d 23 ce 96 3e 99 70 cb bd
       0.040376727 0.099521905 0.29454145 -0.09933586
000110 bb d9 a0 be 09 ab 27 3e d4 21 3f be 66 14 44 bd
       -0.31416115 0.16373838 -0.18665248 -0.047871016
000120 a5 60 0b 3c df a4 d7 bd 70 6d bf 3e f7 e2 e5 3d
       0.008506929 -0.105294935 0.37388182 0.11224931
000130 9e a6 74 3c 23 ea 69 3e c0 93 ab be 7b fb 4c be
       0.014932303 0.22843222 -0.33511162 -0.20017807
000140 89 c4 93 3e 61 bc 29 3c b1 80 cc 3e 4f 63 b5 3d
       0.28860882 0.010359854 0.39941934 0.08856832
000150 10 54 7d 3e 90 ed 3e 3c 4f d5 2a be 57 7a b0 3d
       0.24739099 0.011653319 -0.16682933 0.086170845
000160 6d bf d0 bd 70 91 0d 3e ac 85 0b be 4a ea ae be
       -0.101927616 0.13825011 -0.1362521 -0.34163123
000170 38 3a 8d 3e 41 8a 97 3e 6b 7e 64 3e 85 11 3e 3e
       0.2758348 0.29597667 0.2231385 0.1856137
000180 f9 b4 3b 3e b6 2f 8c bd 67 d6 f9 3d be 34 b2 bd
       0.18330754 -0.06845038 0.12199097 -0.08701466
000190 dc 12 43 3c a7 5e 19 bb 08 71 ea 3b f1 92 78 bd
       0.011906352 -0.0023402364 0.0071545877 -0.06068701
0001a0 02 da b6 3d 07 bd 03 be 28 f0 a9 3d 01 de 73 bd
       0.089283004 -0.12865077 0.08297759 -0.05953789
0001b0 d7 85 f5 bd 67 86 3b bd 6f a0 ac 3d a9 29 e9 3d
       -0.119884185 -0.045782473 0.08429038 0.11384899
0001c0 10 27 24 bd 94 70 7c bd 32 1f e6 3a 64 6e da 3d
       -0.040076315 -0.0616308 0.0017556904 0.106655866
0001d0 9f 54 c5 3d c7 6c de bb 42 3a 78 3e 2c 72 91 bd
       0.09635281 -0.0067878696 0.24240974 -0.07101855
0001e0 f1 93 a1 bc a9 31 6b be 73 ec 88 3d 80 9d d7 bd
       -0.019723864 -0.22968163 0.06685724 -0.105280876
0001f0 d1 7e 45 3c d4 4b c4 bd 89 d8 08 bd a9 5a b5 3c
       0.012054161 -0.095847756 -0.03340963 0.022137957
000200 83 31 f7 3c 75 b1 ca bd ae 85 2e be 9d 19 1d 3c
       0.030174976 -0.098971285 -0.17043182 0.009588626
000210 d3 f6 7b 3e 80 ee 0a 3d f6 2c 61 3e 66 8c 00 3e
       0.24605875 0.033918858 0.21989807 0.12553558
000220 8e ce 2a bd c1 b4 5d 3d 52 78 46 bd d4 63 ee bd
       -0.041700892 0.05412746 -0.04845459 -0.116401345
000230 80 00 81 bc 78 b6 b1 bd 1c 8c 59 3e af 17 60 3d
       -0.015747309 -0.08677381 0.21244854 0.054710086
000240 b0 68 6c be 70 22 2c 3d 8c 8d 35 be 25 10 d1 3d
       -0.2308681 0.04202503 -0.17729777 0.102081574
000250 6d f4 c4 bd 55 53 41 3d 62 93 46 3e a8 4a 19 be
       -0.09616933 0.047198612 0.1939216 -0.14969885
000260 42 47 11 3e cf c0 68 bb a8 0a 49 3e 62 4e 84 3e
       0.14187339 -0.0035515314 0.19632971 0.2584105
000270 91 fc 0f be 0d 55 70 be d6 36 e7 be 64 a7 fa bc
       -0.1406119 -0.23469944 -0.45159024 -0.030597396
000280 53 ba f0 3b 6a d3 4b 3e 40 c0 90 3e bf 00 e1 bd
       0.0073464303 0.19904867 0.28271675 -0.109864704
000290 39 ae a2 bd c7 4a 17 3d fb 59 95 bd 2a 4b 2f be
       -0.079433866 0.036936548 -0.07292553 -0.17118517
0002a0 59 82 39 3e 25 35 07 3e 0f 90 13 3e f6 a6 22 3e
       0.1811613 0.13203867 0.14410423 0.15884003
0002b0 8a 49 51 bc f2 46 b5 3d a9 c2 af bd ae a9 51 be
       -0.012773881 0.08851422 -0.0858205 -0.20474884
0002c0 c6 ce 0b 3e 03 d4 ac bd 52 d5 7c 3e 86 be 3f be
       0.13653097 -0.084388755 0.2469075 -0.18725023
0002d0 77 28 0d 3d b6 6a f9 bc 31 ae 91 3d 87 cd 18 be
       0.03446242 -0.030446392 0.071133025 -0.14922152
0002e0 a4 ee 1b 3d ba 74 d8 3d 5e 99 98 bd bc b1 65 be
       0.038069382 0.10569139 -0.074511275 -0.22431082
0002f0 ac 99 ff 3d f2 c6 c1 3e 03 be 9b 3e 02 d6 83 bd
       0.124804825 0.37847096 0.30418405 -0.06437303
000300 9d 5d 95 3d 7a e1 44 be 77 df 61 be 97 37 8c 3d
       0.07293246 -0.19226637 -0.22057901 0.068465404
000310 f1 85 60 3d d3 21 c6 3c 4c 12 4b 3e 82 90 38 3e
       0.054815236 0.02418605 0.19831198 0.18023875
000320 0c 16 d1 bb 2b 2c 51 bc 1c 1c 90 be 4f e4 b7 3b
       -0.006380802 -0.012766878 -0.28146446 0.0056119333
000330 c9 55 69 be 16 a1 43 be 82 41 44 bc 32 37 85 3e
       -0.2278663 -0.19104418 -0.011978509 0.26018673
000340 1c 36 df bd cf 7e 6a be e4 fa 3e bd a6 cd bc bc
       -0.108989924 -0.22899936 -0.046625987 -0.02304728
000350 01 4a 8c be d3 2a 37 3e 61 71 53 bb 52 b2 07 3e
       -0.2740021 0.1788743 -0.0032263624 0.13251618
000360 cf 72 14 bd 93 36 2b be ed ef 98 bc 0d de fe 3d
       -0.036242303 -0.16720037 -0.018669093 0.124446966
000370 40 c5 a8 bd a2 64 5c be ae 9d 8c bb ee 22 f6 3d
       -0.082407475 -0.21522763 -0.004291258 0.12018381
000380 9a 3b 0e 3d 2b b3 b0 3e 02 1f b4 3e 9d 74 65 be
       0.03472481 0.34511694 0.35179907 -0.22407766
000390 4a 2a a9 be 51 1b 0e 3b f3 f3 76 3c cf d6 2e 3e
       -0.33040076 0.0021683762 0.01507281 0.1707413
0003a0 ca 10 2c 3e 4a b2 33 3e f6 a3 56 3e f5 bc 4f 3e
       0.1680328 0.1754848 0.20960984 0.20286925
0003b0 9a cf bf 3d 7e 0f 5f 3d fe 85 a4 be 07 b4 b2 be
       0.09365769 0.054458134 -0.32133478 -0.34902975
0003c0 9b 55 1f 3e b3 3f 55 3d 09 5a 91 3d 6e 2a 9c bc
       0.1556 0.0520627 0.07097251 -0.0190632
0003d0 a4 02 92 3e fe 94 4d bc a3 bb 12 3e c0 65 c7 bd
       0.2851764 -0.01254773 0.1432939 -0.09736204
0003e0 0b cb 06 be b8 eb a6 bd be 8b 6b be 6c 05 bb be
       -0.13163392 -0.081504285 -0.23002526 -0.36527574
0003f0 24 58 16 3e b6 23 42 3e d8 05 38 3e 27 ce 84 3e
       0.1468206 0.18958935 0.17970979 0.25938532

rnn.bias_ih_l0 f4 [32]
000000 ff 46 f8 3c c8 88 04 3c 25 50 10 be d3 d7 4a bd
       0.030307291 0.008089252 -0.14093073 -0.049522232
000010 1c 63 ed 3d 1f 85 5a be 3b 65 6d 3c a0 cc 9e bc
       0.11591169 -0.21339844 0.014489467 -0.019384682
000020 4b e1 a2 3c e3 71 fe bc dd fc db bd a3 ff a9 bb
       0.019882819 -0.031060165 -0.10741589 -0.005187945
000030 c4 e1 a3 3d fd b4 94 bd f5 0e 4e 3e 49 74 47 3e
       0.08002046 -0.07261083 0.20122893 0.19477953
000040 a8 a9 33 bd 64 36 a6 3d 7d f6 2a bc 0d 84 c8 3c
       -0.04386297 0.08115843 -0.010434744 0.02447703
000050 c8 fa 3e 3e c2 5e 21 bd cb 19 cf 3d 90 1c 6c be
       0.18650353 -0.03939701 0.101123415 -0.2305777
000060 0d 16 13 3e b1 07 15 be cf 1f 16 bd e8 d4 4b 3e
       0.1436388 -0.14553715 -0.03665143 0.19905436
000070 94 33 04 be c4 e2 29 be 24 f1 ff bd cd 49 4f be
       -0.129103 -0.1659041 -0.12497166 -0.20242997

rnn.bias_hh_l0 f4 [32]
000000 54 08 d2 bc 9c 53 52 be ab 38 4a 3d e3 ce dd 3d
       -0.025638737 -0.20539707 0.04937045 0.10830476
000010 c2 f3 35 3e 8c c9 8c bd b5 94 cd 3c bb e2 3c be
       0.17768767 -0.068743795 0.025095323 -0.18445866
000020 f6 bb 52 3e ab ca 0d bd 2d 46 1d 3e a0 c8 50 be
       0.20579514 -0.034617107 0.15358801 -0.20389032
000030 f4 d9 0a 3e aa 68 39 be e6 e1 dc bd 75 eb 6a 3d
       0.13559705 -0.18106332 -0.10785274 0.057353456
000040 23 91 7a 3d bc 95 ea 3d 2c e6 bc bc 61 1a bc bd
       0.06117357 0.11454341 -0.023058973 -0.09184719
000050 6a 58 5b 3c 9c a4 12 3d a8 0e 8e 3c 83 8b 34 bc
       0.013387779 0.035801515 0.017340973 -0.01101959
000060 ae f7 73 3e 83 5a cd bd 81 4a 46 3d c9 e9 00 3d
       0.23824951 -0.10027029 0.048410896 0.031472955
000070 88 3b 38 be 16 82 74 bd 5f 98 26 be ab 0b 4e be
       -0.1799146 -0.059694372 -0.16269062 -0.20121638

rnn.weight_ih_l0_reverse f4 [32, 128]
000000 3f 3f b6 bc 29 98 ee 3d f0 95 fa bd 14 cd 15 3c
       -0.022246955 0.11650116 -0.122356296 0.009143133
000010 9d b4 04 be 8d 6a 0a 3e d7 ea 47 3e 0d 68 5b bd
       -0.12959523 0.13517208 0.19523178 -0.053566027
000020 ac 4e ba bd 76 f7 d5 bd 2c 94 dc 3c f7 eb c4 bd
       -0.09097037 -0.1044759 0.026926123 -0.09615319
000030 0a 7a e7 bd d0 33 af 3d 4e 1e 81 3e 02 47 2a 3e
       -0.11302574 0.08554804 0.25218433 0.1662865
000040 4b 13 23 bd 6f 94 ab bd f3 67 ff bd 9b bb 86 3c
       -0.03981332 -0.08377921 -0.124709986 0.01644688
000050 b4 25 83 3e 4a a4 59 be 7c b8 99 bd d8 13 01 be
       0.25614703 -0.21254078 -0.07505891 -0.12605226
000060 34 80 0a 3d 6a 44 e1 bc 7f 74 9d bd 14 40 05 be
       0.03381367 -0.027498443 -0.076882355 -0.13012725
000070 e9 7b 5f 3e cf 79 5b be 1c ec 11 be 5e 17 0c 3d
       0.21824612 -0.21433185 -0.14250225 0.034201972
000080 60 87 24 3c 67 58 88 be 95 fc 5c 3c 24 03 96 bd
       0.010042042 -0.26629946 0.013487955 -0.07324818
000090 03 2d ea bc 7e e0 6e be f8 65 e7 bd 86 fe df 3d
       -0.028585916 -0.23327824 -0.11298746 0.10937218
0000a0 eb c5 34 3e 2d 21 b5 bd 51 05 9c bc 1f 04 c6 bd
       0.17653625 -0.088442184 -0.019045504 -0.09668755
0000b0 c5 e5 2d bd a1 76 75 3b 44 20 49 3e a0 fb 36 3d
       -0.042455453 0.0037454742 0.19641215 0.044673562
0000c0 07 28 94 3e c1 0d a4 3d 5d 40 4b bd 2a 2c 3c be
       0.28936788 0.08010436 -0.04962193 -0.18376222
0000d0 20 9a b4 3c e5 be 4a 3c 3a 88 e8 3d 4b 75 74 3e
       0.022046149 0.012374614 0.11354108 0.23872869
0000e0 bd 11 aa bc 9f 36 51 3e 67 4f bd 3d 80 9e c2 3d
       -0.020760411 0.20430993 0.092436604 0.09502888
0000f0 81 97 c8 bd 61 ed 33 be 7a ed 9b 3c f7 90 21 3e
       -0.09794522 -0.17571022 0.019034136 0.15777956
000100 c1 3c ba bd 5d 0d 24 be 40 6d 7d 3e 8c 29 57 3d
       -0.09093619 -0.16020723 0.24748707 0.052529857
000110 31 37 56 be 00 68 91 3c 15 92 f8 ba a3 b5 87 be
       -0.20919491 0.017749786 -0.0018964434 -0.26505765
000120 a8 ca 89 be 82 1b 20 3d 45 1d 33 3e e0 45 bd 3d
       -0.26912427 0.039088733 0.17491634 0.09241843
000130 94 a3 8f 3c ae cc 33 3e 04 11 c6 bc 12 15 a7 bd
       0.017534055 0.17558548 -0.024178036 -0.08158316
000140 26 1c 6f be e4 4e 33 3c 8d 18 11 3d ca 83 40 3e
       -0.23350582 0.010944102 0.035423804 0.18800274
000150 47 82 86 be d0 8b 10 3e 97 f2 35 be cd 8a 99 3e
       -0.2627127 0.14115834 -0.17768322 0.2998871
000160 97 c9 9b bd d3 75 9a bd cd 8b 43 bd 32 b3 0f be
       -0.076068096 -0.075420044 -0.047740746 -0.14033201
000170 3c ee 10 be d5 f3 5d 3e 84 59 6e 3d dd f2 59 3e
       -0.14153379 0.21675046 0.058190838 0.21284051
000180 6c 93 6d ba 1a 69 0a 3e 04 3d 1e be 93 3b 54 3e
       -0.00090628 0.13516656 -0.15452963 0.20725851
000190 03 d9 25 be ff 1d 46 bc 34 76 17 3e 3a ec ce 3d
       -0.16196065 -0.012092113 0.14791185 0.101036504
0001a0 f8 cb b8 3d 1a 43 44 be 9a 89 52 bd b2 23 8b bb
       0.09023279 -0.19166222 -0.05140076 -0.0042461986
0001b0 3b a0 85 3d 4b 8d ec 3d 18 30 d9 3d 64 7d d3 3d
       0.06524702 0.11550387 0.10604876 0.10326651
0001c0 dd 2a 39 3e db 76 ab 3d 92 3e 39 bd 30 5d 56 bd
       0.18082757 0.08372279 -0.045225687 -0.052334964
0001d0 cf c0 58 bd 5a 20 5b 3d 5a 31 95 bd c1 0f c4 3c
       -0.05291825 0.05349765 -0.07284804 0.023933293
0001e0 84 39 29 3d 33 c0 8f bd 86 08 b5 3d 46 04 9b 3d
       0.041314617 -0.07019081 0.08839516 0.075691745
0001f0 3f 67 d9 bb 4b 1d 9b bd 0b ee 8e ba e0 0c 9d 3e
       -0.0066346223 -0.075739466 -0.0010904683 0.30673885
000200 48 5f 21 bd 25 1f 55 bd 1e 5f 9d 3d 52 7a 29 3b
       -0.039397508 -0.052031655 0.07684158 0.0025860262
000210 ca 20 0b 3e f6 89 5e 3d 79 a3 a3 bd 98 04 bf bd
       0.13586727 0.05433079 -0.07990164 -0.09327048
000220 d5 d3 93 bd 74 2c a0 bd 96 77 8c 3e 27 81 db 3d
       -0.07218138 -0.07820979 0.27434987 0.10717993
000230 d3 1e a4 3b 24 5d 44 be 71 6e 1e 3e c4 73 73 be
       0.0050085573 -0.19176155 0.15471818 -0.2377463
000240 4b a3 17 be 83 65 55 bd 53 39 eb 3c 3c 8c ea bb
       -0.14808385 -0.052098762 0.028713858 -0.0071578305
000250 c0 85 ab bd d8 2c f6 3b a0 b1 3e 3e b5 f3 cb bd
       -0.0837512 0.00751267 0.18622446 -0.09958593
000260 7e fd 9f 3c f0 98 c2 3d 6e e9 90 bd a5 6b 0c 3e
       0.019530054 0.09501827 -0.07075773 0.13712938
000270 32 78 08 be cc 32 d8 3d 10 f0 81 3e 4e 05 27 3e
       -0.13327101 0.10556564 0.25378466 0.16310617
000280 92 4e e2 3c 8e 5a 72 bd fe 23 dd bc 35 23 b5 3d
       0.027625356 -0.05916839 -0.026994701 0.08844606
000290 0f 62 c6 3d 91 5b c0 3d c5 93 87 3c f9 b0 4f 3d
       0.09686672 0.09392465 0.016549954 0.050705884
0002a0 3e 12 6f bd 8b 45 69 3d 00 9d 8f 3d cd 66 48 bd
       -0.058367006 0.056951087 0.07012367 -0.048926163
0002b0 a7 30 18 3e 4e 09 b7 bd b5 b2 35 bc 89 5b 4b be
       0.1486231 -0.089373216 -0.01108997 -0.19859137
0002c0 dd 62 1e bb 61 a9 14 3e 44 4f cc 3c a0 b5 6d 3e
       -0.0024167814 0.14517738 0.02494014 0.23213816
0002d0 cc 48 e4 bd 7f 0c 31 3e 0c a8 37 be da a1 25 bd
       -0.111466974 0.17289923 -0.17935199 -0.040437557
0002e0 24 fe 40 3d b4 36 0b bd 25 a6 1d 3e 36 01 e2 bd
       0.047117367 -0.033987716 0.1539541 -0.11035387
0002f0 b0 ae 16 3e ed 4c 8d 3d d9 44 0c bd 2c 33 89 be
       0.14715075 0.06899438 -0.034245346 -0.26796854
000300 f7 e9 f9 3d 77 ab 08 3e bc 1e a7 be d7 9d 8a bd
       0.122028284 0.13346659 -0.32640636 -0.06768387
000310 12 b1 a3 bc a2 6c 06 be 67 c1 68 3d e9 80 98 3c
       -0.019981895 -0.13127378 0.056825068 0.018616157
000320 24 4b 59 3e ef fa 09 bd ec 51 38 be b3 2a a5 bd
       0.2122007 -0.033686575 -0.18 -0.08064785
000330 d5 ee 40 be 08 d3 61 be 17 bd f9 3b 1c ba 77 bd
       -0.18841107 -0.22053158 0.007621418 -0.060480222
000340 da 24 06 3e 87 18 13 bd 6d 79 81 bc db 50 8a be
       0.13099995 -0.035912063 -0.01580497 -0.27014813
000350 d8 76 b5 3d cd 94 69 be 49 8a 2a 3e 9e 44 c8 bd
       0.08860558 -0.22810669 0.16654314 -0.09778713
000360 46 10 14 be 03 92 95 3a 20 09 45 3d 66 2d b6 bc
       -0.14459333 0.0011411313 0.048104405 -0.022238445
000370 88 29 5a bc 24 44 4b be 9d 13 2a be 27 ec 39 bd
       -0.013315566 -0.19850212 -0.16609044 -0.045391228
000380 b6 57 67 be de 03 0d be 40 f3 d0 3d 9c 05 18 bd
       -0.22592053 -0.13771006 0.10202646 -0.037114725
000390 0e 56 12 3b 35 08 e8 bd dd e6 25 be c4 e7 98 3d
       0.0022329125 -0.1132969 -0.16201349 0.07466081
0003a0 c6 6a 6d 3d cc 74 0a bd 80 8b d9 3c d9 33 1e 3e
       0.057963155 -0.033802792 0.026555777 0.15449466
0003b0 e5 b2 87 3c 5d ef 41 3c 6b 3c ee bd 7c 67 f0 bd
       0.016564796 0.011836854 -0.116326176 -0.11738488
0003c0 9b b5 55 3e 7a b1 10 bd 8a 4f 88 be c9 03 5a be
       0.20870058 -0.035325505 -0.26623183 -0.21290506
0003d0 7f 1c 55 3d 49 51 a1 3d c8 47 e4 bc 30 0a 27 3e
       0.05202913 0.07876832 -0.02786626 0.1631248
0003e0 1f 99 ad bd fd 1d 71 3d 58 e8 b0 bc 49 e4 14 3c
       -0.08476471 0.05886649 -0.021595165 0.009087631
0003f0 f1 23 f0 3d 68 9f 9d bd 63 5e 28 3d 31 d3 95 bd
       0.11725605 -0.0769642 0.04110564 -0.07315672

rnn.weight_hh_l0_reverse f4 [32, 32]
000000 b9 49 b1 bd a5 0b 88 be 11 82 35 3d 96 60 16 bd
       -0.086566396 -0.26571384 0.044313494 -0.036713205
000010 fa 7f 51 3c c9 84 6d be 62 a8 31 bd 46 cf b1 3e
       0.01278686 -0.23195185 -0.043373473 0.3472845
000020 c5 40 eb bd 62 2f c9 3c 0c 32 21 3e 8e 9e a3 be
       -0.11486963 0.024558727 0.15741748 -0.31956905
000030 d7 73 59 3d 0d bc 37 be 3b d9 36 be df 5f 07 3d
       0.05308899 -0.1794283 -0.17856304 0.033050414
000040 29 26 27 be 27 2c 8e be 3d e8 88 3d c1 ba 1a 3e
       -0.1632315 -0.2776806 0.06684921 0.15110303
000050 a8 71 6c bd 12 57 fe 3c 3f 42 10 3d 47 42 47 bd
       -0.05772558 0.031047378 0.035219427 -0.04864719
000060 99 e7 4e be 29 7f ed bd 83 bf 8b 3b d7 02 aa 3c
       -0.20205535 -0.115965195 0.0042647733 0.020753307
000070 54 70 5d 3d fe 79 02 3e 84 f1 b8 bd db 00 1b 3d
       0.054062203 0.12741849 -0.090304404 0.037842613
000080 cd f9 5e 3d 47 46 4f 3e 6a c2 9b 3c 69 15 31 bd
       0.054437447 0.20241652 0.019013602 -0.04323331
000090 df 15 d1 3d 5f 79 0f 3e 64 35 d2 bd 44 23 f7 bd
       0.1020925 0.14011143 -0.1026409 -0.12067273
0000a0 eb 43 10 3e 63 ae b7 bd 43 4b db 3d 95 f0 25 be
       0.14088409 -0.089688085 0.107077144 -0.16205056
0000b0 51 4a c4 3b 3b 46 2f be bb 4c 01 3e 39 4e cd bd
       0.0059903045 -0.17116635 0.12626927 -0.100246854
0000c0 6a fb a6 bb 28 0c 1f bd 3b fb 31 3e 36 97 30 3e
       -0.005095889 -0.038829952 0.17380993 0.17245182
0000d0 df 54 17 be c3 82 07 3e e5 d3 61 3e 14 d5 80 be
       -0.1477847 0.13233475 0.22053488 -0.25162566
0000e0 a5 11 c8 3c 7b 47 ed 3d 66 8c 1f be 11 ad 57 3c
       0.024422476 0.115858994 -0.15580902 0.013163821
0000f0 ae a2 b1 bc df bf 1e be 94 eb 20 be 07 29 a4 be
       -0.021684017 -0.1550288 -0.15714866 -0.3206255
000100 33 66 96 be 8e 7a 7c bc f2 ac 44 3e 7b 21 84 3c
       -0.29374847 -0.015410079 0.19206598 0.016129246
000110 95 4c 88 bd 7c 03 88 be 20 a3 eb bd ab 2b 00 bc
       -0.06655232 -0.26565158 -0.11505723 -0.007822911
000120 43 98 95 3d 22 3d 46 3d 34 9f 0e be 1a 8d e3 3c
       0.07304432 0.048398145 -0.13927919 0.027777243
000130 c6 bd d4 bd a4 96 c2 3d 6e 04 bd bd 37 6a 51 be
       -0.10387759 0.09501389 -0.092293605 -0.20450674
000140 14 f7 c4 3d 32 5f 13 3e b2 9d 90 be 8c 3b 43 3e
       0.09617439 0.14391783 -0.28245312 0.19065684
000150 ef 33 29 bc f7 22 c6 3d 75 c0 66 be 73 14 21 3e
       -0.010327323 0.09674638 -0.22534354 0.15730457
000160 d5 0e 29 3d 5e 7f 09 bb b5 8a e4 bb 54 bb 25 be
       0.04127391 -0.0020980458 -0.006974543 -0.16184741
000170 95 57 63 be df d0 0f 3e 17 f9 9a 3d 1e dc 97 3e
       -0.22201379 0.14044522 0.07567041 0.29660124
000180 92 b1 8c 3d 34 8d 54 3d 54 52 61 3d 7f f3 06 3e
       0.06869806 0.051892474 0.055010155 0.13178824
000190 2f d3 c3 3d 4f 1a 08 3e a3 94 a6 bd c3 c5 48 3e
       0.095617644 0.13291286 -0.08133819 0.1960669
0001a0 e4 d6 63 be 8e d1 b2 3d 7d 79 56 3e c3 f7 49 bd
       -0.22249943 0.08731376 0.20944782 -0.04930855
0001b0 81 e3 f0 3c f3 c7 3e be 7e 16 a3 3d 48 85 53 bd
       0.029405357 -0.18630962 0.079632744 -0.05164078
0001c0 60 2a 12 3c 91 50 f3 3d 8d 32 9f bb a5 86 8b 3d
       0.008921236 0.11880601 -0.004858321 0.06812791
0001d0 22 86 ef 3c a9 8a e2 bc fe 4c e1 3d d0 fe 51 3e
       0.029238764 -0.027654009 0.11001013 0.2050736
0001e0 35 bf 82 3c 9b 0a 72 3e b8 69 41 bd 4b 2b b6 bd
       0.015960315 0.23636858 -0.047219962 -0.08894976
0001f0 38 9a 94 bd c1 02 5e bd ac dd 1a 3e 8d d8 09 bd
       -0.072559774 -0.054201845 0.15123624 -0.033653785
000200 52 e0 b4 3c aa 7d 02 bd 1a 52 1d bd ee fa 4e 3d
       0.02207962 -0.031858124 -0.038408376 0.050532274
000210 af 89 95 3c 0b cd 2b 3e 79 18 19 3e 95 f2 9f be
       0.01825413 0.16777436 0.14950742 -0.31239763
000220 7c 73 46 be e7 f3 1c be 68 4c 8e 3e 98 2e c2 3d
       -0.19379991 -0.15327416 0.27792668 0.09481543
000230 4b 08 25 3c 49 12 6e bd 70 6c c8 3d ef 56 50 3d
       0.010072778 -0.058122907 0.09786308 0.050864156
000240 44 b8 6f be 99 20 f0 3a 47 d2 ff 3d 75 33 bf bc
       -0.23410136 0.0018320262 0.12491279 -0.023339966
000250 7a 7c f5 3c c6 d4 bd 3c 9a 4c b0 3e 1f 9c 52 3d
       0.029966582 0.023172747 0.34433442 0.05141842
000260 01 65 58 bc 38 ae 71 3e 45 db 8d bd f0 12 a2 bd
       -0.013207675 0.23601615 -0.06926588 -0.07913768
000270 9b 5c 26 3e 5e db f4 3c 43 52 61 bc a2 9f b6 bd
       0.16246264 0.029889759 -0.013752523 -0.08917166
000280 b3 3f 47 3e f0 4b cb 3b 55 c3 7a be 07 21 2e be
       0.19457893 0.006204121 -0.24488576 -0.17004786
000290 d2 44 8e bd 2c ef d6 bd c9 9b 3d 3d 75 de fa bc
       -0.0694672 -0.10494837 0.046291146 -0.030623654
0002a0 a4 b3 cf bd e8 e5 3e be aa b1 9d bc d8 05 45 be
       -0.101416856 -0.1864239 -0.019249756 -0.1924051
0002b0 2b 89 0b 3e b5 47 f3 3d 3a 52 22 3e 54 24 cd bc
       0.13626544 0.118789114 0.1585168 -0.025041737
0002c0 1d 38 77 3c ef 46 5a bd c2 98 89 bc b5 f5 06 bc
       0.015089062 -0.053290304 -0.016796473 -0.008237292
0002d0 78 8b 3d bd 77 6f 91 3d 21 28 34 3e d5 ff 3f bc
       -0.046275586 0.07101338 0.17593433 -0.01171871
0002e0 6f e2 a9 bd 26 0c 8b 3b dc 6c 35 be 3e 3c 6e bd
       -0.08295142 0.0042433916 -0.17717308 -0.05816292
0002f0 ec 18 1c 3e 5d 52 35 be 96 14 c2 3d 09 0a 35 be
       0.15243882 -0.177072 0.09476583 -0.1767961
000300 ca 9b 2d 3e 72 26 1f 3e 1d 1e fa 3d b8 5c 31 be
       0.1695396 0.1554201 0.12212775 -0.17320526
000310 40 7a 06 be e8 2f af 3d ce ca a2 3d 65 ff b8 bc
       -0.13132572 0.08554059 0.07948838 -0.02258272
000320 bf f8 d3 3b b8 84 0b be 78 51 86 3d 73 92 5b 3d
       0.006468862 -0.13624847 0.06558508 0.05360646
000330 10 c1 02 bd ba f7 9d 3c 61 8f 12 3e 04 cf 01 3e
       -0.0319224 0.019283164 0.14312507 0.12676626
000340 1e 08 14 be 56 ae 81 3d a5 8b c1 bb de f2 38 3e
       -0.14456221 0.0633208 -0.0059065395 0.18061396
000350 60 2f 6e bd cc 34 1d bd a7 b7 e7 3d e7 5c 10 be
       -0.05815065 -0.03838043 0.11314326 -0.1409794
000360 a0 b1 00 3e 48 99 9f bc cd 67 7b 3d 97 62 56 be
       0.12567759 -0.01948227 0.06137829 -0.20936047
000370 44 e2 82 3d 3b 28 28 be 6c b5 96 3c 2b 00 0a be
       0.06390813 -0.16421597 0.018397056 -0.13476627
000380 a0 9b d1 3d df 73 35 3d db 56 60 3d de 43 d9 bc
       0.10234761 0.044299956 0.05477033 -0.02652162
000390 20 97 e1 3c 4e 98 72 be 17 13 02 be 24 f9 ea 3d
       0.027537882 -0.23690912 -0.12702595 0.11473301
0003a0 7d 93 15 3e 2e d0 6d bd 87 62 8b be 18 62 8f 3c
       0.14607044 -0.058059864 -0.27223608 0.01750283
0003b0 ad 15 c0 bd ed 41 b4 3d 4e 51 7c bd 69 7d 19 be
       -0.09379134 0.08801637 -0.061600976 -0.14989246
0003c0 ff 86 62 3e c7 84 d5 3d 3b 60 59 bc 94 d5 9c bd
       0.2212181 0.10425716 -0.013267572 -0.07657924
0003d0 8c 6e 5d bd f0 f4 04 3e c0 70 25 be 0a e4 37 3e
       -0.054060504 0.12984061 -0.16156292 0.17958084
0003e0 92 f5 09 3e 1d c6 e8 bc bf 74 3c 3c 2b 9b 95 3d
       0.13472584 -0.02841478 0.011502444 0.073049866
0003f0 d2 1f b3 bd 38 12 09 3e ed 47 2e be 58 97 30 3e
       -0.087463036 0.13385856 -0.17019625 0.17245233

rnn.bias_ih_l0_reverse f4 [32]
000000 b1 d7 b6 bb cf 34 bd bd 3e 1f fc bd a9 ed cf bd
       -0.0055799116 -0.09238588 -0.123106465 -0.10152752
000010 35 1f b8 3c 4e 40 d9 3c 6f d2 3a 3e 08 27 1a be
       0.022475818 0.02651992 0.18244337 -0.15053952
000020 d8 32 02 bd 16 c5 3a be 52 1b a5 3a 00 2d a8 bd
       -0.03178677 -0.18239245 0.0012596643 -0.08211708
000030 9c 75 55 3d 02 fe d7 bc 7e 8e f4 3d ce e3 28 3e
       0.052114114 -0.026366238 0.11941241 0.1649315
000040 59 c0 f5 bd c2 9b 3f 3d d0 82 15 3e ad 8e 92 3d
       -0.11999578 0.0467794 0.14600682 0.071561195
000050 31 02 6f bd 51 05 aa bd c8 ca 2a bc c2 e3 06 bd
       -0.0583517 -0.08301795 -0.010424323 -0.03293205
000060 d8 dd d5 bd 7f dc ed 3d 37 b8 74 bd 61 ba 04 3e
       -0.10442704 0.11614322 -0.059745993 0.12961723
000070 bd 19 24 3e c3 9e c1 3d 8c 38 c5 3d 19 4b 21 3d
       0.16025443 0.094541095 0.09629926 0.03937826

rnn.bias_hh_l0_reverse f4 [32]
000000 19 60 8c 3d c6 22 a2 3c 76 41 a1 be 2b 0c b7 bd
       0.06854267 0.019791972 -0.31495255 -0.08937868
000010 f9 e7 58 3e 0e d6 bf bd 83 86 e3 3d e7 0d 90 be
       0.2118224 -0.093669996 0.111096404 -0.28135607
000020 f2 e1 ea bc ad 1c c0 bd 72 fe 80 3e 41 d0 b6 bc
       -0.028672192 -0.093804695 0.25194126 -0.0223161
000030 9b 4c c3 3c bd 5b 32 be c0 08 a9 3d c4 9a 26 3d
       0.02384024 -0.17417808 0.08253622 0.04067494
000040 b2 27 60 be 00 c1 7e 3d 0e bb 48 bc 18 d0 ff 3d
       -0.21890143 0.062195778 -0.012251629 0.124908626
000050 18 08 2b bc 93 2e 9e 3d 6f 19 7d 3e 12 df 33 bd
       -0.010438941 0.07723727 0.24716733 -0.04391391
000060 87 34 dc bd 71 f7 97 bc 9a 5d 39 bd 33 9c 44 3d
       -0.10752206 -0.018550606 -0.04525528 0.048000526
000070 d8 9a 16 3e c0 ce 5b bd a4 fd 66 3d da 61 d7 3d
       0.14707506 -0.05366397 0.056394234 0.105167106

fc1.weight f4 [8, 64]
000000 03 3c 9a 3e 53 1b 02 be 52 81 98 bd c4 18 97 3d
       0.3012391 -0.12705736 -0.07446541 0.073777705
000010 14 b0 97 3e 2f 7b 3c be 9b d2 50 3e d9 2d 09 bf
       0.29626524 -0.18406366 0.2039284 -0.5358558
000020 12 12 0d 3f 41 96 ee 3e b0 c4 17 3f 0a 17 25 bd
       0.551057 0.4659901 0.59284496 -0.040305175
000030 aa 02 e2 be bc 4e 86 be 23 37 a4 3e 7f 3d 62 3e
       -0.44142658 -0.26231945 0.32073316 0.22093771
000040 8d 19 07 bf 6d eb 7d 3e 99 e2 a8 3e 9c 6e aa be
       -0.5277336 0.24796839 0.3298538 -0.33287513
000050 3a 09 bd 3e 15 10 1f 3e c5 30 69 bf 59 61 a0 be
       0.36921102 0.15533479 -0.9109004 -0.3132427
000060 ce 5e 6f 3e 05 2e c0 be ea 2a 4c 3e ee 30 e9 3d
       0.23376009 -0.3753511 0.19938245 0.11386286
000070 93 2c 5c be bc 65 ac be b5 42 0d be 78 4c 9a be
       -0.21501379 -0.33671367 -0.13794978 -0.30136466
000080 1f c5 c6 be 35 fc 9b bd 81 10 23 3e 01 0b 60 bd
       -0.38822266 -0.07616464 0.15924264 -0.054697994
000090 3a 2a 7f 3d ca b2 96 3c 2d d6 04 3e db 30 d6 3d
       0.06229613 0.0183958 0.12972327 0.10458537
0000a0 17 b6 01 be 7d 50 df bd 3a 1f 80 bd 6c 52 f7 bc
       -0.12667118 -0.10904024 -0.06255956 -0.030190669
0000b0 51 34 b0 3e 01 b9 45 be ac cc 2e bd 8c 42 58 3e
       0.34414914 -0.19308855 -0.04267566 0.21119136
0000c0 58 8e bf bd 00 04 0a be 63 6f 92 bd 6e a4 4a be
       -0.09353322 -0.13478088 -0.071501516 -0.19789287
0000d0 35 b4 b3 bd a7 da 12 bd bb 64 49 be e5 6d 11 bd
       -0.08774606 -0.035853054 -0.19667332 -0.035505194
0000e0 55 11 76 be 04 7f e3 3d 97 0d 09 3e f1 9b 75 3e
       -0.24030049 0.11108211 0.1338409 0.23985268
0000f0 6d 73 c4 3d 87 6e 9d be 2d e5 36 3e bd 42 23 3f
       0.09592328 -0.30748388 0.17860861 0.6377371
000100 d6 7b a0 3e b5 71 7f bd 0c 24 e1 bc b6 13 1a bf
       0.3134448 -0.0623643 -0.027483009 -0.60186327
000110 dd 9c 94 3e 2e 0b 97 3e 43 73 33 bf 4d ac fb be
       0.29025927 0.29500717 -0.7009775 -0.49154893
000120 92 f4 0e 3f 73 60 05 bf 43 5d 96 be 8c f1 3a 3f
       0.55841935 -0.52100295 -0.29368028 0.7302482
000130 b1 19 d7 3e c1 4d 0f 3f 6c 01 68 be 81 87 09 bf
       0.42011788 0.5597802 -0.22656792 -0.5372239
000140 a2 59 59 be 34 3c 17 bf 1c 5f 02 bf 1e 94 7b 3d
       -0.21225598 -0.5907624 -0.50926375 0.061420552
000150 75 4a 9a 3e a4 47 d4 be 9d ae aa 3d dd 58 ca be
       0.3013493 -0.41460907 0.08334086 -0.39520922
000160 4b 87 e6 bc 8f 91 ad 3e ef 36 10 bf e1 b6 7d 3e
       -0.028140685 0.33900115 -0.5633382 0.24776794
000170 8d f8 3f 3f 31 78 1d 3e 94 4b 36 3e 0d aa 17 3f
       0.74988633 0.1537788 0.17802268 0.5924385
000180 85 e4 05 3f 3a 9f f9 be e4 5d 95 bd 8d 8d 17 3f
       0.5230182 -0.48754293 -0.07293299 0.59200364
000190 71 8a b1 3e 9e d3 d4 be d2 95 bf be 12 d7 79 be
       0.34675935 -0.415677 -0.3741899 -0.24398449
0001a0 05 3e dd 3e 1a 3e f9 3e e3 7f 73 3e f5 13 f1 3e
       0.4321138 0.48680192 0.23779254 0.47085539
0001b0 ec 66 1c bf 54 c5 3d bd 01 ad c1 be 54 ac 3f 3e
       -0.61094546 -0.046330765 -0.37827304 0.18718082
0001c0 c8 5b 3d 3e 75 d0 bf be 10 d2 de 3d 7a ef 08 3f
       0.18492043 -0.37463728 0.1087991 0.5349041
0001d0 1f 57 bd 3e e1 3d f8 3e 34 5b a1 3d bf e1 e8 be
       0.3698053 0.4848471 0.07878724 -0.4548473
0001e0 ce 17 30 3f 28 1f ff be 5f d8 00 bf 12 1e 30 3e
       0.68786323 -0.49828458 -0.50330156 0.17198971
0001f0 83 4c a5 be 13 65 9c be 3c 3e 02 bf 67 c2 ba be
       -0.32284936 -0.30545864 -0.5087621 -0.36476442
000200 e0 60 20 3e 34 f0 71 bd ec b9 4b 3e ce 8e c5 3c
       0.15661955 -0.059066966 0.19895142 0.024115946
000210 63 0c 7a 3c be 47 1d 3d 9a f5 03 3e d9 cd 29 3f
       0.015261742 0.038398497 0.12886658 0.66329724
000220 73 9a e2 be ec fe f9 be 2e b3 99 3e ea 76 ed 3e
       -0.4425846 -0.48827302 0.30019516 0.46379787
000230 51 f5 9f be 77 ee 04 3f 91 c1 a5 be ad 63 19 3e
       -0.3124185 0.5192637 -0.32374242 0.1497943
000240 fe e3 1a 3f 63 81 33 3e 93 6f 02 bf 45 aa ff 3e
       0.6050414 0.17529826 -0.509515 0.49934593
000250 3c b8 c2 be 5e ab 22 bf ca 95 bb 3e 7f 96 fa 3e
       -0.38031185 -0.63542736 0.36637717 0.48942944
000260 08 e5 06 bf 42 f1 05 3e 1e 27 da bc e9 3c 83 3e
       -0.52693224 0.13080314 -0.02662998 0.25632408
000270 24 6a 1d be 9d eb ea bd a4 ae 0d 3f 9e f1 e4 3e
       -0.1537252 -0.11470721 0.55344605 0.4471559
000280 81 83 4e be b8 83 66 3c 69 14 20 3f 40 fd 87 be
       -0.20167352 0.01406949 0.62531143 -0.26560402
000290 e7 ac cc 3d 14 8a 52 3e 22 78 80 3e 41 ed 54 ba
       0.09993916 0.20560485 0.25091654 -0.0008122512
0002a0 97 68 82 bd 1b ab 81 be 92 d8 08 bf ea d1 17 3e
       -0.06367605 -0.25325856 -0.5345546 0.1482617
0002b0 66 08 d1 3e a2 05 00 3f 9a 07 41 be 64 ca c2 be
       0.4082672 0.50008595 -0.18850556 -0.38045037
0002c0 33 ac 15 bc c5 08 03 3f b7 84 c8 be 72 9b c6 3e
       -0.009135294 0.51185256 -0.39163753 0.3879047
0002d0 a5 9d f3 3e da ca 71 be d7 46 19 be 49 20 40 be
       0.4758121 -0.23612538 -0.1496843 -0.18762316
0002e0 4a 84 67 3e 10 34 59 bf da fe d2 3e ea bf 6e be
       0.22609058 -0.84845066 0.4121006 -0.23315397
0002f0 e2 19 90 bd f3 fb 8e be d2 6d 21 be 83 46 fa be
       -0.07036187 -0.27926597 -0.1576455 -0.4888192
000300 24 4e 01 bf d6 79 87 bd 5c 92 3f 3c 8c 0d d2 3d
       -0.5050986 -0.06615035 0.01169261 0.1025649
000310 ea cb c3 3d d7 dc 12 3e 13 2e 9e 3d 3f 32 f6 3e
       0.09560378 0.14342056 0.07723632 0.4808521
000320 bf 3e b8 be 09 53 9b be 34 a2 b9 be 34 63 06 be
       -0.3598537 -0.30336788 -0.36256564 -0.1312378
000330 7d 5f a5 3e c3 d9 02 3f 6c 1f 81 3e 51 4c 7c be
       0.32299414 0.5111353 0.25219285 -0.24638487
000340 54 fa 03 3f ff 4f b5 be d6 e9 8f 3e cb eb 54 3e
       0.51553845 -0.35412595 0.2810809 0.20793073
000350 79 8b 9c be 54 0d 58 3e a1 96 ce 3e 41 1e e3 3e
       -0.3057516 0.21098834 0.40349296 0.4435902
000360 16 e9 ac bc 7f 60 64 be 67 f4 a9 be 1c 8e e8 be
       -0.021107238 -0.22302435 -0.33194277 -0.4542092
000370 87 ae 3b be 96 b4 0a 3f 49 79 40 be b5 f7 98 3e
       -0.18328296 0.541818 -0.18796267 0.29876485
000380 33 f8 e3 3e 54 bc c9 bd 5f 14 41 3e e6 22 af be
       0.44525298 -0.09850374 0.18855427 -0.34206313
000390 33 5e 63 bf 67 10 4e 3d 11 05 88 be d6 33 af bb
       -0.8881561 0.05030861 -0.26566365 -0.0053467555
0003a0 27 ae 35 3f 5b 5e e9 3e c4 4d 4e 3d ad ba 10 bf
       0.7096886 0.455798 0.05036713 -0.56534845
0003b0 c9 6c dc 3e f0 52 96 be 9d 13 35 be f2 55 0a 3e
       0.43051746 -0.2936015 -0.17683263 0.13509348
0003c0 c9 a5 e3 bc ef ea e4 3e 35 ac ec bd 9f dc ce be
       -0.027789013 0.4471049 -0.115562834 -0.40402696
0003d0 33 ad 6b bd d2 a1 88 be de 0d 35 be a9 d7 1b 3f
       -0.057538223 -0.2668596 -0.17681071 0.60875946
0003e0 b9 fd 8e 3e 22 84 9e 3c 6b 1b 98 be 86 89 d0 be
       0.2792795 0.019350115 -0.29708418 -0.40729922
0003f0 83 7a 15 bf ba 8d 12 3e d6 3c c2 be 98 77 da be
       -0.58390063 0.14311877 -0.3793704 -0.42669368

fc1.bias f4 [8]
000000 c2 b8 14 be 63 fc 3c 3d 20 e8 91 be 82 c1 5d be
       -0.14523605 0.046139132 -0.2849741 -0.21655849
000010 87 30 3e be a9 ae d3 bd d0 60 d2 bd ea f6 2e be
       -0.18573199 -0.10336048 -0.10272372 -0.17086378
