src/main/python/saved_models/python3_1_66_RNNClassifier1_128embs_102id_16hd_1hl_Truebid_0.pt (torch, 74527 bytes, 11 tensors)

word_embeddings.weight f4 [102, 128]
-1.981423 -0.5207462 -0.3561124 -1.4173527 -0.22100341 -0.47805834 -0.7262553 -1.7837782
-0.8474685 0.16356048 -0.9087807 -0.6246022 -0.017491713 1.8271824 0.41429147 0.39581785
-0.83802533 -1.1990733 0.7939041 -0.10423158 0.7189986 0.48136327 -0.46940845 0.94678456
1.1399567 -0.33196574 -2.4431424 -1.2926449 0.042748507 -0.71242684 -0.9324603 0.25537848
2.0093994 0.17087014 -0.020525798 -0.49774578 0.25571096 -0.10666667 -0.11576971 -0.72515357
0.003605179 0.027276348 -0.05911916 -0.0058458336 2.196452 -1.0218933 1.7020137 -0.65127105
-0.91981184 0.98765546 -0.122242406 -0.36580607 0.89347476 0.49198028 1.518777 1.6727135
-0.06781106 0.66149265 -0.32940966 -0.965839 1.6993169 -1.0889918 -3.4485142 -0.8191051
0.008696129 -1.1281551 -0.78473675 -1.0211922 -0.39329433 0.047965627 1.5387279 0.13364837
-0.6512273 0.12696727 -1.280513 -0.9286691 -0.6761761 -0.9287057 0.30377916 -1.0288721
-0.4862417 0.17779748 -0.45011187 0.80871296 -1.5198107 -0.38618714 0.3711694 -0.121955164
0.26052868 -0.47374707 -1.0160557 0.2362104 -1.0563854 -0.45476806 0.028711092 1.8770926
0.7641089 1.1318583 0.6681281 -1.0531387 1.162744 -0.6992517 -0.9412911 1.0819411
1.2758034 0.41523364 -0.08268985 -0.19171773 -2.0377285 -0.69988805 -1.5969582 -1.3648252
1.0259211 -0.7881497 1.5566634 0.937729 0.27705422 0.0071039544 0.4660355 -0.5390395
2.4888096 -0.07169926 -0.018630153 1.2877027 -1.6380289 1.4689872 0.06609154 0.5197581
0.71236455 -1.7765073 0.35386458 1.1996132 -0.3029974 -1.7618417 0.6348446 -0.8043591
-1.6111118 -1.8716129 0.5430836 0.6606786 2.2952116 0.67490596 1.7133216 -1.7942734
-1.3632672 -0.9832196 1.5112667 0.64187074 0.4729638 -0.4285901 0.55137074 -1.5473709
0.5181121 0.10653535 0.26924077 1.324768 1.7460191 1.854969 -0.7063691 2.5570862
0.4175343 -0.2127186 -0.839958 -0.42001787 -0.6240363 -0.9772961 0.8748428 0.9872814
0.30957633 1.52069 1.2052339 -1.815591 -0.40346155 -0.9591452 -0.005207704 -0.07886314
0.8436543 1.1657013 0.5269322 1.6192533 -0.96397626 0.14152038 -0.16366096 -0.35822257
1.7222793 -0.3035756 0.2388742 1.3440012 0.10322569 1.1003542 -0.3416802 0.9473389
-0.56851596 0.8375962 1.7836607 -0.19542466 0.5149161 -1.8474776 -2.9167426 -0.5673299
-0.5412802 0.895174 -0.882507 0.53181124 -1.5457772 -0.17329982 0.72824633 0.05706102
0.9055172 1.0462948 -0.520597 1.3547838 0.23519313 1.9142433 1.8364111 1.3245324
-0.96900916 1.2516364 1.2103242 -0.5279206 0.21856615 -0.57430726 1.4571251 1.7709557
1.6499138 -0.43200457 -0.2710269 -1.4391626 1.2470404 1.2738512 0.39094925 0.3872105
-0.07982872 0.3417243 0.9488273 -1.3839359 1.7240863 -2.3647652 -0.9294909 0.2936253
0.21513203 0.9384637 1.4657077 -0.5564744 -0.7448408 -0.20215721 -0.2296679 0.0013313366
0.3752759 -0.5810679 -0.57230884 1.0097175 -0.10564939 -1.179696 -0.090779595 0.56311435
00000000: 459f fdbf 9f4f 05bf 5d54 b6be d06b b5bf
00000010: b84e 62be 10c4 f4be deeb 39bf d852 e4bf
00000020: b2f3 58bf 667c 273e daa5 68bf eee5 1fbf
00000030: c84a 8fbc 1de1 e93f 031e d43e a3a8 ca3e
00000040: d488 56bf 3c7b 99bf 4d3d 4b3f 5e77 d5bd
00000050: 4b10 383f 3f75 f63e 4e56 f0be 7960 723f
00000060: 1aea 913f 6af7 a9be 725c 1cc0 6375 a5bf
00000070: 0f19 2f3d 9b61 36bf b8b5 6ebf f8c0 823e
00000080: 009a 0040 95f8 2e3e b825 a8bc 89d8 febe
00000090: 8cec 823e 0e74 dabd ab18 edbd aaa3 39bf
000000a0: de44 6c3b a672 df3c ef26 72bd 688e bfbb
000000b0: ab92 0c40 66cd 82bf 96db d93f b3b9 26bf
000000c0: ca78 6bbf fdd6 7c3f 3a5a fabd ef4a bbbe
000000d0: c3ba 643f d7e4 fb3e 4967 c23f 7a1b d63f
000000e0: 86e0 8abd 9557 293f 62a8 a8be 3a41 77bf
000000f0: 3783 d93f 1564 8bbf 75b4 5cc0 dfb0 51bf
00000100: 357a 0e3c 6367 90bf 82e4 48bf 6db6 82bf
00000110: e05d c9be 9b77 443d 09f5 c43f 1edb 083e
00000120: d5b6 26bf b503 023e dae7 a3bf 42bd 6dbf
00000130: e019 2dbf a8bf 6dbf f188 9b3e 15b2 83bf
00000140: acf4 f8be 8b10 363e 1075 e6be d007 4f3f
00000150: 2889 c2bf 52ba c5be ea09 be3e a1c3 f9bd
00000160: 0464 853e fa8e f2be 1d0e 82bf 24e1 713e
00000170: a337 87bf 5cd7 e8be 8633 eb3c 9244 f03f
00000180: a49c 433f bce0 903f 710a 2b3f 40cd 86bf
00000190: ccd4 943f 2902 33bf 74f8 70bf 0c7d 8a3f
000001a0: 874d a33f 8199 d43e 4c59 a9bd a751 44be
000001b0: 256a 02c0 dd2b 33bf 2069 ccbf 98b2 aebf
000001c0: 6251 833f 2ec4 49bf bf40 c73f 020f 703f
000001d0: 0dda 8d3e 4ac8 e83b 349c ee3e 7efe 09bf
000001e0: a848 1f40 10d7 92bd 439e 98bc 71d3 a43f
000001f0: eeaa d1bf c607 bc3f 005b 873d de0e 053f
00000200: 865d 363f 9764 e3bf bd2d b53e ed8c 993f
00000210: 7a22 9bbe 0784 e1bf 2d85 223f 7aea 4dbf
00000220: e938 cebf 0391 efbf 8707 0b3f 3c22 293f
00000230: bfe4 1240 a3c6 2c3f 1f4e db3f c0aa e5bf
00000240: 8a7f aebf 48b4 7bbf 3071 c13f a451 243f
00000250: 5028 f23e 2970 dbbe a226 0d3f 4010 c6bf
00000260: ffa2 043f 352f da3d edd9 893e ff91 a93f
00000270: 8e7d df3f a06f ed3f 9bd4 34bf 4da7 2340
00000280: 0ec7 d53e e8d2 59be 7d07 57bf 950c d7be
00000290: d8c0 1fbf 1430 7abf b3f5 5f3f 79be 7c3f
000002a0: ca80 9e3e f8a5 c23f 1b45 9a3f 4965 e8bf
000002b0: 8392 cebe 8a8a 75bf 63a5 aabb ff82 a1bd
000002c0: baf9 573f b335 953f 07e5 063f b143 cf3f
000002d0: 26c7 76bf b8ea 103e bd96 27be f368 b7be
000002e0: a673 dc3f 436e 9bbe 709b 743e 3b08 ac3f
000002f0: fe67 d33d 68d8 8c3f b5f0 aebe cd84 723f
00000300: 438a 11bf b46c 563f fe4e e43f 671d 48be
00000310: 8bd1 033f 257a ecbf e9ab 3ac0 883c 11bf
00000320: 5791 0abf 202a 653f fbeb 61bf c824 083f
00000330: 07dc c5bf 8275 31be 5a6e 3a3f d1b8 693d
00000340: facf 673f fdec 853f d845 05bf 8e69 ad3f
00000350: 78d6 703e ed05 f53f 850f eb3f 478a a93f
00000360: fc10 78bf 9f35 a03f e7eb 9a3f ce25 07bf
00000370: cecf 5f3e cd05 13bf 1383 ba3f adae e23f
00000380: 6030 d33f b42f ddbe 0ac4 8abe 7b36 b8bf
00000390: 059f 9f3f 8e0d a33f 802a c83e 7440 c63e
000003a0: 3d7d a3bd 7df6 ae3e 59e6 723f d024 b1bf
000003b0: dcae dc3f 5058 17c0 1ef3 6dbf 0e56 963e
000003c0: 924b 5c3e 283f 703f 4f9c bb3f 1b75 0ebf
000003d0: e3ad 3ebf 4d02 4fbe 102e 6bbe 3e80 ae3a
000003e0: 2a24 c03e dec0 14bf d582 12bf 6c3e 813f
000003f0: b55e d8bd 4700 97bf a7ea b9bd 4328 103f

rnn.weight_ih_l0 f4 [16, 128]
-0.015357659 -0.12141472 -0.26311487 -0.35946783 -0.07542348 -0.22066212 -0.16211541 0.108398184
0.09072913 0.0035314814 0.3151171 0.4558255 0.051444616 -0.16747226 0.01904133 0.208457
-0.24620564 0.23344305 -0.060334485 0.17086826 0.13695145 -0.08633887 -0.1887334 0.13700838
0.19126827 -0.006403693 0.10766301 -0.28399834 -0.28790924 -0.23390302 0.03207177 -0.1227174
-0.004492608 0.011800588 0.052522063 -0.08287383 0.1646834 -0.1358297 0.028642276 0.28732392
-0.26822385 0.055927027 -0.36809424 0.22454879 0.25716776 0.17205238 0.10641224 -0.042850733
0.20847382 -0.31895974 0.24578051 -0.13366053 0.19925761 0.004243367 -0.09593716 0.3015469
0.3389785 -0.22611105 -0.032910217 0.25373414 0.21818155 -0.05048696 -0.23820832 0.1035874
0.07650359 -0.11132925 -0.16488728 0.19172218 -0.28641143 0.19490515 -0.15606421 -0.08641604
-0.14455162 -0.03573169 -0.09156438 0.10706758 0.20348528 0.030616658 0.17427008 -0.051166255
-0.12068403 -0.026254492 -0.21488567 0.15073238 0.3268118 -0.091397785 0.17751805 0.26838526
0.17275324 0.060588136 -0.10416387 0.33113033 0.006524207 0.0018607938 0.026887152 -0.13268091
-0.050598178 -0.2527031 -0.014286267 -0.14291973 0.06814415 -0.16215315 -0.04338089 -0.23594232
0.013059003 0.34450263 0.09410455 0.16798168 0.17236166 0.41172874 0.002115375 -0.02091752
-0.33839992 0.20420769 -0.2074208 0.0817666 -0.18816596 0.18424405 0.021969251 0.07717371
-0.043487437 0.15922664 -0.30117318 0.27477837 -0.103312716 -0.0035231544 0.021850977 -0.15435937
0.065085255 -0.020003505 -0.0865474 0.12385308 0.082080774 -0.10542847 0.12938711 -0.09157163
-0.015630672 0.1238609 0.016954517 0.27251387 -0.029930986 -0.4292087 -0.313482 -0.09373931
0.08861647 0.2715125 0.17545256 -0.04067526 -0.1359205 0.22249858 -0.14459616 -0.110793635
-0.2577391 -0.21890706 -0.059317328 -0.0929444 -0.36940825 -0.090340495 0.4805311 0.004627071
-0.13096668 -0.21380608 -0.3424423 -0.16392444 -0.06541264 0.25150567 0.08512971 0.114347555
-0.14765047 0.15251051 0.17637172 -0.14269517 -0.17525396 0.11829965 0.19850689 0.07249746
-0.06814422 -0.15893054 0.095594764 -0.072243094 -0.13801897 0.019131286 -0.15255122 -0.19165266
0.020350983 0.03907231 0.0672782 0.2903105 -0.01739673 0.20067562 0.15114765 0.21790862
-0.09389685 -0.077443145 0.29947782 0.12649266 0.25559908 -0.24328806 0.11923004 0.1627937
0.033598322 -0.37669587 0.10230959 0.12910019 0.024159633 0.22036327 -0.004313063 0.24169876
0.18049735 0.10005721 -0.1070228 -0.19896562 0.24373655 -0.18306315 -0.17941843 -0.01165172
-0.27630085 0.35431546 0.26731116 0.21972646 0.3516791 0.16357462 0.16816245 -0.036723517
0.099727675 0.053191785 0.069041125 0.1758917 0.01528934 -0.14944589 0.20420268 -0.2393342
-0.17850725 0.12636286 0.006708306 -0.060204186 -0.0026770236 0.03954634 0.13329522 -0.09519641
-0.06973088 0.1424069 -0.1439879 0.049745005 0.07831712 0.25727737 -0.09623059 0.13910992
0.06356343 -0.09900461 0.2038828 0.23652498 -0.34274715 0.34987918 -0.16198094 -0.22912468
00000000: b19e 7bbc 48a8 f8bd feb6 86be 2b0c b8be
00000010: a077 9abd 40f5 61be 9501 26be deff dd3d
00000020: 32d0 b93d 6d70 673b 0757 a13e f661 e93e
00000030: 97b7 523d d97d 2bbe 90fc 9b3c c075 553e
00000040: 551d 7cbe b20b 6f3e 4b21 77bd 17f8 2e3e
00000050: 003d 0c3e 6fd2 b0bd 5443 41be ed4b 0c3e
00000060: d4db 433e 12d6 d1bb 6d7e dc3d 3b68 91be
00000070: d768 93be 4684 6fbe b05d 033d 4353 fbbd
00000080: ba36 93bb 4157 413c 6021 573d c1b9 a9bd
00000090: c4a2 283e f116 0bbe 35a3 ea3c 1f1c 933e
000000a0: a354 89be bd13 653d d976 bcbe 1ef0 653e
000000b0: 7eab 833e 802e 303e a9ee d93d 4084 2fbd
000000c0: 297a 553e b14e a3be e3ad 7b3e 4ede 08be
000000d0: 300a 4c3e f10b 8b3b b47a c4bd 5b64 9a3e
000000e0: 978e ad3e a889 67be ddcc 06bd 71e9 813e
000000f0: fc6a 5f3e 6acb 4ebd e2ec 73be a125 d43d
00000100: eaad 9c3d 9700 e4bd 36d8 28be d252 443e
00000110: 85a4 92be 3795 473e 4ccf 1fbe e5fa b0bd
00000120: 5705 14be 645b 12bd 1b86 bbbd 3f46 db3d
00000130: 725e 503e c9cf fa3c db73 323e b593 51bd
00000140: 3029 f7bd a913 d7bc fd0a 5cbe 9759 1a3e
00000150: e053 a73e c32e bbbd 4bc7 353e cb69 893e
00000160: 3ae6 303e 442b 783d de53 d5bd ea89 a93e
00000170: 04c9 d53b e1e5 f33a 7242 dc3c 81dd 07be
00000180: 0940 4fbd 4d62 81be f210 6abc 8d59 12be
00000190: 298f 8b3d 7a0b 26be 29b0 31bd dd9a 71be
000001a0: 6ef5 553c a662 b03e e3b9 c03d 6403 2c3e
000001b0: 937f 303e 1cce d23e 1aa2 0a3b 385b abbc
000001c0: c142 adbe d21b 513e 1e66 54be 3f75 a73d
000001d0: 94ae 40be 79aa 3c3e dcf8 b33c 400d 9e3d
000001e0: e21f 32bd 4f0c 233e 5f33 9abe c0af 8c3e
000001f0: 9e95 d3bd b9e4 66bb d200 b33c 6210 1ebe
00000200: 6b4b 853d 64de a3bc c33f b1bd afa6 fd3d
00000210: f719 a83d e2ea d7bd 0e7e 043e e889 bbbd
00000220: e50b 80bc c9aa fd3d 33e4 8a3c f086 8b3e
00000230: d431 f5bc 3ec1 dbbe b680 a0be 65fa bfbd
00000240: 8d7c b53d b003 8b3e d6a9 333e 1a9b 26bd
00000250: be2e 0bbe abd6 633e 0411 14be c6e7 e2bd
00000260: 61f6 83be 2c29 60be baf6 72bd a259 bebd
00000270: 1423 bdbe 7004 b9bd 2c08 f63e af9e 973b
00000280: 211c 06be fbef 5abe 9954 afbe cfdb 27be
00000290: 10f7 85bd 5ac5 803e 7c58 ae3d 0d2f ea3d
000002a0: af31 17be b72b 1c3e ca9a 343e af1e 12be
000002b0: c675 33be 1647 f23d 6445 4b3e 8c79 943d
000002c0: 328f 8bbd b0be 22be 30c7 c33d 30f4 93bd
000002d0: d854 0dbe 37b9 9c3c 6336 1cbe 9840 44be
000002e0: 1bb7 a63c 490a 203d 27c9 893d 94a3 943e
000002f0: 9683 8ebc e97d 4d3e 73c6 1a3e 7023 5f3e
00000300: fe4c c0bd 839a 9ebd 2855 993e 4b87 013e
00000310: e2dd 823e 8120 79be e12e f43d 64b3 263e
00000320: 659e 093d 48de c0be b187 d13d d732 043e
00000330: 6cea c53c e9a6 613e 9854 8dbb e17f 773e
00000340: 4cd4 383e cbea cc3d c52e dbbd a5bd 4bbe
00000350: 1396 793e e874 3bbe 77b9 37be dbe6 3ebc
00000360: 4e77 8dbe d668 b53e 02dd 883e f9ff 603e
00000370: 480f b43e 1b80 273e c732 2c3e 666b 16bd
00000380: 063e cc3d a1df 593d 6f65 8d3d f41c 343e
00000390: 2480 7a3c 5808 19be 821a 513e 0614 75be
000003a0: 9bca 36be 4465 013e 59d1 db3b aa98 76bd
000003b0: 0171 2fbb 58fb 213d 8b7e 083e 56f6 c2bd
000003c0: 10cf 8ebd 1dd3 113e 9071 13be 6bc1 4b3d
000003d0: ba64 a03d dcb9 833e 8b14 c5bd d572 0e3e
000003e0: 8b2d 823d eec2 cabd a7c6 503e 9b33 723e
000003f0: 8e7c afbe 5d23 b33e 55de 25be a99f 6abe

rnn.weight_hh_l0 f4 [16, 16]
0.3333374 -0.1909246 -0.52086407 -0.90306467 -0.30135676 0.38683903 -0.265029 0.11797842
-0.19134857 -0.24008472 -0.14880322 0.84911525 -0.71706724 -0.09002185 0.07793458 0.6834777
-0.08307105 -0.20332192 0.34391648 -0.3500376 -0.8471565 0.22423738 0.44751516 0.8917556
0.6569844 0.6288899 0.36602926 0.94168586 0.05021053 -0.21734467 -0.092940845 0.16014664
-0.24970466 -0.8462127 1.1221853 0.7432158 -0.7477768 -0.5507975 0.6599574 0.23549268
0.13008119 0.30731863 0.49132994 0.13449425 -0.35637438 0.37977675 0.2760728 -0.08013249
0.3301168 0.351578 0.5902326 0.93874127 0.53729755 -0.76389015 0.47437868 -0.10801749
0.17806908 -0.23607735 0.6822939 -0.72714454 0.3917711 0.45152047 0.21893464 -0.40847588
-0.16649857 0.17192493 0.15010934 0.3885294 0.06349868 0.17236648 -0.471181 -0.2740358
0.017234342 -0.20546345 0.32745337 -0.016850092 0.25935972 0.47146642 -0.0061983536 -0.020125937
0.01983484 0.5250834 -0.63181263 -0.3709367 0.57743174 1.3338889 -0.017788658 -0.21424697
-0.56143576 -0.038647104 -0.7691276 -0.21053018 -0.3147329 -0.0156135075 0.09253793 0.33770943
0.21520667 -0.28775397 0.54349625 -0.03744001 0.22477545 -0.26777866 0.12965733 0.40310338
-0.35464373 0.18861571 -0.25409788 0.7776846 -0.68811196 -0.25327116 0.37150562 0.51012576
-0.29345524 -0.713343 -0.61374515 -0.28872702 -0.18930237 0.98348635 0.26637483 -0.098000295
0.18974853 -0.16789481 -0.120262586 -0.23727214 -0.1384789 -0.030538559 -0.46978986 0.23937836
0.24601641 0.44405767 -0.017428877 0.4241646 0.773673 -0.292555 -0.41973433 -0.69370604
-0.2107834 -0.30977377 0.052287884 -1.7003162 0.10875704 0.03400325 0.2814933 -0.44100347
-0.11691937 0.4296176 -0.80152434 -0.28611317 0.08271843 0.33002752 -1.1472603 -0.79843485
0.52168727 -0.1688478 0.30487275 -0.72060186 0.34163827 -0.32720912 0.087821364 -0.31801212
-0.3127841 0.47770134 0.40495172 1.0339917 0.5912608 -0.5031078 0.5746748 -0.12134091
0.4862624 -0.02910358 0.56729305 -1.3173646 0.08897539 0.49642152 -0.18234135 -0.6084698
0.73301744 -0.1531553 -0.65222424 -0.6231645 -0.17634404 0.3482903 0.41520593 -0.10492578
-0.6725129 -0.24311306 -0.49410355 0.05726092 0.15230401 -0.43308935 -0.2061929 0.59065944
-0.7597262 0.070689484 -0.7675907 0.3928007 0.24706867 -0.09695695 -0.8335762 -0.27658647
0.3147359 0.62498254 -0.064748175 -0.22608687 0.8059128 -0.13108997 -0.25621548 -0.83524454
0.016262814 0.091292724 0.7368207 1.0893102 0.31321993 -0.49543405 0.18766297 -0.3585781
0.3109852 0.25724128 0.51815903 -1.1905812 0.31920478 0.27203196 0.16985174 -0.65147454
-0.10766975 0.040727124 0.3833011 -0.11301091 0.25180778 0.5231416 0.48134208 0.7316223
-0.77997386 -0.3838535 -0.30188718 0.2270878 -1.393926 0.92127585 0.1577226 0.6015829
0.861161 -0.18773282 0.071755275 -0.59224075 -0.2132222 0.05487621 0.69179374 -0.17009692
-0.013174972 -0.42303288 -0.65179116 0.22754602 -0.19593364 -0.79207325 0.18134084 1.2204326
00000000: 33ab aa3e bd81 43be 5957 05bf 3f2f 67bf
00000010: 6f4b 9abe c40f c63e e2b1 87be ab9e f13d
00000020: e1f0 43be c5d8 75be df5f 18be 9e5f 593f
00000030: b891 37bf 605d b8bd 2a9c 9f3d 65f8 2e3f
00000040: 2821 aabd 9f33 50be d215 b03e 2138 b3be
00000050: 40df 58bf 7c9e 653e b520 e53e 184a 643f
00000060: 2130 283f eefe 203f 3068 bb3e 5312 713f
00000070: 8fa9 4d3d 9a8f 5ebe c557 bebd 7bfd 233e
00000080: 94b2 7fbe 65a1 58bf c5a3 8f3f 6443 3e3f
00000090: 4d6e 3fbf 1101 0dbf f8f2 283f fe24 713e
000000a0: 0134 053e de58 9d3e 998f fb3e dcb8 093e
000000b0: b476 b6be 1972 c23e 6a59 8d3e 811c a4bd
000000c0: 1205 a93e 0802 b43e 7c19 173f 5951 703f
000000d0: 558c 093f 4e8e 43bf c3e1 f23e 4638 ddbd
000000e0: be57 363e 43be 71be d0aa 2e3f 2526 3abf
000000f0: 3996 c83e b12d e73e 6730 603e c023 d1be
00000100: 9a7e 2abe 170d 303e 43b6 193e 53ed c63e
00000110: 990b 823d d780 303e a33e f1be 6c4e 8cbe
00000120: 092f 8d3c 0365 52be f8a7 a73e 3409 8abc
00000130: ccca 843e 0c64 f13e 8f1b cbbb 26df a4bc
00000140: ad7c a23c de6b 063f 79be 21bf 6aeb bdbe
00000150: 91d2 133f dfbc aa3f 85b9 91bc 8f63 5bbe
00000160: 41ba 0fbf 6d4c 1ebd 8ce5 44bf 3995 57be
00000170: ac24 a1be cccf 7fbc 8784 bd3d 40e8 ac3e
00000180: 235f 5c3e 7d54 93be 9222 0b3f b25a 19bd
00000190: 892b 663e 491a 89be e4c4 043e 9163 ce3e
000001a0: dd93 b5be 7a24 413e 1e19 82be 5716 473f
000001b0: 1b28 30bf c2ac 81be fc35 be3e 9a97 023f
000001c0: c43f 96be a69d 36bf 671e 1dbf 07d4 93be
000001d0: 7bd8 41be c3c5 7b3f 4862 883e 61b4 c8bd
000001e0: 704d 423e 9eec 2bbe 3b4c f6bd 78f7 72be
000001f0: 6acd 0dbe 002c fabc 4c88 f0be 9a1f 753e
00000200: baeb 7b3e 875b e33e 01c7 8ebc 1a2c d93e
00000210: 6f0f 463f c5c9 95be 6be7 d6be b896 31bf
00000220: 9bd7 57be ab9a 9ebe d22b 563d f6a3 d9bf
00000230: 03bc de3d fe46 0b3d e41f 903e 35cb e1be
00000240: 6c73 efbd d7f6 db3e b330 4dbf 6d7d 92be
00000250: 4868 a93d 5ef9 a83e 6dd9 92bf 3a66 4cbf
00000260: 4c8d 053f 70e6 2cbe 4818 9c3e 5d79 38bf
00000270: 36eb ae3e f487 a7be b0db b33d 7cd2 a2be
00000280: 3d25 a0be 4595 f43e d555 cf3e d759 843f
00000290: de5c 173f accb 00bf e31d 133f 9581 f8bd
000002a0: 63f7 f83e a26a eebc 1e3a 113f 679f a8bf
000002b0: bb38 b63d f62a fe3e b1b7 3abe adc4 1bbf
000002c0: 08a7 3b3f bed4 1cbe 2bf8 26bf b587 1fbf
000002d0: 8893 34be 1b53 b23e df95 d43e 54e3 d6bd
000002e0: ce29 2cbf a1f2 78be 24fb fcbe 6d8a 6a3d
000002f0: 95f5 1b3e e3bd ddbe 3b24 53be 7535 173f
00000300: 6b7d 42bf a6c5 903d d380 44bf 2c1d c93e
00000310: 92ff 7c3e 5e91 c6bd 4065 55bf be9c 8dbe
00000320: 1025 a13e dbfe 1f3f b19a 84bd 5183 67be
00000330: 4d50 4e3f 733c 06be ad2e 83be 96d2 55bf
00000340: 9839 853c aef7 ba3d 48a0 3c3f 846e 8b3f
00000350: 5d5e a03e 88a9 fdbe b92a 403e 8c97 b7be
00000360: 7439 9f3e 21b5 833e 12a6 043f f764 98bf
00000370: cf6e a33e c647 8b3e 9ded 2d3e 09c7 26bf
00000380: f581 dcbd 7cd1 263d 0b40 c43e 4472 e7bd
00000390: f3ec 803e 9cec 053f 7872 f63e 994b 3b3f
000003a0: 5eac 47bf 7288 c4be f590 9abe b489 683e
000003b0: 2b6c b2bf bcd8 6b3f 0982 213e 5601 1a3f
000003c0: 0c75 5c3f 083d 40be 6ef4 923d 179d 17bf
000003d0: ec56 5abe e0c5 603d 6519 313f e32d 2ebe
000003e0: d6db 57bc c497 d8be c9db 26bf d301 693e
000003f0: d4a2 48be 50c5 4abf 6ab1 393e 2337 9c3f

rnn.bias_ih_l0 f4 [16]
0.23332728 -0.25567058 -0.21191017 0.01495375 0.21834569 0.09020173 -0.4120343 -0.16666262
-0.10115842 0.08506858 0.12656252 -0.39594808 0.06434615 0.2683838 0.11383743 0.13785362
00000000: 59ed 6e3e 41e7 82be fbfe 58be 9300 753c
00000010: 0396 5f3e afbb b83d 29f6 d2be 9ba9 2abe
00000020: 252c cfbd 7038 ae3d 9b99 013e b5b9 cabe
00000030: eac7 833d 9a69 893e 9923 e93d 8029 0d3e

rnn.bias_hh_l0 f4 [16]
-0.034810483 0.16439782 -0.02077742 -0.016803393 -0.042069215 0.31509253 -0.007433033 -0.06288401
0.22293691 0.017772857 0.0036464685 -0.059945486 0.0046785865 0.08088376 -0.23725079 -0.24241957
00000000: 7095 0ebd e757 283e 6835 aabc 45a7 89bc
00000010: c550 2cbd cf53 a13e cd90 f3bb 55c9 80bd
00000020: 9349 643e 6298 913c 97f9 6e3b 6689 75bd
00000030: d44e 993b 62a6 a53d dff1 72be d63c 78be

rnn.weight_ih_l0_reverse f4 [16, 128]
0.29709285 -0.010971425 0.15782179 -0.29054496 -0.11367255 -0.25146782 -0.03725544 0.1570248
-0.115869485 0.28488272 -0.390305 0.006839838 -0.12176549 0.21913247 0.06760539 -0.23344985
-0.004214168 0.026821107 0.054509282 0.11227942 0.055882793 -0.35933197 0.067568205 -0.28316894
0.1879979 -5.1333518e-05 0.29971343 0.2960517 0.023242598 0.08081983 0.2840092 -0.12407512
0.138796 0.123824365 -0.015794238 0.10081496 0.019688886 -0.06874208 -0.2681808 -0.20463634
0.031066159 0.05283632 0.26969057 0.05958247 0.12571053 -0.0060141794 0.22930601 -0.002354047
0.18342282 -0.2316034 0.21999288 -0.26882493 -0.11629065 0.24453573 -0.19730364 -0.0018392307
0.38726798 0.029292803 0.16699316 0.13888639 -0.04873655 -0.08054747 0.20592737 0.23752497
0.07610971 -0.093491465 0.115648 0.05993399 0.06584202 -0.21631601 0.11809043 0.16194607
-0.1876294 0.11248109 0.14130758 0.0042911586 0.10167634 0.2533744 0.121524215 0.18665908
-0.078616686 -0.1066442 -0.066087 -0.11680815 0.028912747 0.31227952 0.19354801 -0.03401817
-0.04982492 -0.2232356 -0.15203722 0.10374976 -0.053103257 -0.19732545 0.26062799 -0.19221
-0.21691647 -0.04655397 -0.1431117 0.153497 -0.14473116 -0.20135154 -0.0017075414 0.105422676
-0.06469566 0.22624193 -0.3290854 -0.17912237 -0.24777344 0.37082797 -0.0880763 -0.23783216
-0.39078575 0.14057414 -0.2407569 0.14750226 -0.15130436 0.087260336 0.15614176 0.07594872
0.0111467615 -0.22913997 -0.24159345 0.10393475 -0.17889577 0.19853987 0.051661883 0.05342423
0.16928498 0.022755174 -0.1709341 -0.31786725 0.13341671 -0.32501817 -0.17795216 -0.02132958
0.33138058 -0.37607104 -0.07650564 0.59633017 -0.15964563 -0.38865322 -0.1779438 0.2714832
0.15319508 0.19530852 -0.046742868 -0.014770402 -0.20155618 -0.1408204 -0.20876744 0.03719883
-0.32466525 0.15992832 0.0970964 -0.09353732 -0.20206103 0.062642194 0.29262158 -0.23931746
-0.060470145 -0.23736803 -0.050264373 0.11290515 -0.16274388 0.32742602 0.20703128 0.15279704
0.074039795 0.16673243 -0.00014595008 -0.016586633 0.1054605 0.11400265 -0.12958308 0.064669825
0.2063229 -0.052269273 0.0026168318 -0.27788863 -0.017016754 -0.14090903 -0.37308645 0.2814069
0.3928144 -0.22213636 0.12017196 -0.0347086 -0.09370855 0.111019515 -0.08996266 0.12243351
-0.2986838 -0.15450293 0.26336035 0.08315675 -0.059574597 -0.031094542 -0.020046925 -0.50562924
0.11144919 -0.06413357 -0.19028506 0.3636737 0.29767504 0.23447365 -0.08546834 -0.022069937
-0.12325703 -0.26140502 -0.3356711 0.16952115 -0.025162093 -0.114220396 0.14829041 0.20952773
0.0022552912 -0.042927217 0.28970787 0.4120537 0.035138883 0.3082642 0.1070441 0.42214814
-0.026384404 -0.12890065 0.06282225 -0.2198033 0.32654488 -0.30042616 -0.11034649 0.21827158
0.110759124 0.04475785 -0.10610826 0.12484568 0.038913704 -0.23963676 -0.016178276 0.34270367
-0.020280324 -0.14794666 -0.07113094 -6.657868e-05 -0.12310652 0.38341796 -0.024895597 -0.044930007
-0.37440318 -0.06278441 0.21010919 0.28477257 -0.22141133 0.30273643 0.07563866 -0.095162176
00000000: 8e1c 983e 7ec1 33bc 099c 213e 4fc2 94be
00000010: 27cd e8bd 64c0 80be 2999 18bd 1ccb 203e
00000020: fb4c edbd 26dc 913e 0fd6 c7be b820 e03b
00000030: 2f60 f9bd 4364 603e b274 8a3d 7a0d 6fbe
00000040: 0117 8abb f0b7 db3c 2045 5f3d c1f2 e53d
00000050: 5be5 643d 5cfa b7be 3361 8a3d 85fb 90be
00000060: 8682 403e f24e 57b8 0a74 993e 1794 973e
00000070: 4367 be3c de84 a53d a769 913e 191b febd
00000080: 8a20 0e3e a197 fd3d eb62 81bc 1378 ce3d
00000090: 964a a13c a6c8 8cbd fe4e 89be 308c 51be
000000a0: 757e fe3c e66a 583d e214 8a3e c00c 743d
000000b0: 43ba 003e 9812 c5bb 32cf 6a3e 5b46 1abb
000000c0: 31d3 3b3e 7129 6dbe d045 613e 6ca3 89be
000000d0: cb29 eebd 9367 7a3e f709 4abe 5712 f1ba
000000e0: fd47 c63e 76f7 ef3c 4100 2b3e 3c38 0e3e
000000f0: fa9f 47bd 12f6 a4bd a0de 523e bf39 733e
00000100: 68df 9b3d 7478 bfbd dcd8 ec3d 587d 753d
00000110: 2ed8 863d f281 5dbe 65d9 f13d 31d5 253e
00000120: ec21 40be 7c5c e63d efb2 103e d99c 8c3b
00000130: af3b d03d 4aba 813e b0e1 f83d 8f23 3f3e
00000140: c901 a1bd 4668 dabd 9f58 87bd 1d39 efbd
00000150: 6dda ec3c 1ae3 9f3e 7331 463e a356 0bbd
00000160: 3715 4cbd e097 64be a5af 1bbe c17a d43d
00000170: cd82 59bd af0f 4abe 0871 853e b3d2 44be
00000180: 5a1f 5ebe 60af 3ebd e08b 12be 512e 1d3e
00000190: 6834 14be 192f 4ebe 95cf dfba d8e7 d73d
000001a0: 287f 84bd f7ab 673e e27d a8be db6b 37be
000001b0: 52b8 7dbe 2add bd3e 5961 b4bd 468a 73be
000001c0: 1215 c8be abf2 0f3e fa88 76be d50a 173e
000001d0: 88ef 1abe 8cb5 b23d a0e3 1f3e 018b 9b3d
000001e0: e8a0 363c aba3 6abe 4664 77be bedb d43d
000001f0: 7430 37be 094e 4b3e 699b 533d 5ed3 5a3d
00000200: 0b59 2d3e 0f69 ba3c 5909 2fbe 7fbf a2be
00000210: 649e 083e c868 a6be 1739 36be 5fbb aebc
00000220: b7aa a93e 628c c0be fdae 9cbd 18a9 183f
00000230: 257a 23be 8efd c6be e636 36be d9ff 8a3e
00000240: 2cdf 1c3e f5fe 473e 7375 3fbd 8eff 71bc
00000250: be64 4ebe 3933 10be 22c7 55be cd5d 183d
00000260: 863a a6be 40c4 233e 7ada c63d 7f90 bfbd
00000270: 16e9 4ebe 8d4a 803d 7fd2 953e a30f 75be
00000280: 8baf 77bd 9b10 73be 04e2 4dbd d13a e73d
00000290: 55a6 26be 62a4 a73e 0200 543e d476 1c3e
000002a0: 2da2 973d e8bb 2a3e 2d0a 19b9 b1e0 87bc
000002b0: adfb d73d 397a e93d 6db1 04be 9d71 843d
000002c0: 4f46 533e 4e18 56bd 277f 2b3b 6b47 8ebe
000002d0: b866 8bbc 754a 10be 3005 bfbe 9114 903e
000002e0: f81e c93e b777 63be b71c f63d 9b2a 0ebd
000002f0: 45ea bfbd 335e e33d 583e b8bd 6cbe fa3d
00000300: 15ed 98be 0436 1ebe 2bd7 863e 164e aa3d
00000310: 7e04 74bd fbb9 febc 7339 a4bc eb70 01bf
00000320: 793f e43d 7658 83bd 16da 42be 7033 ba3e
00000330: dd68 983e dc19 703e 060a afbd 03cc b4bc
00000340: 2f6e fcbd e1d6 85be 15dd abbe f496 2d3e
00000350: bc20 cebc 62ec e9bd 71d9 173e 708e 563e
00000360: 82cd 133b 73d4 2fbd 9754 943e b4f8 d23e
00000370: caed 0f3d ced4 9d3e f039 db3d cd23 d83e
00000380: 1b24 d8bc 88fe 03be f4a8 803d 1e14 61be
00000390: e430 a73e 75d1 99be 57fd e1bd 9682 5f3e
000003a0: aed5 e23d 0254 373d 4a4f d9bd 18af ff3d
000003b0: fa63 1f3d 5763 75be 4e88 84bc db76 af3e
000003c0: ec22 a6bc 547f 17be 19ad 91bd 28a0 8bb8
000003d0: 451f fcbd 5c4f c43e daf1 cbbc 8708 38bd
000003e0: c6b1 bfbe 1d95 80bd dd26 573e b6cd 913e
000003f0: a7b9 62be 4500 9b3e 71e8 9a3d 63e4 c2bd

rnn.weight_hh_l0_reverse f4 [16, 16]
0.1194305 -0.35048443 0.040559314 0.120921314 -0.79982543 -0.22617418 0.39051872 0.12929939
-0.8039949 -0.60380155 0.47310326 0.29185894 -0.7319786 0.34824964 0.15804097 -0.80089986
0.013863479 0.3881443 0.14463139 0.10503966 -0.06075415 0.3341933 0.11647872 -0.024457768
-0.030219583 -0.0451383 0.04679978 -0.10420538 0.21883279 0.30536196 0.012732089 0.18820532
-0.62508094 0.28728762 0.22657038 0.18795916 -0.22868568 1.0854019 0.015992254 -0.3114232
0.4496694 0.32313332 -0.32216796 -0.7779695 0.8018067 -0.049131438 0.24499269 0.31007144
0.13235508 -0.2797107 -0.35285226 -0.15011378 -1.2610064 -0.19405493 0.008779889 -0.040664323
-0.9887756 -0.40344068 -0.07015261 -0.28441882 -0.3784275 -0.20754479 0.27444562 -0.30677003
-0.4404121 0.23074996 -0.059664886 0.18447652 0.16662009 1.077385 0.12452784 -0.28091022
0.18961835 0.26465136 -0.5618679 -0.57541054 0.85223156 0.023153152 0.139356 0.5842534
0.023275167 0.29314065 1.0881293 -0.04768029 1.0418165 0.30952206 -0.22774257 0.11615402
0.08576753 0.38415188 0.6037857 -0.2590349 0.46503758 -0.004223985 -0.2832692 -0.0382164
-0.7922335 -0.47895244 0.06056993 -0.2630887 -0.2292489 0.051476758 -0.20077164 0.36824828
-0.17361026 0.6549706 0.18720496 -0.022110492 0.4070892 -0.40517035 0.1790112 0.21447359
-0.22528985 0.13351741 0.038278352 0.10635163 1.2146164 0.26886046 -0.20250604 -0.30920687
1.0106076 -0.006740767 -0.110219605 0.44479764 0.49473158 0.19729961 0.09434736 0.4067396
-0.27826133 -0.0053702793 -0.086597756 -0.059321195 -0.053091757 -0.18144034 -0.1358811 -0.289603
0.24294078 0.41663355 -0.3859111 -0.5863497 0.24231397 -0.24018075 0.45224753 0.08112106
-0.018408444 0.08679645 -0.12836206 0.07159634 1.0193583 0.28491876 -0.46658593 -0.5229763
0.9766921 -0.06398152 -0.46744365 0.22787134 0.18316041 -0.20109645 -0.1721129 0.80658746
-0.40557227 0.035302624 0.12162429 0.19678174 0.1890453 1.1686221 0.17582452 -0.28852487
0.38569736 0.27511257 0.045376584 -0.9879897 0.5513965 -0.10995343 0.11778352 0.23414084
0.24678966 -0.43230614 0.033156697 -0.5757149 -0.15737984 -0.8416687 -0.38886863 0.14535037
0.22122756 -0.4686858 0.39019203 1.5957166 -0.45922932 0.02415768 -0.028050948 0.016698612
-0.25771162 0.4576217 0.4611302 0.11280617 0.5000136 0.8754622 -0.075342864 -0.12098516
0.19226955 0.21817413 0.17765948 -0.7691165 1.2708907 -0.15765436 0.09511488 0.14549063
-0.11157282 0.25723812 -0.11803221 0.2857075 0.21357879 -0.0880266 -0.24955961 0.23461798
0.1396618 0.11524413 -0.34994927 -0.006926312 -0.49488887 0.10066515 -0.17951031 -0.10872984
-0.17936414 0.027276577 -0.15765935 -0.18825018 -0.06692124 -0.36555466 -0.17277601 0.28707242
0.2138672 0.24906369 0.082657166 -0.2796218 0.11336108 -0.537804 0.543126 0.4856412
0.47289193 -0.026886469 -0.2515331 0.12975688 -0.44407913 0.024595633 -0.5268664 -0.4067107
0.05453219 -0.12852877 -0.26231965 -0.4609449 -0.16329283 0.09592761 0.0797174 0.051765405
00000000: fa97 f43d b272 b3be 8621 263d 98a5 f73d
00000010: 5cc1 4cbf 349a 67be 12f2 c73e 0f67 043e
00000020: 9cd2 4dbf bd92 1abf 973a f23e 896e 953e
00000030: f362 3bbf c74d b23e 7ed5 213e c607 4dbf
00000040: a523 633c daba c63e 401a 143e 091f d73d
00000050: 58d9 78bd 621b ab3e 658c ee3d a85b c8bc
00000060: 0f8f f7bc f0e2 38bd 20b1 3f3d a169 d5bd
00000070: b415 603e 6758 9c3e 409a 503c e5b8 403e
00000080: 4e05 20bf 5d17 933e 1102 683e 5e78 403e
00000090: 942c 6abe 73ee 8a3f 3002 833c dd72 9fbe
000000a0: 113b e63e bb71 a53e 33f3 a4be 0229 47bf
000000b0: 3443 4d3f 0c3e 49bd 5ddf 7a3e afc1 9e3e
000000c0: 1788 073e 3e36 8fbe 0da9 b4be 6db7 19be
000000d0: a868 a1bf 56b6 46be 86d9 0f3c a28f 26bd
000000e0: 6620 7dbf c78f cebe 2cac 8fbd 589f 91be
000000f0: 40c1 c1be 9f86 54be 2384 8c3e f610 9dbe
00000100: b27d e1be b849 6c3e 2b63 74bd 6ae7 3c3e
00000110: 759e 2a3e c0e7 893f 7408 ff3d 77d3 8fbe
00000120: 502b 423e 6280 873e 93d6 0fbf 1b4e 13bf
00000130: d92b 5a3f aeab bd3c 57b3 0e3e a191 153f
00000140: 90ab be3c 8816 963e d247 8b3f 684c 43bd
00000150: 3e5a 853f ad79 9e3e 5935 69be 29e2 ed3d
00000160: e3a6 af3d 8eaf c43e b391 1a3f 39a0 84be
00000170: 6819 ee3e 5b69 8abb a908 91be cd88 1cbd
00000180: d1cf 4abf 4139 f5be 2d18 783d 90b3 86be
00000190: 39c0 6abe 4bd9 523d 1597 4dbe 0a8b bc3e
000001a0: e3c6 31be 27ac 273f a8b2 3f3e 1021 b5bc
000001b0: ff6d d03e 7d72 cfbe b64e 373e f79e 5b3e
000001c0: 62b2 66be cab8 083e c3c9 1c3d e2ce d93d
000001d0: 8d78 9b3f 14a8 893e be5d 4fbe 5d50 9ebe
000001e0: 975b 813f a7e1 dcbb d1ba e1bd 84bc e33e
000001f0: 754d fd3e e908 4a3e 3039 c13d 2c40 d03e
00000200: 4578 8ebe 2bf9 afbb 2a5a b1bd c8fa 72bd
00000210: be76 59bd 7fcb 39be 6a24 0bbe d846 94be
00000220: 78c5 783e fe50 d53e 2496 c5be 041b 16bf
00000230: 2721 783e f1f1 75be fd8c e73e cc22 a63d
00000240: 4ecd 96bc 56c2 b13d 5871 03be 1aa1 923d
00000250: 557a 823f dfe0 913e 5ae4 eebe c6e1 05bf
00000260: 7e08 7a3f be08 83bd c654 efbe 1b57 693e
00000270: 678e 3b3e 3aec 4dbe 5d3e 30be 847c 4e3f
00000280: 2ba7 cfbe 7c99 103d 2816 f93d 2781 493e
00000290: 1795 413e 6995 953f 580b 343e 88b9 93be
000002a0: 207a c53e 8edb 8c3e ccdc 393d e5ec 7cbf
000002b0: 5228 0d3f 442f e1bd 7c38 f13d 9ec2 6f3e
000002c0: 6eb6 7c3e 3b57 ddbe 51cf 073d 0d62 13bf
000002d0: 2e28 21be 9a77 57bf ca19 c7be bad6 143e
000002e0: 7a89 623e 96f7 efbe 40c7 c73e 7140 cc3f
000002f0: 1b20 ebbe 54e6 c53c 1acb e5bc 87cb 883c
00000300: c7f2 83be 644d ea3e 4219 ec3e ec06 e73d
00000310: e400 003f 4a1e 603f 5c4d 9abd 11c7 f7bd
00000320: 4fe2 443e 0a69 5f3e 5eec 353e d2e4 44bf
00000330: 8cac a23f 2570 21be 97cb c23d 7ffb 143e
00000340: 4a80 e4bd b7b4 833e dfba f1bd 4148 923e
00000350: 66b4 5a3e 4a47 b4bd 8e8c 7fbe b23f 703e
00000360: 8103 0f3e 1d05 ec3d 8d2c b3be 1ef6 e2bb
00000370: 1362 fdbe 8829 ce3d 8dd1 37be c0ad debd
00000380: 3cab 37be 2173 df3c 7471 21be a8c4 40be
00000390: 010e 89bd fb29 bbbe 32ec 30be 28fb 923e
000003a0: 0100 5b3e 8d0a 7f3e 2948 a93d 972a 8fbe
000003b0: db29 e83d 86ad 09bf 4e0a 0b3f f7a5 f83e
000003c0: e41e f23e 0341 dcbc f2c8 80be fdde 043e
000003d0: 575e e3be c87c c93c b7e0 06bf 633c d0be
000003e0: 255d 5f3d 0c9d 03be c34e 86be f800 ecbe
000003f0: 3c36 27be b275 c43d e042 a33d f607 543d

rnn.bias_ih_l0_reverse f4 [16]
0.06732552 -0.29746723 0.22430651 -0.37647834 0.24874167 0.10382643 0.2775542 0.34862468
0.094839126 0.19569401 0.08293514 -0.17749123 -0.18992661 -0.21661593 0.16610593 0.13954923
00000000: f6e1 893d a04d 98be 9bb0 653e c5c1 c0be
00000010: 23b6 7e3e f4a2 d43d 961b 8e3e ef7e b23e
00000020: 043b c23d 0364 483e e6d9 a93d 43c0 35be
00000030: 1f7c 42be 91d0 5dbe ac17 2a3e fee5 0e3e

rnn.bias_hh_l0_reverse f4 [16]
-0.2831386 -0.30075014 0.27614608 -0.34966412 0.3325961 -0.0051745353 0.06739347 0.5078373
0.27096123 0.1887191 0.06828489 -0.15021305 0.15010814 -0.25228363 0.335365 -0.11316298
00000000: 8bf7 90be ecfb 99be 0563 8d3e 2d07 b3be
00000010: 094a aa3e 268f a9bb 9605 8a3d a001 023f
00000020: 6ebb 8a3e 943f 413e f3d8 8b3d 73d1 19be
00000030: f3b5 193e 522b 81be f6b4 ab3e fec1 e7bd

fc1.weight f4 [12, 32]
-0.3693498 -1.2343094 -0.6361112 0.42618138 -0.5877185 0.4435305 -0.20865564 -0.2091811
1.1116071 0.6091899 0.430607 -0.105106585 0.40074867 0.4769941 -0.5422872 -0.3025487
-0.84787977 -0.46799 0.8888853 -1.004639 0.92690235 -0.50154746 0.19199972 1.0900478
0.35087883 0.72146565 0.9185166 -0.2719809 0.54554397 -0.43134043 0.43488365 0.41374236
1.8247067 2.0661044 0.5276449 -0.59499943 1.739496 0.4898265 -0.98641723 3.194794
-0.07217348 -0.62404835 0.07802077 -0.86200947 -0.08819095 0.9544048 -0.8427809 -0.52881765
0.071916446 2.8644338 1.2334864 2.7485 1.0208337 1.8569643 1.313134 -1.2650725
1.0765404 -0.004938798 -1.6836687 -0.47813597 -1.7759215 1.8371409 -0.2008491 -1.2649926
0.3439702 -0.3372978 0.13804086 0.25580755 1.3520348 -2.0718305 -0.64036417 -0.52851075
1.0216898 -0.74518347 -1.3066005 1.1414889 -1.9790128 -0.22307071 1.5390204 -0.12721853
1.096031 -0.053242814 -1.6927373 -0.42178965 1.1262465 1.4519207 -0.95752376 -1.0478206
-1.838313 -1.8215493 1.2761608 -0.87351805 0.27565464 1.8454025 -0.14341861 -1.1074492
0.98590755 1.8398803 0.9269139 0.31788698 1.5476865 -0.38667902 2.201175 1.1426457
0.72036964 0.20200102 0.51076806 0.25753805 0.4535076 -1.0134951 1.9357183 -0.6018772
0.9590536 -0.027289214 -1.3436539 -0.45162922 -1.2252474 1.2184312 1.0917995 -2.003678
0.31272453 -1.1791915 0.84309477 -1.1284175 0.9358241 -0.46210515 -1.2317439 -1.6239395
-0.31315514 1.6462408 0.102428526 0.5738106 1.374628 -0.13451414 0.015118353 -0.35371286
-1.1484263 0.08674186 1.1966529 0.0143150855 0.30351862 -1.129313 1.9386637 1.8153869
-0.8143023 1.5933439 -0.29519022 0.07024784 0.07861327 1.4783103 -1.0241089 -1.8930044
-1.1805115 -1.8169978 -0.862596 0.43827707 0.7234881 -0.38984504 -0.27289763 -1.0577763
0.93487793 -2.0758674 -0.84701526 -0.99836785 -0.0574031 0.24704464 1.8868583 -0.015496852
-0.8471243 -2.5719862 -0.73627156 -0.34364277 0.98027545 -0.5606156 2.9610572 -2.1010506
0.26222876 0.24831524 0.040740903 0.83695495 0.14224803 0.24240246 0.03321574 -0.88551414
-0.26539335 -1.100561 0.04769913 -0.38636646 0.06707829 0.13062504 -0.16097745 -0.032004658
1.6760706 -1.9195615 -1.7104744 1.6548734 -0.22606063 -0.07048476 -1.1174437 0.49415627
1.9491823 -1.2260562 1.2644632 0.11265748 -2.7925746 -1.8793895 3.1242936 2.4453266
0.5229505 0.6744286 -0.09081798 1.8301901 -0.22136195 0.23587711 0.23227353 -1.4637023
-0.45438606 -1.0368897 0.01368125 -0.21534625 -0.11022389 0.33555815 -0.8157775 -0.39985687
0.83399415 0.68099463 0.07720009 -0.3288522 0.6518189 -1.1470037 0.8863972 0.42103365
0.12513754 -0.7156138 0.012974438 0.27857172 -0.5649607 -0.816169 0.7014311 0.37726828
0.28970036 0.9021205 0.16951737 0.9625409 0.25646967 0.6795945 0.22958888 -1.1078091
-1.0973856 -1.0378565 0.052035853 -0.14313734 -0.16772905 0.507211 -0.80075276 -0.37812307
00000000: 6b1b bdbe dafd 9dbf 2fd8 22bf 7234 da3e
00000010: b874 16bf 6e16 e33e d3a9 55be 9233 56be
00000020: 2449 8e3f dff3 1b3f 8578 dc3e 1f42 d7bd
00000030: ee2e cd3e 9238 f43e 55d3 0abf aae7 9abe
00000040: a60e 59bf 639c efbe fd8d 633f 0398 80bf
00000050: 7949 6d3f 6a65 00bf 939b 443e b086 8b3f
00000060: 64a6 b33e f9b1 383f e723 6b3f 1541 8bbe
00000070: c5a8 0b3f a7d8 dcbe 12a9 de3e 0ad6 d33e
00000080: fd8f e93f 0e3b 0440 bc13 073f e251 18bf
00000090: cea7 de3f 8aca fa3e d785 7cbf 8177 4c40
000000a0: b1cf 93bd a2c1 1fbf 5ac9 9f3d a7ac 5cbf
000000b0: 759d b4bd df53 743f 7dc0 57bf 9860 07bf
000000c0: ee48 933d e252 3740 e2e2 9d3f 6de7 2f40
000000d0: aeaa 823f 02b1 ed3f c614 a83f e5ed a1bf
000000e0: 13cc 893f a4d5 a1bb 7582 d7bf 3dce f4be
000000f0: 6551 e3bf 6f27 eb3f 63ab 4dbe 47eb a1bf
00000100: dd1c b03e 4cb2 acbe 955a 0d3e 35f9 823e
00000110: 7a0f ad3f df98 04c0 e8ee 23bf 7b4c 07bf
00000120: bbc6 823f 58c4 3ebf af3e a7bf 4f1c 923f
00000130: 4b50 fdbf a66c 64be 9ffe c43f 9345 02be
00000140: be4a 8c3f 2315 5abd 9eab d8bf d0f4 d7be
00000150: d828 903f 8ad8 b93f 4720 75bf fc1e 86bf
00000160: d74d ebbf 8728 e9bf 3d59 a33f e19e 5fbf
00000170: 9b22 8d3e 2636 ec3f 54dc 12be e5c0 8dbf
00000180: 7064 7c3f 3381 eb3f 3b4a 6d3f 15c2 a23e
00000190: 971a c63f cbfa c5be 0de0 0c40 3742 923f
000001a0: 256a 383f 5bd9 4e3e b2c1 023f 07dc 833e
000001b0: 2632 e83e 35ba 81bf 9ec5 f73f a014 1abf
000001c0: 8984 753f a18d dfbc dafc abbf f23b e7be
000001d0: e8d4 9cbf 8ef5 9b3f 16c0 8b3f 433c 00c0
000001e0: 6e1d a03e bfef 96bf 0fd5 573f fc6f 90bf
000001f0: 2b92 6f3f 0c99 ecbe c9a9 9dbf 40dd cfbf
00000200: df55 a0be 05b8 d23f 0cc6 d13d 40e5 123f
00000210: cff3 af3f 13be 09be f8b2 773c da19 b5be
00000220: a2ff 92bf b7a5 b13d ec2b 993f d289 6a3c
00000230: cb66 9b3e 548d 90bf 2226 f83f 995e e83f
00000240: 1e76 50bf b1f2 cb3f 2c23 97be 19de 8f3d
00000250: feff a03d 4639 bd3f 0016 83bf f84d f2bf
00000260: 001b 97bf 6293 e8bf 17d3 5cbf da65 e03e
00000270: 8436 393f c599 c7be 3db9 8bbe 3765 87bf
00000280: 2954 6f3f 03db 04c0 fed5 58bf 0995 7fbf
00000290: 831f 6bbd 45f9 7c3e 9384 f13f 82e6 7dbc
000002a0: 23dd 58bf 6c9b 24c0 4b7c 3cbf f2f1 afbe
000002b0: 55f3 7a3f 8184 0fbf f681 3d40 9d77 06c0
000002c0: d942 863e 5a46 7e3e efdf 263d ae42 563f
000002d0: 78a9 113e 5a38 783e 3a0d 083d 0eb1 62bf
000002e0: a3e1 87be 2fdf 8cbf 2a60 433d d3d1 c5be
000002f0: 5860 893d 92c2 053e 46d7 24be 5117 03bd
00000300: 7b89 d63f 31b4 f5bf d3f0 dabf e4d2 d33f
00000310: 707c 67be 505a 90bd 6508 8fbf 0d02 fd3e
00000320: ce7e f93f 69ef 9cbf eed9 a13f f7b8 e63d
00000330: 8bb9 32c0 d68f f0bf 6df4 4740 3b80 1c40
00000340: 15e0 053f 5aa7 2c3f c7fe b9bd ab43 ea3f
00000350: b5ac 62be c589 713e 1dd9 6d3e 995a bbbf
00000360: 4aa5 e8be cdb8 84bf 5227 603c ba83 5cbe
00000370: 10bd e1bd 47ce ab3e cbd6 50bf 0aba ccbe
00000380: a480 553f aa55 2e3f 151b 9e3d 515f a8be
00000390: 9add 263f 04d1 92bf edea 623f b991 d73e
000003a0: 0e24 003e 7732 37bf bd92 543c f4a0 8e3e
000003b0: 44a1 10bf 74f0 50bf fd90 333f 4f29 c13e
000003c0: 9b53 943e 5ef1 663f f695 2d3e 1569 763f
000003d0: fe4f 833e e8f9 2d3f 5919 6b3e b0cc 8dbf
000003e0: 2277 8cbf 7bd8 84bf 8c23 553d 9892 12be
000003f0: 2ac1 2bbe 95d8 013f 22fe 4cbf 5999 c1be

fc1.bias f4 [12]
0.15969263 0.33616972 -0.85927486 -0.745283 -0.7451098 -0.30909866 -0.89048713 -1.1039851
-0.09966102 -0.39526317 -0.46822003 -0.03833922
00000000: 7786 233e 701e ac3e 70f9 5bbf deca 3ebf
00000010: 84bf 3ebf 2e42 9ebe f7f6 63bf 624f 8dbf
00000020: 141b ccbd ef5f cabe 89ba efbe 9609 1dbd
