src/main/python/saved_models/python3_1_55_RNNClassifier1_128embs_102id_16hd_1hl_Falsebid_2.pt (torch, 64031 bytes, 7 tensors)

word_embeddings.weight f4 [102, 128]
0.48685002 3.1527631 0.40194038 0.23146431 -0.27289358 -0.43738416 0.49494252 0.46246597
-0.06900545 -0.27231696 -0.2413885 1.8956048 2.5160968 0.7759889 -0.033348333 -0.27818903
-0.94029367 1.2725652 -0.17580701 1.0052344 -1.6715723 -0.44196478 0.70612174 1.2187824
0.7661069 -0.22368251 0.08930561 -0.17225362 -0.89315295 0.46706825 -0.6183489 0.9442654
2.1339538 1.1625094 -0.8666699 -0.47442323 0.28438294 -0.08397022 0.49430725 -1.1186839
-0.35521445 -1.5887189 0.9433348 1.3992499 1.7253957 -0.63364446 -0.53345627 0.55260605
-1.6266311 -1.0381802 0.09821857 -2.0903106 0.672456 0.059392706 0.75338095 -0.44902948
0.13796312 0.5352489 -1.475752 0.5456195 1.3127997 -0.23917311 1.7151704 0.8990058
1.2276559 0.023257585 -1.6102829 -0.23128337 0.009546962 -0.0855082 0.33526617 -0.75561494
0.85364515 0.22318973 -0.42712525 -0.6664713 -0.19392267 -1.5427942 -0.11532658 -1.100822
1.2349185 0.7562727 0.54424644 1.900235 -0.71400017 0.028564712 1.7040863 -0.54202366
0.6971235 1.7450653 1.2503971 0.86762124 -0.15361944 -0.26933396 -1.2745457 -1.6963062
0.6235321 -0.85631245 -0.8636455 0.4906055 0.25471884 1.4247619 -0.86083716 1.2229749
-2.0859292 -1.3127255 0.41763955 0.87212235 -1.8226388 0.6305075 3.0619864 -1.4246274
0.8445579 -2.780098 -2.5332277 -0.19070923 0.8586466 0.04946168 -1.5563709 0.5872888
0.48433954 1.2253366 -0.42947835 0.61180544 -0.14754228 0.09992606 0.1620487 -0.38934085
0.6968152 0.88285875 -0.30206934 2.3869624 1.9952054 -1.2907662 -0.27629063 0.70400643
1.1333766 1.1385697 1.0494999 1.2597002 -0.9361221 -0.28446823 -0.9216508 -1.1327503
0.8484204 0.4593298 0.95967793 -0.102506325 -0.27185422 -1.8035702 -0.25354794 -0.13769726
1.0174637 0.8575187 0.9442944 -0.6812095 -0.54010606 0.8939337 -0.29254553 -0.3387834
-1.4434389 0.23942569 -0.37002525 -0.36365467 0.6607532 -0.80469304 1.0990453 -0.22471628
0.31254286 -0.66949713 -1.4749454 -0.8885919 -0.9813724 0.18941326 -0.574408 -2.1716688
0.3148471 -0.9120693 0.8702618 0.23307535 -1.7610834 0.030618344 1.0176835 -0.20716192
1.2926304 -0.12033754 0.24471062 0.8263389 -1.0989583 0.011065684 -1.7414993 -0.30477184
-1.5046648 0.5027121 0.52595603 -0.31436655 0.8154232 -1.6471332 -2.0693274 -0.297908
0.4542438 -2.061538 -0.6673222 0.7508029 1.6247191 -0.2601592 -1.2170469 -0.70287234
-0.124612905 0.31020415 1.1703117 -0.5909244 -0.24572074 -0.9233118 0.52228814 0.6753818
0.12144734 1.4797908 -0.44767278 -0.22449361 1.0005484 -0.087263905 -0.80726844 -1.7929254
-0.24314982 1.2425512 -0.75816315 0.4394713 0.6795071 0.14585564 -0.91086626 1.0231214
0.4169811 -0.19189799 -1.5896416 -0.049411 -0.7115671 0.5575581 -1.145118 -0.3701511
0.46300894 0.3649617 -1.1216334 0.9032633 -1.1189661 -0.31394067 -0.5114267 -0.8509474
-0.09249276 1.2560921 -1.014591 0.44009927 0.83353287 -0.8204223 -1.6926727 0.09369141
00000000: 6844 f93e dfc6 4940 21cb cd3e fb04 6d3e
00000010: b5b8 8bbe d1f0 dfbe 1b69 fd3e 57c8 ec3e
00000020: bb52 8dbd 216d 8bbe 8c2e 77be 2ea3 f23f
00000030: bb07 2140 35a7 463f 4398 08bd cb6e 8ebe
00000040: 16b7 70bf 6be3 a23f c106 34be 85ab 803f
00000050: 15f6 d5bf 3549 e2be 65c4 343f 1001 9c3f
00000060: 951f 443f 070d 65be dce5 b63d 4163 30be
00000070: aca5 64bf 9223 ef3e 1d4c 1ebf 61bb 713f
00000080: b392 0840 1ccd 943f 14de 5dbf 9ae7 f2be
00000090: a49a 913e 94f8 abbd d715 fd3e 0931 8fbf
000000a0: abde b5be 245b cbbf 647e 713f 9f1a b33f
000000b0: c4d9 dc3f 8636 22bf 9790 08bf 9777 0d3f
000000c0: 7335 d0bf 17e3 84bf d126 c93d a6c7 05c0
000000d0: 1426 2c3f c445 733d 93dd 403f 31e7 e5be
000000e0: 3446 0d3e 1206 093f 71e5 bcbf b8ad 0b3f
000000f0: d209 a83f cce9 74be b48a db3f 3e25 663f
00000100: d423 9d3f b186 be3c c01d cebf 8cd5 6cbe
00000110: dc6a 1c3c ec1e afbd 02a8 ab3e fb6f 41bf
00000120: 7d88 5a3f d98b 643e 29b0 dabe dd9d 2abf
00000130: aa93 46be 487a c5bf 5830 ecbd bce7 8cbf
00000140: cf11 9e3f 169b 413f bc53 0b3f e73a f33f
00000150: b7c8 36bf 8b00 ea3c 801f da3f 10c2 0abf
00000160: b076 323f 4d5e df3f 030d a03f 6d1c 5e3f
00000170: 6a4e 1dbe 24e6 89be 5024 a3bf 9020 d9bf
00000180: cd9f 1f3f 4b37 5bbf df17 5dbf a530 fb3e
00000190: 826a 823e 995e b63f d35f 5cbf 718a 9c3f
000001a0: dd7f 05c0 6407 a8bf dad4 d53e 6943 5f3f
000001b0: 3a4c e9bf f168 213f 96f7 4340 315a b6bf
000001c0: f234 583f 20ed 31c0 6720 22c0 4849 43be
000001d0: 43d0 5b3f 5598 4a3d 2937 c7bf 8f58 163f
000001e0: 5afb f73e d4d7 9c3f 96e4 dbbe 489f 1c3f
000001f0: 5315 17be 09a6 cc3d 18f0 253e af57 c7be
00000200: 7b62 323f 0803 623f d5a8 9abe fec3 1840
00000210: e462 ff3f d437 a5bf f775 8dbe c439 343f
00000220: 7c12 913f a7bc 913f 0356 863f db3d a13f
00000230: b3a5 6fbf d2a5 91be 4ff1 6bbf f6fd 90bf
00000240: 1432 593f 472d eb3e 74ad 753f d6ee d1bd
00000250: 7a30 8bbe 63db e6bf 09d1 81be 8300 0dbe
00000260: 403c 823f 5886 5b3f 47bd 713f bf63 2ebf
00000270: 6444 0abf d7d8 643f 87c8 95be 0575 adbe
00000280: 9bc2 b8bf 022c 753e f373 bdbe f230 babe
00000290: 1f27 293f 5d00 4ebf 84ad 8c3f 061c 66be
000002a0: 9e05 a03e 2a64 2bbf 03cb bcbf c27a 63bf
000002b0: 393b 7bbf 8df5 413e 670c 13bf 9ffc 0ac0
000002c0: a433 a13e 607d 69bf 7ac9 5e3f 4eab 6e3e
000002d0: 2e6b e1bf 52d3 fa3c 7443 823f 4122 54be
000002e0: ea74 a53f 8773 f6bd 6c95 7a3e f28a 533f
000002f0: aaaa 8cbf d84c 353c 73e9 debf 0e0b 9cbe
00000300: db98 c0bf bdb1 003f 0ea5 063f a7f4 a0be
00000310: 93bf 503f 43d5 d2bf dc6f 04c0 6687 98be
00000320: a592 e83e 3df0 03c0 a1d5 2abf 9e34 403f
00000330: ccf6 cf3f 9633 85be 31c8 9bbf 71ef 33bf
00000340: 0d35 ffbd 14d3 9e3e c6cc 953f d246 17bf
00000350: 389e 7bbe 2a5e 6cbf adb4 053f d2e5 2c3f
00000360: 62b9 f83d c969 bd3f 5e35 e5be a7e1 65be
00000370: f811 803f 6bb7 b2bd 25a9 4ebf 947e e5bf
00000380: 44fc 78be eb0b 9f3f fb16 42bf 6202 e13e
00000390: 2df4 2d3f 2e5b 153e 882e 69bf a4f5 823f
000003a0: 8c7e d53e e880 44be 6079 cbbf 3063 4abd
000003b0: 4329 36bf 21bc 0e3f 3a93 92bf 7284 bdbe
000003c0: 820f ed3e 43dc ba3e af91 8fbf 433c 673f
000003d0: 483a 8fbf d5bc a0be dcec 02bf b0d7 59bf
000003e0: d86c bdbd a0c7 a03f 1ede 81bf b154 e13e
000003f0: 6962 553f 3207 52bf 80a9 d8bf 48e1 bf3d

rnn.weight_ih_l0 f4 [16, 128]
-0.023621408 0.0682023 0.11929586 0.07740842 -0.24624564 0.0589142 0.27094933 -0.031685963
0.3504015 -0.07905492 0.09658618 -0.0985905 0.017975725 -0.10449598 0.3533258 -0.16219
-0.05633162 0.22253752 -0.24301384 0.17240795 0.06376177 -0.26555547 0.053311877 -0.18655059
-0.04244005 0.31159472 -0.026247405 -0.1700988 0.08590889 0.2742245 -0.1624428 -0.05161418
-0.50472456 0.104524136 -0.17876746 0.24840567 0.2200676 0.23459367 0.29927218 0.041572347
-0.43042794 0.108977444 -0.14362003 -0.057213966 0.057404637 -0.22164628 -0.16723378 -0.07646714
0.30790102 0.04630828 0.0039181244 -0.29285312 0.10219743 0.20473287 0.20515072 0.076006494
0.051525254 0.159016 -0.027950238 0.11209257 0.16298041 -0.2999672 0.14668842 0.0017593127
-0.035678364 -0.08535597 -0.0917211 0.055935197 -0.24727748 -0.09312401 0.21261418 0.10635259
0.3423453 -0.34629634 0.15790807 0.013346578 -0.04163734 0.13423067 -0.010895281 -0.08973339
-0.0020901712 0.19535732 0.29664126 -0.34375232 0.07917922 -0.3253584 0.3723644 0.10145753
-0.09476076 0.20860079 -0.18558107 0.07607168 0.1909079 0.07010111 -0.1498109 0.0073195314
-0.18342891 0.0638798 0.19810334 0.16181701 -0.16126817 0.325346 -0.047787976 0.10559098
0.0961936 -0.16131526 0.19372027 0.066350564 -0.04777132 -0.10016785 0.341386 -0.07823626
0.038337532 -0.015160489 -0.034365516 0.099120155 0.20058884 -0.19730438 0.12780209 -0.09518871
0.09676196 0.18020101 -0.13547945 -0.071425825 -0.15748923 -0.06834138 0.1635203 0.09766628
0.2669668 -0.15537018 -0.13558574 0.022250915 0.28781918 0.23099633 0.0014285621 -0.050933577
-0.17385767 -0.10162734 -0.08605292 -0.11655466 -0.0733916 -0.30459255 -0.38394782 -0.039612107
-0.12501006 0.16360651 0.3847072 0.2941016 -0.07335613 -0.12808667 0.022393309 -0.14311142
-0.13303712 0.025307383 -0.23864043 0.336764 -0.2392283 -0.20993431 -0.19056676 -0.015626369
0.062210303 0.019690447 0.037238006 -0.08998823 -0.17479603 0.008772966 0.14718264 -0.08110548
0.022538543 -0.021229746 -0.1601584 -0.15480265 -0.4050667 -0.00057072646 -0.20137729 0.1980801
-0.14226149 0.08996363 -0.19704191 0.04076937 -0.056985166 -0.33176166 0.01919589 0.0677908
0.176414 -0.02032145 0.53739876 -0.13757735 -0.20378684 0.24935055 -0.15256919 0.033900566
-0.11171938 0.03974387 0.06567223 0.2503142 0.152225 0.010097875 -0.14519443 0.20735422
0.0029944524 0.26715004 -0.009773162 0.09775405 0.08281735 -0.007766524 -0.15384676 0.028554507
-0.09468657 -0.28397256 -0.077528045 -0.20390274 0.08393943 0.16173069 -0.22862613 -0.077044204
0.21913531 0.027895153 -0.07960697 0.09659828 -0.20227748 -0.36832333 0.49705222 0.093493186
0.14923273 0.06527077 -0.008828482 -0.4248611 -0.38100457 -0.34152853 -0.047196247 -0.054990973
0.019488445 0.12188231 0.14562885 0.06908735 0.13476138 -0.055193897 -0.39985391 -0.0468978
0.058918152 -0.50849646 -0.034653656 0.2361184 0.14973234 -0.16109076 0.2572801 -0.29481322
0.094601884 0.15131053 0.103540346 0.10211971 0.2247594 -0.065673046 -0.18251684 0.094015375
00000000: af81 c1bc a6ad 8b3d 6351 f43d 4e88 9e3d
00000010: d127 7cbe 0450 713d dfb9 8a3e 24c9 01bd
00000020: d367 b33e 8ce7 a1bd face c53d d1e9 c9bd
00000030: d441 933c fd01 d6bd 1fe7 b43e 2315 26be
00000040: fcbb 66bd e0e0 633e 9fd8 78be b68b 303e
00000050: 8895 823d e3f6 87be 8e5d 5a3d 1e07 3fbe
00000060: 9ed5 2dbd 5889 9f3e cc04 d7bc 612e 2ebe
00000070: 00f1 af3d 2767 8c3e 6857 26be 6469 53bd
00000080: a135 01bf c010 d63d d10e 37be 0e5e 7e3e
00000090: 6759 613e 5339 703e 343a 993e c447 2a3d
000000a0: 0d61 dcbe 912f df3d 2111 13be 3159 6abd
000000b0: 2021 6b3d 3ef7 62be 553f 2bbe ce9a 9cbd
000000c0: 34a5 9d3e c0ad 3d3d 9c63 803b d8f0 95be
000000d0: e34c d13d 7ea5 513e 0813 523e 4ba9 9b3d
000000e0: 250c 533d 17d5 223e e6f7 e4bc ca90 e53d
000000f0: 56e4 263e 4d95 99be 7d35 163e bd98 e63a
00000100: 7a23 12bd 1ccf aebd 46d8 bbbd 4e1c 653d
00000110: 4f36 7dbe cdb7 bebd 88b7 593e 63cf d93d
00000120: e247 af3e c14d b1be a7b2 213e 9bab 5a3c
00000130: ea8b 2abd c473 093e 1f82 32bc 24c6 b7bd
00000140: 41fb 08bb c00b 483e 5de1 973e 4e00 b0be
00000150: b728 a23d 6095 a6be 8ca6 be3e f7c8 cf3d
00000160: ee11 c2bd 729b 553e f708 3ebe 78cb 9b3d
00000170: 5c7d 433e 2c91 8f3d 0768 19be aed8 ef3b
00000180: cad4 3bbe 6ad3 823d 9adb 4a3e 5cb3 253e
00000190: 7c23 25be c093 a63e 53bd 43bd 1540 d83d
000001a0: 2601 c53d d42f 25be 9b5e 463e cee2 873d
000001b0: dcab 43bd cd24 cdbd 25ca ae3e 553a a0bd
000001c0: d107 1d3d b363 78bc dbc2 0cbd 82ff ca3d
000001d0: 2967 4d3e 290a 4abe 8dde 023e 4cf2 c2bd
000001e0: 222b c63d 9d86 383e 20bb 0abe b447 92bd
000001f0: db44 21be 91f6 8bbd de71 273e 4205 c83d
00000200: dfaf 883e 5c19 1fbe fdd6 0abe 8d47 b63c
00000210: 095d 933e 4d8a 6c3e 973e bb3a ba9f 50bd
00000220: bf07 32be ff21 d0bd 833c b0bd 36b4 eebd
00000230: 564e 96bd 8ef3 9bbe cf94 c4be 4e40 22bd
00000240: a302 00be 7788 273e 58f8 c43e 7c94 963e
00000250: bd3b 96bd 2729 03be 2c72 b73c cd8b 12be
00000260: e23a 08be 6e51 cf3c 285e 74be 556c ac3e
00000270: 43f8 74be 05f9 56be ef23 43be df02 80bc
00000280: 3bd0 7e3d dc4d a13c e186 183d c04b b8bd
00000290: bbfd 32be 7dbc 0f3c 0cb7 163e a11a a6bd
000002a0: c0a2 b83c 01ea adbc 9000 24be 9684 1ebe
000002b0: e764 cfbe ce9c 15ba d935 4ebe 82d5 4a3e
000002c0: ffac 11be da3e b83d 5bc5 49be c8fd 263d
000002d0: 4769 69bd aadc a9be b340 9d3c e7d5 8a3d
000002e0: dfa5 343e 2b79 a6bc f792 093f 14e1 0cbe
000002f0: 7fad 50be c055 7f3e 193b 1cbe 52db 0a3d
00000300: 21cd e4bd 78ca 223d 2a7f 863d 2f29 803e
00000310: dfe0 1b3e 8f71 253c d9ad 14be aa54 543e
00000320: 933e 443b e4c7 883e 9d1f 20bc 4633 c83d
00000330: 259c a93d 537e febb 018a 1dbe 24eb e93c
00000340: 08eb c1bd da64 91be 06c7 9ebd e1cb 50be
00000350: 70e8 ab3d bb9c 253e f81c 6abe 5ac9 9dbd
00000360: 0265 603e 6084 e43c fb08 a3bd 52d5 c53d
00000370: d421 4fbe e094 bcbe a17d fe3e 5b79 bf3d
00000380: 77d0 183e aeac 853d 56a5 10bc 6587 d9be
00000390: 0813 c3be d4dc aebe da50 41bd 373e 61bd
000003a0: 3ba6 9f3c 6f9d f93d bb1f 153e ab7d 8d3d
000003b0: e3fe 093e ff12 62bd a7b9 ccbe e817 40bd
000003c0: 2954 713d d32c 02bf fef0 0dbd 06c9 713e
000003d0: 6f53 193e faf4 24be 38ba 833e c2f1 96be
000003e0: a2be c13d 26f1 1a3e f60c d43d 2324 d13d
000003f0: 5427 663e 977f 86bd b2e5 3abe 228b c03d

rnn.weight_hh_l0 f4 [16, 16]
0.22169535 0.15713184 0.33288616 -0.55645335 0.029056193 0.5036254 -0.6886852 0.609902
0.47621483 0.16519783 0.08750481 -0.4854441 0.3322894 0.2096144 -0.30265373 -0.8437988
0.47123855 -0.6613279 -0.19264509 0.05645879 -0.0050128424 0.34237185 -0.1512703 -0.6000332
0.15727335 0.52443063 0.0955683 0.07455176 0.28660908 -1.3841054 0.48760188 0.57352054
-0.27169642 0.09752867 0.17467536 -0.41908696 0.9509425 0.5337313 -0.32863554 1.0085803
1.3129402 0.046486963 -0.20787638 -0.59814245 0.25273424 -0.1444397 0.54736876 -0.25188258
-0.0147029795 0.7109249 -0.24827284 -0.3878687 -0.17442538 0.11769158 0.35589275 0.11397255
-0.8536753 -0.35444394 -0.19922733 0.39442855 0.33088887 0.4563536 0.38200086 -1.8198553
-0.013539978 0.08553358 0.45735508 -0.4401967 1.2237089 0.7105721 -0.53107786 1.0298779
1.1028671 0.098995335 0.11390687 -0.25044066 -0.313118 0.13554338 0.43112898 -0.47189572
0.17391123 -1.0649388 -0.59758604 0.3081996 -0.16136515 0.30801216 -0.21125987 -0.86963826
-0.45108163 0.23954163 -0.04725612 0.29248548 0.20951729 0.28825265 -0.3029384 0.14460407
0.027032267 -1.6711 -0.35150817 0.4486818 -0.59283704 0.5229149 0.37826914 -0.2944768
-0.013253037 -0.74175686 -0.14270416 0.1614171 0.7149687 -0.9435159 -0.16564743 0.24090272
0.46666738 0.57612836 0.35457796 -0.30172074 0.6140578 -0.01746186 -0.41861013 -0.27033064
0.2430915 1.4918356 -0.19437945 0.031409826 -0.35726207 0.40910554 0.05189594 -0.52570707
0.22785212 0.08083356 0.54893696 -0.6401989 0.43520772 0.29840708 -0.8824788 0.93866134
0.59256417 0.10916889 -0.16087635 -0.51746863 -0.28865123 -0.028091582 0.4079692 -0.96530086
0.19827367 0.33078453 0.5033369 -0.34084263 0.5380546 0.5883502 -0.9510501 0.9033952
0.38065305 0.13736731 -0.023600236 -1.1525906 0.55471617 0.118761025 -0.60370255 -0.864235
-0.028944239 0.078309156 -0.2646148 0.16802898 1.0171107 0.09745116 0.4244548 0.41771543
0.1939418 0.22773375 0.012171257 0.3753155 0.39433348 -0.57898355 0.76584554 -0.3496043
-0.92158264 0.10183777 0.07106815 -0.23108567 -0.4783173 0.009378211 0.11404782 -0.5327322
0.18636107 -0.8905712 -0.5671546 -0.4032602 -0.21486114 -0.8756649 -0.03963233 0.7217203
0.22907956 0.050877757 -0.19033673 -0.8257629 -0.7141947 -0.076030985 0.15141042 0.7333586
-0.7087885 -0.17810094 -0.26230466 -0.28091916 -0.0151951965 0.22832617 0.23441382 -1.8421619
-0.41733694 -0.14221072 0.22417921 -0.5738444 -0.1910292 0.1554329 -0.7749418 1.2699931
-0.2811707 -0.7452742 0.08156034 -1.0314245 -0.28197402 0.047913287 -0.62243944 0.5905922
0.620471 0.6356629 -0.2435227 -0.13109781 0.27211618 -0.008968395 -0.22858465 -0.62315184
0.26340657 0.37222323 0.12704949 0.5139658 0.0061032902 -0.19608158 0.20899178 -0.5734656
-0.294115 -0.26560915 -0.10976251 0.5675287 -0.62769014 -0.38827467 0.9562983 -0.9867263
-0.439407 -1.2967544 -0.03765103 0.08849252 -0.3656002 -0.074202254 -0.33361176 0.73845947
00000000: 1b04 633e 2be7 203e 0e70 aa3e ba73 0ebf
00000010: 4107 ee3c 98ed 003f ac4d 30bf 8a22 1c3f
00000020: 6ed2 f33e 9f29 293e b935 b33d 218c f8be
00000030: d621 aa3e 28a5 563e 6ef5 9abe 3303 58bf
00000040: 2e46 f13e c94c 29bf c144 45be 5541 673d
00000050: c542 a4bb 5d4b af3e 9ae6 1abe c79b 19bf
00000060: 440c 213e 1641 063f 50b9 c33d 98ae 983d
00000070: 6dbe 923e 5e2a b1bf f4a6 f93e 3ed2 123f
00000080: cb1b 8bbe 1dbd c73d 19de 323e 9192 d6be
00000090: f870 733f 9da2 083f eb42 a8be 2919 813f
000000a0: 6d0e a83f 1d69 3e3d 8cdd 54be dd1f 19bf
000000b0: 6266 813e 00e8 13be 5c20 0c3f c1f6 80be
000000c0: c4e4 70bc 2dff 353f 3c3b 7ebe ba96 c6be
000000d0: 919c 32be 4808 f13d 9337 b63e 716a e93d
000000e0: 778a 5abf ad79 b5be 4002 4cbe 8af2 c93e
000000f0: 446a a93e 2ea7 e93e 9e95 c33e 05f1 e8bf
00000100: c9d6 5dbc 3b2c af3d 722a ea3e 7661 e1be
00000110: 7ea2 9c3f 0ee8 353f b8f4 07bf 0ad3 833f
00000120: c02a 8d3f 11be ca3d 0148 e93d c239 80be
00000130: 0151 a0be e2cb 0a3e f0bc dc3e 519c f1be
00000140: c915 323e ea4f 88bf 66fb 18bf 57cc 9d3e
00000150: e83c 25be c5b3 9d3e 8254 58be 9da0 5ebf
00000160: 2cf4 e6be 674a 753e a28f 41bd a8c0 953e
00000170: b38b 563e da95 933e be1a 9bbe 1713 143e
00000180: c672 dd3c 9be6 d5bf e1f8 b3be 9fb9 e53e
00000190: 2bc4 17bf c0dd 053f 7eac c13e aac5 96be
000001a0: 4423 59bc c7e3 3dbf 0a21 12be 864a 253e
000001b0: 3008 373f 428a 71bf 7b9f 29be 34af 763e
000001c0: 07ef ee3e 267d 133f 3e8b b53e 247b 9abe
000001d0: e432 1d3f 2d0c 8fbc 1154 d6be c768 8abe
000001e0: faec 783e 78f4 be3f 680b 47be 97a7 003d
000001f0: 0eeb b6be 4876 d13e d690 543d bd94 06bf
00000200: 1152 693e 118c a53d 2287 0c3f 13e4 23bf
00000210: 8cd3 de3e d0c8 983e 21ea 61bf 1c4c 703f
00000220: 49b2 173f f093 df3d c5bc 24be d378 04bf
00000230: 18ca 93be 5120 e6bc 57e1 d03e f51d 77bf
00000240: 4108 4b3e 975c a93e b0da 003f ed82 aebe
00000250: f2bd 093f 1e9e 163f 0578 73bf e844 673f
00000260: f5e4 c23e 04aa 0c3e 4855 c1bc 1788 93bf
00000270: e101 0e3f fb38 f33d 408c 1abf 813e 5dbf
00000280: 781c edbc 8d60 a03d 977b 87be ca0f 2c3e
00000290: af30 823f 7994 c73d 2452 d93e ccde d53e
000002a0: ae98 463e 0933 693e f469 473c 5a29 c03e
000002b0: 14e6 c93e 4438 14bf 740e 443f 56ff b2be
000002c0: d7ec 6bbf 5290 d03d 2e8c 913d b9a1 6cbe
000002d0: 01e6 f4be 11a7 193c e791 e93d 2361 08bf
000002e0: 70d5 3e3e 79fc 63bf 0b31 11bf 1f78 cebe
000002f0: 8f04 5cbe 932b 60bf 8355 22bd a9c2 383f
00000300: d593 6a3e 3265 503d a2e7 42be 3365 53bf
00000310: 77d5 36bf 22b6 9bbd 550b 1b3e 64bd 3b3f
00000320: 2a73 35bf 1860 36be cc4c 86be a3d4 8fbe
00000330: 46f5 78bc 56ce 693e 2d0a 703e f6cb ebbf
00000340: 30ad d5be b09f 11be 3c8f 653e 77e7 12bf
00000350: 299d 43be cd29 1f3e 9662 46bf 228f a23f
00000360: 9bf5 8fbe 4aca 3ebf 1c09 a73d b805 84bf
00000370: e65e 90be b940 443d 3158 1fbf 0d31 173f
00000380: 30d7 1e3f ceba 223f 045e 79be 813e 06be
00000390: d052 8b3e 2df0 12bc 1812 6abe e186 1fbf
000003a0: 3add 863e 0b94 be3e 4319 023e 4393 033f
000003b0: 1cfe c73b 9cc9 48be f101 563e a4ce 12bf
000003c0: 3e96 96be ecfd 87be 2bcb e0bd 9049 113f
000003d0: 4db0 20bf f0cb c6be f7cf 743f 189a 7cbf
000003e0: f4f9 e0be 0cfc a5bf f737 1abd 913b b53d
000003f0: f32f bbbe 5af7 97bd 29cf aabe ae0b 3d3f

rnn.bias_ih_l0 f4 [16]
0.17081079 -0.24316245 0.302582 0.13704741 0.2902934 -0.1627843 -0.11360917 0.096850224
0.001226889 0.3804897 0.25734285 0.20392938 0.076872855 0.2477154 -0.040287714 -0.03246013
00000000: 06e9 2e3e 94ff 78be 07ec 9a3e 2856 0c3e
00000010: 56a1 943e edb0 26be edab e8bd 6959 c63d
00000020: 90cf a03a 8ccf c23e 71c2 833e ddd2 503e
00000030: 846f 9d3d 1ba9 7d3e bb04 25bd eaf4 04bd

rnn.bias_hh_l0 f4 [16]
-0.09665396 0.075974055 0.37972322 0.020833204 0.22390744 0.18491954 0.33104137 -0.12556379
0.088735126 0.036178213 0.31099236 0.35040838 0.3114943 0.0897922 0.066285454 -0.29266414
00000000: 83f2 c5bd 4998 9b3d 156b c23e 65aa aa3c
00000010: fe47 653e 8c5b 3d3e 417e a93e cb93 00be
00000020: c3ba b53d 9b2f 143d 643a 9f3e ba68 b33e
00000030: 2e7c 9f3e f9e4 b73d abc0 873d 13d8 95be

fc1.weight f4 [11, 16]
1.368228 -0.84021753 0.5773609 1.3015434 0.36226857 0.6177638 0.61209285 0.3016454
0.70055246 0.93720347 0.6759908 0.6531127 1.4246758 -0.4393738 -0.69557405 -1.0122005
-4.6961865 1.6973459 0.39591596 -1.2556989 1.308657 -3.484424 -2.8609316 -2.6866882
-2.9914794 3.3559542 1.3891279 -4.090126 -1.626239 1.2823303 0.97877765 -1.130001
0.87173504 2.1823583 0.19529034 -2.2260888 -2.3021753 -0.56550366 -0.54146796 0.13431197
-1.7965008 0.9787607 -3.3739433 -1.6320271 0.40351906 1.78502 3.2602189 1.9736989
0.37327334 2.8200212 -2.1340759 0.6335759 -2.1071289 -0.6399381 -2.3013341 -1.8320855
1.3094847 0.55415094 -0.72230244 -2.3314564 -3.2321808 2.4563015 0.37430885 0.9855848
-0.04798977 -0.2250047 -2.6136096 -0.24242248 0.9234135 -0.4849951 -0.66749156 -2.0162773
-0.68513024 -1.1276207 -2.6921823 -2.0016742 -1.3422718 1.4308659 2.2160285 -0.41326797
-1.9115509 -0.2974368 -1.4896514 -3.3556013 -2.1538134 -1.0683081 -2.4144263 -0.3704038
0.88221633 -1.130112 -3.7807045 -0.23359643 0.51560485 3.6530366 0.91974765 0.41923508
-1.1959258 -2.5893652 -2.2210052 -1.687613 -1.0917686 -1.0667347 -4.003269 0.28378835
-2.2685328 -0.53675264 -0.17052253 -0.3544452 -3.7091339 0.08818357 0.97077787 0.39598736
-0.9188121 1.0796332 -1.1791238 -0.9203067 -0.9477244 -2.235369 -1.4780691 -0.64422446
0.022369707 0.26467103 -1.6526656 -1.2398477 -0.7737148 0.994085 2.0142293 0.417511
-0.85602653 0.7484832 -1.7554456 0.3170088 -1.3361553 -0.3703557 0.4885183 0.13537335
-0.6675958 -0.34298187 -0.29633617 -0.01806592 0.26369026 -0.080625005 0.3067365 0.90213454
-0.5150308 0.55269736 0.4198254 -0.6921226 0.71184325 0.16685103 -0.19183317 0.549534
0.8459733 -0.97766286 0.018789591 0.47013843 -0.3228646 -0.85409284 -0.26792866 -0.2598714
-0.57929736 1.0147108 0.18943712 -1.4711981 0.2634163 -0.1470192 0.4334328 0.30729714
-0.11706249 -0.4745272 -0.19470628 0.19549403 -1.8554027 -0.17285253 0.0014085472 0.4060546
00000000: 1822 af3f 7f18 57bf edcd 133f f998 a63f
00000010: 447b b93e c525 1e3f 1eb2 1c3f 4471 9a3e
00000020: 6857 333f 91ec 6f3f bc0d 2d3f 6532 273f
00000030: c75b b63f 9af5 e0be 2411 32bf c98f 81bf
00000040: 2947 96c0 a142 d93f 7fb5 ca3e beba a0bf
00000050: 1382 a73f ce00 5fc0 8119 37c0 b3f2 2bc0
00000060: 6674 3fc0 f4c7 5640 f1ce b13f 50e2 82c0
00000070: 9928 d0bf 6623 a43f 2c91 7a3f dfa3 90bf
00000080: 072a 5f3f c2ab 0b40 31fa 473e 3d78 0ec0
00000090: d756 13c0 d9c4 10bf a59d 0abf 1489 093e
000000a0: bdf3 e5bf 1090 7a3f b0ee 57c0 44e6 d0bf
000000b0: 0d9a ce3e 897b e43f 6da7 5040 2aa2 fc3f
000000c0: af1d bf3e 3a7b 3440 b394 08c0 0832 223f
000000d0: 33db 06c0 fcd2 23bf 0f49 13c0 c781 eabf
000000e0: 329d a73f d6dc 0d3f d0e8 38bf 9536 15c0
000000f0: 0ddc 4ec0 0b34 1d40 69a5 bf3e 494f 7c3f
00000100: ec90 44bd a267 66be 6145 27c0 993d 78be
00000110: d464 6c3f 4751 f8be bae0 2abf b00a 01c0
00000120: b264 2fbf e055 90bf b74c 2cc0 6e1b 00c0
00000130: 90cf abbf 9d26 b73f 69d3 0d40 dc97 d3be
00000140: b3ad f4bf a349 98be e6ac bebf 2cc2 56c0
00000150: 14d8 09c0 52be 88bf f685 1ac0 91a5 bdbe
00000160: eed8 613f 83a7 90bf 10f7 71c0 e733 6fbe
00000170: aefe 033f 5acb 6940 9574 6b3f fba5 d63e
00000180: 1914 99bf 29b8 25c0 f324 0ec0 b403 d8bf
00000190: 13bf 8bbf c38a 88bf c81a 80c0 b54c 913e
000001a0: a42f 11c0 9f68 09bf 759d 2ebe d779 b5be
000001b0: 7362 6dc0 9699 b43d e684 783f dbbe ca3e
000001c0: 4537 6bbf 6c31 8a3f 87ed 96bf 3899 6bbf
000001d0: 119e 72bf 4910 0fc0 5e31 bdbf e5eb 24bf
000001e0: ad40 b73c f682 873e 8c8a d3bf 54b3 9ebf
000001f0: 2c12 46bf 5b7c 7e3f 22e9 0040 00c4 d53e
00000200: 8e24 5bbf 989c 3f3f 71b2 e0bf fa4e a23e
00000210: 2307 abbf 439f bdbe 121f fa3e 509f 0a3e
00000220: 8fe7 2abf 529b afbe 60b9 97be fbfe 93bc
00000230: 6902 873e b91e a5bd 910c 9d3e 4af2 663f
00000240: 0fd9 03bf 937d 0d3f 5bf3 d63e f22e 31bf
00000250: 5c3b 363f ffda 2a3e ea6f 44be 43ae 0c3f
00000260: b591 583f 1d48 7abf a1ec 993c fcb5 f03e
00000270: 824e a5be d4a5 5abf f22d 89be dd0d 85be
00000280: d54c 14bf 0be2 813f cefb 413e 3850 bcbf
00000290: 80de 863e 338c 16be e7ea dd3e 0d56 9d3e
000002a0: 75be efbd 3bf5 f2be 1561 47be 962f 483e
000002b0: d67d edbf 4100 31be 009f b83a 63e6 cf3e

fc1.bias f4 [11]
0.24979873 0.22109608 -1.5794898 -1.8165778 -1.1852475 -1.2153983 -1.6058794 -2.7795856
-0.66602916 -0.06978586 -0.32589224
00000000: 3dcb 7f3e 0367 623e b92c cabf 9f85 e8bf
00000010: 31b6 97bf 2c92 9bbf 758d cdbf bbe4 31c0
00000020: e380 2abf e4eb 8ebd 59db a6be
