src/main/python/saved_models/python3_1_55_RNNClassifier1_128embs_102id_16hd_1hl_Falsebid_0.pt (torch, 64031 bytes, 7 tensors)

word_embeddings.weight f4 [102, 128]
-1.6272277 -0.623689 -0.17383383 -1.7154747 -0.3673229 -0.39812788 -1.1526129 -1.3390409
-1.3742543 0.15709633 -0.6284798 -0.7910821 -0.014134327 1.9294963 0.24221027 -0.11026336
-0.79520965 -1.2944623 0.86813056 -0.053513367 1.0570668 -0.06893754 -0.32839695 1.1128055
0.86324567 -0.097386844 -2.3075354 -1.4761665 0.35617393 -0.65603817 -1.122613 0.01040529
2.2011049 0.20219815 0.18520732 -0.9254488 -0.31482315 -0.10422435 0.028859762 -0.120700955
0.01715696 0.22600795 -0.23835991 -0.29648387 2.2427723 -1.0892798 1.662999 -0.2998947
-1.2598423 0.22927661 0.54178506 -0.15737614 0.38204655 0.60154843 1.5186172 1.8101761
-0.1773445 1.1610633 -0.77304035 -1.2274599 1.4464256 -0.74283534 -3.1335301 -1.100659
0.055173356 -1.0348608 -0.87461305 -1.1590992 -0.16590397 0.073747866 1.7366097 -0.057625532
-0.50650686 0.31955504 -1.354336 -0.75008917 -0.6532825 -0.69356537 0.2784265 -0.54132134
-0.6764374 -0.020622432 -0.43353 1.1690294 -1.3482422 -0.37019494 0.4630579 -0.2492439
-0.07733301 -0.0947167 -1.451931 0.58300817 -1.0475281 -0.7732633 0.17977203 1.6573912
0.44090006 1.2910991 1.373729 -1.4881984 1.3728207 -0.8903966 -1.0266173 0.96394205
1.4480132 0.67149633 0.37938726 0.29152572 -2.3931246 -0.64714646 -1.6724741 -0.889917
1.157656 -0.41239285 1.6033291 0.32902655 0.579064 0.32479474 0.9267437 -0.33660552
2.3825219 -0.2165068 0.046078857 1.1455146 -1.693493 1.4176701 0.20817523 0.39005426
0.71236455 -1.7765073 0.35386458 1.1996132 -0.3029974 -1.7618417 0.6348446 -0.8043591
-1.6111118 -1.8716129 0.5430836 0.6606786 2.2952116 0.67490596 1.7133216 -1.7942734
-1.3632672 -0.9832196 1.5112667 0.64187074 0.4729638 -0.4285901 0.55137074 -1.5473709
0.5181121 0.10653535 0.26924077 1.324768 1.7460191 1.854969 -0.7063691 2.5570862
0.4175343 -0.2127186 -0.839958 -0.42001787 -0.6240363 -0.9772961 0.8748428 0.9872814
0.30957633 1.52069 1.2052339 -1.815591 -0.40346155 -0.9591452 -0.005207704 -0.07886314
0.8436543 1.1657013 0.5269322 1.6192533 -0.96397626 0.14152038 -0.16366096 -0.35822257
1.7222793 -0.3035756 0.2388742 1.3440012 0.10322569 1.1003542 -0.3416802 0.9473389
-0.56851596 0.8375962 1.7836607 -0.19542466 0.5149161 -1.8474776 -2.9167426 -0.5673299
-0.5412802 0.895174 -0.882507 0.53181124 -1.5457772 -0.17329982 0.72824633 0.05706102
0.9055172 1.0462948 -0.520597 1.3547838 0.23519313 1.9142433 1.8364111 1.3245324
-0.96900916 1.2516364 1.2103242 -0.5279206 0.21856615 -0.57430726 1.4571251 1.7709557
1.6499138 -0.43200457 -0.2710269 -1.4391626 1.2470404 1.2738512 0.39094925 0.3872105
-0.07982872 0.3417243 0.9488273 -1.3839359 1.7240863 -2.3647652 -0.9294909 0.2936253
0.21513203 0.9384637 1.4657077 -0.5564744 -0.7448408 -0.20215721 -0.2296679 0.0013313366
0.3752759 -0.5810679 -0.57230884 1.0097175 -0.10564939 -1.179696 -0.090779595 0.56311435
00000000: ff48 d0bf 15aa 1fbf 7f01 32be ad94 dbbf
00000010: bf11 bcbe 6bd7 cbbe d288 93bf b165 abbf
00000020: 91e7 afbf dcdd 203e 0de4 20bf 5b84 4abf
00000030: aa93 67bc bcf9 f63f f805 783e c2d1 e1bd
00000040: dc92 4bbf f1b0 a5bf ce3d 5e3f d530 5bbd
00000050: f74d 873f 202f 8dbd a523 a8be 6970 8e3f
00000060: abfd 5c3f c172 c7bd a9ae 13c0 06f3 bcbf
00000070: 6e5c b63e 1ef2 27bf c8b1 8fbf f37a 2a3c
00000080: e7de 0c40 080d 4f3e fda6 3d3e 36ea 6cbf
00000090: 8030 a1be 9373 d5bd 4f6b ec3c 1032 f7bd
000000a0: c18c 8c3c a16e 673e 9f14 74be bccc 97be
000000b0: 9589 0f40 856d 8bbf 27dd d43f cc8b 99be
000000c0: 8342 a1bf 7dc7 6a3e 6db2 0a3f 3627 21be
000000d0: 9b9b c33e 14ff 193f 0c62 c23f dab3 e73f
000000e0: cc99 35be b99d 943f f9e5 45bf 681d 9dbf
000000f0: 7924 b93f 752a 3ebf c28b 48c0 65e2 8cbf
00000100: 75fd 613d 5276 84bf a4e6 5fbf 5d5d 94bf
00000110: bbe2 29be 1f09 973d 3a49 de3f c008 6cbd
00000120: 6faa 01bf b89c a33e e25a adbf d805 40bf
00000130: 863d 27bf 808d 31bf eb8d 8e3e 0994 0abf
00000140: 002b 2dbf 60f0 a8bc a5f7 ddbe c1a2 953f
00000150: 3393 acbf 318a bdbe ed15 ed3e cb39 7fbe
00000160: c560 9ebd d4fa c1bd e0d8 b9bf 0640 153f
00000170: 6715 86bf 95f4 45bf 2916 383e 6525 d43f
00000180: a7bd e13e bc42 a53f 5ad6 af3f 497d bebf
00000190: 97b8 af3f 08f1 63bf 3268 83bf e8c4 763f
000001a0: 7f58 b93f 2fe7 2b3f 0c3f c23e dc42 953e
000001b0: f428 19c0 64ab 25bf a213 d6bf 9ad1 63bf
000001c0: 122e 943f 2825 d3be e339 cd3f 2b76 a83e
000001d0: 8a3d 143f 7f4b a63e 133f 6d3f 8f57 acbe
000001e0: 3d7b 1840 f5b3 5dbe 2fbd 3c3d 39a0 923f
000001f0: 61c4 d8bf 3776 b53f e32b 553e 31b5 c73e
00000200: 865d 363f 9764 e3bf bd2d b53e ed8c 993f
00000210: 7a22 9bbe 0784 e1bf 2d85 223f 7aea 4dbf
00000220: e938 cebf 0391 efbf 8707 0b3f 3c22 293f
00000230: bfe4 1240 a3c6 2c3f 1f4e db3f c0aa e5bf
00000240: 8a7f aebf 48b4 7bbf 3071 c13f a451 243f
00000250: 5028 f23e 2970 dbbe a226 0d3f 4010 c6bf
00000260: ffa2 043f 352f da3d edd9 893e ff91 a93f
00000270: 8e7d df3f a06f ed3f 9bd4 34bf 4da7 2340
00000280: 0ec7 d53e e8d2 59be 7d07 57bf 950c d7be
00000290: d8c0 1fbf 1430 7abf b3f5 5f3f 79be 7c3f
000002a0: ca80 9e3e f8a5 c23f 1b45 9a3f 4965 e8bf
000002b0: 8392 cebe 8a8a 75bf 63a5 aabb ff82 a1bd
000002c0: baf9 573f b335 953f 07e5 063f b143 cf3f
000002d0: 26c7 76bf b8ea 103e bd96 27be f368 b7be
000002e0: a673 dc3f 436e 9bbe 709b 743e 3b08 ac3f
000002f0: fe67 d33d 68d8 8c3f b5f0 aebe cd84 723f
00000300: 438a 11bf b46c 563f fe4e e43f 671d 48be
00000310: 8bd1 033f 257a ecbf e9ab 3ac0 883c 11bf
00000320: 5791 0abf 202a 653f fbeb 61bf c824 083f
00000330: 07dc c5bf 8275 31be 5a6e 3a3f d1b8 693d
00000340: facf 673f fdec 853f d845 05bf 8e69 ad3f
00000350: 78d6 703e ed05 f53f 850f eb3f 478a a93f
00000360: fc10 78bf 9f35 a03f e7eb 9a3f ce25 07bf
00000370: cecf 5f3e cd05 13bf 1383 ba3f adae e23f
00000380: 6030 d33f b42f ddbe 0ac4 8abe 7b36 b8bf
00000390: 059f 9f3f 8e0d a33f 802a c83e 7440 c63e
000003a0: 3d7d a3bd 7df6 ae3e 59e6 723f d024 b1bf
000003b0: dcae dc3f 5058 17c0 1ef3 6dbf 0e56 963e
000003c0: 924b 5c3e 283f 703f 4f9c bb3f 1b75 0ebf
000003d0: e3ad 3ebf 4d02 4fbe 102e 6bbe 3e80 ae3a
000003e0: 2a24 c03e dec0 14bf d582 12bf 6c3e 813f
000003f0: b55e d8bd 4700 97bf a7ea b9bd 4328 103f

rnn.weight_ih_l0 f4 [16, 128]
-0.32513803 -0.046494327 0.010136374 -0.005256502 0.016773516 -0.07533076 -0.20664993 -0.109567784
-0.16719909 0.27996314 0.1391886 0.56279784 -0.082344875 0.06892214 -0.034913156 0.22040404
-0.17952114 0.20150702 0.073128425 0.17646284 0.10970616 -0.22970596 0.06563582 0.5045536
0.15905412 0.085934214 0.25218832 -0.35075572 -0.17005758 -0.21341977 -0.22379504 -0.19132838
0.08302346 0.006250789 0.4049204 -0.11669615 0.020871047 -0.11416342 0.055549867 0.15898655
-0.23580216 -0.061851613 -0.3429206 -0.095643386 0.12599209 0.156145 0.07291833 -0.005763358
-0.089970276 -0.41529834 0.16284958 -0.07564624 0.06307665 -0.039255783 -0.06825176 0.0654
0.22339636 -0.40952614 0.09616314 0.05682869 0.38495132 -0.16280325 -0.06532924 -0.0020778056
0.20775573 -0.081476994 -0.32652867 0.1865376 -0.34466842 0.2505277 -0.08224208 -0.02452152
0.0030380758 0.12354133 -0.079442605 -0.008712389 0.12781346 0.07245519 0.17170604 -0.056036174
-0.012256922 0.22094491 -0.18869106 0.09511001 0.057936065 -0.3043594 0.4021592 0.291941
0.14862435 -0.006472943 -0.06655959 0.11970034 -0.113903195 -0.15263642 0.29517043 -0.24098612
0.06058587 -0.15731262 -0.06978058 -0.043278016 -0.20064847 -0.25048178 -0.044460904 -0.37619245
-0.0847353 0.21515769 0.19420482 0.27965954 0.20580637 0.55435675 -0.16000473 -0.16144973
-0.17841446 0.046157006 -0.399193 -0.12889515 -0.0996302 0.11434456 0.1583365 0.37673703
0.12482503 0.14931764 -0.47493416 0.3455794 -0.0789693 -0.07907865 0.18752173 -0.17928486
-0.042019315 -0.011323618 -0.107359454 0.07908067 0.13621901 -0.16078463 0.101869084 0.08616956
-0.0182619 0.26343614 0.09171659 0.24595411 0.058824323 -0.42963284 -0.26620984 0.25509667
0.023967082 0.20700344 -0.22703981 -0.05462025 -0.1371899 0.31557882 -0.048266128 0.00907565
-0.23001389 -0.1900225 0.02375073 0.01680726 -0.12685789 -0.115296744 0.31179798 0.021166733
0.3614747 -0.08936577 0.09370688 -0.1017905 -0.075396866 0.33947018 0.07578647 0.13213678
-0.0978178 0.032817148 0.18652989 -0.0597577 -0.2080899 0.10401348 0.14135963 -0.051587977
-0.12770241 -0.1861479 -0.003532741 -0.016214214 -0.11250725 0.035919294 -0.14338271 -0.071385235
-0.122229435 0.009388156 0.18594415 0.26346225 0.043909658 0.16006093 0.03981675 0.21211216
0.069559984 0.098452024 0.2518375 0.065462075 0.15105823 -0.19197834 0.16105196 0.20691626
-0.195556 -0.33410433 0.2172935 0.14616053 -0.08425383 0.07281379 0.020489853 0.1498973
0.24958763 0.018446261 -0.07357958 -0.19924335 0.12156564 -0.04306124 -0.050565425 0.06607761
-0.25219637 -0.032881748 0.33390877 0.011211732 0.29107055 0.18885534 0.13703555 -0.021209624
0.27881387 -0.1742974 0.06598276 0.22051145 -0.03776941 -0.21076718 0.34379864 -0.37825853
-0.2815126 0.21143182 -0.065952554 -0.0705505 0.14996655 0.22330931 0.06409616 -0.2479803
0.08442247 0.13873 -0.091184385 0.009971279 -0.015296129 0.21265538 0.006855933 0.032925867
0.21680039 -0.17422369 0.0043915687 0.30224314 -0.27640423 0.38479125 -0.09312526 -0.31837165
00000000: 7e78 a6be d670 3ebd 0913 263c bc3e acbb
00000010: 9d68 893c 0347 9abd 0a9c 53be 1365 e0bd
00000020: 3d36 2bbe 5457 8f3e 7587 0e3e 8513 103f
00000030: 6ea4 a8bd 0d27 8d3d 1901 0fbd 99b1 613e
00000040: 64d4 37be db57 4e3e 5bc4 953d adb2 343e
00000050: a0ad e03d 0a38 6bbe 136c 863d 6d2a 013f
00000060: 15df 223e 47fe af3d d41e 813e 4196 b3be
00000070: 9323 2ebe b68a 5abe 872a 65be 96eb 43be
00000080: 3408 aa3d 6bd3 cc3b ba51 cf3e 64fe eebd
00000090: c2f9 aa3c 83ce e9bd 4288 633d 5fcd 223e
000000a0: 1f76 71be 1e58 7dbd 4a93 afbe aee0 c3bd
000000b0: 1204 013e 7ae4 1f3e 3556 953d 8dda bcbb
000000c0: 5642 b8bd fca1 d4be 0ac2 263e 6aec 9abd
000000d0: 552e 813d acca 20bd 94c7 8bbd 6ff0 853d
000000e0: 04c2 643e 69ad d1be 2ef1 c43d 33c5 683d
000000f0: 5718 c53e e5b5 26be 56cb 85bd cb2b 08bb
00000100: ebbd 543e 69dd a6bd c42e a7be b603 3f3e
00000110: 6178 b0be 2b45 803e 896e a8bd 5be1 c8bc
00000120: 741a 473b 3d03 fd3d ceb2 a2bd 68be 0ebc
00000130: 88e1 023e 6363 943d b5d3 2f3e 3086 65bd
00000140: 42d1 48bc 623f 623e 3b38 41be 09c9 c23d
00000150: 5e4e 6d3d ffd4 9bbe d0e7 cd3e 4a79 953e
00000160: fb30 183e fb1a d4bb 6550 88bd 7425 f53d
00000170: 1446 e9bd b94c 1cbe 9420 973e 11c5 76be
00000180: e428 783d 8f16 21be 1fe9 8ebd 4a44 31bd
00000190: cb76 4dbe 263f 80be a31c 36bd 4c9c c0be
000001a0: b389 adbd 4c52 5c3e a1dd 463e 892f 8f3e
000001b0: e8be 523e 53ea 0d3f 48d8 23be 1453 25be
000001c0: 48b2 36be 210f 3d3d 0663 ccbe 17fd 03be
000001d0: eb0a ccbd 7b2d ea3d f722 223e ade3 c03e
000001e0: 44a4 ff3d b9e6 183e 922a f3be c8ef b03e
000001f0: a8ba a1bd fdf3 a1bd b205 403e 7396 37be
00000200: 721c 2cbd b286 39bc 46df dbbd 0cf5 a13d
00000210: ff7c 0b3e baa4 24be bda0 d03d ab79 b03d
00000220: fb99 95bc 1ae1 863e e8d5 bb3d 65db 7b3e
00000230: c6f1 703d d6f8 dbbe a84c 88be 089c 823e
00000240: 9d56 c43c b6f8 533e 207d 68be 7cb9 5fbd
00000250: 827b 0cbe 8c93 a13e b4b2 45bd 09b2 143c
00000260: c388 6bbe 4295 42be e490 c23c 61af 893c
00000270: 09e7 01be b320 ecbd fca3 9f3e db65 ad3c
00000280: 3613 b93e 6705 b7bd 65e9 bf3d 8a77 d0bd
00000290: ac69 9abd 09cf ad3e f035 9b3d dd4e 073e
000002a0: b354 c8bd 466b 063d b101 3f3e 7dc4 74bd
000002b0: 8515 55be 0505 d53d 94c0 103e ea4d 53bd
000002c0: 6cc4 02be 8e9d 3ebe 8f85 67bb acd3 84bc
000002d0: 336a e6bd 1c20 133d ebd2 12be 6c32 92bd
000002e0: 6d53 fabd c8d0 193c 2568 3e3e 86e4 863e
000002f0: 9dda 333d 03e7 233e e316 233d ee33 593e
00000300: 7775 8e3d 37a1 c93d d8f0 803e fb10 863d
00000310: 02af 1a3e f895 44be ceea 243e dbe1 533e
00000320: d53f 48be b90f abbe 3082 5e3e 1bab 153e
00000330: 468d acbd 651f 953d 56da a73c ae7e 193e
00000340: e693 7f3e 9d1c 973c e4b0 96bd 7306 4cbe
00000350: 68f7 f83d fc60 30bd b11d 4fbd b353 873d
00000360: e21f 81be 03af 06bd 17f6 aa3e 6ab1 373c
00000370: 3307 953e 4b63 413e 0c53 0c3e cebf adbc
00000380: b1c0 8e3e 057b 32be f821 873d c1cd 613e
00000390: 19b4 1abd 5ad3 57be 6006 b03e 1aab c1be
000003a0: 6b22 90be 9581 583e 2212 87bd c87c 90bd
000003b0: d590 193e 32ab 643e d944 833d 8cee 7dbe
000003c0: b0e5 ac3d 3d0f 0e3e e1be babd 935e 233c
000003d0: 9d9c 7abc 55c2 593e bca7 e03b 46dd 063d
000003e0: ec00 5e3e b267 32be 26e7 8f3b 9dbf 9a3e
000003f0: db84 8dbe 5c03 c53e 75b8 bebd 9c01 a3be

rnn.weight_hh_l0 f4 [16, 16]
-0.22005731 -0.7248871 0.6078953 -0.61084706 0.47863242 -0.4394029 -0.05890136 -0.13897969
0.9402352 0.2516781 -0.3361548 -0.56210506 -0.22304228 -0.09277383 0.84194237 -1.1765332
0.43644896 -0.2875923 0.49879718 -0.33769974 -0.74569505 0.24004309 0.38000926 0.46487004
-0.6798695 0.8772451 0.35399443 0.1083098 0.07438489 0.03078227 -0.9369409 0.7647853
0.22665782 -1.0137548 0.37603655 -0.69693625 -0.4895453 -0.021186588 -0.20321758 0.20978852
-0.10507592 0.46791863 0.4973834 -0.19112511 -0.6238759 -0.5643331 -0.23293667 -0.22000442
0.5047999 -0.47180504 -0.31567645 0.72290045 1.2398057 -0.055216476 0.27116907 -0.20923439
-1.238055 -0.5103975 0.30886102 0.027698478 0.47957465 0.56422096 0.35373884 0.9850843
-0.19298817 0.6243949 -0.6492653 1.429115 0.9030134 0.14995944 -0.95428836 -0.3536532
-0.8061073 0.06721908 -0.2885776 -0.13056335 0.3145528 0.6380967 0.12973034 0.21340753
-0.21170932 0.9237231 -0.032539576 0.6901217 0.47281665 0.87008876 -0.10348187 0.29764152
0.3745242 0.0023870456 0.67527175 0.31045246 0.11752774 0.02215266 -0.06936898 0.97534174
0.2812775 -0.53104985 -0.06191894 -0.8886648 -1.1708703 -0.062056404 -0.48010677 -0.28407994
0.068586834 0.31632987 0.67070293 0.38312495 -0.3063812 -0.55344105 -0.27632055 -0.112255186
0.38775218 -0.23691416 -0.49343747 0.3682388 0.051969685 0.5769276 -0.07766745 0.4996877
0.05291534 -0.79507655 0.8097294 0.25002307 0.020871641 -0.6620917 -0.71390605 1.1461586
-0.4177948 -0.5299045 0.09638261 0.46011865 0.51508117 -0.0347002 -0.8961245 0.064830884
0.2874855 0.08965676 -0.16608347 0.360727 0.19963448 0.052619215 0.54999644 -0.09357961
-0.25362742 0.074429415 -0.5555021 -0.19939019 0.1566789 -0.14833008 0.86931896 -0.6688714
0.60362446 -0.3531306 -0.110566884 -0.01672261 -0.18086155 1.4647715 0.930345 0.101000465
-0.68411344 -0.21000986 -0.14346547 -0.6097223 -0.15216762 0.092319086 -0.72415686 0.25247672
-0.2867817 0.100538984 0.2004228 0.22666919 0.18824255 0.1503291 0.21963081 -0.09769201
0.6788004 -0.32885057 0.22189769 -0.38468677 -0.15566348 -0.4368028 0.035359178 -0.47123626
-0.34188828 0.23346785 -0.05686205 -0.07880626 0.61004335 0.36965907 0.44467515 -0.1031274
-0.34024426 -0.079389624 -0.55385315 0.012861985 0.67782867 -0.4298207 -1.4146322 -0.1377523
0.52510893 -0.09196235 -0.4652556 -0.12718782 -0.16108921 -1.023511 1.170159 -0.7082358
0.2452308 -0.17862171 -0.4970676 0.3935586 0.024423154 0.15210785 0.14697093 0.03145668
-0.0020575877 1.4529085 0.30303645 -0.2544384 -0.8866778 -0.13507558 0.9446668 0.22068407
-0.70024484 0.34784445 -0.717575 0.16075544 0.71956104 0.28543776 -0.28820717 -0.15581958
0.7541949 0.4975163 -0.3652159 0.2252577 -0.66719663 0.49176657 1.78417 -0.0858414
-0.7199048 -0.005028628 -0.25446853 -0.5773701 0.42453107 -0.027269203 0.398345 0.27492002
0.22135974 -0.53811514 0.2900495 -0.33778015 0.049758594 -0.61545235 -0.13306108 0.27831742
00000000: b456 61be 3392 39bf 079f 1b3f 7960 1cbf
00000010: 4f0f f53e 6bf9 e0be 8d42 71bd b150 0ebe
00000020: 41b3 703f f4db 803e 7b1c acbe 1ee6 0fbf
00000030: 3265 64be 3500 bebd 8989 573f a498 96bf
00000040: 3d76 df3e 4c3f 93be 5862 ff3e fbe6 acbe
00000050: dfe5 3ebf dbcd 753e 9390 c23e 7203 ee3e
00000060: ed0b 2ebf 2393 603f c23e b53e 87d1 dd3d
00000070: 1b57 983d 192b fc3c 5cdb 6fbf f8c8 433f
00000080: fd18 683e b8c2 81bf dd87 c03e 6a6a 32bf
00000090: aea5 fabe 7f8f adbc 4518 50be cdd2 563e
000000a0: 0b32 d7bd 0893 ef3e 09a9 fe3e 4db6 43be
000000b0: 55b6 1fbf 2278 10bf f386 6ebe d748 61be
000000c0: 913a 013f 6e90 f1be 58a0 a1be 0110 393f
000000d0: f4b1 9e3f ac2a 62bd acd6 8a3e 8a41 56be
000000e0: 9678 9ebf 69a9 02bf 0823 9e3e ebe7 e23c
000000f0: cf8a f53e c970 103f 421d b53e 7c2e 7c3f
00000100: b19e 45be 58d8 1f3f 4036 26bf 3eed b63f
00000110: e32b 673f f88e 193e 3e4c 74bf 0812 b5be
00000120: 0c5d 4ebf 28aa 893d 71c0 93be 66b2 05be
00000130: 110d a13e 4e5a 233f 08d8 043e 8187 5a3e
00000140: 54ca 58be 1e79 6c3f 3848 05bd d1ab 303f
00000150: 0615 f23e 23be 5e3f 4dee d3bd 7864 983e
00000160: a3c1 bf3e fb6f 1c3b 9cde 2c3f a0f3 9e3e
00000170: 62b2 f03d 7f79 b53c 5311 8ebd ffaf 793f
00000180: 9b03 903e e2f2 07bf b79e 7dbd 897f 63bf
00000190: 14df 95bf db2e 7ebd 8ed0 f5be ed72 91be
000001a0: 4177 8c3d fdf5 a13e 30b3 2b3f f428 c43e
000001b0: ffdd 9cbe 50ae 0dbf e379 8dbe 0ce6 e5bd
000001c0: 7487 c63e a099 72be d6a3 fcbe cc89 bc3e
000001d0: 2ade 543d 87b1 133f 1d10 9fbd 11d7 ff3e
000001e0: c1bd 583d 238a 4bbf 6d4a 4f3f 0603 803e
000001f0: 01fb aa3c d77e 29bf 8cc2 36bf 53b5 923f
00000200: 33e9 d5be d2a7 07bf 3f64 c53d ac94 eb3e
00000210: 5cdc 033f cc21 0ebd 6a68 65bf 0ec6 843d
00000220: 4d31 933e f79d b73d c911 2abe 36b1 b83e
00000230: fb6c 4c3e 3f87 573d 91cc 0c3f aba6 bfbd
00000240: 74db 81be 736e 983d 6335 0ebf f12c 4cbe
00000250: 6f70 203e d7e3 17be b08b 5e3f 283b 2bbf
00000260: 2287 1a3f 89cd b4be e470 e2bd dbfd 88bc
00000270: c533 39be a27d bb3f 172b 6e3f 55d9 ce3d
00000280: 0f22 2fbf d30c 57be 9de8 12be c316 1cbf
00000290: d4d1 1bbe ca11 bd3d 5862 39bf a144 813e
000002a0: 0dd5 92be 62e7 cd3d a23b 4d3e f81b 683e
000002b0: a8c2 403e dfef 193e e6e6 603e c012 c8bd
000002c0: ddc5 2d3f 1a5f a8be 2639 633e aaf5 c4be
000002d0: 3f66 1fbe 9ea4 dfbe c9d4 103d e145 f1be
000002e0: fb0b afbe 3212 6f3e 2ee8 68bd 2d65 a1bd
000002f0: cd2b 1c3f f443 bd3e 76ac e33e 7534 d3bd
00000300: 7f34 aebe 0797 a2bd 52c9 0dbf 13bb 523c
00000310: 2e86 2d3f 7511 dcbe ab12 b5bf f00e 0dbe
00000320: 8a6d 063f c256 bcbd fb35 eebe 863d 02be
00000330: 92f4 24be 6902 83bf c5c7 953f f14e 35bf
00000340: c81d 7b3e 9ce8 36be a57f febe 8380 c93e
00000350: 1113 c83c 29c2 1b3e 8c7f 163e b8d8 003d
00000360: 98d8 06bb e8f8 b93f 9827 9b3e c045 82be
00000370: 51fd 62bf 4151 0abe afd5 713f 01fb 613e
00000380: 3f43 33bf ab18 b23e ffb2 37bf 139d 243e
00000390: 2735 383f e624 923e e48f 93be 2b8f 1fbe
000003a0: eb12 413f 75ba fe3e 94fd babe f4a9 663e
000003b0: 66cd 2abf d4c8 fb3e af5f e43f 9ecd afbd
000003c0: ae4b 38bf 30c7 a4bb b349 82be 87ce 13bf
000003d0: 235c d93e aa63 dfbc e0f3 cb3e 51c2 8c3e
000003e0: 21ac 623e eac1 09bf 5e81 943e 85f1 acbe
000003f0: abcf 4b3d 498e 1dbf 2a41 08be 9f7f 8e3e

rnn.bias_ih_l0 f4 [16]
0.1656503 -0.42825732 -0.12855096 -0.12861003 0.16417083 -0.31372362 -0.20107765 -0.25798917
-0.2166191 0.090449594 0.026559224 0.1345203 0.23541763 0.13784091 0.36449406 0.052489568
00000000: 3ba0 293e 8b44 dbbe dda2 03be 59b2 03be
00000010: 661c 283e 62a0 a0be 4de7 4dbe 2817 84be
00000020: 66d1 5dbe a33d b93d bb92 d93c b1bf 093e
00000030: 5211 713e 2b26 0d3e f79e ba3e 4dff 563d

rnn.bias_hh_l0 f4 [16]
-0.10248637 -0.008189778 0.0625819 -0.16036738 -0.09624508 -0.088827655 0.20352109 -0.15420975
0.107479356 0.023153476 -0.096357234 0.47052243 0.17574905 -0.04966099 0.013405715 -0.3277824
00000000: 60e4 d1bd 6b2e 06bc f02a 803d 5937 24be
00000010: 241c c5bd 46eb b5bd d567 503e 29e9 1dbe
00000020: 231e dc3d 5cac bd3c f156 c5bd 51e8 f03e
00000030: 8ff7 333e 5269 4bbd a5a3 5b3c 18d3 a7be

fc1.weight f4 [11, 16]
0.7831274 -1.6118494 0.45180395 -0.3879896 -0.2218728 -0.747852 -0.79601955 -0.46559986
-0.44930312 0.8088031 -0.5844555 1.6313682 1.07104 0.4657261 0.95799273 -0.22226231
-0.37461293 0.51037747 -6.408166 1.2418343 1.634616 -1.425507 3.4238164 0.11635649
5.6210866 -3.6204407 1.5721046 2.1908498 -0.6195954 -1.3851599 -2.1130974 0.55645883
-1.776392 1.3582149 -1.5088407 -0.035522006 1.1925249 3.6027858 -0.7533962 0.47221446
0.050518755 -3.5962481 3.2586758 1.5491071 -1.3220985 -2.9462073 0.8602142 0.38687468
1.6856788 2.3605547 0.64412224 1.0024728 -0.8189899 3.540232 -1.4950132 0.71094865
2.8232098 -0.777307 1.9458745 0.91445476 -3.09214 -1.9852338 0.6312923 3.7664678
-1.4376035 0.27413428 0.08116572 2.1840186 -0.3562762 0.86043257 -0.22499458 3.5046616
3.5195322 -0.4533381 2.1679418 -1.2352221 -0.08936112 -2.9105673 1.6177235 2.7796247
-0.75442016 -0.10127365 -2.7299447 1.4567412 1.2297943 5.0637393 -1.1110183 3.6398592
1.1060852 0.1126977 0.3251539 -1.465648 -4.4216757 -0.23698802 1.3434318 0.965521
-2.3465788 -0.87332344 -0.7100267 2.33899 1.3869014 1.3513529 -1.5796428 4.695747
1.0927031 -3.4867384 -0.09796267 0.015367505 -0.37992334 -0.5232796 -2.7466583 1.0989902
0.2379971 1.481964 -1.7503898 -0.08644715 -0.31334066 1.7998146 -0.7032894 2.196128
2.4295273 -1.9693935 0.49728307 0.056342512 -1.2817259 -1.3897625 -0.26070422 1.4380094
0.10226123 1.4548243 -0.015792513 -0.7921364 -0.34104383 0.051822282 0.34213093 0.08292896
0.30867064 -2.9626143 -0.134013 -0.55463177 1.5163425 -0.3427867 -1.1617768 0.1067982
0.36083046 0.45248535 0.28432757 -0.6065559 -1.2371625 -0.17249309 0.8450945 0.21066459
-0.27749485 0.75572133 -0.1515248 -1.3602697 -0.9918448 0.050311275 0.46655047 -0.40260682
0.18053204 1.135344 0.21503603 0.151892 -0.26548308 0.19614735 0.03357863 -0.17178588
0.06736795 0.09908054 -0.24524662 -0.49228215 -1.884994 0.14374301 -1.1334261 -0.08368682
00000000: 0a7b 483f 1551 cebf d952 e73e 93a6 c6be
00000010: a032 63be 3b73 3fbf f0c7 4bbf 1b63 eebe
00000020: 0f0b e6be b80d 4f3f e09e 15bf acd0 d03f
00000030: d717 893f a773 ee3e 033f 753f bb98 63be
00000040: 44cd bfbe 19a8 023f b20f cdc0 6df4 9e3f
00000050: 193b d13f 0377 b6bf cf1f 5b40 504c ee3d
00000060: f1df b340 4db5 67c0 b93a c93f e236 0c40
00000070: ce9d 1ebf eb4c b1bf fd3c 07c0 1674 0e3f
00000080: d060 e3bf fcd9 ad3f b121 c1bf 867f 11bd
00000090: a8a4 983f 0b94 6640 93de 40bf 18c6 f13e
000000a0: c1ec 4e3d ee28 66c0 258e 5040 2449 c63f
000000b0: 863a a9bf a98e 3cc0 ff36 5c3f 7014 c63e
000000c0: 53c4 d73f 5413 1740 32e5 243f 0751 803f
000000d0: 52a9 51bf 2993 6240 985c bfbf bb00 363f
000000e0: 78af 3440 97fd 46bf 6a12 f93f b519 6a3f
000000f0: 9fe5 45c0 241c febf 5f9c 213f cf0d 7140
00000100: 6403 b8bf 545b 8c3e 373a a63d f6c6 0b40
00000110: d669 b6be 4f45 5c3f fb64 66be 604c 6040
00000120: 0440 6140 ee1b e8be 8fbf 0a40 c21b 9ebf
00000130: f602 b7bd bc46 3ac0 9011 cf3f 5fe5 3140
00000140: ae21 41bf 8f68 cfbd 6ab7 2ec0 7f76 ba3f
00000150: e669 9d3f 270a a240 d935 8ebf 74f3 6840
00000160: 3394 8d3f 0dce e63d 927a a63e 5b9a bbbf
00000170: 5e7e 8dc0 fdac 72be 93f5 ab3f 622c 773f
00000180: 592e 16c0 2092 5fbf 4fc4 35bf 03b2 1540
00000190: fc85 b13f 22f9 ac3f bc31 cabf 8f43 9640
000001a0: b2dd 8b3f b926 5fc0 a7a0 c8bd fdc7 7b3c
000001b0: 5085 c2be a7f5 05bf 40c9 2fc0 b6ab 8c3f
000001c0: 83b5 733e ffb0 bd3f c60c e0bf 340b b1bd
000001d0: 306e a0be 5360 e63f c60a 34bf 5c8d 0c40
000001e0: 607d 1b40 1615 fcbf e39b fe3e 68c7 663d
000001f0: 980f a4bf bde3 b1bf 067b 85be b110 b83f
00000200: 566e d13d af37 ba3f 4d5f 81bc 73c9 4abf
00000210: 4c9d aebe 9a43 543d c92b af3e a9d6 a93d
00000220: 140a 9e3e 799b 3dc0 b43a 09be 59fc 0dbf
00000230: 8317 c23f bd81 afbe 1ab5 94bf 04b9 da3d
00000240: c5be b83e 29ac e73e 6293 913e 3f47 1bbf
00000250: 575b 9ebf 07a2 30be 1d58 583f 75b8 573e
00000260: ce13 8ebe f476 413f 5129 1bbe 511d aebf
00000270: 8ae9 7dbf 3213 4e3d b4df ee3e 7b22 cebe
00000280: 64dd 383e f452 913f 6832 5c3e 9489 1b3e
00000290: 66ed 87be dada 483e bf89 093d a3e8 2fbe
000002a0: 35f8 893d bdea ca3d ee21 7bbe 680c fcbe
000002b0: 7c47 f1bf 5e31 133e 1b14 91bf ff63 abbd

fc1.bias f4 [11]
0.49653435 0.21323144 -1.5469785 -1.7232257 -2.0433328 -1.9767747 -2.237458 -2.863542
-0.2155158 -0.20925318 -0.33841014
00000000: c039 fe3e 5859 5a3e 6403 c6bf a992 dcbf
00000010: f7c5 02c0 f406 fdbf 8332 0fc0 4644 37c0
00000020: 2db0 5cbe 7746 56be 1844 adbe
